evaluation/Results/Seed_0_Trainable_no_Threshold_Encoder_2x2_imgsize_14/model_checkpoints/epochs_46.pt (torch, 84321 bytes, 7 tensors)

qlayer_1.torch_qlayer.weights f8 [1, 4]
0	0xbfb299e8725aad20	-0.07266094962931335
1	0xbfec23a0927b051a	-0.8793490277240921
2	0xbfd12ca668071a58	-0.26835022124251884
3	0xbfe501522296d97c	-0.6564112353869826

linear.weight f4 [10, 676]
0	0xbd7302cc	-0.05932884
1	0xbdb08dc0	-0.08620787
2	0xbdccccd7	-0.100000076
3	0xbdbbde25	-0.0917323
4	0xbd00f9b2	-0.031488128
5	0xbdb7048a	-0.08936413
6	0xbd21f2ef	-0.03953832
7	0xbdb256d1	-0.08707965
8	0xbd7d066e	-0.06177371
9	0xbd42de59	-0.04757533
10	0xbdd0b4cb	-0.101907335
11	0xbce0c8f0	-0.027439564
12	0xbdb5da2b	-0.08879503
13	0xbd561351	-0.052264515
14	0xbdafb75f	-0.08579897
15	0xbda397ee	-0.07987963
16	0x3d51d1b4	0.05122538
17	0xbcf5787a	-0.029964674
18	0xbcee92ee	-0.029122796
19	0x3c68f60c	0.014218818
20	0x3d653218	0.055955976
21	0xbd1d6a3d	-0.038431395
22	0xbc23edca	-0.010005424
23	0x3d96a597	0.073558025
24	0x3e66a0bd	0.22522254
25	0xbd05113f	-0.03248715
26	0x3d9a1043	0.07522633
27	0x3e7ea442	0.24867347
28	0x3e6826c0	0.22671032
29	0xbd462d4f	-0.048383053
30	0x3e89c8d2	0.26911026
31	0x3e54a3fd	0.20765682
32	0x3ba01f75	0.0048865625
33	0xbdc08743	-0.09400799
34	0x3e3e6050	0.18591428
35	0x3d15306b	0.036423128
36	0xbce032f3	-0.027368044
37	0xbd9a332c	-0.075292915
38	0x3ca1f37c	0.019769423
39	0xbda48620	-0.08033395
40	0xbd7b9e6b	-0.061430376
41	0xbd89ba2a	-0.06724961
42	0xbdc9a1eb	-0.098453365
43	0xbd7ce700	-0.061743736
44	0xbd377172	-0.044785924
45	0xbd501707	-0.05080321
46	0xbdcb63f7	-0.09931176
47	0xbd9e3248	-0.07724434
48	0xbd00abaa	-0.03141371
49	0xbd7821b7	-0.060579028
50	0xbdc2550f	-0.0948888
51	0xbd9d4adb	-0.07680293
52	0xbd9da5de	-0.07697652
53	0xbd58574f	-0.05281764
54	0xbdbf5cfd	-0.09343908
55	0xbd4ecbd4	-0.050487354
56	0xbd2c0314	-0.041995123
57	0xbd9a913e	-0.07547234
58	0xbd844b44	-0.06459668
59	0xbd4fc43a	-0.050724246
60	0x3df801f1	0.12109745
61	0xbd9bec1e	-0.07613395
62	0xbdb136e3	-0.08653047
63	0x3dd60731	0.104505904
64	0x3d5e6bc2	0.054301985
65	0xbd3042e1	-0.04303253
66	0x3dbf94f6	0.09354584
67	0x3cba166f	0.022715775
68	0x3ef4f039	0.47839525
69	0x3d59eae5	0.05320253
70	0x3d88e182	0.06683637
71	0x3ee2e4df	0.4431524
72	0x3cc039a9	0.023464995
73	0x3d3fd0d5	0.046830017
74	0x3ee0ae4d	0.4388298
75	0xbc38e1a1	-0.011284263
76	0xbe97b899	-0.29633024
77	0x3e865738	0.26238418
78	0xbd0b7e83	-0.034056198
79	0xbee85ee1	-0.45384887
80	0x3e4dc57a	0.20094863
81	0x3e72949c	0.23689502
82	0xbed6a53b	-0.41922936
83	0x3d9cd24d	0.07657299
84	0xbdd62bb7	-0.10457557
85	0x3d19a0b3	0.03750677
86	0x3d6fdbaa	0.058559097
87	0xbec65703	-0.3873826
88	0x3e4caa6e	0.19986889
89	0xbd8c8622	-0.06861521
90	0xbec0e2df	-0.3767309
91	0x3e1d381e	0.15353438
92	0xbbe19f77	-0.006885465
93	0xbd385d63	-0.045010936
94	0x3e0258c9	0.12729181
95	0xbc24da0f	-0.010061755
96	0xbd579894	-0.052635744
97	0xbdbae769	-0.09126169
98	0x3d6b26cb	0.057410043
99	0xbd8db09b	-0.069184504
100	0xbd34689d	-0.04404508
101	0xbd844c93	-0.06459918
102	0xbd596101	-0.053071026
103	0xbdc5e8b3	-0.096635245
104	0xbd694984	-0.056954876
105	0xbd2c4d43	-0.04206587
106	0xbce8544c	-0.028360508
107	0xbd791c46	-0.06081798
108	0x3dc75f87	0.09735017
109	0xbdaa90cf	-0.08328401
110	0xbd911598	-0.07084197
111	0x3dcd017a	0.10010047
112	0xbc954d84	-0.018225439
113	0x3e054182	0.1301327
114	0x3d82dd92	0.063899174
115	0xbd21b39a	-0.039477922
116	0x3dca3e0b	0.09875115
117	0x3d8a1ade	0.06743406
118	0xbda118ac	-0.07866034
119	0xbd320f8d	-0.04347186
120	0x3e64f730	0.2235992
121	0x3ef22891	0.47296575
122	0xbcd8d2f3	-0.026467776
123	0xbdb57a12	-0.08861174
124	0xbe1a4dfb	-0.1506881
125	0xbce3d435	-0.02781115
126	0xbdeb677a	-0.11494346
127	0xbf20a38d	-0.6274956
128	0xbe71642e	-0.23573372
129	0xbee7a6f7	-0.45244572
130	0xbf2cb349	-0.6746107
131	0xbe93db12	-0.28878075
132	0xbe1eb55f	-0.15498875
133	0x3d999363	0.07498815
134	0xbe9a4c5d	-0.30136386
135	0xbf57177e	-0.8402022
136	0x3eb1657a	0.34647733
137	0xbeb97411	-0.36221364
138	0xbf596a71	-0.8492804
139	0xbd8d12df	-0.06888365
140	0xbd82df9e	-0.06390308
141	0x3e108108	0.14111722
142	0xbd88f3be	-0.06687115
143	0xbe81e7c3	-0.25372133
144	0x3e75205b	0.23938124
145	0x3d1870f8	0.03721711
146	0xbe88d1e5	-0.26722637
147	0xbcd78352	-0.026307736
148	0x3e372470	0.17884994
149	0xbd01bf3f	-0.031676527
150	0x3bd8d460	0.006617114
151	0x3dc9a498	0.09845847
152	0xbcb70c4d	-0.022344733
153	0xbda43dea	-0.08019622
154	0x3dcf0ac6	0.10109477
155	0xbd8f60e6	-0.07000904
156	0xbd90ad22	-0.070642725
157	0xbd06eff9	-0.0329437
158	0xbdb267c3	-0.08711197
159	0xbd7b112d	-0.061295677
160	0x3d39824f	0.045290288
161	0x3dda302d	0.1065372
162	0xbd1fa253	-0.038973164
163	0x3d708032	0.058716007
164	0x3e282e67	0.16423951
165	0xbc9ebf6a	-0.019378383
166	0xbb722fb0	-0.0036954693
167	0x3d9ba4d0	0.07599795
168	0x3e34a3a1	0.17640544
169	0xbd64a62f	-0.055822548
170	0x3da6e1b8	0.08148521
171	0xbd2945e3	-0.041326415
172	0x3ee35fa6	0.4440891
173	0xbda66d1f	-0.08126282
174	0xbd7e872a	-0.06214062
175	0x3e9c9e2c	0.30589426
176	0x3ec7c4a8	0.39017224
177	0xbf21c586	-0.6319202
178	0x3eb85fa2	0.36010462
179	0x3d85dd8c	0.06536397
180	0xbdabe66a	-0.08393557
181	0xbea58f42	-0.3233586
182	0x3d0e24bc	0.034703
183	0xbea1993d	-0.31562224
184	0x3e8348fc	0.2564162
185	0xbf5a8907	-0.8536534
186	0xbe98aa46	-0.29817408
187	0xbf3f5710	-0.7474222
188	0x3f5461b5	0.8296159
189	0xbd3d204d	-0.046173383
190	0xbf3ec303	-0.74516314
191	0xbecee9d2	-0.40412766
192	0x3be48e2c	0.006974956
193	0xbe8e6b6b	-0.27816328
194	0xbedbee59	-0.42955282
195	0xbe76d238	-0.2410363
196	0x3e9df8f1	0.3085399
197	0xbccb5d61	-0.0248248
198	0xbe8850a9	-0.2662404
199	0xbe17dd98	-0.14830625
200	0x3ed43846	0.41449183
201	0x3dc94da1	0.0982926
202	0xbe2338ce	-0.15939638
203	0x3e533c37	0.20628439
204	0x3da35fbc	0.07977244
205	0xbda94e88	-0.08266932
206	0x3e197ccc	0.14989012
207	0xbce348c0	-0.02774465
208	0xbd86ce3d	-0.065823056
209	0xbd856cee	-0.06514917
210	0xbda716c0	-0.08158636
211	0xbd890a7c	-0.06691453
212	0x3e44be46	0.19213209
213	0x3c6848b1	0.014177487
214	0xbd6492ce	-0.055804066
215	0x3e4736f2	0.19454554
216	0x3e706b1f	0.23478363
217	0x3d682d13	0.05668361
218	0x3e68619d	0.22693487
219	0x3e779f86	0.24181947
220	0x3d1d7ad5	0.03844722
221	0xbd570cb3	-0.052502345
222	0x3e7283fc	0.2368316
223	0xbd95890c	-0.0730153
224	0x3e4d73a0	0.20063639
225	0x3ea80a20	0.32820225
226	0xbd81ea81	-0.06343556
227	0x3ed99a30	0.42500448
228	0xbfab4d84	-1.3383031
229	0x3c45c53e	0.012070952
230	0x3ec8d13a	0.39222127
231	0xbf2647c5	-0.6495326
232	0x3ebb1c59	0.36545065
233	0xbea3de32	-0.3200546
234	0xbf212a4b	-0.6295516
235	0x3dd05127	0.101717286
236	0x3e890a5a	0.2676571
237	0xbf39bfaa	-0.7255808
238	0x3d8953f8	0.06705469
239	0x3e8cf560	0.27530956
240	0x3ef5ae32	0.47984463
241	0xbed9bba6	-0.42525977
242	0x3e8b408f	0.27197692
243	0xbf179788	-0.59215593
244	0xbe9c6b7e	-0.3055076
245	0xbe5411a0	-0.20709848
246	0xbf235d34	-0.6381409
247	0xbed44216	-0.4145667
248	0x3d17a8fd	0.037026394
249	0xbdf7a946	-0.12092833
250	0xbec6d44f	-0.38833854
251	0xbefab484	-0.48965847
252	0xbce62571	-0.028094025
253	0x3e2b5989	0.16733374
254	0xbf0b25e4	-0.5435469
255	0xbe28a607	-0.16469584

linear.bias f4 [10]
0	0xbd7b6381	-0.06137419
1	0xbe0f3877	-0.13986383
2	0x3d7210de	0.059098117
3	0x3da9039b	0.08252641
4	0xbdd79c47	-0.105278544
5	0x3db66c34	0.08907357
6	0xbd071f72	-0.032988973
7	0xbaae77e2	-0.0013310874
8	0x3d9b0d91	0.07570947
9	0x3b14c4a5	0.0022700217

exp_avg f4 [10, 676]
0	0x3c8d0396	0.017213624
1	0x3c5255a1	0.012837798
2	0x3c87f791	0.016597541
3	0x3c8d0396	0.017213624
4	0x3c8d0396	0.017213624
5	0x3c5255a1	0.012837798
6	0x3c87f791	0.016597541
7	0x3c8d0396	0.017213624
8	0x3c8d0396	0.017213624
9	0x3c5255a1	0.012837798
10	0x3c87f791	0.016597541
11	0x3c8d0396	0.017213624
12	0x3c8d0396	0.017213624
13	0x3c5255a1	0.012837798
14	0x3c87f791	0.016597541
15	0x3c8d0396	0.017213624
16	0x3c8d0396	0.017213624
17	0x3c5255a1	0.012837798
18	0x3c87f791	0.016597541
19	0x3c8d0396	0.017213624
20	0x3c8d0396	0.017213624
21	0x3c5255a1	0.012837798
22	0x3c87f791	0.016597541
23	0x3c8d0396	0.017213624
24	0x3c8d0396	0.017213624
25	0x3c5255a1	0.012837798
26	0x3c87f791	0.016597541
27	0x3c8d0396	0.017213624
28	0x3c8d0396	0.017213624
29	0x3c5255a1	0.012837798
30	0x3c87f791	0.016597541
31	0x3c8d0396	0.017213624
32	0x3c8d0396	0.017213624
33	0x3c5255a1	0.012837798
34	0x3c87f791	0.016597541
35	0x3c8d0396	0.017213624
36	0x3c8d0396	0.017213624
37	0x3c5255a1	0.012837798
38	0x3c87f791	0.016597541
39	0x3c8d0396	0.017213624
40	0x3c8d0396	0.017213624
41	0x3c5255a1	0.012837798
42	0x3c87f791	0.016597541
43	0x3c8d0396	0.017213624
44	0x3c8d0396	0.017213624
45	0x3c5255a1	0.012837798
46	0x3c87f791	0.016597541
47	0x3c8d0396	0.017213624
48	0x3c8d0396	0.017213624
49	0x3c5255a1	0.012837798
50	0x3c87f791	0.016597541
51	0x3c8d0396	0.017213624
52	0x3c8d0396	0.017213624
53	0x3c5255a1	0.012837798
54	0x3c87f791	0.016597541
55	0x3c8d0396	0.017213624
56	0x3c8d0396	0.017213624
57	0x3c5255a1	0.012837798
58	0x3c87f791	0.016597541
59	0x3c8d0396	0.017213624
60	0x3c8cefdd	0.01720422
61	0x3c5255a1	0.012837798
62	0x3c87f791	0.016597541
63	0x3c8cefdd	0.01720422
64	0x3c8cefdd	0.01720422
65	0x3c5255a1	0.012837798
66	0x3c87e48f	0.016588477
67	0x3c8cefdd	0.01720422
68	0x3c8cefdd	0.01720422
69	0x3c5255a1	0.012837798
70	0x3c87e48f	0.016588477
71	0x3c8cefdd	0.01720422
72	0xbc35091f	-0.011049538
73	0x3c5255a1	0.012837798
74	0x3c87e48f	0.016588477
75	0xbc35091f	-0.011049538
76	0xbc34e1a4	-0.011040125
77	0x3c5255a1	0.012837798
78	0xbc2e8e68	-0.0106540695
79	0xbc34e1a4	-0.011040125
80	0x3c8cdb67	0.017194463
81	0x3c5255a1	0.012837798
82	0xbc2e6858	-0.010644995
83	0x3c8cdb67	0.017194463
84	0x3c8d0321	0.017213406
85	0x3c5255a1	0.012837798
86	0x3c87d0d1	0.016579064
87	0x3c8d0321	0.017213406
88	0x3c34ba63	0.011030766
89	0x3c5255a1	0.012837798
90	0x3c87f721	0.016597332
91	0x3c34ba63	0.011030766
92	0x3c34bb20	0.011030942
93	0x3c5255a1	0.012837798
94	0x3c2e427e	0.01063597
95	0x3c34bb20	0.011030942
96	0x3c8d0396	0.017213624
97	0x3c5255a1	0.012837798
98	0x3c2e4334	0.01063614
99	0x3c8d0396	0.017213624
100	0x3c8d0396	0.017213624
101	0x3c5255a1	0.012837798
102	0x3c87f791	0.016597541
103	0x3c8d0396	0.017213624
104	0x3c8d0396	0.017213624
105	0x3c5255a1	0.012837798
106	0x3c87f791	0.016597541
107	0x3c8d0396	0.017213624
108	0x3c8cefdd	0.01720422
109	0x3c5255a1	0.012837798
110	0x3c87f791	0.016597541
111	0x3c8cefdd	0.01720422
112	0x3c8d0396	0.017213624
113	0x3c523838	0.012830786
114	0x3c87e48f	0.016588477
115	0x3c8d0396	0.017213624
116	0x3c8cc7fb	0.017185202
117	0x3c523838	0.012830786
118	0x3c87f791	0.016597541
119	0x3c8cdbb4	0.017194606
120	0xbc35091f	-0.011049538
121	0x3c523838	0.012830786
122	0x3c87d11d	0.016579205
123	0xbc34e1ae	-0.011040134
124	0x3c8cc806	0.017185222
125	0xbc0703dc	-0.008240666
126	0xbc2e6864	-0.010645006
127	0x3c8cdbbe	0.017194625
128	0xbc8cce7a	-0.0171883
129	0xbc06e66b	-0.008233647
130	0x3c87d126	0.016579222
131	0x3c3484f0	0.011018023
132	0x3c34d43c	0.011036929
133	0x3c5219b0	0.012823507
134	0x3c2e0ef7	0.010623685
135	0xbc8d0a4b	-0.017216822
136	0x3c34bb2e	0.011030955
137	0x3c5254f3	0.012837636
138	0xbc87fe09	-0.016600626
139	0x3c350b8e	0.011050118
140	0x3c350bf1	0.01105021
141	0x3c06c925	0.0082266675
142	0x3c2e90c0	0.010654628
143	0x3c350b0b	0.011049996
144	0x3c350b38	0.011050038
145	0x3c06c9b1	0.008226798
146	0x3c2e9040	0.010654509
147	0x3c8d2c01	0.017232897
148	0x3c34bb20	0.011030942
149	0x3c5255a1	0.012837798
150	0x3c881e89	0.016616123
151	0x3c8d0396	0.017213624
152	0x3c8d0396	0.017213624
153	0x3c5255a1	0.012837798
154	0x3c87f791	0.016597541
155	0x3c8d0396	0.017213624
156	0x3c8d0396	0.017213624
157	0x3c5255a1	0.012837798
158	0x3c87f791	0.016597541
159	0x3c8d0396	0.017213624
160	0x3c8d0396	0.017213624
161	0x3c523838	0.012830786
162	0x3c87f791	0.016597541
163	0x3c8d0396	0.017213624
164	0x3c8cefdd	0.01720422
165	0x3c5255a1	0.012837798
166	0x3c87f791	0.016597541
167	0x3c8d0396	0.017213624
168	0xbc34e1ae	-0.011040134
169	0x3c521a23	0.012823614
170	0x3c87f791	0.016597541
171	0xbc34e1ae	-0.011040134
172	0x3c8d2467	0.017229272
173	0xbc06e673	-0.008233654
174	0xbc2e6864	-0.010645006
175	0x3c8cfc84	0.017210253
176	0xbc8cf65f	-0.017207323
177	0x3c521a33	0.012823629
178	0x3c87f0c0	0.01659429
179	0x3c34fc1c	0.011046436
180	0x3c34bbd3	0.011031109
181	0x3c06a149	0.008217164
182	0x3c2e81dd	0.010651079
183	0x3c350b82	0.011050107
184	0xbc8cdaca	-0.01719417
185	0xbc525fa0	-0.012840182
186	0x3c2e90b7	0.01065462
187	0xbc34d2cd	-0.011036587
188	0xbc8cce3d	-0.017188186
189	0x3c0705ae	0.0082411
190	0xbc2e5a08	-0.010641582
191	0x3c8cc787	0.017184986
192	0x3c34c86c	0.011034112
193	0x3c07054c	0.008241009
194	0x3c87bdaa	0.016569931
195	0x3c8d234b	0.017228743
196	0x3c34c7a0	0.011033922
197	0x3c5291e7	0.012852169
198	0x3c881624	0.01661212
199	0x3c8d236d	0.017228806
200	0x3c8d2b12	0.017232452
201	0x3c5255a1	0.012837798
202	0x3c881645	0.016612181
203	0x3c8d02a7	0.017213179
204	0x3c8d0396	0.017213624
205	0x3c5255a1	0.012837798
206	0x3c87f6ab	0.016597113
207	0x3c8d0396	0.017213624
208	0x3c8d0396	0.017213624
209	0x3c5255a1	0.012837798
210	0x3c87f791	0.016597541
211	0x3c8d0396	0.017213624
212	0x3c8d0396	0.017213624
213	0x3c5255a1	0.012837798
214	0x3c87f791	0.016597541
215	0x3c8d0396	0.017213624
216	0x3c8d0396	0.017213624
217	0x3c5255a1	0.012837798
218	0x3c87f791	0.016597541
219	0x3c8d0396	0.017213624
220	0x3c8d2461	0.01722926
221	0xbc06e673	-0.008233654
222	0x3c87f791	0.016597541
223	0x3c8d2461	0.01722926
224	0x3c34acf9	0.011027568
225	0x3c524b11	0.01283528
226	0x3c88172f	0.016612617
227	0xbc8cce2c	-0.017188154
228	0x3c34b9a9	0.011030593
229	0x3c06fa27	0.008238352
230	0xbc87c410	-0.016572982
231	0x3c34c7cc	0.011033963
232	0x3c8d23ec	0.017229043
233	0x3c0705a4	0.008241091
234	0x3c2e4f6e	0.010639055
235	0x3c34bad2	0.01103087
236	0xbc344310	-0.011002317
237	0xbc06db58	-0.008231007
238	0x3c2e42e7	0.010636068
239	0xbc8cf00d	-0.017204309
240	0xbc34acf2	-0.0110275615
241	0x3c51fc0c	0.01281644
242	0xbc87e4bc	-0.016588561
243	0x3c8cc6c0	0.017184615
244	0x3c8cdb5c	0.017194442
245	0x3c5284eb	0.012849073
246	0x3c87bce7	0.016569568
247	0x3c8cefac	0.017204128
248	0x3c8d0284	0.017213114
249	0x3c52851b	0.012849118
250	0x3c87e45d	0.016588384
251	0x3c8d245c	0.017229252
252	0x3c8d236d	0.017228806
253	0x3c52543c	0.012837466
254	0x3c88172b	0.01661261
255	0x3c8d0396	0.017213624

exp_avg_sq f4 [10, 676]
0	0x3c06e066	0.008232212
1	0x3b9609d7	0.0045788097
2	0x3bfaca1f	0.0076534892
3	0x3c06e066	0.008232212
4	0x3c06e066	0.008232212
5	0x3b9609d7	0.0045788097
6	0x3bfaca1f	0.0076534892
7	0x3c06e066	0.008232212
8	0x3c06e066	0.008232212
9	0x3b9609d7	0.0045788097
10	0x3bfaca1f	0.0076534892
11	0x3c06e066	0.008232212
12	0x3c06e066	0.008232212
13	0x3b9609d7	0.0045788097
14	0x3bfaca1f	0.0076534892
15	0x3c06e066	0.008232212
16	0x3c06e066	0.008232212
17	0x3b9609d7	0.0045788097
18	0x3bfaca1f	0.0076534892
19	0x3c06e066	0.008232212
20	0x3c06df31	0.008231924
21	0x3b9609d7	0.0045788097
22	0x3bfaca1f	0.0076534892
23	0x3c06df31	0.008231924
24	0x3c06a732	0.008218573
25	0x3b9609d7	0.0045788097
26	0x3bfac7f0	0.007653229
27	0x3c06a732	0.008218573
28	0x3c06a767	0.008218623
29	0x3b9609d7	0.0045788097
30	0x3bfa5fcf	0.007640816
31	0x3c06a767	0.008218623
32	0x3c06e066	0.008232212
33	0x3b9609d7	0.0045788097
34	0x3bfa604e	0.007640875
35	0x3c06e066	0.008232212
36	0x3c06e066	0.008232212
37	0x3b9609d7	0.0045788097
38	0x3bfaca1f	0.0076534892
39	0x3c06e066	0.008232212
40	0x3c06e066	0.008232212
41	0x3b9609d7	0.0045788097
42	0x3bfaca1f	0.0076534892
43	0x3c06e066	0.008232212
44	0x3c06e066	0.008232212
45	0x3b9609d7	0.0045788097
46	0x3bfaca1f	0.0076534892
47	0x3c06e066	0.008232212
48	0x3c06e066	0.008232212
49	0x3b9609d7	0.0045788097
50	0x3bfaca1f	0.0076534892
51	0x3c06e066	0.008232212
52	0x3c06e066	0.008232212
53	0x3b9609d7	0.0045788097
54	0x3bfaca1f	0.0076534892
55	0x3c06e066	0.008232212
56	0x3c06e066	0.008232212
57	0x3b9609d7	0.0045788097
58	0x3bfaca1f	0.0076534892
59	0x3c06e066	0.008232212
60	0x3c06c4d4	0.008225638
61	0x3b9609d7	0.0045788097
62	0x3bfaca1f	0.0076534892
63	0x3c06c4d4	0.008225638
64	0x3c066e9e	0.008205084
65	0x3b9609d7	0.0045788097
66	0x3bfa96da	0.0076473774
67	0x3c066e9e	0.008205084
68	0x3c066e9c	0.008205082
69	0x3b9609d7	0.0045788097
70	0x3bf9f6b6	0.007628287
71	0x3c066e9c	0.008205082
72	0x3c061da0	0.008185774
73	0x3b960894	0.0045786593
74	0x3bf9f6a4	0.007628279
75	0x3c061da0	0.008185774
76	0x3c059570	0.008153304
77	0x3b95ca3a	0.0045712264
78	0x3bf9601f	0.0076103355
79	0x3c05969f	0.008153587
80	0x3c05d53a	0.008168513
81	0x3b95ca84	0.004571261
82	0x3bf864f8	0.007580396
83	0x3c059c11	0.008154885
84	0x3c0616aa	0.0081841145
85	0x3b9609d7	0.0045788097
86	0x3bf86ef7	0.0075815874
87	0x3c064fa5	0.0081977
88	0x3c06f2b4	0.008236576
89	0x3b9609d7	0.0045788097
90	0x3bf9bd1a	0.0076214196
91	0x3c06f2b4	0.008236576
92	0x3c06e065	0.008232211
93	0x3b9609d7	0.0045788097
94	0x3bfaec64	0.0076575745
95	0x3c06e065	0.008232211
96	0x3c06e066	0.008232212
97	0x3b9609d7	0.0045788097
98	0x3bfaca1f	0.0076534892
99	0x3c06e066	0.008232212
100	0x3c06e066	0.008232212
101	0x3b9609d7	0.0045788097
102	0x3bfaca1f	0.0076534892
103	0x3c06e066	0.008232212
104	0x3c06e066	0.008232212
105	0x3b9609d7	0.0045788097
106	0x3bfaca1f	0.0076534892
107	0x3c06e066	0.008232212
108	0x3c06c4d4	0.008225638
109	0x3b9609d7	0.0045788097
110	0x3bfaca1f	0.0076534892
111	0x3c06c4d4	0.008225638
112	0x3c068a1a	0.008211637
113	0x3b95eb2c	0.004575154
114	0x3bfa96da	0.0076473774
115	0x3c068a1a	0.008211637
116	0x3c0670d1	0.008205608
117	0x3b958b61	0.0045637344
118	0x3bfa29d5	0.0076343813
119	0x3c068c68	0.008212186
120	0x3c0667a6	0.008203423
121	0x3b958b4f	0.004563726
122	0x3bfa2df8	0.0076348744
123	0x3c06306c	0.008190256
124	0x3c05c524	0.008164678
125	0x3b95313f	0.0045529897
126	0x3bf98307	0.0076144966
127	0x3c058de8	0.008151509
128	0x3c052aaf	0.008127852
129	0x3b949b07	0.0045350823
130	0x3bf854cd	0.0075784684
131	0x3c05ad44	0.0081589855
132	0x3c053663	0.008130643
133	0x3b94a109	0.0045357984
134	0x3bf88f0f	0.0075854133
135	0x3c06524c	0.008198332
136	0x3c05f5f6	0.008176317
137	0x3b9568da	0.0045596184
138	0x3bf9c1f8	0.007622
139	0x3c05cf19	0.008167052
140	0x3c0623a4	0.008187208
141	0x3b961e4a	0.0045812475
142	0x3bf8ce09	0.0075929207
143	0x3c059778	0.008153789
144	0x3c06f305	0.008236651
145	0x3b9609d6	0.0045788093
146	0x3bf8668b	0.0075805834
147	0x3c06e0b4	0.008232284
148	0x3c06e057	0.008232198
149	0x3b9609d7	0.0045788097
150	0x3bfacaa8	0.007653553
151	0x3c06e058	0.008232199
152	0x3c06e066	0.008232212
153	0x3b9609d7	0.0045788097
154	0x3bfaca0b	0.00765348
155	0x3c06e066	0.008232212
156	0x3c06e066	0.008232212
157	0x3b9609d7	0.0045788097
158	0x3bfaca1f	0.0076534892
159	0x3c06e066	0.008232212
160	0x3c06e015	0.008232136
161	0x3b95eb2c	0.004575154
162	0x3bfaca1f	0.0076534892
163	0x3c06e015	0.008232136
164	0x3c0666cc	0.00820322
165	0x3b95a9e8	0.0045673735
166	0x3bfac994	0.0076534245
167	0x3c068259	0.008209788
168	0x3c065baf	0.00820057
169	0x3b95ac5f	0.0045676674
170	0x3bfa1b57	0.0076326537
171	0x3c0608e7	0.008180833
172	0x3c057f56	0.008148035
173	0x3b95461f	0.004555478
174	0x3bf93991	0.0076057394
175	0x3c05d46b	0.00816832
176	0x3c0639bf	0.008192479
177	0x3b94915b	0.0045339293
178	0x3bf8d7e8	0.0075940974
179	0x3c05b974	0.008161891
180	0x3c060550	0.008179978
181	0x3b94b42b	0.0045380793
182	0x3bf8a5aa	0.007588108
183	0x3c06904e	0.008213116
184	0x3c060695	0.00818028
185	0x3b956bc0	0.004559964
186	0x3bfa3558	0.0076357536
187	0x3c0662bb	0.00820225
188	0x3c06aeac	0.008220356
189	0x3b94d9d6	0.0045425696
190	0x3bf9e073	0.0076256334
191	0x3c066154	0.008201916
192	0x3c05b1d4	0.008160073
193	0x3b949bfd	0.004535197
194	0x3bf9dde4	0.0076253284
195	0x3c061d9e	0.008185772
196	0x3c0604e2	0.008179875
197	0x3b960a2f	0.0045788507
198	0x3bf96012	0.0076103294
199	0x3c0608aa	0.008180777
200	0x3c0622f9	0.008187049
201	0x3b9609c3	0.0045788004
202	0x3bf93912	0.0076056803
203	0x3c0622ae	0.008186979
204	0x3c06e058	0.008232199
205	0x3b9609d7	0.0045788097
206	0x3bf96981	0.007611454
207	0x3c06e066	0.008232212
208	0x3c06e066	0.008232212
209	0x3b9609d7	0.0045788097
210	0x3bfaca1f	0.0076534892
211	0x3c06e066	0.008232212
212	0x3c06e061	0.008232207
213	0x3b96097b	0.004578767
214	0x3bfaca1f	0.0076534892
215	0x3c06e061	0.008232207
216	0x3c061390	0.008183375
217	0x3b95a13e	0.0045663407
218	0x3bfaca1d	0.0076534883
219	0x3c06133f	0.0081833
220	0x3c0687df	0.008211105
221	0x3b951a31	0.0045502414
222	0x3bf94cc9	0.0076080305
223	0x3c063aad	0.0081927
224	0x3c05b120	0.008159906
225	0x3b94dfbb	0.0045432723
226	0x3bf99612	0.0076167667
227	0x3c05a802	0.008157732
228	0x3c055304	0.008137468
229	0x3b94c1b1	0.0045396914
230	0x3bf8855d	0.0075842575
231	0x3c065857	0.008199773
232	0x3c06a17e	0.008217214
233	0x3b95b0c1	0.00456819
234	0x3bf9cd26	0.0076233326
235	0x3c05ec8c	0.008174073
236	0x3c065dc6	0.008201068
237	0x3b957e0b	0.0045621446
238	0x3bf904c7	0.0075994465
239	0x3c060dcf	0.008182003
240	0x3c0622a9	0.008186975
241	0x3b957c8f	0.0045619677
242	0x3bf94292	0.0076068128
243	0x3c05c844	0.008165423
244	0x3c066fe4	0.008205388
245	0x3b95313d	0.004552989
246	0x3bf8c16b	0.0075914166
247	0x3c06bebd	0.0082241865
248	0x3c05fb03	0.008177522
249	0x3b9519dd	0.0045502023
250	0x3bfa8b89	0.0076460284
251	0x3c06bdb0	0.008223936
252	0x3c0608aa	0.008180777
253	0x3b9536e2	0.0045536617
254	0x3bfa89ad	0.0076458068
255	0x3c06e066	0.008232212

exp_avg f4 [10]
0	0x3c8d0396	0.017213624
1	0x3b38d237	0.002820147
2	0xbc8c4333	-0.017121887
3	0xbc7142ec	-0.014725428
4	0xbd262b37	-0.040568557
5	0xbd9ef3cc	-0.07761344
6	0x3d73f4f0	0.059559762
7	0xbb054a77	-0.0020338574
8	0x3d0fc486	0.03509953
9	0x3d191166	0.037370108

exp_avg_sq f4 [10]
0	0x3c06e066	0.008232212
1	0x3c4d783a	0.012540871
2	0x3cb1bec8	0.021697417
3	0x3cbb2b4b	0.022847792
4	0x3caed56c	0.021342002
5	0x3cc5feaf	0.024169294
6	0x3c5f2aae	0.0136210155
7	0x3ca1f4fa	0.019770134
8	0x3ce0a446	0.027422082
9	0x3ce760db	0.028244426
