evaluation/Results/Seed_0_Trainable_no_Threshold_Encoder_2x2_imgsize_14/model_checkpoints/epochs_29.pt (torch, 84321 bytes, 7 tensors)

qlayer_1.torch_qlayer.weights f8 [1, 4]
00000000: 20ad 5a72 e899 b2bf 1a05 7b92 a023 ecbf
00000010: 581a 0768 a62c d1bf 7cd9 9622 5201 e5bf
-0.07266094962931335 -0.8793490277240921 -0.26835022124251884 -0.6564112353869826

linear.weight f4 [10, 676]
00000000: d986 053d 8e71 bb3b 3e40 04bc e059 4d39
00000010: 0490 773d a509 283b d996 563d 0ce0 9e3b
00000020: 6606 f73c 51ab 353d f67f 23bc a012 843d
00000030: c12c 4d3b 6276 223d 40d7 c83b 055d 453c
00000040: bf96 123e 74cd 7d3d db9e 803d 4663 d93d
00000050: 8d6f 173e 891f 5b3d d7c6 a73d da75 293e
00000060: eb04 643e 7a78 733d 2c2b 2b3e 7808 7c3e
00000070: 13e7 643e 5d5c 323d ec7a 883e 4e64 513e
00000080: 460d c03d ba4d 08bb a320 3b3e c151 003e
00000090: 2038 843d a946 883c 2b88 de3d 7df5 3d3c
000000a0: 6ad6 f93c a52a ca3c 7cd1 d5bb 4245 f73c
000000b0: 4018 413d a972 283d 5cf2 f1bb 4d94 703c
000000c0: 0cde 773d f967 003d d707 42bb cdcf 773c
000000d0: a5f7 743c 5e32 203d f00a c6ba d4bd 293d
000000e0: b886 4c3d 61ce 863c 31e6 df3c 6cc5 283d
000000f0: fe68 adbc e562 813c 00df b03b f0a9 1abd
00000100: bf02 b5bd 5d44 483d 4a8e 47bd 00b3 f5bd
00000110: f943 be3e 0b9d 143e 0e57 9bbd e938 ac3e
00000120: 3162 01bd 2e17 0e3e 5d02 aa3e 89db 87bd
00000130: 4337 01be 4a09 853e 797e b6bd 8b42 91be
00000140: 2c8a a6bd de54 6f3e cd11 7fbe 8965 e2bd
00000150: f639 febd d66d 013e 00a5 03be 5b16 9fbe
00000160: 1778 353e c6fa be3c 3da2 99be c521 093e
00000170: 5ca6 6b3d 512c 403d a184 dc3d c8a3 5e3d
00000180: 29d8 183d e4b6 2e3a 7280 f93d 0d1f aa3c
00000190: 2421 443d 0be1 df3c c20f 173d a63d 9abb
000001a0: 2140 0f3d 7e3c 4c3d c12f 823d c2da fe3c
000001b0: 8404 4d3d 37a0 0d3c dbbc ac3c 6448 583d
000001c0: e94f 99bd 4cc9 46bc 0401 883c 53d6 c4bd
000001d0: a1f6 51bd b41d 9abd 8e8a 0abe 24f7 1dbe
000001e0: 737b 5d3e a17c bb3e 9e8d 0cbe 5c73 66bd
000001f0: 4ff2 93bd 6eb4 a9bd 0227 a9bd 6b0d cbbe
00000200: a703 cdbe 9f8a 90be e52c e3be 4bde 48be
00000210: a52b 19bf 77a4 e5bd dac0 55be a76b 7fbf
00000220: 41b4 793c 7033 92be 4edf 80bf 1b30 39be
00000230: bed3 5bbe 44d5 f83d 7d20 37be db53 3ebe
00000240: 91d6 4c3e 9b25 d03d 2c28 4cbe 7c1f 3c3d
00000250: 5705 1b3e a4b1 6e3d d87d a13d 851e c83d
00000260: 5775 8a3d 5737 403c ab84 cd3d 958f b33c
00000270: 855e ae3c c899 713d e0d0 9d3b cef0 fa3c
00000280: a53a c93d caa5 723d 59e7 583d 8bb9 e43d
00000290: a48f 193d 6aac 9bbd 28d0 493d d2b7 b53d
000002a0: 209a a53c d09c 2abe a9f4 c03d 2441 47bd
000002b0: 8b77 b53d 8c59 48bd 1e41 8ebd 4820 0e3d
000002c0: a637 9a3e 5a51 cdbe 0116 b63d 2712 693d
000002d0: 541e 8dbc a846 6cbe 49f7 d63c df49 bebd
000002e0: bef6 cb3c 9f6e 81bf 1c8e 9abd fce8 a3be
000002f0: fe32 fe3e c2ee 21be e2c0 a2be b29a a2be
00000300: 2597 1c3f 435b 57be 459f afbe b18a 7bbe
00000310: 3ab9 133f 6e32 423d e8ac 8abe 2d17 8dbd
00000320: eb8e f83e 8ec7 c73d a6cd a3bd dedb 973e
00000330: a1d9 a13d 77b2 173c 33f8 753e ac72 833d
00000340: 46da d53c 735f db3c a370 293c 37e9 cc3c
00000350: c02c 953e a582 893d d6f6 133d 1869 963e
00000360: 6466 1abe 9329 8e3d 77fe a63e 5a10 d6bd
00000370: 2782 f3bd fe07 75bd 6047 e0bd 9e0a a6be
00000380: 94ab bf3e af7f 693d eb22 a1be b5c4 883e
00000390: f52b 97bf f17e 6c3b 99f7 6f3e bb5e eabe
000003a0: 0ee1 873e b55d c7bd bb23 e0be 56dd 993e
000003b0: da79 063f 23ba 98be 0b1e 883e b529 0b3e
000003c0: 5270 4b3f 926c adbe 1ec0 073e 2d43 5a3e
000003d0: f548 993e 09ca 58be 252c 2b3e 9b13 2ebf
000003e0: ab2a 963e 5d0a 2abd ad5c 27bf d8b0 2fbf
000003f0: bd32 33bd 7bea 833e 767c 3dbf 795e 2bbe
0.032599304 0.005720324 -0.008071957 0.00019583805 0.06044008 0.0025640514 0.052389953 0.004848486
0.030154418 0.044352833 -0.009979239 0.06448865 0.0031307193 0.03966368 0.0061291754 0.012046103
0.14315318 0.061963513 0.06280299 0.10614638 0.14788647 0.05349687 0.081922226 0.16548863
0.22267501 0.059441067 0.16715688 0.24612606 0.22353773 0.043545116 0.26656282 0.2044842
0.09377532 -0.0020798282 0.18274169 0.12531187 0.064560175 0.016635256 0.10865816 0.0115941735
0.030497748 0.024678538 -0.0065252166 0.030184392 0.047142267 0.041124973 -0.007383628 0.014683795
0.060514495 0.031349156 -0.0029606724 0.015125227 0.014951621 0.039110534 -0.0015109461 0.0414408
0.049933165 0.016455831 0.027331444 0.0412039 -0.021168228 0.015794227 0.0053976774 -0.03775972
-0.088384144 0.04889332 -0.04871968 -0.11997032 0.37161234 0.14513032 -0.07584964 0.3363717
-0.031587783 0.1387603 0.33204928 -0.0663367 -0.12618737 0.2598365 -0.089108415 -0.2837108
-0.08131823 0.23372218 -0.24909134 -0.110545225 -0.12413399 0.12639555 -0.12855911 -0.31071743
0.17721592 0.023312937 -0.3000659 0.13391788 0.0575317 0.046917263 0.107674845 0.054355413
0.03731552 0.0006664826 0.12182702 0.02076676 0.047883168 0.027328989 0.036880262 -0.004707056
0.034973267 0.049862377 0.063567646 0.031110171 0.050053135 0.008644155 0.021086147 0.052803412
-0.07485945 -0.012132954 0.016602047 -0.096111916 -0.051260594 -0.07525197 -0.13529417 -0.15426308
0.21629123 0.36618522 -0.13725898 -0.05626236 -0.07223951 -0.08286367 -0.08259393 -0.39658675
-0.4004185 -0.2823076 -0.4437019 -0.19616048 -0.5983222 -0.1121301 -0.20874348 -0.9977364
0.01524073 -0.2855487 -1.0068147 -0.18084757 -0.21467492 0.12150052 -0.17883487 -0.18586676
0.20003726 0.10163423 -0.199372 0.045928463 0.15138756 0.05827488 0.07885331 0.09771446
0.06760662 0.011731944 0.1003507 0.021919051 0.021285305 0.058984548 0.0048161596 0.030632403
0.09825639 0.05924014 0.052955005 0.11168202 0.037490502 -0.07601245 0.04927078 0.088729516
0.020215094 -0.16661382 0.09421665 -0.048646107 0.08860692 -0.048913524 -0.06946014 0.034698755
0.3012058 -0.4010113 0.08890916 0.056902077 -0.017226376 -0.23073828 0.026240962 -0.092914335
0.02489793 -1.0111884 -0.075466365 -0.3201369 0.4964828 -0.15813735 -0.31787783 -0.31758648
0.6116813 -0.21030907 -0.343012 -0.24564625 0.5770451 0.047411375 -0.27085042 -0.06889186
0.48546538 0.09754859 -0.07998209 0.29659933 0.079028375 0.009258858 0.24020462 0.06418356
0.026105057 0.026778912 0.010341796 0.02501355 0.29135704 0.067143716 0.036124073 0.29377055
-0.15078121 0.069415234 0.32616016 -0.104523376 -0.11890059 -0.059822075 -0.10951114 -0.32429975
0.3743559 0.057006534 -0.31471953 0.26712576 -1.181029 0.0036086405 0.23434295 -0.457754
0.2653889 -0.0973467 -0.4377726 0.30051678 0.5252968 -0.2982951 0.2658542 0.13590129
0.7946826 -0.33871895 0.1325688 0.21314688 0.29938474 -0.2117082 0.16716059 -0.67998666
0.29329428 -0.04151379 -0.65375787 -0.6862922 -0.04374956 0.25764832 -0.7401804 -0.16735257

linear.bias f4 [10]
00000000: 3e4c fa3c d4f7 c1bd 78f2 113d a2a8 833c
00000010: 1eea c0bd 3687 243d bd20 28bc 0e9e 56bd
00000020: 67e1 783d 9f2c 533d
0.030553933 -0.094710976 0.035631627 0.016071621 -0.09419654 0.04016801 -0.010261712 -0.052396826
0.060761835 0.051556226

exp_avg f4 [10, 676]
00000000: cc88 f03c 8863 b33c f1ec e73c cc88 f03c
00000010: cc88 f03c 8863 b33c f1ec e73c cc88 f03c
00000020: cc88 f03c 8863 b33c f1ec e73c cc88 f03c
00000030: cc88 f03c 8863 b33c f1ec e73c cc88 f03c
00000040: cc88 f03c 8863 b33c f1ec e73c cc88 f03c
00000050: cc88 f03c 8863 b33c f1ec e73c cc88 f03c
00000060: cc88 f03c 8863 b33c f1ec e73c cc88 f03c
00000070: cc88 f03c 8863 b33c f1ec e73c cc88 f03c
00000080: cc88 f03c 8863 b33c f1ec e73c cc88 f03c
00000090: cc88 f03c 8863 b33c f1ec e73c cc88 f03c
000000a0: cc88 f03c 8863 b33c f1ec e73c cc88 f03c
000000b0: cc88 f03c 8863 b33c f1ec e73c cc88 f03c
000000c0: cc88 f03c 8863 b33c f1ec e73c cc88 f03c
000000d0: cc88 f03c 8863 b33c f1ec e73c cc88 f03c
000000e0: cc88 f03c 8863 b33c f1ec e73c cc88 f03c
000000f0: 55a1 e33c 8863 b33c f1ec e73c 55a1 e33c
00000100: 55a1 e33c 8863 b33c b57b db3c 55a1 e33c
00000110: d888 f03c 8863 b33c b57b db3c d888 f03c
00000120: 48a3 e33c 8863 b33c fcec e73c 48a3 e33c
00000130: 2770 e43c 8863 b33c 967d db3c 2770 e43c
00000140: 8c55 f13c 8863 b33c 1f43 dc3c 8c55 f13c
00000150: af88 f03c 8863 b33c 5cb2 e83c af88 f03c
00000160: cc88 f03c 8863 b33c d4ec e73c cc88 f03c
00000170: cc88 f03c 8863 b33c efec e73c cc88 f03c
00000180: cc88 f03c 8863 b33c efec e73c cc88 f03c
00000190: cc88 f03c 8863 b33c f1ec e73c cc88 f03c
000001a0: cc88 f03c 8863 b33c f1ec e73c cc88 f03c
000001b0: cc88 f03c 8863 b33c f1ec e73c cc88 f03c
000001c0: 55a1 e33c d6c3 a93c f1ec e73c 55a1 e33c
000001d0: 787a e33c d6c3 a93c b57b db3c fa61 f03c
000001e0: 565e e33c 9263 b33c 82c7 e73c d845 f03c
000001f0: c497 003d 4ac5 a93c 62ac e73c bb97 003d
00000200: 646e e3bc 145e aa3c 0cfb f73c df57 f0bc
00000210: 0c85 f93c 3cfc b33c c3bd e7bc 9768 ed3c
00000220: 5658 f93c 7363 b33c 5ee9 e43c 1f25 fa3c
00000230: 0a01 e93c 8863 b33c 3431 f13c 2701 e93c
00000240: cc88 f03c 8863 b33c 49aa e03c cc88 f03c
00000250: cc88 f03c 8863 b33c efec e73c cc88 f03c
00000260: cc88 f03c 8863 b33c f1ec e73c cc88 f03c
00000270: cc88 f03c 8863 b33c f1ec e73c cc88 f03c
00000280: cc88 f03c 8863 b33c f1ec e73c cc88 f03c
00000290: ed55 f03c d6c3 a93c f1ec e73c ed55 f03c
000002a0: 4e70 e33c 9646 b33c e3bb e73c d157 f03c
000002b0: f463 f03c 9a31 b33c b5bd e73c b48a f03c
000002c0: 35f8 f93c 99ce bf3c c7ee e73c 283b fa3c
000002d0: f38a f4bc 0c3f b3bc 7546 f13c 6a5e e3bc
000002e0: b4db f93c bf0e b13c 2e3b dbbc d0aa f9bc
000002f0: 52e0 e83c 6d8e ba3c 48bb f0bc 47c7 f43c
00000300: 913f e93c e9c5 ad3c 8904 ec3c 2db7 003d
00000310: 2701 e93c 8863 b33c af37 f83c cc88 f03c
00000320: cc88 f03c 8863 b33c efec e73c cc88 f03c
00000330: cc88 f03c 8863 b33c f1ec e73c cc88 f03c
00000340: cc88 f03c 8863 b33c f1ec e73c cc88 f03c
00000350: cc88 f03c 8863 b33c f1ec e73c cc88 f03c
00000360: eb55 f03c 973d b33c efec e73c eb55 f03c
00000370: ca57 f03c 003f b33c e3bb e73c b58a f03c
00000380: bf19 e93c f564 b33c c9ee e73c aa4a e93c
00000390: 9529 e3bc dc9e ba3c 2bf1 e03c 8e2b e3bc
000003a0: 2905 e93c ed91 a9bc 260a dbbc 58df 003d
000003b0: 6962 e3bc 3633 babc 2585 f83c be8c f03c
000003c0: be84 ecbc d38d b63c bdf0 e73c c2df e33c
000003d0: d9fd e33c 80fd bf3c e6b7 db3c 1ea9 003d
000003e0: 2db7 003d 8863 b33c 921c f83c cc88 f03c
000003f0: cc88 f03c 8863 b33c f1ec e73c cc88 f03c
0.029362105 0.021898046 0.028311225 0.029362105 0.029362105 0.021898046 0.028311225 0.029362105
0.029362105 0.021898046 0.028311225 0.029362105 0.029362105 0.021898046 0.028311225 0.029362105
0.029362105 0.021898046 0.028311225 0.029362105 0.029362105 0.021898046 0.028311225 0.029362105
0.029362105 0.021898046 0.028311225 0.029362105 0.029362105 0.021898046 0.028311225 0.029362105
0.029362105 0.021898046 0.028311225 0.029362105 0.029362105 0.021898046 0.028311225 0.029362105
0.029362105 0.021898046 0.028311225 0.029362105 0.029362105 0.021898046 0.028311225 0.029362105
0.029362105 0.021898046 0.028311225 0.029362105 0.029362105 0.021898046 0.028311225 0.029362105
0.029362105 0.021898046 0.028311225 0.029362105 0.02778689 0.021898046 0.028311225 0.02778689
0.02778689 0.021898046 0.026792387 0.02778689 0.029362127 0.021898046 0.026792387 0.029362127
0.02778782 0.021898046 0.028311245 0.02778782 0.02788551 0.021898046 0.026793282 0.02788551
0.029459737 0.021898046 0.026887475 0.029459737 0.02936205 0.021898046 0.02840536 0.02936205
0.029362105 0.021898046 0.02831117 0.029362105 0.029362105 0.021898046 0.02831122 0.029362105
0.029362105 0.021898046 0.02831122 0.029362105 0.029362105 0.021898046 0.028311225 0.029362105
0.029362105 0.021898046 0.028311225 0.029362105 0.029362105 0.021898046 0.028311225 0.029362105
0.02778689 0.020723265 0.028311225 0.02778689 0.027768359 0.020723265 0.026792387 0.029343594
0.027754944 0.021898065 0.028293375 0.02933018 0.031394735 0.020723958 0.02828044 0.0313947
-0.0277626 0.020796813 0.030271076 -0.029338775 0.03045895 0.02197086 -0.028288728 0.028980536
0.03043763 0.021898007 0.02794331 0.030535279 0.028442878 0.021898046 0.029442407 0.028442932
0.029362105 0.021898046 0.027424948 0.029362105 0.029362105 0.021898046 0.02831122 0.029362105
0.029362105 0.021898046 0.028311225 0.029362105 0.029362105 0.021898046 0.028311225 0.029362105
0.029362105 0.021898046 0.028311225 0.029362105 0.029337848 0.020723265 0.028311225 0.029337848
0.027763512 0.021884244 0.028287834 0.02933875 0.029344536 0.021874238 0.028288702 0.029363014
0.030513862 0.023413943 0.0283121 0.030545786 -0.029851412 -0.021880649 0.029452542 -0.027754981
0.03050027 0.021613477 -0.026761618 -0.030476958 0.028427277 0.022772992 -0.029386178 0.02988018
0.028472694 0.021212535 0.028810756 0.03142469 0.028442932 0.021898046 0.03029999 0.029362105
0.029362105 0.021898046 0.02831122 0.029362105 0.029362105 0.021898046 0.028311225 0.029362105
0.029362105 0.021898046 0.028311225 0.029362105 0.029362105 0.021898046 0.028311225 0.029362105
0.029337844 0.021879954 0.02831122 0.029337844 0.029338736 0.021880627 0.028287834 0.029363016
0.02845466 0.021898726 0.028312104 0.028477985 -0.027729789 0.022780828 0.027458748 -0.02773073
0.028444843 -0.020699466 -0.026738238 0.031462997 -0.027756887 -0.022729497 0.030336926 0.029363986
-0.02887189 0.022284424 0.028313035 0.027816657 0.027831005 0.023436308 0.026821088 0.031411283
0.03142469 0.021898046 0.03028706 0.029362105 0.029362105 0.021898046 0.028311225 0.029362105

exp_avg_sq f4 [10, 676]
00000000: 931f 353c e87b c93b f063 283c 931f 353c
00000010: 931f 353c e87b c93b f063 283c 931f 353c
00000020: 931f 353c e87b c93b f063 283c 931f 353c
00000030: 931f 353c e87b c93b f063 283c 931f 353c
00000040: 931f 353c e87b c93b f063 283c 931f 353c
00000050: 1619 353c e87b c93b ef63 283c 1619 353c
00000060: 14e6 333c e87b c93b f15d 283c 14e6 333c
00000070: 77e7 333c e87b c93b 9240 273c 77e7 333c
00000080: 931f 353c e87b c93b cd41 273c 931f 353c
00000090: 931f 353c e87b c93b f063 283c 931f 353c
000000a0: 931f 353c e87b c93b f063 283c 931f 353c
000000b0: 931f 353c e87b c93b f063 283c 931f 353c
000000c0: 931f 353c e87b c93b f063 283c 931f 353c
000000d0: 931f 353c e87b c93b f063 283c 931f 353c
000000e0: 931f 353c e87b c93b f063 283c 931f 353c
000000f0: 941f 353c e87b c93b f063 283c 941f 353c
00000100: 6d47 333c e87b c93b f263 283c 6d47 333c
00000110: bc46 333c e87b c93b 06ad 263c bc46 333c
00000120: 458b 313c a374 c93b 5bac 263c 468b 313c
00000130: 7d0a 2e3c 391f c83b 1d10 253c 0e11 2e3c
00000140: 8e67 2f3c c020 c83b 69d4 213c 2f2e 2e3c
00000150: f7cd 303c e87b c93b 87ef 213c 1506 323c
00000160: 1784 353c e87b c93b 5682 253c 1784 353c
00000170: 921f 353c e87b c93b 79c1 283c 921f 353c
00000180: 931f 353c e87b c93b ef63 283c 931f 353c
00000190: 931f 353c e87b c93b f063 283c 931f 353c
000001a0: 931f 353c e87b c93b f063 283c 931f 353c
000001b0: 931f 353c e87b c93b f063 283c 931f 353c
000001c0: fa46 333c e87b c93b f063 283c fa46 333c
000001d0: 4853 333c bd6e c73b 93ac 263c 4a53 333c
000001e0: 3421 333c f96d c73b 17b8 263c 755b 313c
000001f0: 41a6 2f3c a680 c53b aae3 243c 6de1 2d3c
00000200: 24c1 2b3c 56a2 c13b 1ca8 213c e023 2f3c
00000210: 5098 2c3c bdc2 c13b f9d3 223c b3ab 323c
00000220: cf1a 303c 4609 c63b 3e1c 263c 4e46 2f3c
00000230: 9015 313c d2eb c93b fff3 223c 2f15 2e3c
00000240: bd85 353c e67b c93b 43d8 213c 1f21 353c
00000250: 2d1f 353c e87b c93b 7765 283c 2e1f 353c
00000260: 931f 353c e87b c93b 9663 283c 931f 353c
00000270: 931f 353c e87b c93b f063 283c 931f 353c
00000280: c21d 353c e87b c93b f063 283c c21d 353c
00000290: 4e1c 333c 336e c73b 5262 283c 4e1c 333c
000002a0: 6348 323c e87b c73b e984 263c 1983 303c
000002b0: 5391 2d3c 754b c53b 7b1a 243c 7c63 2f3c
000002c0: 078e 313c 506d c13b 200f 233c 23cf 2e3c
000002d0: fc6e 303c 0ad4 c23b 3085 223c 5568 333c
000002e0: 4e0d 313c 67c1 c63b b3cb 263c 236f 323c
000002f0: 110f 343c 5ffa c23b e1e3 253c 80fe 323c
00000300: 743c 2f3c eba6 c13b 3069 263c 3f8b 313c
00000310: b603 313c b47d c93b 0e10 253c b918 313c
00000320: 03a9 313c 7b7b c93b 9ba5 243c 70a7 313c
00000330: 2e1f 353c e87b c93b 502a 253c 931f 353c
00000340: 931f 353c e87b c93b f063 283c 931f 353c
00000350: 761f 353c f579 c93b f063 283c 761f 353c
00000360: 76bd 303c b33e c73b d963 283c b5bb 303c
00000370: 833a 333c c95a c43b 224f 243c cb93 313c
00000380: 21a2 2e3c d81a c33b 0e18 253c 3270 2e3c
00000390: 8a35 2d3c c575 c23b f52c 223c 13cd 323c
000003a0: 24c7 333c 5493 c73b 3a3b 263c 36e7 2f3c
000003b0: 9bea 323c 077e c63b 9689 233c cd34 313c
000003c0: 4410 313c a11d c73b abbf 243c 0e21 2f3c
000003d0: efb6 323c 9680 c53b 59d1 223c e3fd 343c
000003e0: 8ccd 303c 2f01 c53b a444 283c 9e61 343c
000003f0: b918 313c f89f c53b 69b3 273c 931f 353c
0.011054891 0.006148804 0.010277733 0.011054891 0.011054891 0.006148804 0.010277733 0.011054891
0.011054891 0.006148804 0.010277733 0.011054891 0.011054891 0.006148804 0.010277733 0.011054891
0.011054891 0.006148804 0.010277733 0.011054891 0.011053344 0.006148804 0.010277732 0.011053344
0.010980148 0.006148804 0.010276304 0.010980148 0.0109804785 0.006148804 0.010208266 0.0109804785
0.011054891 0.006148804 0.010208559 0.011054891 0.011054891 0.006148804 0.010277733 0.011054891
0.011054891 0.006148804 0.010277733 0.011054891 0.011054891 0.006148804 0.010277733 0.011054891
0.011054891 0.006148804 0.010277733 0.011054891 0.011054891 0.006148804 0.010277733 0.011054891
0.011054891 0.006148804 0.010277733 0.011054891 0.011054892 0.006148804 0.010277733 0.011054892
0.010942322 0.006148804 0.010277735 0.010942322 0.010942157 0.006148804 0.010173088 0.010942157
0.010836427 0.0061479374 0.010172929 0.010836428 0.010622618 0.0061072377 0.0100746425 0.010624183
0.010705842 0.0061074197 0.009877303 0.010631128 0.010791293 0.006148804 0.009883768 0.010865708
0.011078856 0.006148804 0.010101875 0.011078856 0.01105489 0.006148804 0.010300034 0.01105489
0.011054891 0.006148804 0.010277732 0.011054891 0.011054891 0.006148804 0.010277733 0.011054891
0.011054891 0.006148804 0.010277733 0.011054891 0.011054891 0.006148804 0.010277733 0.011054891
0.010942215 0.006148804 0.010277733 0.010942215 0.010945149 0.006086199 0.010172981 0.010945151
0.010933209 0.006086108 0.010175726 0.010825028 0.01072079 0.006027299 0.010064045 0.010612828
0.01048306 0.0059092445 0.009866741 0.010689706 0.010534361 0.005913107 0.0099382335 0.010905194
0.010748579 0.006043586 0.010138569 0.010697914 0.010808364 0.006162145 0.0099458685 0.010625168
0.011079249 0.006148803 0.009878221 0.01105526 0.011054796 0.006148804 0.010278097 0.011054797
0.011054891 0.006148804 0.010277649 0.011054891 0.011054891 0.006148804 0.010277733 0.011054891
0.011054458 0.006148804 0.010277733 0.011054458 0.010932041 0.006086135 0.010277348 0.010932041
0.010881516 0.006087769 0.010163524 0.010773444 0.01059373 0.006020958 0.010016079 0.010704871
0.010837085 0.0059029236 0.009952337 0.010669502 0.010768648 0.005945687 0.00991945 0.010950168
0.010806395 0.006065536 0.010180402 0.010890755 0.01098992 0.0059502567 0.010125131 0.010924935
0.0106955655 0.0059097908 0.010156915 0.0108364215 0.010804107 0.006149018 0.0100746285 0.010809117
0.010843518 0.006148753 0.010049249 0.010843143 0.011054797 0.006148804 0.010080889 0.011054891
0.011054891 0.006148804 0.010277733 0.011054891 0.011054864 0.0061485716 0.010277733 0.011054864
0.0107873585 0.0060804724 0.010277712 0.01078694 0.010939243 0.0059922677 0.010028632 0.010838459
0.010658772 0.0059541278 0.010076536 0.010646867 0.010571847 0.0059344494 0.009898414 0.010913151
0.010972772 0.006090561 0.010145957 0.010736277 0.010920192 0.006057504 0.0099815335 0.010815811
0.010807101 0.00607653 0.010055463 0.010689033 0.010907873 0.0060272915 0.009937608 0.011046859
0.010791194 0.006012104 0.010270271 0.011009602 0.010809117 0.0060310327 0.010235646 0.011054891

exp_avg f4 [10]
00000000: cc88 f03c e323 85ba e7e8 2ebd 4ade 26bb
00000010: 0517 7ebd 8dc1 a13d 0ea1 5e39 1c6f a63d
00000020: 20a7 42bd 4746 0bbd
0.029362105 -0.001015779 -0.04270258 -0.0025462084 -0.062033672 0.07898245 0.00021231567 0.08126661
-0.047522664 -0.03400257

exp_avg_sq f4 [10]
00000000: 931f 353c 45d8 473c 310d 8d3c 41ea b33c
00000010: 8ca3 b73c 27cd d23c 6227 3a3c 0377 a83c
00000020: 09bf d13c f31a 043d
0.011054891 0.012197559 0.017218204 0.021962287 0.022416852 0.02573259 0.011361929 0.020564562
0.025603788 0.032252263
