evaluation/Results/Seed_0_Trainable_no_Threshold_Encoder_2x2_imgsize_14/model_checkpoints/epochs_27.pt (torch, 84321 bytes, 7 tensors)

qlayer_1.torch_qlayer.weights f8 [1, 4]
000000 20 ad 5a 72 e8 99 b2 bf 1a 05 7b 92 a0 23 ec bf
       -0.07266094962931335 -0.8793490277240921
000010 58 1a 07 68 a6 2c d1 bf 7c d9 96 22 52 01 e5 bf
       -0.26835022124251884 -0.6564112353869826

linear.weight f4 [10, 676]
000000 2d 09 f0 3c 47 bf 1e 3b 35 49 3a bc f7 4d 4b bb
       0.02930125 0.0024222897 -0.011369993 -0.0031021812
000010 cc 0d 6a 3d 44 68 40 ba a1 14 49 3d d6 38 cb 3a
       0.057142064 -0.00073397555 0.04909194 0.0015504609
000020 e5 01 dc 3c 14 29 28 3d e4 88 59 bc 0e a3 7a 3d
       0.026856372 0.0410548 -0.013277266 0.061190657
000030 59 6c 2f b9 24 f4 14 3d e0 8a 39 3b 0c 54 0f 3c
       -0.00016729663 0.036365643 0.0028311536 0.008748066
000040 32 36 0f 3e 3b 4b 70 3d 8a bb 73 3d 2a a2 d2 3d
       0.13985518 0.058665495 0.059505023 0.102848366
000050 da 0e 14 3e 4d 9d 4d 3d bd 05 a1 3d 22 15 26 3e
       0.1445879 0.05019884 0.078624226 0.16218999
000060 29 9e 60 3e 41 f6 65 3d 7b ca 27 3e b5 a1 78 3e
       0.21935333 0.05614305 0.16385834 0.24280436
000070 59 80 61 3e 21 da 24 3d 8a c7 86 3e 95 fd 4d 3e
       0.22021617 0.040247086 0.2632411 0.20116265
000080 2d 4c b9 3d cd 38 b0 bb e9 b9 37 3e 68 e2 f9 3d
       0.090477325 -0.005377865 0.17942013 0.12201387
000090 0e ee 7a 3d 5b 84 5a 3c 11 c7 d7 3d 84 ec 07 3c
       0.061262183 0.01333722 0.10536016 0.008296136
0000a0 e5 d1 de 3c 2d 26 af 3c b9 f1 20 bc c1 40 dc 3c
       0.027199695 0.021380508 -0.009823256 0.026886346
0000b0 02 96 33 3d 6b f0 1a 3d 22 02 2f bc 46 8b 3a 3c
       0.04384423 0.037826937 -0.010681661 0.011385744
0000c0 d4 5b 6a 3d 77 cb e5 3c c5 15 cd bb c6 c6 41 3c
       0.05721648 0.028051121 -0.0062586986 0.011827176
0000d0 9e ee 3e 3c 1f b0 12 3d 93 94 9d bb 98 3b 1c 3d
       0.01165357 0.035812493 -0.004808971 0.03814277
0000e0 7b 04 3f 3d c3 93 57 3c bd e1 c4 3c 30 43 1b 3d
       0.046635132 0.013157788 0.024033422 0.037905872
0000f0 16 ec 4f 3d cb bc 4c 3c 5f 9a 09 3b ab f6 0b 3d
       0.05076226 0.012496184 0.0020996553 0.034170788
000100 c1 19 83 bc 22 c2 3a 3d 9c 24 be 3c 6c ed 42 bd
       -0.016003491 0.045595296 0.023210816 -0.047589704
000110 6e f0 c8 3e 7e 3c 11 3e 89 57 63 bb 5e e5 b6 3e
       0.39245933 0.14183232 -0.0034689626 0.35721868
000120 e1 e1 c0 bc 7c b6 0a 3e d4 ae b4 3e d1 c5 6e bd
       -0.023545207 0.13546175 0.35289633 -0.05829412
000130 80 a7 c3 bc ea 55 83 3e d8 05 a6 bd b5 c4 39 be
       -0.023883581 0.25651485 -0.08106583 -0.18141444
000140 bc 4d 2c be 24 ee 6b 3e 68 51 16 be 11 ae 4a be
       -0.16826528 0.23040062 -0.14679492 -0.19792964
000150 db 2f 9f be 97 1a fc 3d 4b 20 5d be bc 51 fe be
       -0.31091198 0.12309759 -0.2159435 -0.49671733
000160 16 ff 31 3e 4a f6 a3 3c 98 dd f8 be c5 a8 05 3e
       0.17382464 0.0200149 -0.48606563 0.13052662
000170 8e 23 5e 3d 17 aa 32 3d ab 92 d5 3d ed 20 51 3d
       0.054233126 0.04361924 0.10428365 0.05105679
000180 e7 55 0b 3d 33 76 2c bb 11 bf f2 3d 92 1a 8f 3c
       0.03401747 -0.002631557 0.11852849 0.017468724
000190 e8 9e 36 3d 91 dc c4 3c 87 8d 09 3d c3 27 03 bc
       0.04458514 0.024030956 0.033582237 -0.008005085
0001a0 dd bd 01 3d 42 ba 3e 3d 56 dd 76 3d 3d d6 e3 3c
       0.03167521 0.046564348 0.060269676 0.027812118
0001b0 47 82 3f 3d 77 2e af 3b 64 b8 91 3c 28 c6 4a 3d
       0.0467551 0.005346115 0.01778812 0.049505383
0001c0 84 6c 22 bb 53 ee 74 3d 0f f9 59 3c 2e 67 c2 bc
       -0.0024783919 0.059797596 0.013304009 -0.02373084
0001d0 28 41 01 be cf 2c 3c bb 92 d8 80 bd 07 ab ec bd
       -0.12622511 -0.0028713231 -0.062913075 -0.115560584
0001e0 f4 0b 11 3e 13 29 c6 3e 08 d8 c9 bd d5 d8 89 bc
       0.14164716 0.38703212 -0.09855658 -0.016827026
0001f0 16 7b 0c 3e c9 3b 99 bd 12 c7 30 bd eb 95 24 be
       0.13718829 -0.07482106 -0.0431586 -0.16072814
000200 7a 21 9e be e0 54 38 be d5 d4 54 be 6f b0 d8 bd
       -0.30884916 -0.18001127 -0.20784314 -0.10580527
000210 59 f1 ff be 8c 4d 4c be a3 75 f2 bd 5f 02 58 bf
       -0.4998882 -0.19951457 -0.11838844 -0.8437862
000220 4f 09 43 3c ce 6e f1 be 5a 55 5a bf c8 d1 88 be
       0.011904075 -0.4715485 -0.85286486 -0.2672255
000230 b4 83 d5 be 47 e3 f1 3d f1 c9 87 be 6e 53 52 be
       -0.41702044 0.11810928 -0.26521257 -0.20539638
000240 bc 5d 49 3e 30 64 c9 3d bf 27 60 be c9 9c 2e 3d
       0.19664663 0.098335624 -0.21890162 0.04262999
000250 9d a4 17 3e 6d 2f 61 3d 83 bc 9a 3d 6a 5d c1 3d
       0.14808889 0.05497687 0.07555487 0.094416454
000260 3c b4 83 3d 57 2e 0a 3c 8e c3 c6 3d 1a 8b 98 3c
       0.06430861 0.0084339 0.09705268 0.018621016
000270 0a 5a 93 3c 91 17 64 3d 1d fc c6 3a 49 ec df 3c
       0.01798727 0.055686537 0.0015181337 0.02733435
000280 6d 79 c2 3d 91 23 65 3d 1f 65 4b 3d 53 f8 dd 3d
       0.094958164 0.055942122 0.049656983 0.1083838
000290 95 42 08 3e 24 fd 6d bb c6 4d 3c 3d 93 ba 3c 3e
       0.13306649 -0.0036314214 0.045972608 0.18430547
0002a0 ba bd cf 3c 2b fb 02 be fe 58 42 3e bc 15 92 3d
       0.025359023 -0.12791125 0.1897926 0.07133052
0002b0 eb 8b 97 3e 40 4a 1b bc 4b ea 4e 3d 7f 2e 5f 3d
       0.29598936 -0.009478152 0.050516408 0.0544877
0002c0 a1 df d8 3e c0 1d 29 be 17 9d de 3d f3 00 0c 3e
       0.42358115 -0.16515255 0.10869806 0.13672237
0002d0 e1 97 c9 bd 91 c0 0f be aa 36 d9 3d 1e 34 da bc
       -0.09843422 -0.14038302 0.106061295 -0.02663618
0002e0 db b7 39 bd f9 73 5b bf 9c 8a 16 bc 7c 0f ae be
       -0.045341354 -0.85723835 -0.0091883205 -0.3399619
0002f0 6e c8 fe 3e 31 62 7a be 60 e7 ac be b5 8f 9f be
       0.4976229 -0.2445152 -0.33770275 -0.31164327
000300 1c 29 a8 3e cf 5a 6b be 4b 94 ac be 47 f1 58 bd
       0.32843864 -0.2298386 -0.3370689 -0.052964475
000310 3b c6 0e 3f b2 af 34 3d db 16 a0 bd f9 01 94 bd
       0.55771226 0.04411287 -0.07816859 -0.07226939
000320 aa d5 f6 3e 73 06 c1 3d 71 b8 aa bd b8 22 96 3e
       0.48209888 0.09425058 -0.08335961 0.29323363
000330 87 18 9b 3d f9 52 c3 3b e3 85 72 3e 26 63 79 3d
       0.075730376 0.005960819 0.23683886 0.06088557
000340 c8 d5 ba 3c f6 5a c0 3c 57 cf e6 3b bc e4 b1 3c
       0.022807017 0.023480874 0.00704376 0.021715514
000350 3f 69 93 3e 76 c1 82 3d 9b 74 06 3d 97 a5 94 3e
       0.28791234 0.06384556 0.032826047 0.29032585
000360 9a 1d 5f bd 76 f3 28 3e f5 3a a5 3e c5 88 06 bc
       -0.05447159 0.16499123 0.32271543 -0.008211319
000370 78 6b c1 bd 7c 64 76 3d f1 40 58 bc fe 76 56 be
       -0.09444326 0.060154423 -0.013199077 -0.2094383
000380 91 41 0f 3f ee 46 9d 3d 9d a7 4c be a7 6d 3d 3e
       0.5595942 0.076795444 -0.19985814 0.1849886
000390 9e c9 81 bf c8 dc aa 3d e6 db 1b 3e 33 96 ea be
       -1.0139654 0.08342892 0.15220603 -0.45817718
0003a0 85 df 38 3e 82 83 fe bc 33 5b e0 be 56 47 0f 3e
       0.18054016 -0.031068567 -0.4381958 0.13992056
0003b0 76 ac 07 3f a2 e0 a2 be 85 91 d7 3d 27 8f 87 3d
       0.5299753 -0.31812006 0.105258025 0.06619101
0003c0 20 79 4f 3f 99 61 aa be f6 bb 80 3d 2f 68 55 3e
       0.810442 -0.33277586 0.06285851 0.20840524
0003d0 76 bc dd 3d 43 dd 9b bc 2c 51 26 3e 2d b1 f9 be
       0.10826962 -0.019026404 0.16241902 -0.48767987
0003e0 d7 0c f9 3e f7 df 37 bd 58 43 ec be ea 89 30 bf
       0.4864261 -0.044891324 -0.4614513 -0.6896044
0003f0 53 08 41 bd 50 31 82 3e 86 55 3e bf 05 bf 2e be
       -0.04712708 0.25428247 -0.7434925 -0.17065056

linear.bias f4 [10]
000000 b9 47 df 3c 56 f3 ca bd 55 ba 9b 3c d8 38 da 3c
       0.02725588 -0.09909694 0.019009748 0.026638433
000010 37 0e a7 bd 09 1b 35 3c cd 9f 99 bc 18 6d ce 3c
       -0.08157008 0.011053809 -0.018752957 0.025198504
000020 4c 71 85 3d b7 9f 62 3c
       0.0651575 0.013832024

exp_avg f4 [10, 676]
000000 1d e0 dd 38 1e 79 a5 38 39 ef d5 38 1d e0 dd 38
       0.000105798455 7.890373e-05 0.0001020119 0.000105798455
000010 1d e0 dd 38 1e 79 a5 38 39 ef d5 38 1d e0 dd 38
       0.000105798455 7.890373e-05 0.0001020119 0.000105798455
000020 1d e0 dd 38 1e 79 a5 38 39 ef d5 38 1d e0 dd 38
       0.000105798455 7.890373e-05 0.0001020119 0.000105798455
000030 1d e0 dd 38 1e 79 a5 38 39 ef d5 38 1d e0 dd 38
       0.000105798455 7.890373e-05 0.0001020119 0.000105798455
000040 1d e0 dd 38 1e 79 a5 38 39 ef d5 38 1d e0 dd 38
       0.000105798455 7.890373e-05 0.0001020119 0.000105798455
000050 1d e0 dd 38 1e 79 a5 38 39 ef d5 38 1d e0 dd 38
       0.000105798455 7.890373e-05 0.0001020119 0.000105798455
000060 1d e0 dd 38 1e 79 a5 38 39 ef d5 38 1d e0 dd 38
       0.000105798455 7.890373e-05 0.0001020119 0.000105798455
000070 c6 df dd 38 1e 79 a5 38 39 ef d5 38 c6 df dd 38
       0.00010579782 7.890373e-05 0.0001020119 0.00010579782
000080 1d e0 dd 38 1e 79 a5 38 e9 ee d5 38 1d e0 dd 38
       0.000105798455 7.890373e-05 0.00010201132 0.000105798455
000090 1d e0 dd 38 1e 79 a5 38 39 ef d5 38 1d e0 dd 38
       0.000105798455 7.890373e-05 0.0001020119 0.000105798455
0000a0 1d e0 dd 38 1e 79 a5 38 39 ef d5 38 1d e0 dd 38
       0.000105798455 7.890373e-05 0.0001020119 0.000105798455
0000b0 1d e0 dd 38 1e 79 a5 38 39 ef d5 38 1d e0 dd 38
       0.000105798455 7.890373e-05 0.0001020119 0.000105798455
0000c0 1d e0 dd 38 1e 79 a5 38 39 ef d5 38 1d e0 dd 38
       0.000105798455 7.890373e-05 0.0001020119 0.000105798455
0000d0 1d e0 dd 38 1e 79 a5 38 39 ef d5 38 1d e0 dd 38
       0.000105798455 7.890373e-05 0.0001020119 0.000105798455
0000e0 1d e0 dd 38 1e 79 a5 38 39 ef d5 38 1d e0 dd 38
       0.000105798455 7.890373e-05 0.0001020119 0.000105798455
0000f0 1d e0 dd 38 1e 79 a5 38 39 ef d5 38 1d e0 dd 38
       0.000105798455 7.890373e-05 0.0001020119 0.000105798455
000100 03 e0 dd 38 1e 79 a5 38 39 ef d5 38 03 e0 dd 38
       0.000105798266 7.890373e-05 0.0001020119 0.000105798266
000110 38 a6 b4 38 1e 79 a5 38 20 ef d5 38 38 a6 b4 38
       8.6140295e-05 7.890373e-05 0.00010201172 8.6140295e-05
000120 a6 6b e1 38 1e 79 a5 38 12 2f ae 38 a6 6b e1 38
       0.00010748887 7.890373e-05 8.305734e-05 0.00010748887
000130 c1 27 a3 b7 1e 79 a5 38 4d 5a d9 38 c1 27 a3 b7
       -1.9449626e-05 7.890373e-05 0.00010364186 -1.9449626e-05
000140 94 50 a3 b7 de 78 a5 38 e5 50 9d b7 94 50 a3 b7
       -1.9468636e-05 7.8903264e-05 -1.8753528e-05 -1.9468636e-05
000150 93 30 61 b7 1e 79 a5 38 2f 78 9d b7 d6 2d 61 b7
       -1.3422355e-05 7.890373e-05 -1.8771823e-05 -1.3421717e-05
000160 36 ac 32 b7 1e 79 a5 38 a4 1e 59 b7 36 ac 32 b7
       -1.0649723e-05 7.890373e-05 -1.2941342e-05 -1.0649723e-05
000170 83 df dd 38 1e 79 a5 38 d8 46 2c b7 83 df dd 38
       0.000105797335 7.890373e-05 -1.02684935e-05 0.000105797335
000180 1d e0 dd 38 1e 79 a5 38 a5 ee d5 38 1d e0 dd 38
       0.000105798455 7.890373e-05 0.000102010825 0.000105798455
000190 1d e0 dd 38 1e 79 a5 38 39 ef d5 38 1d e0 dd 38
       0.000105798455 7.890373e-05 0.0001020119 0.000105798455
0001a0 1d e0 dd 38 1e 79 a5 38 39 ef d5 38 1d e0 dd 38
       0.000105798455 7.890373e-05 0.0001020119 0.000105798455
0001b0 1d e0 dd 38 1e 79 a5 38 39 ef d5 38 1d e0 dd 38
       0.000105798455 7.890373e-05 0.0001020119 0.000105798455
0001c0 1d e0 dd 38 1e 79 a5 38 39 ef d5 38 1d e0 dd 38
       0.000105798455 7.890373e-05 0.0001020119 0.000105798455
0001d0 ca 64 ae b9 0b 79 a5 38 39 ef d5 38 ca 64 ae b9
       -0.0003326296 7.890359e-05 0.0001020119 -0.0003326296
0001e0 62 c6 bd 37 1a ba 86 38 f0 26 a8 b9 e6 c6 bd 37
       2.2622935e-05 6.424282e-05 -0.00032072468 2.2623175e-05
0001f0 7d 91 c7 b8 fa 1d a8 38 29 fc b6 37 93 57 9e b8
       -9.516159e-05 8.016448e-05 2.1813512e-05 -7.550339e-05
000200 28 ae a1 b8 4a 5c 73 b7 c3 ac 98 b8 7e 66 a4 b8
       -7.7095174e-05 -1.4505416e-05 -7.280104e-05 -7.83922e-05
000210 80 3c 1e 38 0a 99 73 b7 35 84 9e b8 51 c6 b6 b8
       3.772648e-05 -1.4519561e-05 -7.5586526e-05 -8.7153756e-05
000220 3b 7c b4 b9 b9 ef 27 b7 b3 3b b0 b8 37 d9 ec b9
       -0.00034424834 -1.00097905e-05 -8.403454e-05 -0.00045175265
000230 12 16 d8 38 ab 40 05 b7 21 5f e4 b9 4d 71 32 b7
       0.000103037935 -7.942474e-06 -0.00043558425 -1.0636007e-05
000240 c4 ac 32 b7 ad 78 a5 38 83 0e 2c b7 10 e0 dd 38
       -1.0649852e-05 7.890291e-05 -1.0255378e-05 0.00010579836
000250 79 df dd 38 1e 79 a5 38 2b ef d5 38 1d e0 dd 38
       0.00010579726 7.890373e-05 0.0001020118 0.000105798455
000260 1d e0 dd 38 1e 79 a5 38 33 ef d5 38 1d e0 dd 38
       0.000105798455 7.890373e-05 0.00010201186 0.000105798455
000270 1d e0 dd 38 1e 79 a5 38 39 ef d5 38 1d e0 dd 38
       0.000105798455 7.890373e-05 0.0001020119 0.000105798455
000280 1d e0 dd 38 1e 79 a5 38 39 ef d5 38 1d e0 dd 38
       0.000105798455 7.890373e-05 0.0001020119 0.000105798455
000290 d2 c6 2a 38 1e 79 a5 38 39 ef d5 38 d2 c6 2a 38
       4.0716324e-05 7.890373e-05 0.0001020119 4.0716324e-05
0002a0 95 c8 ad 37 c7 0f 82 b9 32 aa 24 38 95 c8 ad 37
       2.071661e-05 -0.00024807287 3.9259154e-05 2.071661e-05
0002b0 f4 78 f2 b7 b8 88 8d 37 63 90 a7 37 52 03 f5 b9
       -2.8904971e-05 1.6872174e-05 1.9975187e-05 -0.00046732515
0002c0 3a 24 9b b8 4b 2e 6c b8 6e 3e ec b9 11 3f fc b7
       -7.397724e-05 -5.63099e-05 -0.00045059941 -3.0070109e-05
0002d0 90 39 e0 b8 a7 37 75 b8 e1 37 f3 b7 bd ea 9b 38
       -0.00010691874 -5.8464382e-05 -2.8993878e-05 7.4346994e-05
0002e0 9e 5b f6 b9 e3 4f 88 b8 29 56 96 38 6b ba f1 39
       -0.00046989036 -6.4998654e-05 7.168606e-05 0.00046105994
0002f0 37 95 f9 b9 d0 a3 b0 b9 a5 13 e9 39 db 54 f0 39
       -0.00047604155 -0.00033691386 0.0004445586 0.0004583959
000300 57 7d a4 b8 ce 14 05 b7 de ba e7 39 37 32 fb 39
       -7.843476e-05 -7.932262e-06 0.0004419898 0.00047911864
000310 e0 01 32 b7 14 79 a5 38 a6 34 f2 39 18 ee dd 38
       -1.0610063e-05 7.890366e-05 0.00046197063 0.000105824496
000320 0c e0 dd 38 1e 79 a5 38 b1 fc d5 38 19 e0 dd 38
       0.00010579833 7.890373e-05 0.00010203699 0.00010579843
000330 1d e0 dd 38 1e 79 a5 38 35 ef d5 38 1d e0 dd 38
       0.000105798455 7.890373e-05 0.00010201187 0.000105798455
000340 1d e0 dd 38 1e 79 a5 38 39 ef d5 38 1d e0 dd 38
       0.000105798455 7.890373e-05 0.0001020119 0.000105798455
000350 1d e0 dd 38 1e 79 a5 38 39 ef d5 38 1d e0 dd 38
       0.000105798455 7.890373e-05 0.0001020119 0.000105798455
000360 57 e0 2a 38 62 ba fe 37 39 ef d5 38 57 e0 2a 38
       4.074009e-05 3.036595e-05 0.0001020119 4.074009e-05
000370 dd 81 f1 39 45 9b 81 37 cb c2 24 38 77 17 b8 b9
       0.00046063858 1.5450301e-05 3.9282062e-05 -0.00035112698
000380 79 f4 9a b8 98 ba b6 b9 c1 80 b1 b9 f7 13 f2 b7
       -7.388829e-05 -0.00034852768 -0.00033856 -2.8857945e-05
000390 d0 df b7 38 a3 1f bc b7 10 6a e9 b7 b5 b1 eb b9
       8.767808e-05 -2.2426078e-05 -2.7825154e-05 -0.00044955095
0003a0 e4 05 fc b9 3e 90 68 38 31 42 e3 b9 81 ca b4 b9
       -0.00048069574 5.5447446e-05 -0.0004334613 -0.00034483153
0003b0 78 77 bd b9 79 47 b4 39 07 52 ae b9 7e de af b9
       -0.000361379 0.00034385527 -0.0003324898 -0.0003354437
0003c0 21 ac f9 39 cb 3c b3 39 1f 93 a9 b9 f9 48 b2 38
       0.00047621227 0.00034186835 -0.00032343806 8.5012936e-05
0003d0 ac 4c d8 38 1a 57 bb 39 76 e7 ab 38 56 b8 f1 39
       0.00010313964 0.00035732315 8.1970284e-05 0.00046104443
0003e0 14 2b fb 39 8c 83 a5 38 9b 11 e9 39 1f ea dd 38
       0.00047906546 7.8923156e-05 0.0004445434 0.0001058171
0003f0 1c ee dd 38 1c 79 a5 38 d9 f8 d5 38 19 e0 dd 38
       0.000105824525 7.8903715e-05 0.00010202983 0.00010579843

exp_avg_sq f4 [10, 676]
000000 4d bd 28 3c 40 b5 bb 3b 87 e0 1c 3c 4d bd 28 3c
       0.010299039 0.005728394 0.009575016 0.010299039
000010 4d bd 28 3c 40 b5 bb 3b 87 e0 1c 3c 4d bd 28 3c
       0.010299039 0.005728394 0.009575016 0.010299039
000020 4d bd 28 3c 40 b5 bb 3b 87 e0 1c 3c 4d bd 28 3c
       0.010299039 0.005728394 0.009575016 0.010299039
000030 4d bd 28 3c 40 b5 bb 3b 87 e0 1c 3c 4d bd 28 3c
       0.010299039 0.005728394 0.009575016 0.010299039
000040 4c bd 28 3c 40 b5 bb 3b 87 e0 1c 3c 4c bd 28 3c
       0.010299038 0.005728394 0.009575016 0.010299038
000050 5e b5 28 3c 40 b5 bb 3b 86 e0 1c 3c 5e b5 28 3c
       0.010297148 0.005728394 0.009575015 0.010297148
000060 64 3e 27 3c 40 b5 bb 3b 2b d9 1c 3c 64 3e 27 3c
       0.010207746 0.005728394 0.009573261 0.010207746
000070 0b 40 27 3c 40 b5 bb 3b 97 7c 1b 3c 0b 40 27 3c
       0.01020814 0.005728394 0.009490154 0.01020814
000080 4d bd 28 3c 40 b5 bb 3b 1f 7e 1b 3c 4d bd 28 3c
       0.010299039 0.005728394 0.009490519 0.010299039
000090 4d bd 28 3c 40 b5 bb 3b 87 e0 1c 3c 4d bd 28 3c
       0.010299039 0.005728394 0.009575016 0.010299039
0000a0 4d bd 28 3c 40 b5 bb 3b 87 e0 1c 3c 4d bd 28 3c
       0.010299039 0.005728394 0.009575016 0.010299039
0000b0 4d bd 28 3c 40 b5 bb 3b 87 e0 1c 3c 4d bd 28 3c
       0.010299039 0.005728394 0.009575016 0.010299039
0000c0 4d bd 28 3c 40 b5 bb 3b 87 e0 1c 3c 4d bd 28 3c
       0.010299039 0.005728394 0.009575016 0.010299039
0000d0 4d bd 28 3c 40 b5 bb 3b 87 e0 1c 3c 4d bd 28 3c
       0.010299039 0.005728394 0.009575016 0.010299039
0000e0 4d bd 28 3c 40 b5 bb 3b 87 e0 1c 3c 4d bd 28 3c
       0.010299039 0.005728394 0.009575016 0.010299039
0000f0 4e bd 28 3c 40 b5 bb 3b 87 e0 1c 3c 4e bd 28 3c
       0.01029904 0.005728394 0.009575016 0.01029904
000100 91 7c 26 3c 40 b5 bb 3b 89 e0 1c 3c 91 7c 26 3c
       0.010161535 0.005728394 0.009575018 0.010161535
000110 c3 7b 26 3c 40 b5 bb 3b 62 c8 1a 3c c3 7b 26 3c
       0.010161343 0.005728394 0.009447189 0.010161343
000120 07 5e 24 3c 5c ac bb 3b 92 c7 1a 3c 08 5e 24 3c
       0.0100321835 0.005727334 0.009446995 0.010032184
000130 96 16 20 3c 50 0b ba 3b fe cf 18 3c 95 1e 20 3c
       0.00977101 0.005677618 0.009326933 0.009772916
000140 fc c0 21 3c 33 0d ba 3b f5 dc 14 3c 2b 42 20 3c
       0.009872671 0.005677843 0.009085883 0.009781401
000150 cf 76 23 3c 40 b5 bb 3b 10 fe 14 3c 05 f4 24 3c
       0.009977057 0.005728394 0.009093776 0.010067944
000160 19 38 29 3c 40 b5 bb 3b 7b 5b 19 3c 19 38 29 3c
       0.010328316 0.005728394 0.00936019 0.010328316
000170 4b bd 28 3c 40 b5 bb 3b c7 52 1d 3c 4b bd 28 3c
       0.010299037 0.005728394 0.009602255 0.010299037
000180 4d bd 28 3c 40 b5 bb 3b 86 e0 1c 3c 4d bd 28 3c
       0.010299039 0.005728394 0.009575015 0.010299039
000190 4d bd 28 3c 40 b5 bb 3b 87 e0 1c 3c 4d bd 28 3c
       0.010299039 0.005728394 0.009575016 0.010299039
0001a0 4d bd 28 3c 40 b5 bb 3b 87 e0 1c 3c 4d bd 28 3c
       0.010299039 0.005728394 0.009575016 0.010299039
0001b0 4d bd 28 3c 40 b5 bb 3b 87 e0 1c 3c 4d bd 28 3c
       0.010299039 0.005728394 0.009575016 0.010299039
0001c0 0a 7c 26 3c 40 b5 bb 3b 87 e0 1c 3c 0a 7c 26 3c
       0.010161409 0.005728394 0.009575016 0.010161409
0001d0 0f 8b 26 3c bf 33 b9 3b d7 c7 1a 3c 12 8b 26 3c
       0.01016499 0.0056519206 0.00944706 0.010164993
0001e0 e0 4d 26 3c ce 32 b9 3b df d5 1a 3c a4 23 24 3c
       0.010150403 0.0056518083 0.009450405 0.010018263
0001f0 92 0d 22 3c 31 d8 b6 3b b0 99 18 3c 6f e4 1f 3c
       0.009890931 0.0055799712 0.009313986 0.009759053
000200 9a 4b 1d 3c 80 1e b2 3b d9 a6 14 3c 4f 6e 21 3c
       0.009600544 0.005435765 0.009072983 0.00985296
000210 73 52 1e 3c 0c 46 b2 3b 1f 15 16 3c 5b be 25 3c
       0.009663212 0.005440479 0.009160309 0.010116185
000220 ef 9b 22 3c 12 7f b7 3b 7f 17 1a 3c 60 98 21 3c
       0.009924873 0.0055998648 0.009405016 0.009862989
000230 3b ce 23 3c ef 3d bc 3b 3c 3c 16 3c a8 23 20 3c
       0.0099979 0.0057446877 0.009169634 0.009774126
000240 19 3a 29 3c 3d b5 bb 3b a4 e1 14 3c 36 bf 28 3c
       0.010328793 0.0057283924 0.009087 0.0102994945
000250 d4 bc 28 3c 40 b5 bb 3b 60 e2 1c 3c d5 bc 28 3c
       0.010298926 0.005728394 0.009575456 0.010298927
000260 4d bd 28 3c 40 b5 bb 3b 1a e0 1c 3c 4d bd 28 3c
       0.010299039 0.005728394 0.009574914 0.010299039
000270 4d bd 28 3c 40 b5 bb 3b 87 e0 1c 3c 4d bd 28 3c
       0.010299039 0.005728394 0.009575016 0.010299039
000280 22 bb 28 3c 40 b5 bb 3b 87 e0 1c 3c 22 bb 28 3c
       0.010298522 0.005728394 0.009575016 0.010298522
000290 de 47 26 3c 12 33 b9 3b 90 de 1c 3c de 47 26 3c
       0.01014897 0.00565184 0.009574547 0.01014897
0002a0 04 45 25 3c cf 43 b9 3b 60 97 1a 3c 51 1b 23 3c
       0.010087255 0.0056538354 0.009435505 0.009955243
0002b0 95 82 1f 3c 34 97 b6 3b f5 a3 17 3c 04 bc 21 3c
       0.009735723 0.005572224 0.009255399 0.009871487
0002c0 68 61 24 3c b9 dd b1 3b 5c 5d 16 3c cb 06 21 3c
       0.010032989 0.0054280427 0.009177532 0.00982828
0002d0 bb 02 23 3c f0 93 b3 3b dc b4 15 3c c7 a4 26 3c
       0.009949381 0.005480282 0.0091373585 0.010171122
0002e0 22 c4 23 3c 05 60 b8 3b d0 ed 1a 3c 61 74 25 3c
       0.009995492 0.005626681 0.009456113 0.010098548
0002f0 73 70 27 3c c5 c2 b3 3b af d2 19 3c 86 23 26 3c
       0.010219681 0.005485865 0.00938861 0.010140305
000300 57 8c 21 3c 1d 24 b2 3b 88 75 1a 3c ff 5d 24 3c
       0.00986012 0.005436434 0.009427436 0.010032176
000310 72 b8 23 3c 6d b7 bb 3b ec cf 18 3c 16 d2 23 3c
       0.009992706 0.005728653 0.009326916 0.009998819
000320 63 82 24 3c b9 b4 bb 3b e4 4d 18 3c 67 80 24 3c
       0.010040852 0.005728331 0.009295914 0.010040379
000330 d5 bc 28 3c 40 b5 bb 3b fb ef 18 3c 4d bd 28 3c
       0.010298927 0.005728394 0.00933456 0.010299039
000340 4d bd 28 3c 40 b5 bb 3b 87 e0 1c 3c 4d bd 28 3c
       0.010299039 0.005728394 0.009575016 0.010299039
000350 2d bd 28 3c d9 b2 bb 3b 87 e0 1c 3c 2d bd 28 3c
       0.010299009 0.0057281074 0.009575016 0.010299009
000360 99 62 23 3c 11 f9 b8 3b 66 e0 1c 3c 7c 60 23 3c
       0.009972238 0.0056449254 0.009574985 0.009971734
000370 cb 6c 26 3c 43 71 b5 3b 44 e4 17 3c 70 68 24 3c
       0.010157774 0.0055371835 0.009270731 0.010034665
000380 d3 cf 20 3c 6b ea b3 3b b1 d9 18 3c d1 92 20 3c
       0.009815174 0.0054905913 0.009329245 0.009800629
000390 78 12 1f 3c ca 20 b3 3b 16 49 15 3c 12 e7 25 3c
       0.009708993 0.0054665552 0.009111663 0.010125892
0003a0 99 18 27 3c 6e 60 b9 3b 69 3d 1a 3c ee 5c 22 3c
       0.010198736 0.0056572473 0.009414055 0.0099098515
0003b0 2d 0b 26 3c be 0d b8 3b f1 f2 16 3c 62 f4 23 3c
       0.0101345 0.0056168726 0.009213195 0.010006996
0003c0 c5 c7 23 3c a8 d0 b8 3b b8 6d 18 3c e3 6a 21 3c
       0.009996359 0.005640108 0.009303503 0.009852144
0003d0 13 cc 25 3c 1e d8 b6 3b e2 11 16 3c 2d 94 28 3c
       0.010119456 0.0055799624 0.009159537 0.010289234
0003e0 49 76 23 3c 7e 3c b6 3b 53 ba 1c 3c 49 d5 27 3c
       0.009976932 0.0055614104 0.0095659075 0.010243722
0003f0 16 d2 23 3c 76 fe b6 3b dc 08 1c 3c 4d bd 28 3c
       0.009998819 0.0055845333 0.009523597 0.010299039

exp_avg f4 [10]
000000 1d e0 dd 38 8b 43 00 3c 1a 1f a5 3b 1a 22 38 3c
       0.000105798455 0.0078286035 0.005039108 0.011238599
000010 70 57 2c bd 30 94 ba bd 2b 74 07 bb 51 ab d9 bc
       -0.042075574 -0.09110296 -0.0020668607 -0.026570948
000020 44 61 ac 3d fa dd 5a 3d
       0.084169894 0.05343435

exp_avg_sq f4 [10]
000000 4d bd 28 3c f0 61 40 3c 60 4e 83 3c 5d b0 b1 3c
       0.010299039 0.0117421 0.016028583 0.021690542
000010 bb 02 b8 3c a2 f3 cd 3c c6 f4 4b 3c 92 78 9b 3c
       0.02246224 0.025140587 0.012448495 0.01897839
000020 7f 7e dc 3c e2 60 00 3d
       0.026915787 0.031342395
