evaluation/Results/Seed_0_Trainable_no_Threshold_Encoder_2x2_imgsize_14/model_checkpoints/epochs_19.pt (torch, 84321 bytes, 7 tensors)

qlayer_1.torch_qlayer.weights f8 [1, 4]
0	0xbfb299e8725aad20	-0.07266094962931335
1	0xbfec23a0927b051a	-0.8793490277240921
2	0xbfd12ca668071a58	-0.26835022124251884
3	0xbfe501522296d97c	-0.6564112353869826

linear.weight f4 [10, 676]
0	0x3c3b373b	0.011426742
1	0xbc7d2b21	-0.015452177
2	0xbcef9233	-0.029244518
3	0xbcabd73a	-0.020976651
4	0x3d20d70b	0.03926758
5	0xbc9870bc	-0.018608443
6	0x3cffbb95	0.031217376
7	0xbc85b9f5	-0.016324023
8	0x3c1328b9	0.008981877
9	0x3cbde4b0	0.023180336
10	0xbcff3213	-0.031151807
11	0x3d316c45	0.043316144
12	0xbc93cc53	-0.018041765
13	0x3c977acf	0.018491177
14	0xbc767869	-0.015043356
15	0xbc1586f8	-0.009126417
16	0x3d17d4f8	0.037068337
17	0x3d271471	0.04079098
18	0x3d2a84b2	0.041630454
19	0x3880fc71	6.1505365e-05
20	0x3e01c07f	0.12671088
21	0x3d04668a	0.03232435
22	0xbcc5f0b6	-0.024162631
23	0x3e13c6c3	0.1443129
24	0x3e4e308c	0.20135707
25	0x3d1cbf79	0.03826854
26	0x3e157c1a	0.14598122
27	0x3e663410	0.22480798
28	0x3e4f08ac	0.20218152
29	0x3cb746c8	0.022372618
30	0x3e7b2182	0.24524501
31	0x3e3b85e4	0.18312794
32	0x3d94b0d0	0.07260287
33	0xbcbe7bae	-0.023252334
34	0x3e254237	0.1613854
35	0x3dd54709	0.104139395
36	0x3d31b59d	0.04338609
37	0xbb94ad37	-0.0045372504
38	0x3db32ba5	0.08748559
39	0xbc1cf520	-0.009579927
40	0x3c18c8b9	0.0093252
41	0x3b65c51e	0.0035060118
42	0xbce2e9c6	-0.027699362
43	0x3c13a671	0.009011851
44	0x3cd4be8f	0.025969772
45	0x3ca37359	0.019952463
46	0xbce9eea6	-0.02855618
47	0xbbd49f7f	-0.00648874
48	0x3d212513	0.039341997
49	0x3c26bbd6	0.0101766195
50	0xbcc5b30e	-0.024133231
51	0xbbc62899	-0.00604732
52	0xbbcbd8cf	-0.006220914
53	0x3c92f2c7	0.01793803
54	0xbcb9d2bc	-0.022683494
55	0x3ca609b7	0.020268304
56	0x3ceb9b79	0.028760659
57	0xbb9a8e5f	-0.004716679
58	0x3bc9d06f	0.0061588804
59	0x3ca418e5	0.020031402
60	0x3d06b558	0.032887787
61	0xbbb03c5f	-0.0053782905
62	0xbc813a41	-0.015774848
63	0x3c857fd0	0.016296297
64	0xbd0170c1	-0.03160167
65	0x3ce316ca	0.027720828
66	0x3baedbe1	0.00533627
67	0xbd8168a4	-0.06318787
68	0x3dcaa926	0.09895544
69	0x3d1fee11	0.039045397
70	0xbc9c32b8	-0.019067153
71	0x3d827cde	0.06371473
72	0x3df7ac04	0.12093356
73	0x3df0d035	0.11758462
74	0x3d734566	0.059392355
75	0x3e30d6bb	0.17269413
76	0x3d306886	0.04306843
77	0x3e743e3c	0.23851866
78	0x3e198543	0.14992242
79	0xbdea6b76	-0.11446278
80	0xbded61c9	-0.11590917
81	0x3e597679	0.212366
82	0xbda384ca	-0.07984312
83	0xbe154f82	-0.14581111
84	0xbc5cb59d	-0.013471034
85	0x3dd77f34	0.10522309
86	0xbe27c1b9	-0.16382493
87	0xbe4e171e	-0.20126006
88	0x3e5e4b67	0.21708451
89	0x3b0c2c07	0.0021388547
90	0xbe432edf	-0.19060849
91	0x3e31f512	0.17378643
92	0x3d11cb80	0.035594463
93	0x3cd2e6c1	0.025744798
94	0x3e17159e	0.1475434
95	0x3d04ca83	0.032419693
96	0x3c843c60	0.01614207
97	0xbca7fc3b	-0.020506015
98	0x3dcc93e4	0.099891454
99	0xb9d536d8	-0.00040667388
100	0x3cdad05f	0.026710687
101	0x3bc9bc39	0.006156471
102	0x3c80ab85	0.015706787
103	0xbcd40159	-0.025879549
104	0x3c621c6c	0.013800722
105	0x3ceb0710	0.028689891
106	0x3d2da67c	0.0423951
107	0x3c22d168	0.009937622
108	0x3cec9629	0.028880196
109	0xbc4d43b2	-0.012528347
110	0xb8b52eb4	-8.639452e-05
111	0x3d018ef4	0.03163047
112	0x3d8f0a0c	0.06984338
113	0x3d2bb78b	0.041923087
114	0xbb95c7a8	-0.00457092
115	0x3d470749	0.048590932
116	0xbe7bbbbf	-0.24583338
117	0xbc974d3c	-0.018469445
118	0x3c1a26e1	0.0094086835
119	0xbe70d021	-0.23516895
120	0x3d14b31c	0.036303625
121	0x3dbf8bc6	0.093528315
122	0xbe5f669c	-0.21816486
123	0xbdf827c0	-0.12116957
124	0xbbd54a07	-0.006509069
125	0x3e1fea4d	0.15616722
126	0xbe170a89	-0.14750113
127	0xbe538eae	-0.20659897
128	0xbdd99835	-0.10624734
129	0xbde78bcd	-0.11305962
130	0xbe81e6c7	-0.25371382
131	0xbe286f53	-0.16448717
132	0xbe31b810	-0.1735537
133	0xbe16eef7	-0.14739595
134	0xbe3551e1	-0.17707016
135	0xbf146a7e	-0.57974994
136	0xbdd438f3	-0.10362425
137	0xbe34513d	-0.17609115
138	0xbf16bd7c	-0.5888288
139	0xbdcc44c6	-0.09974055
140	0xbe1d4b56	-0.1536077
141	0x3e253def	0.16136907
142	0xbdc82575	-0.09772769
143	0x3ce7f874	0.028316714
144	0x3e3d8e47	0.18511306
145	0x3da33913	0.079698704
146	0x3c72abcc	0.014811467
147	0xbcf66165	-0.030075738
148	0x3e031c28	0.1280371
149	0x3d17f7b7	0.037101474
150	0x3b3ab9d2	0.0028492105
151	0x3d99db5b	0.07512542
152	0x3d3e30c5	0.04643323
153	0xbc1aaca4	-0.009440575
154	0x3d9f4174	0.07776156
155	0x3a43b2ec	0.0007465321
156	0x38ec8971	0.000112789574
157	0x3d1ae0cd	0.037812043
158	0xbc85fdcf	-0.016356377
159	0x3c1afd81	0.009459854
160	0x3d9dddb4	0.07708302
161	0x3d1bec59	0.038067196
162	0x3d022e47	0.031782415
163	0x3db95c96	0.090508625
164	0x3e16670c	0.14687747
165	0x3d8cad8e	0.068690404
166	0x3ce62c9d	0.028097445
167	0x3e4adf30	0.19811702
168	0xbc5d667d	-0.013513205
169	0xbe7d75c0	-0.2475195
170	0x3e507d97	0.20360409
171	0xbd76cb04	-0.060252205
172	0xbda430e6	-0.08017139
173	0xbde91acf	-0.113820665
174	0xbda60619	-0.08106632
175	0xbe6ac334	-0.22926027
176	0x3eaed388	0.3414576
177	0xbe58168c	-0.21102351
178	0xbe334037	-0.17504965
179	0x3db757fb	0.08952328
180	0xbe1f71d4	-0.15570766
181	0xbe4bd7ae	-0.19906494
182	0x3d711979	0.058862183
183	0xbd32d586	-0.043660663
184	0x3de91f29	0.113828965
185	0xbf17dc12	-0.59320176
186	0xbcd6bc79	-0.026212918
187	0xbebe2315	-0.3713614
188	0x3edae719	0.4275444
189	0xbd9dc20c	-0.07703027
190	0xbebcfafd	-0.3691024
191	0xbefb5b8c	-0.49093282
192	0x3ea7d515	0.32779756
193	0x3b7dead0	0.0038744695
194	0xbf043013	-0.51635855
195	0xbe74fb97	-0.23924099
196	0x3e8c77cc	0.27435148
197	0xbcea3b75	-0.028592804
198	0xbe876557	-0.26444504
199	0xbda74384	-0.081671745
200	0x3e680046	0.22656354
201	0x3d99845b	0.07495948
202	0xbdbdf9fa	-0.09276195
203	0x3e8d21dc	0.27564895
204	0x3d672cfa	0.056439377
205	0xbc433178	-0.01191365
206	0x3e608429	0.21925415
207	0x3d302c5d	0.043011058
208	0x3ba1a0e7	0.004932511
209	0x3bb7b5bb	0.0056063808
210	0xbc317370	-0.010830745
211	0x3b7bb977	0.0038410106
212	0x3e8a4265	0.2700378
213	0x3d3c4b77	0.045970406
214	0x3c74f728	0.014951505
215	0x3e8b7ebc	0.27245128
216	0x3dbdd10e	0.0926839
217	0x3e371819	0.17880286
218	0x3e9c1418	0.3048408
219	0x3e0e491f	0.13895081
220	0xbe7bddeb	-0.24596374
221	0xbd9248e4	-0.07142809
222	0x3e092d9f	0.1339631
223	0xbd39af95	-0.045333464
224	0x3dde5126	0.108553216
225	0xbe53eb53	-0.20695238
226	0xbd1271fd	-0.03575324
227	0xbd87099f	-0.06593632
228	0xbf379a7b	-0.71720093
229	0x3d1465ad	0.036229778
230	0xbdca2d0a	-0.09871872
231	0xbe95fbcf	-0.29293677
232	0x3ececd2f	0.40390918
233	0xbd44fd1b	-0.048092943
234	0xbe8bc0e2	-0.27295595
235	0x3e3571ee	0.17719242
236	0x3f05e3ab	0.5230052
237	0xbeb2f445	-0.34951988
238	0x3e11f359	0.14252986
239	0xbe0b5a5e	-0.13608691
240	0x3f27a92c	0.6549251
241	0xbf0316b7	-0.51206535
242	0xbe0ec3f4	-0.13941938
243	0xbe920b34	-0.28524172
244	0xbe201cac	-0.15635937
245	0xbe523aea	-0.20530286
246	0xbea996b6	-0.33122796
247	0xbf1dcb48	-0.6163831
248	0x3cbdafe7	0.023155166
249	0xbd5e630b	-0.054293673
250	0xbf17145e	-0.5901545
251	0xbf0ca4e1	-0.54939085
252	0x3d291d1e	0.041287534
253	0x3e7260e4	0.23669773
254	0xbf1a707d	-0.60327893
255	0xbdbeea51	-0.09322036

linear.bias f4 [10]
0	0x3c19b461	0.009381385
1	0xbd2c3e78	-0.042051762
2	0xbcde37ec	-0.027126275
3	0xbc9b3467	-0.018945886
4	0xbdb3b1f8	-0.08774179
5	0x3cf83290	0.030297548
6	0x3c087ef8	0.008331053
7	0x3c796172	0.015220987
8	0x3cf1e3ef	0.029527633
9	0x3d8834fe	0.066507325

exp_avg f4 [10, 676]
0	0xba5f052a	-0.00085075444
1	0xba2653ad	-0.0006344866
2	0xba5709cd	-0.00082030596
3	0xba5f052a	-0.00085075444
4	0xba5f052a	-0.00085075444
5	0xba2653ad	-0.0006344866
6	0xba5709cd	-0.00082030596
7	0xba5f052a	-0.00085075444
8	0xba5f052a	-0.00085075444
9	0xba2653ad	-0.0006344866
10	0xba5709cd	-0.00082030596
11	0xba5f052a	-0.00085075444
12	0xba5f052a	-0.00085075444
13	0xba2653ad	-0.0006344866
14	0xba5709cd	-0.00082030596
15	0xba5f052a	-0.00085075444
16	0xba5f052a	-0.00085075444
17	0xba2653ad	-0.0006344866
18	0xba5709cd	-0.00082030596
19	0xba5f052a	-0.00085075444
20	0xba5f052a	-0.00085075444
21	0xba2653ad	-0.0006344866
22	0xba5709cd	-0.00082030596
23	0xba5f052a	-0.00085075444
24	0xba5f052a	-0.00085075444
25	0xba2653ad	-0.0006344866
26	0xba5709cd	-0.00082030596
27	0xba5f052a	-0.00085075444
28	0xba5f058e	-0.00085076026
29	0xba2653ad	-0.0006344866
30	0xba5709cd	-0.00082030596
31	0xba5f058e	-0.00085076026
32	0xba5f058e	-0.00085076026
33	0xba2653ad	-0.0006344866
34	0xba570a26	-0.00082031114
35	0xba5f058e	-0.00085076026
36	0xba5f052a	-0.00085075444
37	0xba2653ad	-0.0006344866
38	0xba570a26	-0.00082031114
39	0xba5f052a	-0.00085075444
40	0xba5f052a	-0.00085075444
41	0xba2653ad	-0.0006344866
42	0xba5709cd	-0.00082030596
43	0xba5f052a	-0.00085075444
44	0xba5f052a	-0.00085075444
45	0xba2653ad	-0.0006344866
46	0xba5709cd	-0.00082030596
47	0xba5f052a	-0.00085075444
48	0xba5f052a	-0.00085075444
49	0xba2653ad	-0.0006344866
50	0xba5709cd	-0.00082030596
51	0xba5f052a	-0.00085075444
52	0xba5f052a	-0.00085075444
53	0xba2653ad	-0.0006344866
54	0xba5709cd	-0.00082030596
55	0xba5f052a	-0.00085075444
56	0xba5f052a	-0.00085075444
57	0xba2653ad	-0.0006344866
58	0xba5709cd	-0.00082030596
59	0xba5f052a	-0.00085075444
60	0xba5f052a	-0.00085075444
61	0xba2653ad	-0.0006344866
62	0xba5709cd	-0.00082030596
63	0xba5f052a	-0.00085075444
64	0x3b147fef	0.0022659262
65	0xba2653ad	-0.0006344866
66	0xba5709cd	-0.00082030596
67	0x3b147fef	0.0022659262
68	0x3a5f2934	0.00085129146
69	0xba2653ad	-0.0006344866
70	0x3b0f2f5a	0.0021848292
71	0x3a5f2934	0.00085129146
72	0x3a8a4e06	0.0010551817
73	0xba2653ad	-0.0006344866
74	0x3a572c82	0.00082082313
75	0x3a8a4e06	0.0010551817
76	0xbabdc72e	-0.0014478916
77	0xba2653ad	-0.0006344866
78	0x3a855ad5	0.0010174165
79	0xbabdc72e	-0.0014478916
80	0xbb071a54	-0.0020615058
81	0xba2653f5	-0.0006344908
82	0xbab6fc5f	-0.001396071
83	0xbb071a54	-0.0020615058
84	0xba5f05a4	-0.00085076154
85	0xba2653f5	-0.0006344908
86	0xbb024476	-0.0019877232
87	0xba5f0543	-0.0008507559
88	0xba5f0590	-0.0008507604
89	0xba2653ad	-0.0006344866
90	0xba5709df	-0.000820307
91	0xba5f0531	-0.00085075485
92	0xba5f052a	-0.00085075444
93	0xba2653ad	-0.0006344866
94	0xba5709d0	-0.00082030613
95	0xba5f052a	-0.00085075444
96	0xba5f052a	-0.00085075444
97	0xba2653ad	-0.0006344866
98	0xba5709cd	-0.00082030596
99	0xba5f052a	-0.00085075444
100	0xba5f052a	-0.00085075444
101	0xba2653ad	-0.0006344866
102	0xba5709cd	-0.00082030596
103	0xba5f052a	-0.00085075444
104	0xba5f052a	-0.00085075444
105	0xba2653ad	-0.0006344866
106	0xba5709cd	-0.00082030596
107	0xba5f052a	-0.00085075444
108	0xba5f052a	-0.00085075444
109	0xba2653ad	-0.0006344866
110	0xba5709cd	-0.00082030596
111	0xba5f052a	-0.00085075444
112	0xba5f0fea	-0.0008509146
113	0xba2653ad	-0.0006344866
114	0xba5709cd	-0.00082030596
115	0xba5f0fea	-0.0008509146
116	0x3b07208b	0.0020618762
117	0x3add8009	0.0016899119
118	0xba571427	-0.0008204602
119	0x3b07208b	0.0020618762
120	0xba5f2aaf	-0.0008513135
121	0x3a266e8c	0.000634887
122	0x3b024a79	0.0019880815
123	0x3b147694	0.0022653686
124	0x3978ccbb	0.00023727391
125	0x3a4e4b1e	0.00078694697
126	0x3b0f2650	0.0021842904
127	0xb9794342	-0.00023771546
128	0x39e74b5d	0.00044115903
129	0xba8d88fe	-0.0010798273
130	0xb9705767	-0.00022920744
131	0xb97944ac	-0.00023772073
132	0xba5f2bb4	-0.0008513287
133	0xbac98477	-0.0015374561
134	0xb97058cf	-0.00022921267
135	0xbabdda75	-0.0014484661
136	0xba62ab30	-0.0008646725
137	0xba2653c0	-0.0006344877
138	0xbab70ef4	-0.0013966248
139	0xbb063ed3	-0.0020484223
140	0xba5f0618	-0.0008507683
141	0xba2653b2	-0.0006344869
142	0xbb0170d1	-0.0019751082
143	0xba5f0606	-0.00085076725
144	0xba5f0606	-0.00085076725
145	0xba2653ad	-0.0006344866
146	0xba570a9b	-0.00082031795
147	0xba5f0606	-0.00085076725
148	0xba5f052a	-0.00085075444
149	0xba2653ad	-0.0006344866
150	0xba570a9b	-0.00082031795
151	0xba5f052a	-0.00085075444
152	0xba5f052a	-0.00085075444
153	0xba2653ad	-0.0006344866
154	0xba5709cd	-0.00082030596
155	0xba5f052a	-0.00085075444
156	0xba5f052a	-0.00085075444
157	0xba2653ad	-0.0006344866
158	0xba5709cd	-0.00082030596
159	0xba5f052a	-0.00085075444
160	0xba5f052a	-0.00085075444
161	0xba2653ad	-0.0006344866
162	0xba5709cd	-0.00082030596
163	0xba5f052a	-0.00085075444
164	0xba8a4162	-0.001054805
165	0xba265baf	-0.00063460594
166	0xba5709cd	-0.00082030596
167	0xba8a4162	-0.001054805
168	0x3b07233c	0.0020620367
169	0x3ac98dbd	0.0015377324
170	0xba854ea4	-0.0010170531
171	0x3b07208b	0.0020618762
172	0xba8a470f	-0.0010549742
173	0x3add7210	0.0016894955
174	0x3b024a79	0.0019880815
175	0x3b1477c0	0.0022654384
176	0xba5f2c90	-0.0008513415
177	0xb939e5f2	-0.00017728636
178	0x3b0f2771	0.0021843577
179	0x3b147f78	0.0022658985
180	0x3ad6d195	0.0016389365
181	0xb939e706	-0.00017729038
182	0x3b0f2ee3	0.0021848015
183	0x3b139339	0.0022518171
184	0xba5f089d	-0.00085080584
185	0xba8d975c	-0.0010802555
186	0x3b0e4b18	0.002171224
187	0xb9794f71	-0.00023776085
188	0xba8bff88	-0.0010681013
189	0xbac83d0d	-0.0015276984
190	0xb9706327	-0.0002292512
191	0xbad6d2b0	-0.0016389694
192	0xbb139e80	-0.0022524893
193	0xba265451	-0.00063449616
194	0xbacf2267	-0.0015803099
195	0xba8a4313	-0.0010548554
196	0xba8a3d90	-0.0010546912
197	0xba26544d	-0.0006344959
198	0xba855045	-0.0010171017
199	0xba8a3d23	-0.0010546785
200	0xba5f0606	-0.00085076725
201	0xba2653ad	-0.0006344866
202	0xba854a8b	-0.001016931
203	0xba5f052a	-0.00085075444
204	0xba5f052a	-0.00085075444
205	0xba2653ad	-0.0006344866
206	0xba5709cd	-0.00082030596
207	0xba5f052a	-0.00085075444
208	0xba5f052a	-0.00085075444
209	0xba2653ad	-0.0006344866
210	0xba5709cd	-0.00082030596
211	0xba5f052a	-0.00085075444
212	0xba5f052a	-0.00085075444
213	0xba2653ad	-0.0006344866
214	0xba5709cd	-0.00082030596
215	0xba5f052a	-0.00085075444
216	0xba8a3c04	-0.001054645
217	0xba4e3842	-0.00078666594
218	0xba5709cd	-0.00082030596
219	0xba8a3c04	-0.001054645
220	0x3b072308	0.0020620245
221	0x3ac98dc2	0.001537733
222	0xba854974	-0.0010168985
223	0x3b147d0e	0.0022657546
224	0xba8a3a56	-0.001054595
225	0x3add73cc	0.0016895472
226	0x3b0f2c8b	0.0021846618
227	0x3b147e1e	0.002265818
228	0x3b139e47	0.002252476
229	0x3add7f57	0.0016898912
230	0x3b0f2d93	0.0021847233
231	0xba62b755	-0.00086485344
232	0xb9e79317	-0.00044169344
233	0x3adc1ef1	0.0016793889
234	0xba5a9a18	-0.0008339002
235	0x3abdc8cd	0.0014479399
236	0xbb147664	-0.0022653574
237	0xb939ef0a	-0.00017732024
238	0x3ab6fdf0	0.0013961177
239	0x3a62920d	0.0008642979
240	0xbb139d2a	-0.0022524097
241	0xbaa036a6	-0.0012223318
242	0x3a5a7622	0.0008333643
243	0xbad6bf41	-0.0016383902
244	0xb9e79641	-0.000441717
245	0xba4e3ac7	-0.0007867035
246	0xbacf0fa9	-0.0015797514
247	0xbb06381b	-0.0020480219
248	0xba5f1350	-0.00085096527
249	0xba4e31eb	-0.0007865715
250	0xbb016a59	-0.0019747226
251	0xba8a3c00	-0.0010546446
252	0xba8a3d23	-0.0010546785
253	0xba2653ad	-0.0006344866
254	0xba854973	-0.0010168984
255	0xba5f052a	-0.00085075444

exp_avg_sq f4 [10, 676]
0	0x3c2e0a24	0.010622535
1	0x3bc19a9d	0.005908324
2	0x3c21ce00	0.009875774
3	0x3c2e0a24	0.010622535
4	0x3c2e0a24	0.010622535
5	0x3bc19a9d	0.005908324
6	0x3c21ce00	0.009875774
7	0x3c2e0a24	0.010622535
8	0x3c2e0a24	0.010622535
9	0x3bc19a9d	0.005908324
10	0x3c21ce00	0.009875774
11	0x3c2e0a24	0.010622535
12	0x3c2e0a24	0.010622535
13	0x3bc19a9d	0.005908324
14	0x3c21ce00	0.009875774
15	0x3c2e0a24	0.010622535
16	0x3c2e0a24	0.010622535
17	0x3bc19a9d	0.005908324
18	0x3c21ce00	0.009875774
19	0x3c2e0a24	0.010622535
20	0x3c2df878	0.010618322
21	0x3bc19a9d	0.005908324
22	0x3c21ce00	0.009875774
23	0x3c2df878	0.010618322
24	0x3c2ab5ab	0.01041929
25	0x3bc19a9d	0.005908324
26	0x3c21bd99	0.009871864
27	0x3c2ab5ab	0.01041929
28	0x3c2ab5e3	0.010419342
29	0x3bc19a9d	0.005908324
30	0x3c1eb576	0.009686818
31	0x3c2ab5e3	0.010419342
32	0x3c2e0a24	0.010622535
33	0x3bc19a9d	0.005908324
34	0x3c1eb5ad	0.00968687
35	0x3c2e0a24	0.010622535
36	0x3c2e0a24	0.010622535
37	0x3bc19a9d	0.005908324
38	0x3c21ce00	0.009875774
39	0x3c2e0a24	0.010622535
40	0x3c2e0a24	0.010622535
41	0x3bc19a9d	0.005908324
42	0x3c21ce00	0.009875774
43	0x3c2e0a24	0.010622535
44	0x3c2e0a24	0.010622535
45	0x3bc19a9d	0.005908324
46	0x3c21ce00	0.009875774
47	0x3c2e0a24	0.010622535
48	0x3c2e0a24	0.010622535
49	0x3bc19a9d	0.005908324
50	0x3c21ce00	0.009875774
51	0x3c2e0a24	0.010622535
52	0x3c2e0a24	0.010622535
53	0x3bc19a9d	0.005908324
54	0x3c21ce00	0.009875774
55	0x3c2e0a24	0.010622535
56	0x3c2e0a24	0.010622535
57	0x3bc19a9d	0.005908324
58	0x3c21ce00	0.009875774
59	0x3c2e0a24	0.010622535
60	0x3c2e0a27	0.010622538
61	0x3bc19a9d	0.005908324
62	0x3c21ce00	0.009875774
63	0x3c2e0a27	0.010622538
64	0x3c29062c	0.010316413
65	0x3bc19a9d	0.005908324
66	0x3c21ce03	0.009875777
67	0x3c29062c	0.010316413
68	0x3c290409	0.010315903
69	0x3bc19a9d	0.005908324
70	0x3c1d244d	0.009591174
71	0x3c290409	0.010315903
72	0x3c244a90	0.010027543
73	0x3bc186fb	0.0059059835
74	0x3c1d2249	0.009590694
75	0x3c244a90	0.010027543
76	0x3c1ac3a7	0.009446061
77	0x3bbde658	0.0057952814
78	0x3c18bdd6	0.009322604
79	0x3c1ad562	0.0094502885
80	0x3c1e7c56	0.009673199
81	0x3bbde692	0.0057953084
82	0x3c0ff2eb	0.0087859435
83	0x3c1b280b	0.009469996
84	0x3c2247b3	0.00990479
85	0x3bc19a9d	0.005908324
86	0x3c103fcb	0.008804272
87	0x3c259c03	0.010107997
88	0x3c2f1ba2	0.0106877405
89	0x3bc19a9d	0.005908324
90	0x3c19f79f	0.009397416
91	0x3c2f1ba2	0.0106877405
92	0x3c2e0a22	0.010622533
93	0x3bc19a9d	0.005908324
94	0x3c22cc53	0.00993641
95	0x3c2e0a22	0.010622533
96	0x3c2e0a24	0.010622535
97	0x3bc19a9d	0.005908324
98	0x3c21cdfe	0.0098757725
99	0x3c2e0a24	0.010622535
100	0x3c2e0a24	0.010622535
101	0x3bc19a9d	0.005908324
102	0x3c21ce00	0.009875774
103	0x3c2e0a24	0.010622535
104	0x3c2e0a24	0.010622535
105	0x3bc19a9d	0.005908324
106	0x3c21ce00	0.009875774
107	0x3c2e0a24	0.010622535
108	0x3c2e0a24	0.010622535
109	0x3bc19a9d	0.005908324
110	0x3c21ce00	0.009875774
111	0x3c2e0a24	0.010622535
112	0x3c2904e3	0.0103161065
113	0x3bc19a9e	0.0059083244
114	0x3c21ce00	0.009875774
115	0x3c2904e3	0.0103161065
116	0x3c292621	0.010324032
117	0x3bbc0660	0.0057380646
118	0x3c1d2317	0.009590886
119	0x3c292624	0.010324035
120	0x3c289a67	0.010290719
121	0x3bbc03f3	0.0057377755
122	0x3c1d4202	0.009598257
123	0x3c23c862	0.009996505
124	0x3c1f23a8	0.009713091
125	0x3bb6c281	0.005577386
126	0x3c1844d7	0.009293756
127	0x3c1a53d6	0.009419402
128	0x3c148bd1	0.009066538
129	0x3bac3d35	0.00525632
130	0x3c0f7a6f	0.008757218
131	0x3c1dc488	0.009629376
132	0x3c16d4d8	0.009206019
133	0x3bac991e	0.0052672764
134	0x3c12ad43	0.008952442
135	0x3c275e7e	0.0102154
136	0x3c2063dc	0.009789433
137	0x3bb839f0	0.005622141
138	0x3c1b9a78	0.009497277
139	0x3c1e2241	0.009651721
140	0x3c230de8	0.009952046
141	0x3bc2caea	0.0059445994
142	0x3c13046b	0.008973221
143	0x3c1ae465	0.009453868
144	0x3c2f1fc5	0.010688727
145	0x3bc19a96	0.0059083207
146	0x3c1000c7	0.008789248
147	0x3c2e0e44	0.010623518
148	0x3c2e0913	0.010622281
149	0x3bc19a9d	0.005908324
150	0x3c21d1d8	0.009876691
151	0x3c2e0917	0.010622284
152	0x3c2e0a24	0.010622535
153	0x3bc19a9d	0.005908324
154	0x3c21cd0b	0.009875546
155	0x3c2e0a24	0.010622535
156	0x3c2e0a24	0.010622535
157	0x3bc19a9d	0.005908324
158	0x3c21ce00	0.009875774
159	0x3c2e0a24	0.010622535
160	0x3c2e0556	0.010621389
161	0x3bc19a9d	0.005908324
162	0x3c21ce00	0.009875774
163	0x3c2e0556	0.010621389
164	0x3c28908f	0.010288372
165	0x3bbc04df	0.0057378854
166	0x3c21c986	0.009874707
167	0x3c28908f	0.010288372
168	0x3c265060	0.010150999
169	0x3bbc29ec	0.005742302
170	0x3c1cb6fa	0.009565109
171	0x3c217f9d	0.0098570855
172	0x3c197dc6	0.009368366
173	0x3bb631ac	0.0055601206
174	0x3c162524	0.009164128
175	0x3c1e7167	0.009670592
176	0x3c24523b	0.010029371
177	0x3babacff	0.0052391286
178	0x3c134df0	0.00899075
179	0x3c1cdde5	0.009574388
180	0x3c214576	0.009843221
181	0x3baf80ba	0.0053559216
182	0x3c11d6d1	0.008901314
183	0x3c295f60	0.010337681
184	0x3c22f408	0.009945877
185	0x3bba2f08	0.005681876
186	0x3c1d7758	0.009610973
187	0x3c26b661	0.010175318
188	0x3c2b2189	0.010445007
189	0x3bafe90d	0.005368358
190	0x3c1afe0b	0.009459983
191	0x3c283c5c	0.010268297
192	0x3c1e0739	0.009645277
193	0x3bac4dd7	0.0052583027
194	0x3c1c68a0	0.009546429
195	0x3c244dd9	0.010028326
196	0x3c22dd50	0.00994046
197	0x3bc19f41	0.005908877
198	0x3c18c0fb	0.009323354
199	0x3c231667	0.009954072
200	0x3c249ee9	0.010047653
201	0x3bc19973	0.005908185
202	0x3c179f60	0.009254307
203	0x3c249ac6	0.0100466665
204	0x3c2e0917	0.010622284
205	0x3bc19a9d	0.005908324
206	0x3c190883	0.009340408
207	0x3c2e0a24	0.010622535
208	0x3c2e0a24	0.010622535
209	0x3bc19a9d	0.005908324
210	0x3c21ce00	0.009875774
211	0x3c2e0a24	0.010622535
212	0x3c2e09de	0.01062247
213	0x3bc19556	0.005907695
214	0x3c21ce00	0.009875774
215	0x3c2e09de	0.01062247
216	0x3c221e77	0.009894959
217	0x3bbb8372	0.0057224566
218	0x3c21cdbb	0.00987571
219	0x3c2219b6	0.009893825
220	0x3c28df30	0.010307118
221	0x3bb3a744	0.005482586
222	0x3c16b46b	0.009198288
223	0x3c2461e6	0.010033106
224	0x3c1c63ab	0.009545247
225	0x3bb04113	0.005378851
226	0x3c18d392	0.009327786
227	0x3c1bdbb6	0.009512832
228	0x3c18842e	0.009308858
229	0x3bae8031	0.00532534
230	0x3c10e6c8	0.008844085
231	0x3c27b91c	0.010237005
232	0x3c2a6178	0.010399215
233	0x3bbc69aa	0.005749901
234	0x3c1beeac	0.009517353
235	0x3c1fd7a5	0.0097560035
236	0x3c2809a9	0.010256209
237	0x3bb973f0	0.005659573
238	0x3c149b0d	0.00907017
239	0x3c2362b5	0.009972264
240	0x3c22ff59	0.009948575
241	0x3bbb25d7	0.005711298
242	0x3c17e646	0.00927121
243	0x3c1db934	0.009626675
244	0x3c277cee	0.010222657
245	0x3bb6c637	0.0055778283
246	0x3c12a2b2	0.008949922
247	0x3c2daadb	0.010599817
248	0x3c224a53	0.009905416
249	0x3bb56bbf	0.005536526
250	0x3c217571	0.00985466
251	0x3c2c055d	0.010499326
252	0x3c231667	0.009954072
253	0x3bb71bca	0.0055880295
254	0x3c1fed8e	0.009761227
255	0x3c2e0a24	0.010622535

exp_avg f4 [10]
0	0xba5f052a	-0.00085075444
1	0xbb8a9ede	-0.004230364
2	0x3c522874	0.012827028
3	0xbb38d04d	-0.0028200329
4	0x3b225bc3	0.0024773933
5	0x3d3d67fb	0.04624174
6	0xb8ad608c	-8.267266e-05
7	0xbd037b9e	-0.032100312
8	0xbcfb95ba	-0.030711044
9	0x3c178928	0.009249009

exp_avg_sq f4 [10]
0	0x3c2e0a24	0.010622535
1	0x3c801b89	0.01563813
2	0x3c9fd8e5	0.019512603
3	0x3cb0b082	0.02156854
4	0x3cc1176f	0.023570744
5	0x3ccc04fd	0.024904722
6	0x3c603a00	0.013685703
7	0x3ca834df	0.020533023
8	0x3ce3daec	0.027814351
9	0x3d05a9eb	0.03263275
