evaluation/Results/Seed_0_Trainable_no_Threshold_Encoder_2x2_imgsize_14/model_checkpoints/epochs_18.pt (torch, 84321 bytes, 7 tensors)

qlayer_1.torch_qlayer.weights f8 [1, 4]
-0.07266094962931335 -0.8793490277240921 -0.26835022124251884 -0.6564112353869826
00000000: 20ad 5a72 e899 b2bf 1a05 7b92 a023 ecbf
00000010: 581a 0768 a62c d1bf 7cd9 9622 5201 e5bf

linear.weight f4 [10, 676]
0.024281736 -0.0025971867 -0.016389532 -0.008121668 0.05212257 -0.005753456 0.044072356 -0.003469036
0.021836873 0.036035325 -0.018296821 0.056171134 -0.005186775 0.031346165 -0.0021883717 0.0037285725
0.049923327 0.05364596 0.054485437 0.012916497 0.13956861 0.045179337 -0.011307647 0.15717062
0.2143464 0.05112353 0.15883896 0.2377973 0.21516797 0.035227604 0.25823432 0.19611439
0.0854552 -0.010397352 0.17437185 0.11699173 0.05624108 0.008317739 0.100337915 0.0032750631
0.022180196 0.016361002 -0.014844378 0.021866847 0.03882476 0.03280745 -0.015701195 0.0063662482
0.052196987 0.023031615 -0.011278247 0.0068076663 0.0066340743 0.03079302 -0.009828504 0.033123296
0.041615646 0.00813831 0.019013867 0.032886393 0.045742773 0.0074766953 -0.0029198683 0.029151283
0.07164365 0.04057581 0.018191254 0.040057417 0.0857593 0.051900387 0.08417817 0.050518557
0.11401591 0.13044235 0.04619617 0.16577645 -0.052908245 0.25150806 0.14300472 -0.21041778
-0.21611062 0.22535245 -0.17579804 -0.24709444 -0.00012790927 0.118075415 -0.26510814 -0.18805963
0.22989137 0.014993842 -0.17740805 0.18659599 0.04844945 0.03859978 0.16035293 0.045274675
0.028997058 -0.0076510347 0.112746425 0.012448315 0.039565675 0.019011462 0.028561773 -0.013024562
0.026655715 0.041544877 0.055250082 0.022792619 0.041735183 0.00032664614 0.012768591 0.044485465
0.0812248 0.054778066 0.008284065 0.059972294 -0.15069376 0.08477583 0.020790067 -0.14002933
0.047674358 0.080332175 -0.12302523 -0.01800056 -0.022661129 0.14924954 -0.044332184 -0.18953167
-0.11619482 -0.20901458 -0.23664667 -0.14762443 -0.16178258 -0.24867928 -0.16020744 -0.67401844
-0.11277553 -0.16289072 -0.68309724 -0.17842913 -0.14066803 0.17417862 -0.1764162 0.0416209
0.19756038 0.092553705 0.028115664 -0.017584246 0.14089221 0.049956467 0.015340705 0.087980546
0.05928822 0.003414414 0.09061669 0.013601522 0.012967779 0.050667036 -0.003501398 0.02231485
0.08993877 0.050922185 0.044637393 0.10336437 0.15187508 0.08007183 0.040953178 0.20311463
0.08413737 -0.15237992 0.20860168 0.037140943 -0.07095694 -0.010651617 0.01632686 -0.12219822
0.35231972 -0.19395618 -0.06798758 0.19604594 -0.0726403 -0.18220219 0.16538486 0.03584148
0.12676583 -0.68747026 0.053289115 -0.3553673 0.4152111 -0.15571883 -0.35310826 -0.5722667
0.24125078 0.017178655 -0.59769255 -0.23468903 0.28077775 -0.016101303 -0.25989315 -0.07487183
0.23943752 0.0878146 -0.08596204 0.2888973 0.06929453 0.0009413413 0.23250253 0.055866048
0.017787507 0.018461373 0.0020242413 0.016696004 0.28289273 0.05882613 0.027806493 0.28530622
0.099513225 0.18380049 0.31769574 0.14578064 -0.14943396 0.025965009 0.1407929 0.057298347
0.11730897 -0.099890366 0.06687856 0.04165658 -0.6284226 0.14275248 0.008874184 -0.30321106
0.41128698 0.031409133 -0.28323027 0.27186295 0.42145467 -0.33352575 0.23720033 -0.12733388
0.5721287 -0.5933993 -0.13066635 -0.36785325 -0.14877297 -0.20075086 -0.4138395 -0.69143355
0.03425981 -0.047493767 -0.665205 -0.5427862 0.04808742 0.24994612 -0.59667426 -0.08036538
00000000: 7eea c63c 9035 2abb 5743 86bc bf10 05bc
00000010: 7a7e 553d 7d87 bcbb 3785 343d c458 63bb
00000020: 3ee3 b23c c799 133d 37e3 95bc b413 663d
00000030: d2f5 a9bb d664 003d c96a 0fbb 115b 743b
00000040: 677c 4c3d debb 5b3d 1f2c 5f3d b79f 533c
00000050: 13eb 0e3e f80d 393d b643 39bc 56f1 203e
00000060: 9f7d 5b3e e866 513d aea6 223e 2381 733e
00000070: fe54 5c3e d24a 103d 4a37 843e 36d2 483e
00000080: 2303 af3d a859 2abc 898e 323e 5c99 ef3d
00000090: 0c5d 663d 2047 083c f77d cd3d 71a2 563b
000000a0: 3eb3 b53c 8207 863c d635 73bc 1a22 b33c
000000b0: b606 1f3d 1b61 063d cb9f 80bc f69b d03b
000000c0: 82cc 553d ccac bc3c 66c8 38bc d812 df3b
000000d0: a662 d93b a541 fc3c bc07 21bc 4bac 073d
000000e0: 2b75 2a3d 8c56 053c f8c2 9b3c e2b3 063d
000000f0: c65c 3b3d 11ff f43b 435b 3fbb acce ee3c
00000100: e8b9 923d d232 263d d305 953c 3f13 243d
00000110: 92a2 af3d 8095 543d 9b65 ac3d 8cec 4e3d
00000120: 2c81 e93d ae92 053e 3238 3d3d 4dc1 293e
00000130: 51b6 58bd aac5 803e d46f 123e c277 57be
00000140: 1a4c 5dbe cbc2 663e 6704 34be 5306 7dbe
00000150: 621f 06b9 86d1 f13d 41bc 87be b492 40be
00000160: a568 6b3e bba8 753c 75aa 35be 0513 3f3e
00000170: ee72 463d ce1a 1e3d 8f33 243e f071 393d
00000180: 3d8b ed3c 88b5 fabb 99e7 e63d 04f4 4b3c
00000190: 9e0f 223d edbd 9b3c 61fa e93c f964 55bc
000001a0: 165d da3c f62a 2a3d e94d 623d 96b7 ba3c
000001b0: 83f2 2a3d b441 ab39 5a33 513c 6436 363d
000001c0: 3059 a63d f75e 603d e3b9 073c 82a5 753d
000001d0: 774f 1abe f39e ad3d ee4f aa3c d963 0fbe
000001e0: 3046 433d 3285 a43d a7f4 fbbd e975 93bc
000001f0: d5a3 b9bc dfd4 183e aa95 35bd 9714 42be
00000200: 8df7 edbd eb07 56be 8153 72be dc2a 17be
00000210: 55aa 25be c8a5 7ebe 6b0d 24be 798c 2cbf
00000220: dbf6 e6bd d3cc 26be 76df 2ebf 20b6 36be
00000230: 480b 10be e15b 323e 73a6 34be ad7a 2a3d
00000240: 454d 4a3e cc8c bd3d d252 e63c d60c 90bc
00000250: 0c46 103e 279f 4c3d 9557 7b3c 252f b43d
00000260: 34d8 723d 5cc4 5f3b 3e95 b93d ebd8 5e3c
00000270: cf76 543c 3d88 4f3d b677 65bb a2cd b63c
00000280: d131 b83d c893 503d b3d5 363d b3b0 d33d
00000290: 2485 1b3e b3fc a33d 85be 273d 48fd 4f3e
000002a0: 3750 ac3d 7b09 1cbe ae9b 553e 1a21 183d
000002b0: df51 91bd 1f84 2ebc e8bf 853c 0f43 fabd
000002c0: 4063 b43e 739c 46be 133d 8bbd 44c0 483e
000002d0: 70c4 94bd 3693 3abe a65a 293e 84ce 123d
000002e0: e7ce 013e 0dfe 2fbf b045 5a3d b4f2 b5be
000002f0: 8d96 d43e c274 1fbe 9bca b4be 1280 12bf
00000300: 720a 773e 40ba 8c3c 6102 19bf 5252 70be
00000310: 1ac2 8f3e e1e6 83bc b710 85be 6756 99bd
00000320: 1c2f 753e 24d8 b33d de0c b0bd 59ea 933e
00000330: 4aea 8d3d 58c4 763a 2515 6e3e ccd3 643d
00000340: 1bb7 913c 4e3c 973c 22a9 043b 0fc6 883c
00000350: 51d7 903e abf3 703d 71ca e33c a813 923e
00000360: 97cd cb3d 3236 3c3e 04a9 a23e 8547 153e
00000370: 3705 19be 92b4 d43c 042c 103e acb1 6a3d
00000380: af3f f03d 5293 ccbd a0f7 883d 17a0 2a3d
00000390: 4ee0 20bf b52d 123e 0765 113c 7b3e 9bbe
000003a0: 3594 d23e dda6 003d 8f03 91be 9f31 8b3e
000003b0: e8c8 d73e e3c3 aabe a5e4 723e d063 02be
000003c0: 0777 123f 04e9 17bf 66cd 05be 4357 bcbe
000003d0: f157 18be a291 4dbe c5e2 d3be ca01 31bf
000003e0: 0454 0c3d d388 42bd e04a 2abf 09f4 0abf
000003f0: 51f7 443d e0f1 7f3e a5bf 18bf 9b96 a4bd

linear.bias f4 [10]
0.02223638 -0.04522213 -0.014718145 -0.0009700449 -0.084368855 0.021493081 0.030774657 -0.04569442
0.06037694 0.045236398
00000000: 1229 b63c d73a 39bd 6024 71bc 9c4a 7eba
00000010: 94c9 acbd 4212 b03c 221b fc3c 122a 3bbd
00000020: cf4d 773d cd49 393d

exp_avg f4 [10, 676]
-0.0011690264 -0.00087185163 -0.0011271866 -0.0011690264 -0.0011690264 -0.00087185163 -0.0011271866 -0.0011690264
-0.0011690264 -0.00087185163 -0.0011271866 -0.0011690264 -0.0011690264 -0.00087185163 -0.0011271866 -0.0011690264
-0.0011690264 -0.00087185163 -0.0011271866 -0.0011690264 -0.0011690264 -0.00087185163 -0.0011271866 -0.0011690264
-0.0011695538 -0.00087185163 -0.0011271866 -0.0011695538 -0.0011698604 -0.00087185163 -0.0011276948 -0.0011698604
-0.0011690264 -0.00087185163 -0.0011279908 -0.0011690264 -0.0011690264 -0.00087185163 -0.0011271866 -0.0011690264
-0.0011690264 -0.00087185163 -0.0011271866 -0.0011690264 -0.0011690264 -0.00087185163 -0.0011271866 -0.0011690264
-0.0011690264 -0.00087185163 -0.0011271866 -0.0011690264 -0.0011690264 -0.00087185163 -0.0011271866 -0.0011690264
-0.0011690264 -0.00087185163 -0.0011271866 -0.0011690264 -0.0011690264 -0.00087185163 -0.0011271866 -0.0011690264
-0.0011690264 -0.00087185163 -0.0011271866 -0.0011690264 -0.0011690292 -0.00087185163 -0.0011271866 -0.0011690292
-0.0011695831 -0.00087185163 -0.0011271891 -0.0011695831 0.0018161698 -0.00087224465 -0.0011277235 0.0018161698
-0.0011695722 -0.0008724733 0.0017511683 -0.001169045 -0.0011698476 -0.00087185163 -0.0011272044 -0.0011690138
-0.0011690266 -0.00087185163 -0.0011271745 -0.0011690266 -0.0011690301 -0.00087185163 -0.0011271866 -0.0011690301
-0.0011690266 -0.00087185163 -0.00112719 -0.0011690266 -0.0011690264 -0.00087185163 -0.0011271866 -0.0011690264
-0.0011690264 -0.00087185163 -0.0011271866 -0.0011690264 -0.0011690264 -0.00087185163 -0.0011271866 -0.0011690264
-0.0011690264 -0.00087185163 -0.0011271866 -0.0011690264 -0.0011690995 -0.00087185163 -0.0011271866 -0.0011690995
-0.0011642539 -0.00087185344 -0.0011272569 -0.0011642539 0.0014566507 -0.0008722668 -0.0011225845 0.0014566481
0.0014489766 0.0013544864 0.0014045137 0.001449528 -0.0015370827 -0.00087186514 0.0013976491 0.0014498353
-0.0018159079 -0.000871842 0.0013979453 -0.0018158904 -0.0016330683 -0.00087185163 -0.0017508989 -0.0016330841
-0.0016328656 -0.00087185437 -0.0015746354 -0.0016328656 -0.0011690295 -0.00087185175 -0.0015744244 -0.0011690266
-0.0011690266 -0.00087185163 -0.0011271866 -0.0011690264 -0.0011690264 -0.00087185163 -0.0011271866 -0.0011690264
-0.0011690264 -0.00087185163 -0.0011271866 -0.0011690264 -0.001169091 -0.00087185163 -0.0011271866 -0.001169091
-0.0011663884 -0.00087190606 -0.0011272489 -0.0011663884 0.0014548548 -0.00086829194 -0.0011246428 0.0014549227
-0.001993292 0.0010863579 0.0014028504 -0.0019980697 0.0015362444 0.0010810476 -0.0019265575 -0.0018190899
-0.0016355043 0.0010812766 -0.0017539843 0.000988338 0.0018146179 -0.001354278 0.0009529652 -0.0015339631
-0.0011711925 -0.0012179425 -0.0014790623 -0.0018137658 -0.0016330797 -0.0012177789 -0.0017488507 -0.0011690307
-0.0016328656 -0.00087185175 -0.0011271907 -0.0011690264 -0.0011690266 -0.00087185163 -0.0011271866 -0.0011690264
-0.0011690264 -0.00087185163 -0.0011271866 -0.0011690264 -0.0011692322 -0.00087185163 -0.0011271866 -0.0011692322
-0.001172082 -0.0008718995 -0.0011273845 -0.001172082 -0.0016283145 -0.0008698839 -0.0011301325 -0.0016282498
0.0009905191 0.0010850708 -0.0015699741 0.0009878812 0.0019982767 -0.0014901462 0.0009525241 -0.0013553295
-0.0016331552 -0.0013566639 -0.0013068216 -0.0015339415 0.0015317785 0.0007370956 -0.0014790412 0.0014522164
0.0018169266 -0.0011440188 0.0014002417 -0.0019977777 -0.0014547476 -0.001352694 -0.001926277 -0.0018194997
-0.0018193163 -0.0008718545 -0.00175438 -0.0011634761 -0.0011690307 -0.00087185163 -0.0011218346 -0.0011690264
00000000: 043a 99ba f98c 64ba 1bbe 93ba 043a 99ba
00000010: 043a 99ba f98c 64ba 1bbe 93ba 043a 99ba
00000020: 043a 99ba f98c 64ba 1bbe 93ba 043a 99ba
00000030: 043a 99ba f98c 64ba 1bbe 93ba 043a 99ba
00000040: 043a 99ba f98c 64ba 1bbe 93ba 043a 99ba
00000050: 043a 99ba f98c 64ba 1bbe 93ba 043a 99ba
00000060: b74b 99ba f98c 64ba 1bbe 93ba b74b 99ba
00000070: 0056 99ba f98c 64ba 29cf 93ba 0056 99ba
00000080: 043a 99ba f98c 64ba 17d9 93ba 043a 99ba
00000090: 043a 99ba f98c 64ba 1bbe 93ba 043a 99ba
000000a0: 043a 99ba f98c 64ba 1bbe 93ba 043a 99ba
000000b0: 043a 99ba f98c 64ba 1bbe 93ba 043a 99ba
000000c0: 043a 99ba f98c 64ba 1bbe 93ba 043a 99ba
000000d0: 043a 99ba f98c 64ba 1bbe 93ba 043a 99ba
000000e0: 043a 99ba f98c 64ba 1bbe 93ba 043a 99ba
000000f0: 043a 99ba f98c 64ba 1bbe 93ba 043a 99ba
00000100: 043a 99ba f98c 64ba 1bbe 93ba 043a 99ba
00000110: 1c3a 99ba f98c 64ba 1bbe 93ba 1c3a 99ba
00000120: b24c 99ba f98c 64ba 31be 93ba b24c 99ba
00000130: 8c0c ee3a 59a7 64ba 1fd0 93ba 8c0c ee3a
00000140: 554c 99ba b1b6 64ba 7587 e53a a43a 99ba
00000150: 9255 99ba f98c 64ba b4be 93ba 9839 99ba
00000160: 063a 99ba f98c 64ba b3bd 93ba 063a 99ba
00000170: 243a 99ba f98c 64ba 1bbe 93ba 243a 99ba
00000180: 063a 99ba f98c 64ba 38be 93ba 063a 99ba
00000190: 043a 99ba f98c 64ba 1bbe 93ba 043a 99ba
000001a0: 043a 99ba f98c 64ba 1bbe 93ba 043a 99ba
000001b0: 043a 99ba f98c 64ba 1bbe 93ba 043a 99ba
000001c0: 043a 99ba f98c 64ba 1bbe 93ba 043a 99ba
000001d0: 783c 99ba f98c 64ba 1bbe 93ba 783c 99ba
000001e0: e199 98ba 188d 64ba 77c0 93ba e199 98ba
000001f0: 16ed be3a d6a8 64ba af23 93ba 00ed be3a
00000200: 96eb bd3a 0689 b13a a917 b83a 17fe bd3a
00000210: f077 c9ba e18d 64ba 5231 b73a 6608 be3a
00000220: c203 eeba 548c 64ba 433b b73a 2c03 eeba
00000230: ae0c d6ba f98c 64ba 6b7e e5ba 360d d6ba
00000240: e105 d6ba 288d 64ba ff63 ceba e105 d6ba
00000250: 1f3a 99ba fb8c 64ba eb5c ceba 063a 99ba
00000260: 063a 99ba f98c 64ba 1bbe 93ba 043a 99ba
00000270: 043a 99ba f98c 64ba 1bbe 93ba 043a 99ba
00000280: 043a 99ba f98c 64ba 1bbe 93ba 043a 99ba
00000290: 2f3c 99ba f98c 64ba 1bbe 93ba 2f3c 99ba
000002a0: 80e1 98ba a090 64ba 32c0 93ba 80e1 98ba
000002b0: d4b0 be3a 169e 63ba c068 93ba 1bb3 be3a
000002c0: e4a1 02bb 1f64 8e3a d9df b73a 0cf2 02bb
000002d0: cf5b c93a f0b1 8d3a 8b84 fcba 876e eeba
000002e0: 6b5e d6ba 9fb9 8d3a f2e5 e5ba 1f8b 813a
000002f0: 79d8 ed3a 0782 b1ba 69d0 793a 430f c9ba
00000300: b382 99ba 5ea3 9fba 18dd c1ba e2bb edba
00000310: 100d d6ba e19d 9fba b139 e5ba 293a 99ba
00000320: e105 d6ba fb8c 64ba 3ebe 93ba 043a 99ba
00000330: 063a 99ba f98c 64ba 1bbe 93ba 043a 99ba
00000340: 043a 99ba f98c 64ba 1bbe 93ba 043a 99ba
00000350: ec40 99ba f98c 64ba 1bbe 93ba ec40 99ba
00000360: 8ca0 99ba 2f90 64ba bfc4 93ba 8ca0 99ba
00000370: 2b6d d5ba ec08 64ba f420 94ba ff6a d5ba
00000380: 4ed4 813a ef38 8e3a 97c7 cdba cb7b 813a
00000390: 85f5 023b 0251 c3ba cfb2 793a 50a5 b1ba
000003a0: 980f d6ba 16d2 b1ba a849 abba 890e c9ba
000003b0: f5c5 c83a a639 413a 63dc c1ba 4c58 be3a
000003c0: f125 ee3a e7f2 95ba 5188 b73a 26ed 02bb
000003d0: 3bad beba e14c b1ba 217b fcba 477c eeba
000003e0: 2076 eeba 2a8d 64ba 39f3 e5ba c87f 98ba
000003f0: 293a 99ba f98c 64ba 860a 93ba 043a 99ba

exp_avg_sq f4 [10, 676]
0.011191921 0.0062250225 0.0104051335 0.011191921 0.011191921 0.0062250225 0.0104051335 0.011191921
0.011191921 0.0062250225 0.0104051335 0.011191921 0.011191921 0.0062250225 0.0104051335 0.011191921
0.011191921 0.0062250225 0.0104051335 0.011191921 0.011187266 0.0062250225 0.0104051335 0.011187266
0.010967291 0.0062250225 0.01040081 0.010967291 0.01096735 0.0062250225 0.010196296 0.01096735
0.011191921 0.0062250225 0.0101963505 0.011191921 0.011191921 0.0062250225 0.0104051335 0.011191921
0.011191921 0.0062250225 0.0104051335 0.011191921 0.011191921 0.0062250225 0.0104051335 0.011191921
0.011191921 0.0062250225 0.0104051335 0.011191921 0.011191921 0.0062250225 0.0104051335 0.011191921
0.011191921 0.0062250225 0.0104051335 0.011191921 0.011191924 0.0062250225 0.0104051335 0.011191924
0.0108535895 0.0062250225 0.010405137 0.0108535895 0.010853023 0.0062250225 0.010090586 0.010853023
0.010534324 0.0062224357 0.010090054 0.010534324 0.009891653 0.006100083 0.009793757 0.009896328
0.010142694 0.006100114 0.009200627 0.009918108 0.010398653 0.0062250225 0.009220881 0.010623239
0.011263987 0.0062250225 0.00987644 0.011263987 0.011191919 0.0062250225 0.010472156 0.011191919
0.011191921 0.0062250225 0.010405132 0.011191921 0.011191921 0.0062250225 0.0104051335 0.011191921
0.011191921 0.0062250225 0.0104051335 0.011191921 0.011191921 0.0062250225 0.0104051335 0.011191921
0.010853254 0.006225023 0.0104051335 0.010853254 0.010862008 0.0060368464 0.010090268 0.010862011
0.01082519 0.0060365265 0.010098417 0.010500018 0.010186788 0.005859259 0.009761871 0.009862189
0.009472188 0.0055044102 0.009168874 0.010094256 0.009626354 0.0055165193 0.00938464 0.010741951
0.010271156 0.0059087235 0.009986806 0.0101189595 0.010450874 0.0062651127 0.009407609 0.009900279
0.011265078 0.006225019 0.009204281 0.011193006 0.011191646 0.0062250225 0.010406145 0.011191649
0.011191921 0.0062250225 0.010404882 0.011191921 0.011191921 0.0062250225 0.0104051335 0.011191921
0.011190661 0.0062250225 0.0104051335 0.011190661 0.010822599 0.0060366476 0.010403958 0.010822599
0.010670766 0.006041529 0.010061784 0.01034593 0.009805783 0.005840177 0.00961861 0.010139816
0.010536345 0.0054854094 0.009426978 0.010033486 0.010330606 0.0056144926 0.009328139 0.010877097
0.010444057 0.005974745 0.010112467 0.010697643 0.010995715 0.005628237 0.009945591 0.010800409
0.010111836 0.005506602 0.010041135 0.010535194 0.010438078 0.00622563 0.009794588 0.010453123
0.010556549 0.006224871 0.009718279 0.0105554545 0.011191649 0.0062250225 0.009813433 0.011191921
0.011191921 0.0062250225 0.0104051335 0.011191921 0.011191848 0.006224324 0.0104051335 0.011191848
0.010387791 0.0060195965 0.010405061 0.010386535 0.010843319 0.005754482 0.009656362 0.010540469
0.010001276 0.0056398353 0.009799487 0.009965452 0.009740012 0.005580691 0.009264887 0.010765827
0.010945101 0.0060499264 0.010009001 0.0102342125 0.010787051 0.0059500965 0.0095147565 0.010473226
0.01044704 0.006007263 0.00973696 0.010091272 0.010749969 0.0058597475 0.009381855 0.011166815
0.010399342 0.005814102 0.0103817955 0.011055746 0.010453123 0.0058710226 0.01027853 0.011191921
00000000: 525e 373c 46fb cb3b 4b7a 2a3c 525e 373c
00000010: 525e 373c 46fb cb3b 4b7a 2a3c 525e 373c
00000020: 525e 373c 46fb cb3b 4b7a 2a3c 525e 373c
00000030: 525e 373c 46fb cb3b 4b7a 2a3c 525e 373c
00000040: 525e 373c 46fb cb3b 4b7a 2a3c 525e 373c
00000050: cb4a 373c 46fb cb3b 4b7a 2a3c cb4a 373c
00000060: 27b0 333c 46fb cb3b 2968 2a3c 27b0 333c
00000070: 66b0 333c 46fb cb3b 5d0e 273c 66b0 333c
00000080: 525e 373c 46fb cb3b 980e 273c 525e 373c
00000090: 525e 373c 46fb cb3b 4b7a 2a3c 525e 373c
000000a0: 525e 373c 46fb cb3b 4b7a 2a3c 525e 373c
000000b0: 525e 373c 46fb cb3b 4b7a 2a3c 525e 373c
000000c0: 525e 373c 46fb cb3b 4b7a 2a3c 525e 373c
000000d0: 525e 373c 46fb cb3b 4b7a 2a3c 525e 373c
000000e0: 525e 373c 46fb cb3b 4b7a 2a3c 525e 373c
000000f0: 555e 373c 46fb cb3b 4b7a 2a3c 555e 373c
00000100: 41d3 313c 46fb cb3b 4f7a 2a3c 41d3 313c
00000110: e1d0 313c 46fb cb3b fc52 253c e1d0 313c
00000120: 2898 2c3c 93e5 cb3b c150 253c 2898 2c3c
00000130: 9a10 223c 34e3 c73b ff75 203c 3524 223c
00000140: 8b2d 263c 77e3 c73b 3abe 163c 8f7f 223c
00000150: 1d5f 2a3c 46fb cb3b 2e13 173c 180d 2e3c
00000160: 968c 383c 46fb cb3b cbd0 213c 968c 383c
00000170: 505e 373c 46fb cb3b 6893 2b3c 505e 373c
00000180: 525e 373c 46fb cb3b 497a 2a3c 525e 373c
00000190: 525e 373c 46fb cb3b 4b7a 2a3c 525e 373c
000001a0: 525e 373c 46fb cb3b 4b7a 2a3c 525e 373c
000001b0: 525e 373c 46fb cb3b 4b7a 2a3c 525e 373c
000001c0: d9d1 313c 47fb cb3b 4b7a 2a3c d9d1 313c
000001d0: 90f6 313c bdd0 c53b a751 253c 94f6 313c
000001e0: 235c 313c 0ece c53b d573 253c 4408 2c3c
000001f0: 7ce6 263c 07ff bf3b 41f0 1f3c 0595 213c
00000200: 3c31 1b3c 575e b43b 0b39 163c 6162 253c
00000210: dbb7 1d3c ebc3 b43b 08c2 193c 02ff 2f3c
00000220: 5a48 283c f79d c13b b39f 233c fec9 253c
00000230: 253a 2b3c 934b cd3b 5f22 1a3c c834 223c
00000240: 2991 383c 3ffb cb3b 8dcd 163c df62 373c
00000250: 2a5d 373c 46fb cb3b 897e 2a3c 2e5d 373c
00000260: 525e 373c 46fb cb3b 3d79 2a3c 525e 373c
00000270: 525e 373c 46fb cb3b 4b7a 2a3c 525e 373c
00000280: 0959 373c 46fb cb3b 4b7a 2a3c 0959 373c
00000290: 4551 313c 12cf c53b 5d75 2a3c 4551 313c
000002a0: 70d4 2e3c 05f8 c53b 2eda 243c fa81 293c
000002b0: 6fa8 203c f55e bf3b 6097 1d3c 7921 263c
000002c0: a2a0 2c3c f3be b33b 9d73 1a3c 7e63 243c
000002d0: b441 293c c7f9 b73b 0dd5 183c da35 323c
000002e0: 8d1d 2b3c cbc7 c33b c3ae 253c 2b45 2f3c
000002f0: 5f27 343c 136d b83b d5f2 223c 33f4 303c
00000300: 1dac 253c ba70 b43b 9383 243c ce9b 2c3c
00000310: 7904 2b3c 5f00 cc3b 7b79 203c 9343 2b3c
00000320: 60f5 2c3c 01fa cb3b 6b39 1f3c c9f0 2c3c
00000330: 2e5d 373c 46fb cb3b 85c8 203c 525e 373c
00000340: 525e 373c 46fb cb3b 4b7a 2a3c 525e 373c
00000350: 035e 373c 6af5 cb3b 4b7a 2a3c 035e 373c
00000360: 8e31 2a3c 0940 c53b fd79 2a3c 492c 2a3c
00000370: 2da8 313c 1890 bc3b b835 1e3c eeb1 2c3c
00000380: 64dc 233c 5ece b83b 078e 203c 2346 233c
00000390: 9294 1f3c 3bde b63b c1cb 173c 2763 303c
000003a0: 1553 333c 763e c63b cbfc 233c 66ad 273c
000003b0: 2cbc 303c 07f9 c23b c8e3 1b3c e597 2b3c
000003c0: 102a 2b3c 93d8 c43b c587 1f3c dd55 253c
000003d0: a320 303c 2003 c03b 5ab6 193c 04f5 363c
000003e0: 0062 2a3c 3984 be3b 6818 2a3c 2923 353c
000003f0: 9343 2b3c b561 c03b 4867 283c 525e 373c

exp_avg f4 [10]
-0.0011690264 -0.03523963 0.016782086 0.02987683 0.0686867 0.0038078558 -0.017997138 0.0016657355
0.004050335 -0.070463754
00000000: 043a 99ba 6e57 10bd 967a 893c 41c0 f43c
00000010: 9dab 8c3d 388d 793b bc6e 93bc cf54 da3a
00000020: acb8 843b 4d4f 90bd

exp_avg_sq f4 [10]
0.011191921 0.014936536 0.0194462 0.021302793 0.022695182 0.024279803 0.014451791 0.019605886
0.027734147 0.031489346
00000000: 525e 373c 5fb8 743c a34d 9f3c 3283 ae3c
00000010: 3feb b93c 70e6 c63c 34c7 6c3c 869c a03c
00000020: b932 e33c f9fa 003d
