evaluation/Results/Seed_0_Trainable_no_Threshold_Encoder_2x2_imgsize_14/model_checkpoints/epochs_47.pt (torch, 84321 bytes, 7 tensors)

qlayer_1.torch_qlayer.weights f8 [1, 4]
000000 20 ad 5a 72 e8 99 b2 bf 1a 05 7b 92 a0 23 ec bf
       -0.07266094962931335 -0.8793490277240921
000010 58 1a 07 68 a6 2c d1 bf 7c d9 96 22 52 01 e5 bf
       -0.26835022124251884 -0.6564112353869826

linear.weight f4 [10, 676]
000000 46 b0 a4 bc d9 70 40 bd 02 ef 78 bd a1 11 57 bd
       -0.020103585 -0.04698262 -0.06077481 -0.052507047
000010 b1 87 fd 3b 6c 5e 4d bd 69 1f a4 b9 ff 02 44 bd
       0.007737123 -0.050138876 -0.0003130392 -0.04785442
000020 8d b7 b8 bc ad ce 08 bc 74 5f 80 bd cc 18 41 3c
       -0.022548461 -0.008350057 -0.06268206 0.011785697
000030 b2 09 4b bd 9b a2 55 bc 16 c4 3e bd 35 85 26 bd
       -0.049569793 -0.013039256 -0.04657372 -0.04065438
000040 31 3e b9 3d c9 b9 17 3c d6 84 25 3c 2c e8 5a 3d
       0.09045065 0.009260603 0.010102471 0.053444073
000050 b1 ee c2 3d b0 1c 50 3a 75 5e ef 3c 3b fb e6 3d
       0.09518183 0.0007938845 0.029219845 0.11278387
000060 56 69 87 3e 7d cb dc 3b e4 65 ea 3d 1b 6b 93 3e
       0.26447552 0.006738125 0.11445215 0.28792652
000070 54 2c 88 3e 8f 0a 16 bc c8 e1 9d 3e e7 d5 7c 3e
       0.2659632 -0.009157791 0.3083632 0.24690972
000080 98 ae 34 3d da 63 60 bd 37 92 66 3e 8d ed 9a 3d
       0.044111818 -0.054782726 0.22516714 0.075648405
000090 c4 44 42 3c b0 bb 13 bd 68 a4 71 3d 9d 61 28 bd
       0.011857215 -0.036067665 0.05899468 -0.041108716
0000a0 85 e7 b5 bc 56 93 e5 bc 28 99 72 bd ad 78 b8 bc
       -0.022205124 -0.028024357 -0.059228092 -0.02251848
0000b0 3d 36 b6 bb 6b b1 3d bc 42 1d 76 bd ea b9 1b bd
       -0.005560665 -0.011577944 -0.060086496 -0.0380191
0000c0 f1 f7 ff 3b 16 ee ae bc 73 ff 63 bd 12 eb 19 bd
       0.0078115393 -0.021353763 -0.055663537 -0.037577696
0000d0 16 a1 1a bd 8b b2 5e bc 4e 0f 5e bd b1 84 38 bc
       -0.03775128 -0.013592373 -0.054213814 -0.011262105
0000e0 c0 86 35 bb d4 77 14 bd b6 d7 cf bc 3f 66 3c bc
       -0.0027698725 -0.03624709 -0.025371414 -0.011498987
0000f0 93 31 24 3e 94 2d 17 bd 1f c3 41 bd 33 34 13 3e
       0.16034536 -0.0369087 -0.047305223 0.14375381
000100 5a ab bf 3d 1e 83 79 bb 13 fb 07 3e 23 f6 7d 3d
       0.093588546 -0.0038072537 0.13279371 0.062002312
000110 c7 86 04 3f cb 4a bd 3d f6 56 d9 3d 40 02 f7 3e
       0.51768154 0.09242781 0.106122896 0.48243904
000120 34 a6 b9 3d 0d 3e b0 3d ae cb f4 3e 2b f7 64 3d
       0.09064904 0.08605585 0.47811645 0.05589978
000130 d1 24 70 be 30 70 9a 3e fd b0 07 3d d1 b8 c8 be
       -0.23451544 0.30163717 0.033127774 -0.39203504
000140 d3 60 70 3e 3e 63 8d 3e 2f ff b6 be 70 15 e2 3d
       0.23474436 0.27614778 -0.35741565 0.11039245
000150 2e df 35 be b1 25 9d 3d fd 30 bd 3d 22 b4 eb be
       -0.17760918 0.07673205 0.092378594 -0.46035868
000160 c9 d8 0d 3e 38 c3 f0 bc fb 3f e6 be f7 cc bc 3d
       0.13852228 -0.029389963 -0.44970688 0.092187814
000170 3a 5e 1d 3d b3 95 bd bb 5c 0e 87 3d a6 5b 10 3d
       0.03841994 -0.005785668 0.06594536 0.035243653
000180 ab b7 5b bc 29 24 55 bd 7b 5c d2 3d 23 6d f5 bc
       -0.013410489 -0.052036438 0.102715455 -0.029959267
000190 9d ef 9d bb f8 dc cf bc 4f d9 62 bc bd 26 6b bd
       -0.004819824 -0.02537392 -0.013845756 -0.05740999
0001a0 b5 3d 91 bc 56 29 3a bb 27 02 32 3c 3d e3 b0 bc
       -0.01772962 -0.0028405986 0.010864771 -0.02159273
0001b0 5e e0 0b 3e f5 76 34 bd 87 80 01 bd 59 b1 0e 3e
       0.13659808 -0.04405876 -0.031616714 0.1393484
0001c0 89 5f ac 3c 1b 72 2d 3e c3 3e d3 3d 98 14 5d b9
       0.021041648 0.16938059 0.10314705 -0.00021083874
0001d0 60 5e 0d 3e 4e 90 da 3d de 5a 21 bd 06 4f 89 bb
       0.13805532 0.10672055 -0.0393933 -0.0041903285
0001e0 4c e6 94 3e f4 22 03 3f b4 f0 51 3c 78 f0 ae bc
       0.29081953 0.5122521 0.012813736 -0.021354899
0001f0 05 b7 ef bd 67 45 21 3d 2d 53 43 bd b0 05 18 bf
       -0.1170483 0.039372828 -0.047686744 -0.5938368
000200 35 08 2c be e8 00 c8 be 6c 15 24 bf f7 03 7f be
       -0.16800006 -0.3906319 -0.6409519 -0.24903856
000210 89 fa 5d be 87 d6 de 3d 41 f3 85 be 23 2d 61 bf
       -0.21677603 0.108807616 -0.2616215 -0.879595
000220 34 ca 91 3e 2f d1 de be 16 80 63 bf ad 83 0b be
       0.2847458 -0.4351897 -0.8886732 -0.13624449
000230 95 30 c5 bc d5 5e a3 3d 17 74 09 be 0d 8e a1 be
       -0.024071017 0.07977072 -0.13423191 -0.3155369
000240 ca 67 91 3d 92 01 a9 3d 30 78 a8 be 29 cf c0 bd
       0.07099874 0.08252253 -0.32904196 -0.09414513
000250 00 89 65 3e 7f 5b f7 3b 1f c2 7a bd f8 fc 0c 3e
       0.22415543 0.007548749 -0.061220285 0.13768375
000260 05 49 8a 3c 2b d1 27 bd 0e b0 0f 3e 4c 2e fc bc
       0.016880522 -0.040970962 0.14032003 -0.030783795
000270 9d af 00 bd ac d5 cd 3b df 24 44 bd 05 cd b4 bc
       -0.031417478 0.006281575 -0.047886726 -0.022070417
000280 90 16 ad 3d b1 48 15 3e 88 2e 84 39 81 95 c8 3d
       0.08451569 0.14578511 0.0002521167 0.097941406
000290 1c 6a 50 3e 9c ed a2 3c d6 87 11 3d 64 10 ec 3d
       0.20352978 0.019888692 0.035529934 0.11526564
0002a0 85 8e b3 3e f6 80 87 bc 4c 4d f7 3d 69 5b 08 3e
       0.3506967 -0.016540986 0.1207529 0.1331612
0002b0 5d 5d f7 3e 6c 79 65 bc 17 16 e6 3d 17 98 b0 3e
       0.48313418 -0.014006 0.11234682 0.34491035
0002c0 c2 87 b3 3e a9 27 19 bf 8d 59 cc 3e d4 63 12 bb
       0.35064512 -0.5982614 0.39912072 -0.0022337334
0002d0 b2 88 1d bd 24 36 91 be 9d bc 06 bd 7b b1 fa be
       -0.03846044 -0.2836162 -0.03289472 -0.48963532
0002e0 57 b7 63 3e ac 9e 64 bf 7c c2 f1 be 21 e5 4a bf
       0.22237907 -0.89304614 -0.47218692 -0.7925587
0002f0 65 4b 4a 3f 9a 84 e8 bd 14 51 4a bf 97 c4 ba be
       0.7902129 -0.11353417 -0.79029965 -0.3647811
000300 14 47 78 bd b6 11 ae be 20 c9 c7 be bb 5c 4e be
       -0.06061466 -0.33997887 -0.39020634 -0.20152561
000310 92 ea 7c 3e b0 c5 bd bd d9 2b 68 be 3a 8a df bd
       0.24698856 -0.092662215 -0.22672977 -0.109150365
000320 f2 64 b1 3e 7e d1 0c 3e b3 40 f6 bd 26 7f 7b 3e
       0.34647328 0.1375179 -0.12024059 0.24560222
000330 14 b5 f3 3d 67 f2 31 bd bb bf 41 3e 2c 19 3c 3c
       0.11899772 -0.043444064 0.18920796 0.011480611
000340 a6 e3 d9 bc 62 5e d4 bc d9 82 2d bd a2 d4 e2 bc
       -0.026597809 -0.025923911 -0.042361114 -0.027689282
000350 f2 e8 6c 3e 06 bd 5a 3d 3e d0 87 bc 9e 61 6f 3e
       0.23135737 0.053402923 -0.01657879 0.23377082
000360 ce 36 c3 3e 21 82 c4 3d 25 46 88 3e 1c d1 c6 3e
       0.3812775 0.095951326 0.26616016 0.38831413
000370 02 fc 9e 3d 5d d3 f9 3d 51 43 c4 3e d7 6d 0a bd
       0.077629104 0.121985175 0.38332608 -0.033796158
000380 3d 27 b2 3e 0b 04 bc 3e 7a 61 c6 bc 36 4d fc 3e
       0.3479556 0.36721835 -0.024216402 0.49277657
000390 f0 25 a6 bf 1d 70 63 bd 3d 84 eb 3e 65 d4 52 bf
       -1.2980328 -0.05552684 0.45999327 -0.8235534
0003a0 bc c7 3d 3e 70 f6 fc be eb b6 4d bf 89 dd 24 3d
       0.18533224 -0.49406767 -0.80357236 0.040250335
0003b0 84 4c f7 3d bb 4d 45 bf a1 19 b7 3b f9 c2 af 3e
       0.12075141 -0.7707173 0.005587772 0.3432844
0003c0 6a 99 de 3e 6c 96 c5 be 28 0e ae 3e a4 7b 0d bf
       0.4347642 -0.38591325 0.33995175 -0.55266786
0003d0 85 4c 88 be 28 9c 2b be 52 41 19 bf fb 25 c0 be
       -0.2662088 -0.16758788 -0.59865296 -0.37528977
0003e0 57 14 fe bc 4e 78 a7 bd 33 b8 b2 be df ac 0e bf
       -0.031015558 -0.08177243 -0.34906158 -0.5573253
0003f0 b5 3c 35 3c 76 9c 53 3e 7f 78 1c bf 5d 7b 00 be
       0.011061837 0.20665154 -0.6112136 -0.1254706

linear.bias f4 [10]
000000 ad 71 b5 bc 23 00 22 be 01 4d 86 3d 86 4b af 3d
       -0.022148931 -0.15820365 0.06557656 0.08559327
000010 1a f3 19 be ce 7a 94 3d 6d f6 48 3c 4e d0 76 bc
       -0.15034142 0.07249986 0.012265784 -0.015064312
000020 5b 59 ce 3d 66 dc 75 bb
       0.10075637 -0.00375154

exp_avg f4 [10, 676]
000000 94 03 20 bb af ac ee ba 7a 49 1a bb 94 03 20 bb
       -0.0024416195 -0.0018209423 -0.002354233 -0.0024416195
000010 94 03 20 bb af ac ee ba 7a 49 1a bb 94 03 20 bb
       -0.0024416195 -0.0018209423 -0.002354233 -0.0024416195
000020 94 03 20 bb af ac ee ba 7a 49 1a bb 94 03 20 bb
       -0.0024416195 -0.0018209423 -0.002354233 -0.0024416195
000030 94 03 20 bb af ac ee ba 7a 49 1a bb 94 03 20 bb
       -0.0024416195 -0.0018209423 -0.002354233 -0.0024416195
000040 94 03 20 bb af ac ee ba 7a 49 1a bb 94 03 20 bb
       -0.0024416195 -0.0018209423 -0.002354233 -0.0024416195
000050 94 03 20 bb af ac ee ba 7a 49 1a bb 94 03 20 bb
       -0.0024416195 -0.0018209423 -0.002354233 -0.0024416195
000060 94 03 20 bb af ac ee ba 7a 49 1a bb 94 03 20 bb
       -0.0024416195 -0.0018209423 -0.002354233 -0.0024416195
000070 94 03 20 bb af ac ee ba 7a 49 1a bb 94 03 20 bb
       -0.0024416195 -0.0018209423 -0.002354233 -0.0024416195
000080 94 03 20 bb af ac ee ba 7a 49 1a bb 94 03 20 bb
       -0.0024416195 -0.0018209423 -0.002354233 -0.0024416195
000090 94 03 20 bb af ac ee ba 7a 49 1a bb 94 03 20 bb
       -0.0024416195 -0.0018209423 -0.002354233 -0.0024416195
0000a0 94 03 20 bb af ac ee ba 7a 49 1a bb 94 03 20 bb
       -0.0024416195 -0.0018209423 -0.002354233 -0.0024416195
0000b0 94 03 20 bb af ac ee ba 7a 49 1a bb 94 03 20 bb
       -0.0024416195 -0.0018209423 -0.002354233 -0.0024416195
0000c0 94 03 20 bb af ac ee ba 7a 49 1a bb 94 03 20 bb
       -0.0024416195 -0.0018209423 -0.002354233 -0.0024416195
0000d0 94 03 20 bb af ac ee ba 7a 49 1a bb 94 03 20 bb
       -0.0024416195 -0.0018209423 -0.002354233 -0.0024416195
0000e0 94 03 20 bb af ac ee ba 7a 49 1a bb 94 03 20 bb
       -0.0024416195 -0.0018209423 -0.002354233 -0.0024416195
0000f0 95 03 20 bb af ac ee ba 7a 49 1a bb 95 03 20 bb
       -0.0024416198 -0.0018209423 -0.002354233 -0.0024416198
000100 92 03 20 bb af ac ee ba 7c 49 1a bb 92 03 20 bb
       -0.002441619 -0.0018209423 -0.0023542335 -0.002441619
000110 92 03 20 bb af ac ee ba 79 49 1a bb 92 03 20 bb
       -0.002441619 -0.0018209423 -0.0023542328 -0.002441619
000120 22 10 20 bb af ac ee ba 79 49 1a bb 22 10 20 bb
       -0.0024423678 -0.0018209423 -0.0023542328 -0.0024423678
000130 e6 15 1d 3b af ac ee ba 97 55 1a bb e6 15 1d 3b
       0.0023969351 -0.0018209423 -0.002354955 0.0023969351
000140 ba d0 26 3b af ac ee ba a2 76 17 3b ba d0 26 3b
       0.0025454 -0.0018209423 0.0023111482 0.0025454
000150 83 b4 28 3b af ac ee ba 4d d8 20 3b 83 b4 28 3b
       0.002574236 -0.0018209423 0.0024542988 0.002574236
000160 ac d7 1d bb af ac ee ba c5 aa 22 3b ac d7 1d bb
       -0.002408485 -0.0018209423 0.0024821025 -0.002408485
000170 55 06 20 bb af ac ee ba 77 31 18 bb 55 06 20 bb
       -0.0024417837 -0.0018209423 -0.0023222843 -0.0024417837
000180 94 03 20 bb af ac ee ba 21 4c 1a bb 94 03 20 bb
       -0.0024416195 -0.0018209423 -0.0023543912 -0.0024416195
000190 94 03 20 bb af ac ee ba 7a 49 1a bb 94 03 20 bb
       -0.0024416195 -0.0018209423 -0.002354233 -0.0024416195
0001a0 94 03 20 bb af ac ee ba 7a 49 1a bb 94 03 20 bb
       -0.0024416195 -0.0018209423 -0.002354233 -0.0024416195
0001b0 95 03 20 bb af ac ee ba 7a 49 1a bb 95 03 20 bb
       -0.0024416198 -0.0018209423 -0.002354233 -0.0024416198
0001c0 94 03 20 bb b0 ac ee ba 7c 49 1a bb 94 03 20 bb
       -0.0024416195 -0.0018209424 -0.0023542335 -0.0024416195
0001d0 94 03 20 bb ab ac ee ba 7a 49 1a bb 93 03 20 bb
       -0.0024416195 -0.0018209418 -0.002354233 -0.0024416193
0001e0 69 be 29 bb ab ac ee ba 7a 49 1a bb 66 be 29 bb
       -0.0025900847 -0.0018209418 -0.002354233 -0.002590084
0001f0 84 92 27 3b 6c bf ee ba 27 ab 23 bb 82 92 27 3b
       0.0025569508 -0.0018215007 -0.002497384 0.0025569503
000200 2b 83 27 3b 79 4e ea 3a 28 93 21 3b c4 8f 27 3b
       0.002556036 0.001787617 0.0024654362 0.0025567869
000210 2d c4 26 bb c0 d1 f8 3a 84 90 21 3b d9 b1 29 3b
       -0.002544652 0.0018983409 0.0024652788 0.002589336
000220 e1 15 1d bb 5d a3 fb 3a 0c 9f 23 3b 70 be 29 3b
       -0.002396934 0.0019198466 0.0024966625 0.0025900863
000230 87 40 27 3b 80 6f eb ba 30 ab 23 3b 3d 1a 1d bb
       0.002552064 -0.0017962307 0.0024973862 -0.0023971938
000240 c6 8d 1c bb ca b0 ee ba d1 7a 17 bb af b9 1e bb
       -0.0023888214 -0.0018210646 -0.0023113976 -0.0024219563
000250 55 06 20 bb af ac ee ba 64 0b 19 bb 94 03 20 bb
       -0.0024417837 -0.0018209423 -0.0023352737 -0.0024416195
000260 94 03 20 bb af ac ee ba 7a 49 1a bb 94 03 20 bb
       -0.0024416195 -0.0018209423 -0.002354233 -0.0024416195
000270 94 03 20 bb af ac ee ba 7a 49 1a bb 94 03 20 bb
       -0.0024416195 -0.0018209423 -0.002354233 -0.0024416195
000280 94 03 20 bb b0 ac ee ba 7a 49 1a bb 94 03 20 bb
       -0.0024416195 -0.0018209424 -0.002354233 -0.0024416195
000290 92 03 20 bb af ac ee ba 7a 49 1a bb 91 03 20 bb
       -0.002441619 -0.0018209423 -0.002354233 -0.0024416188
0002a0 db 4a 2a bb ad ac ee ba 78 49 1a bb db 4a 2a bb
       -0.0025984559 -0.001820942 -0.0023542326 -0.0025984559
0002b0 e7 f6 1e bb f6 2f fd ba 94 32 24 bb e6 f6 1e bb
       -0.0024256052 -0.0019316662 -0.002505456 -0.002425605
0002c0 b7 60 1e 3b cd f2 f9 3a 6a 46 19 bb 90 1b 28 3b
       0.0024166533 0.0019069553 -0.0023387917 0.0025651194
0002d0 e7 14 1e bb b7 ee f9 3a 4d 17 22 3b b1 fb 29 3b
       -0.0024121345 0.0019068335 0.0024733127 0.0025937373
0002e0 9c d7 1c bb 3c 1d fd 3a 40 e6 23 3b f7 a7 28 3b
       -0.0023932224 0.0019311081 0.0025009066 0.002573488
0002f0 67 c0 27 3b 04 30 fd 3a af 9e 22 3b 21 12 1e bb
       0.0025596858 0.0019316678 0.002481382 -0.0024119692
000300 e0 17 28 3b f0 54 ea ba d5 69 18 bb 00 5d 1e bb
       0.0025648996 -0.0017878097 -0.002325644 -0.002416432
000310 aa d7 1d bb 9d c0 ec ba 05 b2 18 bb 24 46 1f bb
       -0.0024084845 -0.0018062774 -0.0023299467 -0.0024303282
000320 af b9 1e bb af ac ee ba d3 92 19 bb 94 03 20 bb
       -0.0024219563 -0.0018209423 -0.0023433461 -0.0024416195
000330 94 03 20 bb af ac ee ba 7a 49 1a bb 94 03 20 bb
       -0.0024416195 -0.0018209423 -0.002354233 -0.0024416195
000340 94 03 20 bb af ac ee ba 7a 49 1a bb 94 03 20 bb
       -0.0024416195 -0.0018209423 -0.002354233 -0.0024416195
000350 94 03 20 bb af ac ee ba 7a 49 1a bb 94 03 20 bb
       -0.0024416195 -0.0018209423 -0.002354233 -0.0024416195
000360 ff 8f 20 bb a9 ac ee ba 7a 49 1a bb ff 8f 20 bb
       -0.002449989 -0.0018209416 -0.002354233 -0.002449989
000370 bd f3 28 bb 75 01 fe ba de d0 1a bb b9 f3 28 bb
       -0.0025780045 -0.0019379096 -0.002362303 -0.0025780036
000380 f5 96 1c 3b ea 1b ed ba ba e7 22 bb 17 c5 26 3b
       0.0023893688 -0.0018089984 -0.0024857358 0.0025447065
000390 f2 c1 1e 3b 3a bf fa 3a 18 cd 20 3b b2 51 20 3b
       0.0024224487 0.0019130476 0.0024536308 0.0024462757
0003a0 b5 9e 20 3b 61 8b fd 3a cd 94 1a 3b f2 85 27 bb
       0.002450866 0.0019343906 0.0023587227 -0.0025562015
0003b0 d5 45 26 bb a5 90 fb 3a 0a 87 21 bb 3d c8 1c 3b
       -0.0025371213 0.0019192888 -0.002464714 0.0023923062
0003c0 54 fa 1e 3b b2 c6 eb ba c0 2b 17 3b 33 b1 29 bb
       0.0024258094 -0.0017988293 0.0023066849 -0.0025892972
0003d0 97 03 20 bb 5e 36 ec ba 6e 9e 23 bb 1e 12 1e bb
       -0.0024416202 -0.0018021574 -0.0024966258 -0.0024119685
0003e0 5e b5 1e bb 1e 92 ed ba d2 69 18 bb 70 17 1d bb
       -0.002421699 -0.0018125211 -0.0023256433 -0.0023970269
0003f0 24 46 1f bb af ac ee ba 1d 78 17 bb 94 03 20 bb
       -0.0024303282 -0.0018209423 -0.0023112365 -0.0024416195

exp_avg_sq f4 [10, 676]
000000 7c 4f 05 3c dd 4b 94 3b a1 e0 f7 3b 7c 4f 05 3c
       0.008136626 0.004525645 0.0075646196 0.008136626
000010 7c 4f 05 3c dd 4b 94 3b a1 e0 f7 3b 7c 4f 05 3c
       0.008136626 0.004525645 0.0075646196 0.008136626
000020 7c 4f 05 3c dd 4b 94 3b a1 e0 f7 3b 7c 4f 05 3c
       0.008136626 0.004525645 0.0075646196 0.008136626
000030 7c 4f 05 3c dd 4b 94 3b a1 e0 f7 3b 7c 4f 05 3c
       0.008136626 0.004525645 0.0075646196 0.008136626
000040 7c 4f 05 3c dd 4b 94 3b a1 e0 f7 3b 7c 4f 05 3c
       0.008136626 0.004525645 0.0075646196 0.008136626
000050 5f 4e 05 3c dd 4b 94 3b a1 e0 f7 3b 5f 4e 05 3c
       0.008136361 0.004525645 0.0075646196 0.008136361
000060 af 1b 05 3c dd 4b 94 3b aa de f7 3b af 1b 05 3c
       0.008124276 0.004525645 0.0075643854 0.008124276
000070 df 1b 05 3c dd 4b 94 3b 74 80 f7 3b df 1b 05 3c
       0.008124321 0.004525645 0.0075531546 0.008124321
000080 7c 4f 05 3c dd 4b 94 3b e5 80 f7 3b 7c 4f 05 3c
       0.008136626 0.004525645 0.007553207 0.008136626
000090 7c 4f 05 3c dd 4b 94 3b a1 e0 f7 3b 7c 4f 05 3c
       0.008136626 0.004525645 0.0075646196 0.008136626
0000a0 7c 4f 05 3c dd 4b 94 3b a1 e0 f7 3b 7c 4f 05 3c
       0.008136626 0.004525645 0.0075646196 0.008136626
0000b0 7c 4f 05 3c dd 4b 94 3b a1 e0 f7 3b 7c 4f 05 3c
       0.008136626 0.004525645 0.0075646196 0.008136626
0000c0 7c 4f 05 3c dd 4b 94 3b a1 e0 f7 3b 7c 4f 05 3c
       0.008136626 0.004525645 0.0075646196 0.008136626
0000d0 7c 4f 05 3c dd 4b 94 3b a1 e0 f7 3b 7c 4f 05 3c
       0.008136626 0.004525645 0.0075646196 0.008136626
0000e0 7c 4f 05 3c dd 4b 94 3b a1 e0 f7 3b 7c 4f 05 3c
       0.008136626 0.004525645 0.0075646196 0.008136626
0000f0 84 36 05 3c dd 4b 94 3b a1 e0 f7 3b 84 36 05 3c
       0.008130673 0.004525645 0.0075646196 0.008130673
000100 86 e8 04 3c dd 4b 94 3b 46 b2 f7 3b 86 e8 04 3c
       0.0081120785 0.004525645 0.0075590936 0.0081120785
000110 84 e8 04 3c dd 4b 94 3b 5b 21 f7 3b 84 e8 04 3c
       0.008112077 0.004525645 0.007541818 0.008112077
000120 39 9f 04 3c b2 4a 94 3b 49 21 f7 3b 39 9f 04 3c
       0.008094602 0.004525506 0.0075418097 0.008094602
000130 07 24 04 3c 4c 12 94 3b 18 99 f6 3b 17 25 04 3c
       0.00806523 0.0045187827 0.0075255744 0.0080654835
000140 be 5d 04 3c 8d 12 94 3b dc b5 f5 3b ff 29 04 3c
       0.0080789905 0.004518813 0.007498486 0.008066653
000150 f4 98 04 3c dd 4b 94 3b e9 be f5 3b 7c cc 04 3c
       0.0080931075 0.004525645 0.007499565 0.0081053935
000160 00 60 05 3c dd 4b 94 3b 3a ed f6 3b 00 60 05 3c
       0.008140564 0.004525645 0.007535604 0.008140564
000170 7b 4f 05 3c dd 4b 94 3b a8 ff f7 3b 7b 4f 05 3c
       0.008136625 0.004525645 0.0075683184 0.008136625
000180 7c 4f 05 3c dd 4b 94 3b a1 e0 f7 3b 7c 4f 05 3c
       0.008136626 0.004525645 0.0075646196 0.008136626
000190 7c 4f 05 3c dd 4b 94 3b a1 e0 f7 3b 7c 4f 05 3c
       0.008136626 0.004525645 0.0075646196 0.008136626
0001a0 7c 4f 05 3c dd 4b 94 3b a1 e0 f7 3b 7c 4f 05 3c
       0.008136626 0.004525645 0.0075646196 0.008136626
0001b0 84 36 05 3c dd 4b 94 3b a1 e0 f7 3b 84 36 05 3c
       0.008130673 0.004525645 0.0075646196 0.008130673
0001c0 64 01 05 3c 13 30 94 3b 46 b2 f7 3b 64 01 05 3c
       0.008118007 0.0045223325 0.0075590936 0.008118007
0001d0 7e ea 04 3c 6c d9 93 3b 98 4f f7 3b 79 03 05 3c
       0.008112548 0.0045120027 0.00754733 0.008118504
0001e0 35 e2 04 3c 5b d9 93 3b 58 53 f7 3b 41 b0 04 3c
       0.008110573 0.004511995 0.007547777 0.008098663
0001f0 2e 4f 04 3c de 87 93 3b b2 b8 f6 3b 35 1d 04 3c
       0.0080755185 0.0045022806 0.0075293416 0.008063604
000200 70 c3 03 3c f5 ff 92 3b 39 a7 f5 3b 92 39 04 3c
       0.008042201 0.004486079 0.007496741 0.008070366
000210 05 ce 03 3c 62 05 93 3b ed db f5 3b e7 ce 04 3c
       0.008044724 0.0044867257 0.007503024 0.00810597
000220 59 7b 04 3c 2a ba 93 3b 9d f1 f6 3b 2e 58 04 3c
       0.008086049 0.0045082765 0.0075361268 0.008077664
000230 b1 a4 04 3c 5a 5e 94 3b f0 14 f6 3b d8 25 04 3c
       0.008095906 0.004527849 0.00750982 0.008065663
000240 4c 60 05 3c dc 4b 94 3b 48 b7 f5 3b c2 4f 05 3c
       0.008140635 0.0045256447 0.0074986555 0.0081366915
000250 6d 4f 05 3c dd 4b 94 3b 1b e1 f7 3b 6e 4f 05 3c
       0.008136612 0.004525645 0.0075646765 0.008136613
000260 7c 4f 05 3c dd 4b 94 3b 8f e0 f7 3b 7c 4f 05 3c
       0.008136626 0.004525645 0.0075646113 0.008136626
000270 7c 4f 05 3c dd 4b 94 3b a1 e0 f7 3b 7c 4f 05 3c
       0.008136626 0.004525645 0.0075646196 0.008136626
000280 33 4f 05 3c 13 30 94 3b a1 e0 f7 3b 33 4f 05 3c
       0.008136558 0.0045223325 0.0075646196 0.008136558
000290 74 e1 04 3c 0d f5 93 3b 24 e0 f7 3b 62 fa 04 3c
       0.008110393 0.0045152963 0.0075645614 0.008116337
0002a0 5f d7 04 3c 44 f7 93 3b 80 42 f7 3b 79 8c 04 3c
       0.008107989 0.0045155603 0.007545769 0.008090132
0002b0 00 10 04 3c c4 9a 93 3b 3b 76 f6 3b 00 5d 04 3c
       0.008060455 0.0045045335 0.0075214184 0.008078814
0002c0 ae b8 04 3c 37 f7 92 3b d8 1d f6 3b 97 44 04 3c
       0.008100672 0.0044850367 0.007510882 0.008072994
0002d0 3e 89 04 3c b5 16 93 3b 6b f0 f5 3b 00 07 05 3c
       0.008089362 0.004488791 0.0075054667 0.008119345
0002e0 66 8a 04 3c d1 bc 93 3b 03 5a f7 3b c6 dd 04 3c
       0.008089637 0.0045085927 0.007548572 0.0081095155
0002f0 79 22 05 3c ca 38 93 3b 38 0d f7 3b 7e dc 04 3c
       0.008125895 0.004492854 0.0075394176 0.00810921
000300 b1 3d 04 3c d1 00 93 3b e7 0a f7 3b 37 9f 04 3c
       0.008071349 0.0044861813 0.0075391415 0.0080946
000310 d7 88 04 3c 2f 4c 94 3b 0c 99 f6 3b 43 8c 04 3c
       0.008089266 0.0045256834 0.007525569 0.008090082
000320 16 a4 04 3c ca 4b 94 3b ca 75 f6 3b d2 a3 04 3c
       0.008095762 0.0045256363 0.007521366 0.008095698
000330 6e 4f 05 3c dd 4b 94 3b 98 a1 f6 3b 7c 4f 05 3c
       0.008136613 0.004525645 0.0075265877 0.008136626
000340 7c 4f 05 3c dd 4b 94 3b a1 e0 f7 3b 7c 4f 05 3c
       0.008136626 0.004525645 0.0075646196 0.008136626
000350 77 4f 05 3c 85 4b 94 3b a1 e0 f7 3b 77 4f 05 3c
       0.008136622 0.004525604 0.0075646196 0.008136622
000360 24 96 04 3c 36 ed 93 3b 9f e0 f7 3b d8 95 04 3c
       0.008092437 0.0045143617 0.0075646187 0.008092366
000370 5f ff 04 3c 02 73 93 3b 9c 87 f6 3b 81 b9 04 3c
       0.008117526 0.004499794 0.00752349 0.008100868
000380 0e 3d 04 3c 1d 3e 93 3b eb c9 f6 3b d0 34 04 3c
       0.008071197 0.0044934885 0.0075313947 0.008069232
000390 e9 e7 03 3c eb 22 93 3b 2f d3 f5 3b 5a d4 04 3c
       0.008050897 0.0044902465 0.0075019817 0.008107269
0003a0 92 16 05 3c 3b fb 93 3b c1 fb f6 3b d6 72 04 3c
       0.008123057 0.004516033 0.0075373356 0.00808402
0003b0 49 d9 04 3c 59 cd 93 3b 71 46 f6 3b ef 90 04 3c
       0.008108445 0.0045105633 0.0075157215 0.0080911955
0003c0 cd a3 04 3c 03 cc 93 3b 55 7e f6 3b 03 52 04 3c
       0.008095694 0.004510404 0.007522384 0.008076194
0003d0 a9 e9 04 3c dd 87 93 3b 81 09 f6 3b 02 31 05 3c
       0.00811235 0.00450228 0.007508457 0.00812936
0003e0 ee 7f 04 3c b3 72 93 3b 02 a8 f7 3b 14 30 05 3c
       0.008087141 0.004499757 0.00755787 0.0081291385
0003f0 43 8c 04 3c f6 8c 93 3b 52 a6 f7 3b 7c 4f 05 3c
       0.008090082 0.004502888 0.0075576687 0.008136626

exp_avg f4 [10]
000000 94 03 20 bb 0d b4 38 3c 50 29 cc bb 8e f7 2c 3c
       -0.0024416195 0.011273396 -0.006230511 0.0105570685
000010 37 e5 33 3d d0 fc c2 bb 3a 65 84 bc b1 39 5e 3b
       0.04391977 -0.0059505478 -0.01616155 0.0033908898
000020 b6 a9 fd bc 27 3a f2 bb
       -0.030964714 -0.007392186

exp_avg_sq f4 [10]
000000 7c 4f 05 3c cf 80 42 3c 74 96 b3 3c 82 f9 bc 3c
       0.008136626 0.011871531 0.021922328 0.023068193
000010 e2 fc af 3c 9d a2 c8 3c 25 d4 59 3c 84 45 9f 3c
       0.021482889 0.024491603 0.013295208 0.019442327
000020 22 90 df 3c 7d af f1 3c
       0.027290408 0.029502625
