evaluation/Results/Seed_0_Trainable_no_ENEQR_for_2x2_2x2_imgsize_14/model_checkpoints/epochs_22.pt (torch, 206049 bytes, 7 tensors)

qlayer_1.torch_qlayer.weights f8 [1, 4]
-0.07266094962931335 -0.8793490277240921 -0.26835022124251884 -0.6564112353869826
00000000: 20ad 5a72 e899 b2bf 1a05 7b92 a023 ecbf
00000010: 581a 0768 a62c d1bf 7cd9 9622 5201 e5bf

linear.weight f4 [10, 1690]
0.0026685155 -0.014331189 -0.03099975 -0.01782521 0.020276565 -0.016327389 0.0072396295 -0.01488261
0.001122257 0.010102122 0.35428023 0.022837104 -0.023914618 0.0071364357 -0.16862758 -0.21338266
-0.000506982 -0.18181275 -0.35676974 -0.38353455 0.54712296 0.015885288 -0.028260084 -0.49811208
-0.52221024 -0.7617054 -0.011320367 -0.70274097 -0.4166358 -0.55066967 0.21875833 -0.0093233045
-0.016522191 -0.17823689 -0.5243234 0.062372617 0.013874268 -0.32759356 -0.511232 -0.2108152
-0.1823164 -0.0023410015 -0.028920196 0.009694829 -0.067120716 -1.0634934 -0.023625737 0.017918715
-0.39566666 0.18552503 0.13120964 -0.008383059 -0.00688448 0.17247641 -0.37989658 -0.34229776
0.013336651 -0.39102533 -0.36831665 -0.1429945 0.5473063 -0.007959941 -0.004885008 -0.061351735
-0.03612737 -0.45572275 -0.012160237 -0.46182162 -0.4812634 -0.51209366 0.37752482 -0.009602253
0.021538427 -0.951873 -0.9682016 -0.7356729 -0.043867063 -0.8364501 0.030017413 -0.3775281
0.8758688 0.009168595 0.035044096 -0.9504739 -0.7404678 -0.49785337 -0.020694435 -1.0299096
-1.1155995 -0.89759946 0.24600013 0.014027944 -0.028944748 -0.51653033 -0.8735454 -0.80874
-0.02255106 -1.1005145 -0.107824154 -0.2477027 0.4921413 -0.00066470756 -0.006264195 -0.8159489
-0.40789473 -0.5359205 0.01346389 -0.5739861 -0.482596 -0.49236226 0.07775321 0.015434864
0.014764755 -0.032217097 -0.060991526 -0.3023319 -0.015100049 -0.2898631 -0.075243875 -0.08198473
0.012013693 0.009253521 0.003190353 0.0010105859 -0.0025110482 -0.03625646 -0.023588503 -0.027534906
-0.06428087 -0.022613665 0.24893415 0.003627923 -0.021857051 0.12944466 -0.0043302323 -0.2694173
0.004916281 -0.23518282 -0.018860707 -0.2804741 0.51015514 0.0061746445 -0.029413901 -0.43938503
-0.044406403 -0.5257727 0.0006541981 -0.4604943 -0.3610333 -0.48416787 1.1969669 -0.003776172
-0.0009592576 -0.77506864 -0.7786279 -0.6149199 -0.027628321 -0.10809897 -0.9126862 -1.1712356
0.041835915 0.019505812 0.05073443 -0.45818442 -0.3616539 -0.24005757 -0.026789475 -0.3126729
0.30118996 -0.03863374 0.1823191 0.012920354 0.021939432 -0.6434728 -0.8663176 -0.54870176
-0.06099174 -0.22247303 -0.21768358 -0.14257914 0.7618633 -0.018240893 0.07658731 -0.40675437
0.111437455 -0.2013347 -0.022877367 -0.24804382 0.09662717 -0.75724715 0.05092463 -0.003152105
-0.009492158 0.17509834 0.23551792 -0.189559 0.027491866 0.54179275 0.6654111 -0.06859058
-0.33394483 -0.003881185 0.03882892 0.7337452 -0.00024283856 0.08018709 0.06353891 0.40858197
0.30208573 0.3461437 -0.3592042 -0.0021293457 -0.2668404 0.17337836 -0.16163276 -0.09558823
0.1346072 0.5272484 0.74557525 0.32947046 -0.3742888 0.0058520976 -0.039377715 0.37799796
0.05674512 -0.10114668 0.01976207 0.42608327 -0.13583975 0.36135292 -0.20662802 -0.005330382
-0.028177915 -0.18150772 0.35301453 -0.08738264 -0.0116216345 -0.42753237 0.062065315 0.21009284
0.36412355 -0.016517589 0.017483678 -0.14820035 -0.46039608 -0.7599875 -0.014555609 -0.99419266
-0.12311099 -0.35520235 0.1553017 0.024072055 -0.002260425 -0.0076959734 -0.01000961 -0.17191735
00000000: 43e2 2e3b 5dcd 6abc 30f3 fdbc 2d06 92bc
00000010: 0a1b a63c 04c1 85bc 6a3a ed3b 31d6 73bc
00000020: b218 933a 5f83 253c 3864 b53e e114 bb3c
00000030: 97e8 c3bc c3d8 e93b b5ac 2cbe fc80 5abe
00000040: fce6 04ba 1f2d 3abe 86aa b6be a45e c4be
00000050: 4010 0c3f dd21 823c b181 e7bc 8c08 ffbe
00000060: 92af 05bf 20ff 42bf 1079 39bc d5e6 33bf
00000070: 4a51 d5be b0f8 0cbf 2f02 603e c6c0 18bc
00000080: 8c59 87bc bb83 36be 0f3a 06bf 6e7a 7f3d
00000090: e650 633c 58ba a7be 1ae0 02bf f1df 57be
000000a0: 26b1 3abe 7d6b 19bb 0cea ecbc 0fd7 1e3c
000000b0: 9676 89bd 8d20 88bf c38a c1bc 45ca 923c
000000c0: d294 cabe 46fa 3d3e d25b 063e 1959 09bc
000000d0: 3497 e1bb a89d 303e ce81 c2be a741 afbe
000000e0: f881 5a3c 7934 c8be 0094 bcbe 266d 12be
000000f0: 441c 0c3f 6a6a 02bc 6b12 a0bb f54b 7bbd
00000100: 4bfa 13bd 7e54 e9be bb3b 47bc e273 ecbe
00000110: 2868 f6be 9218 03bf ef4a c13e c552 1dbc
00000120: 5b71 b03c f3ad 73bf 0fdc 77bf 0f55 3cbf
00000130: f3ad 33bd 9821 56bf 14e7 f53c 5d4b c1be
00000140: f038 603f e037 163c 668a 0f3d 4252 73bf
00000150: 4c8f 3dbf a3e6 febe 6087 a9bc 14d4 83bf
00000160: f7cb 8ebf 14c9 65bf 75e7 7b3e 76d5 653c
00000170: 891d edbc 553b 04bf aca0 5fbf 9609 4fbf
00000180: 00bd b8bc a9dd 8cbf e9d2 dcbd c7a5 7dbe
00000190: f2f9 fb3e c53f 2eba e043 cdbb 07e2 50bf
000001a0: 94d7 d0be 1632 09bf a697 5c3c c1f0 12bf
000001b0: d316 f7be e816 fcbe 133d 9f3d 83e2 7c3c
000001c0: dfe7 713c 13f6 03bd 40d2 79bd 3fcb 9abe
000001d0: 3266 77bc f068 94be 7619 9abd 9ce7 a7bd
000001e0: 15d5 443c 159c 173c 3e15 513b a375 843a
000001f0: 6690 24bb a781 14bd ad3c c1bc e290 e1bc
00000200: b0a5 83bd 4b40 b9bc 98e8 7e3e 73c2 6d3b
00000210: 8f0d b3bc 248d 043e 9fe4 8dbb 10f1 89be
00000220: c118 a13b c4d3 70be c581 9abc 4d9a 8fbe
00000230: 8799 023f ac54 ca3b 6cf5 f0bc 13f7 e0be
00000240: 7de3 35bd 0a99 06bf 7e7e 2b3a e9c5 ebbe
00000250: 5bd9 b8be dae4 f7be 3636 993f a779 77bb
00000260: b076 7bba e66a 46bf 2854 47bf 646b 1dbf
00000270: ca54 e2bc fe62 ddbd cea5 69bf 0ceb 95bf
00000280: 235c 2b3d a7ca 9f3c e8ce 4f3d 2697 eabe
00000290: b32a b9be a7d1 75be 9a75 dbbc aa16 a0be
000002a0: 9235 9a3e 6a3e 1ebd dcb1 3a3e e4af 533c
000002b0: 53ba b33c a2ba 24bf fdc6 5dbf b877 0cbf
000002c0: 7ad2 79bd f8cf 63be 72e8 5ebe 4400 12be
000002d0: 7909 433f ed6d 95bc cfd9 9c3d 1c42 d0be
000002e0: 5239 e43d af2a 4ebe 5169 bbbc 33ff 7dbe
000002f0: 77e4 c53d f3da 41bf 5896 503d 8c93 4ebb
00000300: ff84 1bbc fb4c 333e 9c2b 713e c11b 42be
00000310: 9f36 e13c eeb2 0a3f 6258 2a3f 3879 8cbd
00000320: d1fa aabe 7b5b 7ebb 130b 1f3d bad6 3b3f
00000330: 7ba2 7eb9 2139 a43d b020 823d a831 d13e
00000340: fbaa 9a3e bf39 b13e 9de9 b7be 7e8c 0bbb
00000350: 4e9f 88be 198a 313e 0f83 25be c3c3 c3bd
00000360: 78d6 093e c0f9 063f 05de 3e3f 5ab0 a83e
00000370: c8a2 bfbe f4c2 bf3b 874a 21bd f388 c13e
00000380: 926d 683d fe25 cfbd 11e4 a13c 9627 da3e
00000390: 9319 0bbe 4003 b93e 4c96 53be 7caa aebb
000003a0: 5fd5 e6bc 29dd 39be 52be b43e abf5 b2bd
000003b0: ab68 3ebc 86e5 dabe 3338 7e3d 9422 573e
000003c0: 676e ba3e e54f 87bc ee39 8f3c d5c1 17be
000003d0: 09b9 ebbe 8a8e 42bf a67a 6ebc 6983 7ebf
000003e0: 9d21 fcbd 15dd b5be 6907 1f3e c232 c53c
000003f0: a323 14bb 812e fcbb 59ff 23bc 1a0b 30be

linear.bias f4 [10]
-0.01265616 0.03259415 -0.038630076 -0.03199206 0.010918595 -0.0037345767 -0.019407274 0.042961463
0.0062581883 -0.017551888
00000000: c85b 4fbc 7281 053d 923a 1ebd 1b0a 03bd
00000010: e8e3 323c cdbf 74bb 01fc 9ebc 5cf8 2f3d
00000020: 7d11 cd3b fac8 8fbc

exp_avg f4 [10, 1690]
0.0 0.0 0.0017661387 0.0 0.0 0.0 0.00070292904 0.0
0.0 0.0 -1.8037096e-19 -2.8319923e-35 0.0017661387 0.0 1.8037096e-19 5.6639846e-35
0.00070292904 1.8037096e-19 1.8037096e-19 1.8037096e-19 -3.7381754e-28 -6.6e-44 0.0017661387 1.00080534e-25
4.132741e-26 4.1327397e-26 0.00070292904 1.7212655e-14 1.7212655e-14 3.7652007e-28 -1.7238624e-10 -5.3583377e-30
0.0017661384 1.8784974e-17 1.7240334e-10 1.7238624e-10 0.00070292904 4.2211212e-10 1.8211187e-10 1.7238624e-10
-2.3475593e-05 7.371703e-21 0.0017394127 0.00047129387 0.00047129454 2.4973773e-10 0.000808947 2.3475855e-05
0.00049477024 2.3475593e-05 -0.00047141357 -1.4795807e-19 0.0017661387 0.0004714137 0.0004948855 2.0157822e-09
0.0007029553 4.8653837e-09 2.3592835e-05 0.00047141357 -0.00048037842 -7.5834426e-20 0.0017661353 1.2381184e-07
0.00047141357 7.865802e-07 0.0007031231 9.081309e-07 0.00048030264 0.00048037842 -9.0112535e-06 -4.787828e-21
0.0017661387 9.744824e-06 2.4640405e-05 9.750176e-06 0.00070501794 2.389499e-05 2.460945e-05 9.0112535e-06
-9.006884e-06 -1.3624834e-20 0.0017661384 3.282166e-05 2.459919e-05 7.846695e-07 0.00071012985 -8.5186713e-10
3.1320462e-09 9.006884e-06 -1.7235924e-09 2.533248e-25 0.0017661387 1.6129938e-09 2.9183704e-09 1.311529e-09
0.0007029295 2.9186682e-09 2.9191032e-09 1.7235924e-09 -1.6122821e-09 -7.5949156e-25 0.0017661387 4.6828243e-27
4.3652546e-13 -2.5299817e-25 0.00070292916 1.6129469e-09 1.6129686e-09 1.6122821e-09 -2.15501e-14 -1.353425e-29
0.0017661387 2.29592e-40 6e-45 2.15501e-14 0.00070292904 2.15501e-14 6e-45 2.15501e-14
0.0 0.0 0.0017661387 0.0 0.0 2.15501e-14 0.00070292904 2.15501e-14
2.15501e-14 0.0 -4.324e-42 -6e-45 0.0017661387 -6e-45 0.0 4.324e-42
0.00070292904 4.324e-42 4.324e-42 4.324e-42 -1.2189886e-13 -1.9140372e-29 0.0017661387 1.3376322e-30
3.8085546e-18 1.5676326e-21 0.00070292916 1.2189589e-13 4.2833452e-19 1.2189886e-13 -5.529313e-06 -3.4141654e-21
0.0017660994 5.3144425e-13 -6.706504e-09 5.522586e-06 0.0007029127 5.5980654e-06 4.400585e-08 5.529313e-06
-2.3860759e-05 -1.9865021e-21 0.0017660987 5.6048675e-06 2.3827088e-05 5.5874134e-06 0.0007041357 0.00050067017
0.00047125548 2.3860759e-05 -2.9307816e-05 -1.8780279e-19 0.0017601339 2.3639379e-05 0.0006157042 0.00047164576
0.0007041563 0.00062098366 0.00012567487 2.9307816e-05 -0.00045345267 -8.8698377e-20 0.0017868596 -2.3524422e-05
0.00047090364 0.00060274755 0.00082584086 0.0005683456 0.00050575647 0.00045345267 -1.0815107e-05 -1.1311077e-20
0.0012559608 1.0157308e-05 0.00049765327 1.8519688e-05 0.00070440525 -0.0004516965 -0.00045866275 1.0815107e-05
-5.8355694e-05 3.974014e-19 0.0011882082 -0.000474081 0.00052984833 -2.0032126e-05 0.00081080454 0.00051289727
0.0004991909 5.8355694e-05 -4.348891e-05 -6.245948e-19 0.0023249744 -0.00048983906 2.5908188e-05 2.7645356e-05
0.0005992478 0.00047321967 2.3446362e-05 4.348891e-05 0.0005145033 2.1876908e-19 0.0018019846 -3.1676656e-05
-3.139539e-05 1.769681e-06 0.00059248414 -0.0005160872 -0.00048376338 -0.0005145033 -8.9048655e-05 -1.2284728e-23
0.0017661311 0.00012050967 8.905514e-05 1.8823183e-08 0.00069618126 2.2989077e-08 8.900567e-05 8.9048655e-05
-5.1512494e-10 -3.7842518e-20 0.0017661387 6.504552e-09 0.00012052162 0.00012051463 0.00070293376 0.00012051504
1.5173502e-08 5.1512494e-10 -2.15501e-14 -1.0183067e-24 0.0017661387 0.0 0.0 6.767125e-30
00000000: 0000 0000 0000 0000 c87d e73a 0000 0000
00000010: 0000 0000 0000 0000 c544 383a 0000 0000
00000020: 0000 0000 0000 0000 c7f1 54a0 1593 1686
00000030: c87d e73a 0000 0000 c7f1 5420 1593 9606
00000040: c544 383a c7f1 5420 c7f1 5420 c7f1 5420
00000050: 5def ec91 2f00 0080 c87d e73a 93c9 f715
00000060: b7a4 4c15 b3a4 4c15 c544 383a ae09 9b28
00000070: ae09 9b28 e0a5 ee11 6a8a 3daf 295c d98e
00000080: c57d e73a c442 ad23 3a8f 3d2f 6a8a 3d2f
00000090: c544 383a 000f e82f ef3b 482f 6a8a 3d2f
000000a0: 74ed c4b7 5e3f 0b1e 01fd e33a fe17 f739
000000b0: 1518 f739 764b 892f 840f 543a 04ee c437
000000c0: 78b3 013a 74ed c437 0f28 f7b9 95ad 2ea0
000000d0: c87d e73a 1328 f739 34bb 013a 0486 0a31
000000e0: 8846 383a 5e2c a731 3ae9 c537 0f28 f739
000000f0: 4ddb fbb9 190f b39f ab7d e73a 24f1 0434
00000100: 0f28 f739 6125 5335 cb51 383a 48c6 7335
00000110: 21d1 fb39 4ddb fb39 0a2f 17b7 08e1 b49d
00000120: c87d e73a b37d 2337 deb2 ce37 b094 2337
00000130: f4d0 383a 1a72 c837 6470 ce37 0a2f 1737
00000140: 461c 17b7 d4ae 809e c57d e73a fda9 0938
00000150: 5c5a ce37 14a2 5235 0228 3a3a d228 6ab0
00000160: 8a3b 5731 461c 1737 84e3 ecb0 ebcc 9c16
00000170: c87d e73a 2db0 dd30 848c 4831 5341 b430
00000180: cd44 383a c191 4831 6899 4831 84e3 ec30
00000190: 2297 ddb0 1f0d 6b97 c87d e73a 7b81 b913
000001a0: f3bd f52a 2999 9c96 c744 383a 86ae dd30
000001b0: 4aaf dd30 2297 dd30 261b c2a8 ec40 898f
000001c0: c87d e73a 0280 0200 0400 0000 261b c228
000001d0: c544 383a 261b c228 0400 0000 261b c228
000001e0: 0000 0000 0000 0000 c87d e73a 0000 0000
000001f0: 0000 0000 261b c228 c544 383a 261b c228
00000200: 261b c228 0000 0000 0e0c 0080 0400 0080
00000210: c87d e73a 0400 0080 0000 0000 0e0c 0000
00000220: c544 383a 0e0c 0000 0e0c 0000 0e0c 0000
00000230: f43e 09aa 3f1b c28f c87d e73a 110b d90d
00000240: c882 8c22 d9e4 ec1c c744 383a 193e 092a
00000250: 15d8 fc20 f43e 092a 7088 b9b6 c8fb 809d
00000260: 767c e73a 9896 152b 086f e6b1 a74e b936
00000270: ac43 383a 04d7 bb36 f200 3d33 7088 b936
00000280: 9728 c8b7 8a18 169d 707c e73a 7211 bc36
00000290: 48e0 c737 847b bb36 bf95 383a 683f 033a
000002a0: d712 f739 9728 c837 0eda f5b7 e9b7 5da0
000002b0: 4bb4 e63a 2e4d c637 3667 213a 3947 f739
000002c0: 2197 383a 82c9 223a 97c7 0339 0eda f537
000002d0: 63bd edb9 e16e d19f 0f35 ea3a 5056 c5b7
000002e0: 9ee3 f639 b401 1e3a 3e7d 583a 07fd 143a
000002f0: be94 043a 63bd ed39 8872 35b7 03a9 559e
00000300: 0d9f a43a 4e69 2a37 f274 023a ba5a 9b37
00000310: d6a7 383a aed1 ecb9 ac78 f0b9 8872 3537
00000320: f3c2 74b8 9a95 ea20 a7bd 9b3a 138e f8b9
00000330: 85e5 0a3a aa0a a8b7 2c8c 543a f473 063a
00000340: 22dc 023a f3c2 7438 dd67 36b8 0c59 38a1
00000350: 995e 183b 8b68 00ba 6955 d937 f3e7 e737
00000360: d716 1d3a 781a f839 aeae c437 dd67 3638
00000370: bbdf 063a 7323 8120 9230 ec3a 8ddc 04b8
00000380: 8bae 03b8 c785 ed35 f050 1b3a 074a 07ba
00000390: 9fa1 fdb9 bbdf 06ba a2bf bab8 079f 6d99
000003a0: 877d e73a 23ba fc38 1dc3 ba38 9eb0 a132
000003b0: ef7f 363a 8479 c532 8ea8 ba38 a2bf ba38
000003c0: b298 0db0 ccb4 329f c87d e73a a57e df31
000003d0: 8dc0 fc38 cdbc fc38 1645 383a 05bd fc38
000003e0: e256 8232 b298 0d30 261b c2a8 4993 9d97
000003f0: c87d e73a 0000 0000 0000 0000 ec40 090f

exp_avg_sq f4 [10, 1690]
0.0 0.0 0.004111148 0.0 0.0 0.0 0.0006512334 0.0
0.0 0.0 5.0919897e-07 1.41128575e-36 0.004111148 0.0 1.172294e-17 3.5462083e-06
0.0006527201 3.5462083e-06 5.0919897e-07 5.0919897e-07 3.0214709e-10 3.7559e-41 0.004111148 5.0945073e-07
5.095e-07 5.092523e-07 0.0006514203 2.559999e-10 4.258798e-12 3.0214709e-10 2.3081633e-05 2.2860793e-36
0.004111142 2.0322419e-07 5.3088655e-07 2.2559765e-05 0.000651252 3.7429164e-08 1.9744562e-08 2.3081633e-05
1.0762395e-05 2.9607332e-36 0.0041110585 3.2156757e-05 3.0162377e-05 2.6865877e-08 0.0006607333 1.058481e-05
9.972164e-06 1.0762395e-05 2.1211179e-05 2.1870781e-36 0.0041094776 4.019241e-05 1.31596935e-05 2.8862149e-05
0.00066450454 2.9607214e-05 2.4083e-05 2.1211179e-05 4.829485e-05 2.645243e-36 0.00410891 2.3106784e-05
2.531129e-05 1.5533775e-05 0.0006605936 2.1924967e-05 4.8121972e-05 4.829485e-05 6.4593325e-05 6.8338796e-36
0.0040807505 5.764874e-05 2.0710424e-05 5.452295e-05 0.00067183294 1.340034e-05 3.2623666e-05 6.4593325e-05
4.392726e-05 2.0105357e-35 0.0040725013 5.4390148e-05 1.0346844e-05 3.3407607e-05 0.00067085086 1.1754856e-05
2.0297266e-05 4.392726e-05 1.7748065e-05 1.8655235e-36 0.0041111377 1.0767108e-06 6.1440865e-06 4.14992e-06
0.00065286725 5.947338e-07 1.4734455e-05 1.7748065e-05 1.0335624e-06 1.3648016e-37 0.004111148 5.5921385e-07
3.4941458e-08 2.875125e-08 0.00065124495 5.6669955e-07 2.7691751e-08 1.0335624e-06 4.8185105e-11 5.7612e-41
0.004111148 4.7696222e-11 4.769623e-11 1.8228223e-10 0.0006512335 1.3458408e-10 4.777272e-11 4.8185105e-11
0.0 0.0 0.004111148 0.0 0.0 3.2024149e-18 0.0006512334 3.2024149e-18
3.2024149e-18 0.0 5.539174e-06 1.3655123e-37 0.004111148 1.0656055e-08 0.0 5.539174e-06
0.00065327855 5.539176e-06 1.0129303e-32 5.539174e-06 5.539246e-06 8.914329e-37 0.004111085 5.095685e-07
3.089088e-07 5.540174e-06 0.0006545555 1.4652246e-05 5.938679e-06 5.539246e-06 1.4761324e-05 4.0439563e-36
0.004084236 7.891775e-06 3.6996942e-05 5.1400977e-05 0.00065669406 3.7453025e-05 2.3918383e-05 1.4761324e-05
5.672451e-05 1.2828104e-35 0.003963747 5.665854e-05 8.092068e-05 8.675066e-05 0.0006650169 4.2517815e-05
9.8339326e-05 5.672451e-05 0.00012267246 3.1705904e-35 0.003765346 8.225019e-05 0.00014261139 0.00013115491
0.00070789363 0.00011709714 0.00015424078 0.00012267246 0.0002261106 5.2411063e-35 0.0037383582 0.00021291949
0.00030864304 0.0002850033 0.0007537724 0.00026356842 0.00021522169 0.0002261106 0.0004288568 8.236725e-35
0.003352825 0.0004476082 0.00035766725 0.0004226285 0.0007813384 0.00046413686 0.00039717602 0.0004288568
0.00044427687 8.284143e-35 0.0030565883 0.0005167113 0.00042457326 0.00037919928 0.0008054643 0.00044092216
0.000372906 0.00044427687 0.00039544364 8.923708e-35 0.0033441999 0.00035572395 0.00029711676 0.00040459176
0.00079011626 0.00033883244 0.00033909918 0.00039544364 0.0002527344 3.5354362e-35 0.0037564447 0.00022615834
0.00019507694 0.00014903251 0.0007369462 0.0003027697 0.00019758333 0.0002527344 0.00020472606 3.0823023e-35
0.004086104 0.00010052209 0.00012702253 0.00011566138 0.00069472584 0.000115656236 0.00019829601 0.00020472606
3.06583e-07 4.412947e-36 0.0041104136 7.6160336e-06 2.8050657e-05 2.8265595e-05 0.000654221 2.8086237e-05
7.656541e-06 3.06583e-07 1.0328365e-08 2.59251e-40 0.004111148 0.0 0.0 1.0328358e-08
00000000: 0000 0000 0000 0000 cfb6 863b 0000 0000
00000010: 0000 0000 0000 0000 89b7 2a3a 0000 0000
00000020: 0000 0000 0000 0000 e3af 0835 2a1e f003
00000030: cfb6 863b 0000 0000 0540 5823 65fb 6d36
00000040: 4e1b 2b3a 65fb 6d36 e3af 0835 e3af 0835
00000050: 6c1b a62f b368 0000 cfb6 863b 30c1 0835
00000060: 93c4 0835 8db3 0835 14c4 2a3a c8bc 8c2f
00000070: d8d7 952c 6c1b a62f 6e9f c137 667a 4204
00000080: c2b6 863b d735 5a34 3f82 0e35 ba3e bd37
00000090: c8b8 2a3a cdc1 2033 c09a a932 6e9f c137
000000a0: 2290 3437 0fdf 7b04 0fb6 863b 0ee0 0638
000000b0: 3605 fd37 b0c6 e632 1035 2d3a 6a95 3137
000000c0: 1e4e 2737 2290 3437 a9ee b137 580e 3a04
000000d0: cca8 863b 4694 2838 74c8 5c37 fe1c f237
000000e0: 2532 2e3a 025d f837 d905 ca37 a9ee b137
000000f0: 3390 4a38 4b08 6104 09a4 863b 71d5 c137
00000100: 9553 d437 874e 8237 b02b 2d3a 82eb b737
00000110: 93d6 4938 3390 4a38 4776 8738 2e57 1105
00000120: d1b7 853b ddcb 7138 4cbb ad37 92af 6438
00000130: f21d 303a 06d2 6037 65d5 0838 4776 8738
00000140: 893e 3838 fdcb d505 9e72 853b fa20 6438
00000150: 5b97 2d37 251f 0c38 0adc 2f3a b936 4537
00000160: 0c44 aa37 893e 3838 aee1 9437 81b3 1e04
00000170: b9b6 863b 8083 9035 4d29 ce36 8b3f 8b36
00000180: 2e25 2b3a cca5 1f35 0134 7737 aee1 9437
00000190: efb8 8a35 65c4 3902 cfb6 863b e21c 1635
000001a0: 8a12 1633 abf8 f632 4fb8 2a3a 4c1f 1835
000001b0: cede ed32 efb8 8a35 9beb 532e 99a0 0000
000001c0: cfb6 863b 2cc5 512e 2ec5 512e e36b 482f
000001d0: 8ab7 2a3a 0dfa 132f 4d1b 522e 9beb 532e
000001e0: 0000 0000 0000 0000 cfb6 863b 0000 0000
000001f0: 0000 0000 e84b 6c22 89b7 2a3a e84b 6c22
00000200: e84b 6c22 0000 0000 24dd b936 29dd 3902
00000210: cfb6 863b d311 3732 0000 0000 24dd b936
00000220: c840 2b3a 29dd b936 9d60 520a 24dd b936
00000230: c3dd b936 61ab 9703 48b6 863b 48c9 0835
00000240: 1ad8 a534 bbe5 b936 7a96 2b3a ebd2 7537
00000250: dd44 c736 c3dd b936 67a7 7737 c902 ac04
00000260: 0ed5 853b ea66 0437 2a2d 1b38 6197 5738
00000270: fe25 2c3a e116 1d38 56a4 c837 67a7 7737
00000280: 7beb 6d38 6c69 8805 52e2 813b a5a4 6d38
00000290: f6b3 a938 e8ed b538 8754 2e3a 2855 3238
000002a0: 863b ce38 7beb 6d38 a3a1 0039 d793 2806
000002b0: 06c4 763b bc7d ac38 f489 1539 a186 0939
000002c0: f091 393a 0c92 f538 b2bb 2139 a3a1 0039
000002d0: 1a18 6d39 1f55 8b06 3eff 743b 2443 5f39
000002e0: 5ed1 a139 7f6c 9539 cf98 453a 8e2f 8a39
000002f0: 22ad 6139 1a18 6d39 2fd8 e039 3ff8 da06
00000300: 12bb 5b3b f5ac ea39 4985 bb39 3d94 dd39
00000310: bcd2 4c3a 6557 f339 103c d039 2fd8 e039
00000320: d5ed e839 f53a dc06 0b51 483b e973 073a
00000330: 4299 de39 44cf c639 cb25 533a 922b e739
00000340: 9982 c339 d5ed e839 8c53 cf39 9c3b ed06
00000350: 5d2a 5b3b 7680 ba39 56c6 9b39 631f d439
00000360: ce1f 4f3a 52a5 b139 1fc9 b139 8c53 cf39
00000370: 7081 8439 ddf9 3b06 af2e 763b eb24 6d39
00000380: 918d 4c39 9c45 1c39 9f2f 413a 10bd 9e39
00000390: 5f2e 4f39 7081 8439 bcab 5639 20e2 2306
000003a0: bae4 853b 63cf d238 5a31 0539 3b8f f238
000003b0: 431e 363a 788c f238 aeed 4f39 bcab 5639
000003c0: 7298 a434 bdb4 bb04 a6b0 863b 3b8d ff36
000003d0: 544e eb37 e71b ed37 0780 2b3a bc9a eb37
000003e0: 9874 0037 7298 a434 a170 3132 b0d2 0200
000003f0: cfb6 863b 0000 0000 0000 0000 9970 3132

exp_avg f4 [10]
0.0026511513 0.009991727 0.029568413 -0.0147519205 0.018230632 -0.025077356 -0.022097256 0.020067105
-0.028559553 0.009977064
00000000: f0be 2d3b 57b4 233c 7539 f23c 0ab2 71bc
00000010: 6858 953c 076f cdbc 4e05 b5bc c563 a43c
00000020: b9f5 e9bc d776 233c

exp_avg_sq f4 [10]
0.009263654 0.009866925 0.01664973 0.023083985 0.017714547 0.022458892 0.01285276 0.013964567
0.02448081 0.021316962
00000000: 95c6 173c e2a8 213c 0465 883c a01a bd3c
00000010: 191e 913c b6fb b73c 6294 523c a4cb 643c
00000020: fb8b c83c e9a0 ae3c
