evaluation/Results/Seed_0_Trainable_no_ENEQR_for_2x2_2x2_imgsize_14/model_checkpoints/epochs_50.pt (torch, 206049 bytes, 7 tensors)

qlayer_1.torch_qlayer.weights f8 [1, 4]
00000000: 20ad 5a72 e899 b2bf 1a05 7b92 a023 ecbf
00000010: 581a 0768 a62c d1bf 7cd9 9622 5201 e5bf
-0.07266094962931335 -0.8793490277240921 -0.26835022124251884 -0.6564112353869826

linear.weight f4 [10, 1690]
00000000: 43e2 2e3b 5dcd 6abc a64c c5bd 2d06 92bc
00000010: 0a1b a63c 04c1 85bc 5cf8 6dbd 31d6 73bc
00000020: b218 933a 5f83 253c 5ef4 2a3f e114 bb3c
00000030: 02ca b6bd c3d8 e93b 82f2 48bf 766b 05bf
00000040: 92eb a1bd 72f9 fabe a532 2bbf 9471 32bf
00000050: 331d 1c3f dd21 823c 44b0 bfbd 8bc6 4fbf
00000060: 4d8e 55bf 9e6e 89bf 8e1c b8bd f972 91bf
00000070: 9696 84bf a305 1dbf ebee 083f c6c0 18bc
00000080: 3ea6 a7bd 4603 71bf 0136 58bf 1df9 35bd
00000090: 4647 8fbd a347 61bf f42f 66bf 5ce6 06bf
000000a0: 8f4f 82bd 7d6b 19bb 8d25 bebd 1970 f93d
000000b0: feb0 cabe 810c ddbf 403c f6bd 801f 413e
000000c0: 7060 cebe cfe1 883d b738 313e 1959 09bc
000000d0: f5d5 8ebd 8c91 93be b369 47bf 893a d9be
000000e0: 7a65 aabd f9cc 64bf ad70 ccbe 134a 3dbe
000000f0: d457 e93e 6a6a 02bc d94a c8bc 07fe ddbe
00000100: 643b 473e 6865 89bf 9121 abbd 326a 1ebf
00000110: 88f3 43bf 7f50 d7be 1ff0 b93e c552 1dbc
00000120: aa62 1c3b 5dc7 82bf f60b bcbf 4192 69bf
00000130: ec30 cfbd 200a 1cbf 94df a0bb 8df0 b9be
00000140: d71b 783f e037 163c eee2 06bd bbe3 89bf
00000150: ad96 1fbf f5f0 4abf 8c01 b1bd 7c7a a8bf
00000160: db70 e2bf fbab 7dbf 2e13 4b3e 76d5 653c
00000170: e048 c0bd 0c31 fbbe a857 9cbf 5727 6dbf
00000180: 920f b5bd bfab a9bf 152f 91bd 80d1 4cbe
00000190: 0118 543f c53f 2eba d6a3 92bd 8204 52bf
000001a0: 2871 6cbf d177 0bbf 3e50 57bd 9955 89bf
000001b0: 3cb4 96bf 7c26 54bf 416b bb3d 83e2 7c3c
000001c0: bb25 4fbd a29b 3cbd 62d0 a0bd 3fcb 9abe
000001d0: a7bc a4bd f068 94be 7b66 b6bd ca15 c4bd
000001e0: 15d5 443c 159c 173c 638e 7ebd a375 843a
000001f0: 6690 24bb 5d84 14bd 031f b6bd 5496 e1bc
00000200: 03a7 83bd 4b40 b9bc c6e8 7e3e 73c2 6d3b
00000210: 3e93 b2bd 248d 043e b2f3 8dbb 25f1 89be
00000220: d15e 77bd f2d3 70be 43ca 9abc 629a 8fbe
00000230: 034a 2b3f ac54 ca3b 9c0a c2bd 7962 45bf
00000240: ecb9 13bf 0af8 54bf 90a4 9fbd 918b 78bf
00000250: 9247 a7be eea2 24bf 2000 8e3f a779 77bb
00000260: ecad 82bd 6984 92bf 233e 26bf 75dc 83bf
00000270: c543 d6bd 0bbc e6be 28a7 9abf f4b4 8abf
00000280: 8143 a93d a7ca 9f3c 7d4a 0cbb bc26 25bf
00000290: 5b50 86bf 4025 2cbf 7fab 27be 9a27 47be
000002a0: a968 923e a9b4 a2bd 5cfa bc3d e4af 533c
000002b0: cc22 ed3d 5a4c d5be c50f 5bbf 4bc4 76be
000002c0: 938c bebd aa7f 83be d116 f43e 6c2e 57bd
000002d0: 149e 033f ed6d 95bc 6e94 093d 99cc 8fbe
000002e0: 42d9 2c3f 9e40 47be 44e1 bdbc 50c2 523e
000002f0: 9461 7abe 906f 02bf dd20 0dbe 8c93 4ebb
00000300: 659d 80be af47 cd3d c338 5d3f 90e7 053e
00000310: 8114 d33c f0c0 9c3f 0336 863e a313 f63d
00000320: 07c1 e4be 7b5b 7ebb 64aa 0ebd 4b6d 803f
00000330: 4db6 503c 6a5e 0cbe f77b a43d 7f1b 3f3f
00000340: b1d7 003f f1ff ea3e ec05 57bf 7e8c 0bbb
00000350: 4c0a 9cbe 76c7 983e 019e c0be ac67 23be
00000360: e493 de3d db53 b73f aad2 3e3f 5269 4f3f
00000370: 70ea d0be f4c2 bf3b df34 07be c43b 27be
00000380: 6136 24be 9e37 04bf ca66 823d 4467 c43e
00000390: ff16 183d ec4a ca3e d66b 04be 7caa aebb
000003a0: 2cb1 973c 7f6a 6fbf a096 2f3f aa47 d4be
000003b0: db28 8abd b97e 36bf 0189 00bf 26f8 073e
000003c0: 5820 9f3f e54f 87bc c6e5 dcbc 1453 e4be
000003d0: c189 7abf 5a00 a4bf 6c1b cdbd c56d cabf
000003e0: b0bf 2abe 04fc 9dbf 7b89 ed3e c232 c53c
000003f0: fa70 8abd 812e fcbb 7bf7 a7be a1f3 15bf
0.0026685155 -0.014331189 -0.0963376 -0.01782521 0.020276565 -0.016327389 -0.058098182 -0.01488261
0.001122257 0.010102122 0.66779125 0.022837104 -0.08925249 0.0071364357 -0.7849504 -0.521171
-0.079062596 -0.49018437 -0.6687415 -0.69704556 0.60982054 0.015885288 -0.09359792 -0.8116233
-0.8342026 -1.0736883 -0.089898214 -1.1363212 -1.0358455 -0.61336726 0.5348956 -0.0093233045
-0.08186005 -0.9414562 -0.84457403 -0.044427026 -0.06996016 -0.87999934 -0.8991692 -0.5269525
-0.06362831 -0.0023410015 -0.09284506 0.12179584 -0.3958816 -1.7269441 -0.120232105 0.18859673
-0.4030795 0.066836946 0.17306791 -0.008383059 -0.06974403 -0.2882198 -0.7789566 -0.4242747
-0.08320136 -0.89375263 -0.39929715 -0.18485288 0.4557482 -0.007959941 -0.024449753 -0.4335787
0.1945625 -1.0734072 -0.08356012 -0.6188079 -0.76543474 -0.420536 0.3631601 -0.009602253
0.002386252 -1.0217091 -1.469115 -0.9123879 -0.10116753 -0.6095295 -0.004909465 -0.36316338
0.9691748 0.009168595 -0.03293126 -1.0772623 -0.6233929 -0.7927392 -0.08642873 -1.3162379
-1.7690691 -0.99090546 0.19831535 0.014027944 -0.093889 -0.49060857 -1.221425 -0.9263815
-0.088408604 -1.3255538 -0.07089058 -0.20001793 0.8284913 -0.00066470756 -0.071601555 -0.8203813
-0.9236016 -0.544797 -0.05256676 -1.0729247 -1.1773753 -0.8287122 0.091513164 0.015434864
-0.050573092 -0.04604686 -0.07852246 -0.3023319 -0.08043795 -0.2898631 -0.08906265 -0.095744684
0.012013693 0.009253521 -0.06214751 0.0010105859 -0.0025110482 -0.036259044 -0.08892634 -0.027537502
-0.06428339 -0.022613665 0.24893484 0.003627923 -0.087194905 0.12944466 -0.0043320293 -0.2694179
-0.06039316 -0.2351835 -0.018895274 -0.28047472 0.6690981 0.0061746445 -0.0947468 -0.7710338
-0.5770557 -0.8319098 -0.0779506 -0.9708796 -0.3267179 -0.6431111 1.1093788 -0.003776172
-0.06380829 -1.1446658 -0.64938563 -1.0301653 -0.10462145 -0.4506534 -1.2082262 -1.0836473
0.082648285 0.019505812 -0.0021406703 -0.6451223 -1.0493273 -0.6724434 -0.16374014 -0.194487
0.28595474 -0.079446144 0.0922744 0.012920354 0.115789026 -0.41659814 -0.8557094 -0.24098317
-0.09304156 -0.25683337 0.47673658 -0.052534506 0.51413083 -0.018240893 0.03358882 -0.28085783
0.6751901 -0.19458243 -0.023178704 0.20581937 -0.24451286 -0.5095148 -0.13782068 -0.003152105
-0.25120082 0.10023438 0.86414737 0.13076615 0.025766613 1.224638 0.26213083 0.12015464
-0.44678518 -0.003881185 -0.034830466 1.0033354 0.012738776 -0.13707891 0.08031457 0.7465133
0.5032912 0.45898393 -0.8399341 -0.0021293457 -0.30476606 0.29839677 -0.37620547 -0.15957516
0.10868052 1.4322466 0.745402 0.8102008 -0.40803862 0.0058520976 -0.13203762 -0.16331393
-0.16036369 -0.51647365 0.06367262 0.38360035 0.037131306 0.39510286 -0.12931761 -0.005330382
0.0185171 -0.93521875 0.6858921 -0.41460925 -0.06746074 -0.71287113 -0.5020905 0.13278255
1.2431746 -0.016517589 -0.026965033 -0.44594634 -0.97866446 -1.2812607 -0.10014996 -1.5814749
-0.16674685 -1.2342534 0.46393952 0.024072055 -0.0675983 -0.0076959734 -0.32806 -0.58574873

linear.bias f4 [10]
00000000: 68bb 9fbd f481 723d fe1c 1ebd 1e2d 32bd
00000010: 8722 e0bb 470f 9dbc 07fb 373d 7f9e 1f3d
00000020: 49ac ca3b 9709 853c
-0.07799417 0.059205964 -0.038601868 -0.04350006 -0.0068400535 -0.019172324 0.044917133 0.038969513
0.006185089 0.016239924

exp_avg f4 [10, 1690]
00000000: 0000 0000 0000 0000 a96b f23b 0000 0000
00000010: 0000 0000 0000 0000 e5f7 403b 0000 0000
00000020: 0000 0000 0000 0000 0400 0080 0400 0080
00000030: a96b f23b 0000 0000 f205 0000 0400 0080
00000040: e5f7 403b f205 0000 0400 0000 0400 0080
00000050: 5467 a6a1 9254 6b87 a96b f23b 3e14 350c
00000060: 9f6c 1b13 4c1e 3415 e5f7 403b 3e14 350c
00000070: 5467 a621 5467 a621 c7f5 a7a1 4480 3e8a
00000080: a96b f23b 3216 6824 cbe3 8a23 6a8e 9224
00000090: e5f7 403b eca1 3428 989d 3428 c7f5 a721
000000a0: 1585 25b3 9214 ea98 a96b f23b 5ae7 3428
000000b0: f9d4 b924 4812 3528 09f8 403b 6f13 3528
000000c0: f1e0 2833 1585 2533 abd5 25b3 6b53 b394
000000d0: a96b f23b 78c4 2533 4fc5 2533 0941 892d
000000e0: 09f8 403b 439e 892d acb5 892d abd5 2533
000000f0: fd29 3630 beb9 0016 a56b f23b 0fde a12e
00000100: dbc8 0633 1357 0633 e5f7 403b baea 0e33
00000110: 18b8 0e33 fd29 36b0 a2f3 06b1 77bc c099
00000120: a56b f23b 3a26 2333 934c 2333 6701 2b33
00000130: e5f7 403b 8e40 e631 eb9e 0931 a2f3 0631
00000140: 9847 15bb 6444 38a1 926b f23b abd3 0431
00000150: 08aa a42e 5c24 5c35 a8f4 603b 4954 de3a
00000160: f854 153b 9847 153b d454 15bb ba2f 5321
00000170: a56b f23b d454 153b d454 153b f4bf 5335
00000180: 79f7 603b 4241 a42e d454 153b d454 153b
00000190: 9847 15bb 011d 53a1 a56b f23b 9f79 832e
000001a0: 9847 153b 4241 a42e e5f7 403b 9847 153b
000001b0: 9847 153b 9847 153b 9f79 83ae 0400 0080
000001c0: a96b f23b 9f79 832e 9f79 832e 9c24 7405
000001d0: e5f7 403b 9c24 7405 9f79 832e 9f79 832e
000001e0: 0000 0000 0000 0000 a96b f23b 0000 0000
000001f0: 0000 0000 9c24 7405 e5f7 403b 9c24 7405
00000200: 9c24 7405 0000 0000 0400 0000 0400 0080
00000210: a96b f23b 0400 0080 0400 0000 0400 0000
00000220: e5f7 403b bfb8 910b 2e15 0000 0400 0000
00000230: 86fa 62a4 947f 208a a96b f23b 6807 af14
00000240: dd74 c214 a858 cb14 e5f7 403b 1520 1d1a
00000250: 65da 1c1a 86fa 6224 08b3 a1ad 8bfd 4f91
00000260: a96b f23b 55fc a621 c645 a12d 4b20 01b0
00000270: e5f7 403b a0b9 3f2e a71f 3e2e 08b3 a12d
00000280: f26c af33 3759 719c a96b f23b 51b1 d82f
00000290: 0f47 2536 cb87 b0b3 9cf7 403b 6938 2536
000002a0: 4228 2536 f26c afb3 93eb abba 338e 74a0
000002b0: 106c f23b 9e2e 2c36 d015 e533 d752 3436
000002c0: f9f7 403b 39c8 0334 30e1 ba32 93eb ab3a
000002d0: 32e9 b1ba b009 36a1 7c6a f23b ebef ab3a
000002e0: 28b9 5438 4a56 3f38 940a 413b 73e6 b13a
000002f0: bd6c 4a38 32e9 b13a 578f 5b38 0a69 8121
00000300: c8b6 f03b 2700 ac3a ee58 d3b8 81e9 b13a
00000310: 3a3c 403b aaee ab3a ee25 ac3a 578f 5bb8
00000320: d089 80bb 131f e7a0 3c9e f03b e306 d73a
00000330: da54 6b3b 5178 183b fed6 583b b55a 153b
00000340: bc03 0f3b d089 803b 0a77 18bb 6f04 bea1
00000350: 47bf 383b 24bb 833b f694 de3a d517 6e3b
00000360: 7561 533b 6870 b036 e91a ad3b 0a77 183b
00000370: a44c 82bb 7014 d720 c4b6 9b3b c334 823b
00000380: 595f 823b b952 823b a5a9 613b ccdd 833b
00000390: 6fb1 4438 a44c 823b 8856 06b6 2255 d3a0
000003a0: 7d72 9d3b 0148 153b 2db1 0436 b068 3533
000003b0: fcf7 403b feee 0436 8b42 e434 8856 0636
000003c0: 31e2 d6b5 579e 979b a96b f23b 8e1a 8819
000003d0: 1dce 6c31 237c 6c31 eaf7 403b 1dce 6c31
000003e0: a079 832e 31e2 d635 e305 4c9e f243 1084
000003f0: a96b f23b 0000 0000 290d 6215 fb13 0000
0.0 0.0 0.007398088 0.0 0.0 0.0 0.0029444632 0.0
0.0 0.0 -6e-45 -6e-45 0.007398088 0.0 2.133e-42 -6e-45
0.0029444632 2.133e-42 6e-45 -6e-45 -1.1275948e-18 -1.7704288e-34 0.007398088 1.3949824e-31
1.9617305e-27 3.637461e-26 0.0029444632 1.3949824e-31 1.1275948e-18 1.1275948e-18 -1.1381417e-18 -9.172291e-33
0.007398088 5.032578e-17 1.5058464e-17 6.3558666e-17 0.0029444632 1.00271184e-14 1.002618e-14 1.1381417e-18
-3.8538094e-08 -6.0508353e-24 0.007398088 1.0042174e-14 8.059175e-17 1.00514825e-14 0.0029444715 1.0051732e-14
3.932013e-08 3.8538094e-08 -3.8611386e-08 -1.8107284e-26 0.007398088 3.8595743e-08 3.8596507e-08 1.5603978e-11
0.0029444715 1.5645379e-11 1.5655775e-11 3.8611386e-08 6.6270883e-10 1.0398368e-25 0.007398086 7.360878e-11
3.1381983e-08 3.12785e-08 0.0029444632 3.3275434e-08 3.3229384e-08 -6.6270883e-10 -1.9638056e-09 -1.9928455e-23
0.007398086 3.798616e-08 3.802104e-08 3.9815315e-08 0.0029444632 6.70122e-09 2.0026458e-09 1.9638056e-09
-0.002277827 -6.243214e-19 0.0073980773 1.9328847e-09 7.48806e-11 8.2009296e-07 0.0034325514 0.0016962375
0.002278624 0.002277827 -0.0022786157 7.1552746e-19 0.007398086 0.0022786157 0.0022786157 7.8882954e-07
0.0034327193 7.469449e-11 0.0022786157 0.0022786157 -0.002277827 -7.1527967e-19 0.007398086 5.9787945e-11
0.002277827 7.469449e-11 0.0029444632 0.002277827 0.002277827 0.002277827 -5.9787945e-11 -6e-45
0.007398088 5.9787945e-11 5.9787945e-11 1.1479549e-35 0.0029444632 1.1479549e-35 5.9787945e-11 5.9787945e-11
0.0 0.0 0.007398088 0.0 0.0 1.1479549e-35 0.0029444632 1.1479549e-35
1.1479549e-35 0.0 6e-45 -6e-45 0.007398088 -6e-45 6e-45 6e-45
0.0029444632 5.6129943e-32 7.598e-42 6e-45 -4.921814e-17 -7.7277146e-33 0.007398088 1.7673406e-26
1.9635088e-26 2.053273e-26 0.0029444632 3.2492755e-23 3.2436462e-23 4.921814e-17 -1.8383087e-11 -1.640755e-28
0.007398088 1.1315389e-18 1.8334567e-11 -4.697582e-10 0.0029444632 4.359324e-11 4.322911e-11 1.8383087e-11
8.1688896e-08 -7.985552e-22 0.007398088 3.9416162e-10 2.4628278e-06 -8.220339e-08 0.0029444462 2.461975e-06
2.461035e-06 -8.1688896e-08 -0.0013116471 -2.0714654e-19 0.007398136 2.5657132e-06 1.0667611e-07 2.687031e-06
0.0029444678 1.2273166e-07 2.1755653e-08 0.0013116471 -0.0013573526 -6.167682e-19 0.007397948 0.0013117766
5.071718e-05 4.561831e-05 0.0029455768 0.0013572708 4.8261823e-05 0.0013573526 5.2347164e-05 8.769184e-19
0.007346008 0.0013122604 -0.000100778285 0.0013573618 0.0029332773 0.0013117392 0.0013133863 -5.2347164e-05
-0.0039226785 -3.9153485e-19 0.0073430818 0.0016405251 0.003590873 0.0023265074 0.003308713 0.0022789661
0.0021822294 0.0039226785 -0.0023264312 -1.2876074e-18 0.0028190182 0.0040201116 0.001698165 0.0036330123
0.0032254134 5.2582946e-06 0.005282749 0.0023264312 -0.0039764214 3.643594e-19 0.004752012 0.003973575
0.0039786515 0.0039771465 0.0034433391 0.004024243 4.689529e-05 0.0039764214 -2.0017924e-06 -3.5801127e-19
0.004804908 0.0022778513 1.9772663e-06 4.223756e-08 0.0029444685 1.9808645e-06 4.2516726e-07 2.0017924e-06
-1.6010073e-06 -2.508318e-22 0.007398088 1.4072796e-23 3.4459682e-09 3.4413083e-09 0.0029444643 3.4459682e-09
5.978795e-11 1.6010073e-06 -1.08008874e-20 -1.6958318e-36 0.007398088 0.0 4.5650718e-26 7.168e-42

exp_avg_sq f4 [10, 1690]
00000000: 0000 0000 0000 0000 a145 663b 0000 0000
00000010: 0000 0000 0000 0000 0ee8 113a 0000 0000
00000020: 0000 0000 0000 0000 2e1d e236 554e e901
00000030: a145 663b 0000 0000 5413 e136 4d4d e836
00000040: 7793 123a 4e4d e836 2e1d e236 2e1d e236
00000050: e157 a82d 7ed0 6a03 a145 663b 4b1d e236
00000060: 4d1d e236 361d e236 278e 123a 5903 0437
00000070: 5413 e136 e157 a82d fd44 3036 44a3 eb02
00000080: a145 663b 668e a435 9e28 e236 8e7b c035
00000090: 63cd 123a 6315 0a37 139a eb36 fd44 3036
000000a0: ed0a 0038 022e 0d04 0145 663b b5b8 fb36
000000b0: ccd3 a536 11ef b434 b8be 143a 53ad 4937
000000c0: 5d53 0d38 ed0a 0038 39a0 2b38 8f60 4403
000000d0: 033d 663b f2f4 0c38 498c ff37 4b8a 2437
000000e0: cdd5 153a 1e6f 7137 52c8 7037 39a0 2b38
000000f0: 7981 af37 0567 3805 bbc7 643b 06bb 8137
00000100: 3d77 fa37 ed45 b837 c522 153a bd15 5737
00000110: feed 1838 7981 af37 0ff8 0038 0000 a004
00000120: eb90 643b 073f db37 6a30 2738 5c22 ac37
00000130: 1540 143a b7d7 d137 c2cd d237 0ff8 0038
00000140: 61b9 ee37 8ff6 8504 031b 663b ad65 ab37
00000150: 1a8f 0737 2ecc 8836 399d 143a 348a 4638
00000160: e4c0 2438 61b9 ee37 b4a7 f437 c2ed 3704
00000170: 9b45 663b 2a4c ac37 3717 9d37 28c0 8e34
00000180: e6ca 133a 431e 5333 6c25 f337 b4a7 f437
00000190: 5c66 9a37 1794 1a04 a145 663b 47e0 1133
000001a0: 20e4 9937 8f1a f030 51e8 113a b63f 9a37
000001b0: 68f9 9937 5c66 9a37 b94d 4e2c b409 0000
000001c0: a145 663b e236 4c2c 2c3e 4c2c 67bc 422d
000001d0: 0ee8 113a 7bc7 0f2d 958a 4c2c b94d 4e2c
000001e0: 0000 0000 0000 0000 a145 663b 0000 0000
000001f0: 0000 0000 0e98 6520 0ee8 113a 0e98 6520
00000200: 0e98 6520 0000 0000 6d97 b434 b84b 5a00
00000210: a145 663b 73e0 3130 9de0 8912 6d97 b434
00000220: 65f0 113a 7197 b434 6681 7a16 6d97 b434
00000230: 4725 8b37 175c 9f03 9845 663b 091e e236
00000240: bd2a 5e37 815d ec36 569b 123a 40c8 6c37
00000250: 7324 2637 4725 8b37 5619 ab36 e842 8e04
00000260: af3f 643b 92ef 0538 28e2 fd37 f689 4a37
00000270: 22ae 153a 1f8f 1437 04ff 0e37 5619 ab36
00000280: 7553 ae38 4a7d 3d05 35c3 5e3b 2a05 2738
00000290: 3739 8f38 d0ba 9538 f149 193a f81d 1338
000002a0: a865 cd38 7553 ae38 6a03 4939 b7e1 ea05
000002b0: 17c3 513b efbf 0139 ef55 af38 d33c 0d39
000002c0: 66c6 1e3a 0d8c 6339 7afd 2e39 6a03 4939
000002d0: a3c5 9139 07fc c106 96e5 3c3b acc7 7739
000002e0: ba3b 8539 01e2 9139 f8d5 2b3a e22a 9f39
000002f0: ba30 7e39 a3c5 9139 3a04 d339 ade7 bb06
00000300: 8420 393b 627d b839 4e0d d339 5901 8a39
00000310: 58bd 373a 325f c639 34ab c139 3a04 d339
00000320: c659 cc39 2e61 0107 5171 383b 43d8 ec39
00000330: 2e46 8a39 9bb0 8d39 6d4e 323a abbd ab39
00000340: 87e0 c339 c659 cc39 aed0 9a39 0e1e ac06
00000350: 3f7e 353b b44c 8f39 e36d 5a39 04e4 8039
00000360: 9e78 293a e6e3 8239 b304 bb39 aed0 9a39
00000370: 9cd8 4d39 a136 1906 52d8 4f3b b2a7 3d39
00000380: 0ed5 7039 c8bf 4339 c6cd 223a 5cc2 8a39
00000390: ef58 0139 9cd8 4d39 f4a8 af38 7328 b405
000003a0: 7f95 5e3b 13cf 8438 5ddf 5938 c476 6138
000003b0: 75c9 163a e371 5e38 76b6 5c38 f4a8 af38
000003c0: bf50 5137 9ff7 3505 c63e 653b 8cb1 3436
000003d0: 6468 6c37 49aa 6c37 c96f 133a 0488 8f37
000003e0: 4266 fb34 bf50 5137 4d5a 1536 7a5a 9501
000003f0: a145 663b 0000 0000 c039 a02f cf60 1536
0.0 0.0 0.0035136717 0.0 0.0 0.0 0.000556589 0.0
0.0 0.0 6.738722e-06 8.5703083e-38 0.0035136717 0.0 6.7077726e-06 6.923138e-06
0.0005591432 6.9231382e-06 6.738722e-06 6.738722e-06 1.9138415e-11 6.9005757e-37 0.0035136717 6.738735e-06
6.738736e-06 6.7387255e-06 0.00055906404 7.868593e-06 6.7077726e-06 1.9138415e-11 2.62662e-06 3.4623856e-37
0.0035136717 1.2260396e-06 6.7400533e-06 1.4341074e-06 0.0005600063 8.2304205e-06 7.0214824e-06 2.62662e-06
3.0527754e-05 1.6595596e-36 0.0035136344 7.5018856e-06 4.9420396e-06 3.3701556e-07 0.0005674171 1.2020889e-05
3.3694658e-05 3.0527754e-05 4.0918796e-05 5.7710067e-37 0.003513158 3.3606724e-05 3.0463694e-05 9.807361e-06
0.0005715758 1.4390591e-05 1.4351755e-05 4.0918796e-05 2.0921916e-05 8.67056e-36 0.0034909088 1.5465088e-05
2.9857847e-05 2.1967071e-05 0.000568908 1.282006e-05 3.646127e-05 2.0921916e-05 3.07486e-05 3.761582e-36
0.0034876417 2.6136184e-05 3.9860992e-05 2.0519998e-05 0.0005655301 2.5015192e-05 2.5129764e-05 3.07486e-05
2.8458135e-05 3.1494578e-36 0.0035111315 2.0432135e-05 8.0799455e-06 4.0768855e-06 0.000566918 4.733559e-05
3.928029e-05 2.8458135e-05 2.916516e-05 2.162072e-36 0.0035136703 2.0539464e-05 1.8726669e-05 2.6589373e-07
0.0005637839 4.915479e-08 2.8985283e-05 2.916516e-05 1.8405895e-05 1.8170613e-36 0.0035136717 3.3964422e-08
1.834525e-05 1.7469847e-09 0.0005565929 1.8387898e-05 1.835516e-05 1.8405895e-05 2.9317505e-12 3.481e-42
0.0035136717 2.902061e-12 2.9024656e-12 1.1069457e-11 0.000556589 8.1729025e-12 2.9067072e-12 2.9317505e-12
0.0 0.0 0.0035136717 0.0 0.0 1.9447365e-19 0.000556589 1.9447365e-19
1.9447365e-19 0.0 3.363779e-07 8.292357e-39 0.0035136717 6.4711186e-10 8.701287e-28 3.363779e-07
0.00055671326 3.36378e-07 2.023567e-25 3.363779e-07 1.658745e-05 9.366323e-37 0.0035136696 6.7388214e-06
1.3242182e-05 7.0442334e-06 0.0005592605 1.41133205e-05 9.9028575e-06 1.658745e-05 5.0991466e-06 3.3445483e-36
0.0034827997 3.193279e-05 3.0265262e-05 1.207226e-05 0.0005709847 8.85481e-06 8.523235e-06 5.0991466e-06
8.3125116e-05 8.909749e-36 0.0033990864 3.9820712e-05 6.8294285e-05 7.13967e-05 0.0005847505 3.507544e-05
9.794097e-05 8.3125116e-05 0.00019170126 2.2088169e-35 0.0032007152 0.000123739 8.360657e-05 0.00013469467
0.00060567854 0.0002170058 0.0001668836 0.00019170126 0.00027803806 7.296885e-35 0.0028823367 0.00023630139
0.00025412237 0.0002782494 0.0006555016 0.00030358793 0.0002424148 0.00027803806 0.00040248205 7.0682e-35
0.002824814 0.00035188632 0.0004025497 0.00026322415 0.00070091104 0.0003783643 0.00036939385 0.00040248205
0.00038976799 9.73344e-35 0.0028143714 0.00045174555 0.000263737 0.00027025197 0.00068018475 0.00032756975
0.00037360584 0.00038976799 0.00029528647 6.474337e-35 0.0027693657 0.00027332234 0.00020831036 0.00024583947
0.0006464812 0.0002496533 0.0003567092 0.00029528647 0.00019631017 2.8816237e-35 0.003171463 0.00018086916
0.00022967553 0.00018668093 0.0006210472 0.0002646622 0.00012335529 0.00019631017 8.37612e-05 1.6941977e-35
0.0033963618 6.332821e-05 5.1944855e-05 5.375479e-05 0.00057520653 5.303499e-05 5.2622017e-05 8.37612e-05
1.2476171e-05 8.55606e-36 0.0034980043 2.6925436e-06 1.40910015e-05 1.4106344e-05 0.0005624262 1.7110266e-05
4.6826796e-07 1.2476171e-05 2.2255292e-06 5.4863783e-38 0.0035136717 0.0 2.9144864e-10 2.225908e-06

exp_avg f4 [10]
00000000: e3f2 353c db84 d9bc 1d2c 2d3d 5afc 9dbd
00000010: 9343 a3bc f1c9 653d 8b98 28bc 2ac6 e7bb
00000020: 7b7a d43c 705e b63b
0.011105272 -0.026552608 0.042278398 -0.07714148 -0.019929683 0.05610079 -0.010290275 -0.0070731835
0.02593731 0.005565457

exp_avg_sq f4 [10]
00000000: cfb7 013c 3783 d83b 2be1 763c 65bd a03c
00000010: dc83 853c cc3f a33c 4b24 2e3c 0b77 703c
00000020: f1fd 9f3c a4ec ac3c
0.007917359 0.006607439 0.015068333 0.01962156 0.016298227 0.019927882 0.01062877 0.01467682
0.019530268 0.021108933
