evaluation/Results/Seed_0_Trainable_no_ENEQR_for_2x2_2x2_imgsize_14/model_checkpoints/epochs_8.pt (torch, 206038 bytes, 7 tensors)

qlayer_1.torch_qlayer.weights f8 [1, 4]
-0.07266094962931335 -0.8793490277240921 -0.26835022124251884 -0.6564112353869826
00000000: 20ad 5a72 e899 b2bf 1a05 7b92 a023 ecbf
00000010: 581a 0768 a62c d1bf 7cd9 9622 5201 e5bf

linear.weight f4 [10, 1690]
0.0026685155 -0.014331189 -0.028240163 -0.01782521 0.020276565 -0.016327389 0.009999224 -0.01488261
0.001122257 0.010102122 -0.024260491 0.022837104 -0.021154946 0.0071364357 -0.017926246 -0.21337834
0.0045896056 -0.18180782 0.021770969 -0.0049938206 0.14749606 0.015885288 -0.025500422 -0.2089905
-0.22329864 -0.19187288 -0.0061365957 -0.17051812 -0.16589218 -0.15104279 0.26442832 -0.0093233045
-0.014276807 -0.163753 -0.12836866 -0.13368936 0.017052155 -0.2252612 -0.2943552 -0.256485
0.20984374 -0.0023410015 -0.027114052 -0.36105123 -0.29745698 -0.6214075 -0.029370325 -0.3542982
-0.39071846 -0.20663512 0.18380105 -0.008383059 -0.004630365 -0.19149429 -0.3007734 -0.43325955
-0.005211926 -0.51414615 -0.5765499 -0.19558589 0.29001743 -0.007959941 -0.0043297242 0.08254305
0.0013242415 -0.31642008 -0.016154563 -0.34665436 0.0063235145 -0.2548048 -0.0072602057 -0.009602253
-0.0055600996 -0.56496507 -0.6248478 -0.38986692 -0.019482812 -0.6424579 0.045978446 0.0072569125
0.58962536 0.009168595 0.012156197 -0.7806034 -0.8079534 -0.5423099 -0.021599784 -0.7913623
-0.81614023 -0.6113561 0.47680914 0.014027944 -0.02625353 -0.25428656 -0.8324289 -0.6790944
-0.013627684 -0.61915195 -0.37690836 -0.47851172 0.28913462 -0.00066470756 -0.0035045622 -0.25803742
-0.15776378 -0.24729314 0.016907908 -0.29434922 -0.21112584 -0.28935558 0.04885484 0.015434864
0.0175244 -0.032202493 -0.060928743 -0.044124726 -0.012300248 0.023875792 -0.075243875 -0.05308636
0.012013693 0.009253521 0.005949964 0.0010105859 -0.0025110482 0.013712197 -0.020828832 0.022433763
-0.014312175 -0.022613665 -0.002320323 0.003627923 -0.019097393 0.12944466 -0.0043302323 -0.018162863
0.017190764 0.016253814 -0.018860707 -0.029219657 0.25737512 0.0061746445 -0.026654053 -0.13552746
-0.043476142 -0.27435878 -0.005207094 -0.3510164 -0.08907675 -0.23138736 0.6108632 -0.003776172
0.018222228 -0.3717381 -0.5319421 -0.47601798 -0.009598047 -0.47291696 -0.6650895 -0.5851318
0.106998414 0.019505812 0.034204952 -0.300463 -0.36222413 -0.07457492 -0.017466657 -0.385493
-0.19000506 -0.10379623 0.418175 0.012920354 0.0032271578 -0.5700934 -0.59882605 -0.6699272
-0.04358106 -0.07634674 -0.19091919 -0.3784351 0.480134 -0.018240893 0.0748516 -0.526429
-0.13614622 -0.13473447 0.008397408 0.1998633 0.17789605 -0.47551793 0.03133018 -0.003152105
-0.03928448 0.09987319 0.16199152 0.17660221 0.024350328 0.4021342 0.30033314 -0.048996206
-0.2406521 -0.003881185 -0.049297724 0.30505335 0.12864217 -0.07871418 0.014293176 0.33323008
-0.1565999 0.25285077 -0.20460263 -0.0021293457 -0.044334374 0.027586553 -0.1255358 0.15338886
0.041202627 -0.15441981 0.2449046 0.17486915 0.1315596 0.0058520976 0.011124301 -0.046809427
-0.119631976 0.0031788512 -0.034913428 -0.3117431 -0.78137547 -0.14449555 0.2802485 -0.005330382
-0.032272767 -0.19402923 0.014193001 -0.30193025 -0.035153903 -0.39668536 -0.018262515 -0.27678365
0.35058403 -0.016517589 0.020209022 -0.10068898 -0.099300615 -0.24766426 -0.009464989 -0.46060014
-0.11886689 -0.34166282 0.1552965 0.024072055 0.0004991967 -0.0076959734 -0.01000961 -0.1719164
00000000: 43e2 2e3b 5dcd 6abc ea57 e7bc 2d06 92bc
00000010: 0a1b a63c 04c1 85bc c9d3 233c 31d6 73bc
00000020: b218 933a 5f83 253c f0bd c6bc e114 bb3c
00000030: 234d adbc c3d8 e93b 10da 92bc da7f 5abe
00000040: 6764 963b d42b 3abe 0859 b23c 34a3 a3bb
00000050: 3509 173e dd21 823c 43e6 d0bc 9b01 56be
00000060: 66a8 64be 537a 44be 7f15 c9bb 4d9c 2ebe
00000070: a4df 29be f6aa 1abe 2663 873e c6c0 18bc
00000080: 45e9 69bc deae 27be 1373 03be dde5 08be
00000090: f6b0 8b3c dfaa 66be bab5 96be 0052 83be
000000a0: 47e1 563e 7d6b 19bb 4a1e debc b5db b8be
000000b0: 484c 98be 9014 1fbf 099a f0bc 9366 b5be
000000c0: 400c c8be 2898 53be 5836 3c3e 1959 09bc
000000d0: 51ba 97bb 1417 44be f9fe 99be 32d4 ddbe
000000e0: cec8 aabb 159f 03bf c698 13bf ab47 48be
000000f0: 2a7d 943e 6a6a 02bc 5ce0 8dbb 550c a93d
00000100: 2c92 ad3a d001 a2be 9356 84bc ae7c b1be
00000110: 7c35 cf3b c675 82be 05e7 edbb c552 1dbc
00000120: 7f31 b6bb 8da1 10bf 07f6 1fbf a39c c7be
00000130: 6b9a 9fbc 1f78 24bf e553 3c3d 65cb ed3b
00000140: b0f1 163f e037 163c c92a 473c a0d5 47bf
00000150: 09d6 4ebf d2d4 0abf 08f2 b0bc b896 4abf
00000160: 91ee 50bf d581 1cbf 5420 f43e 76d5 653c
00000170: a511 d7bc d931 82be 0f1a 55bf 21d9 2dbf
00000180: a646 5fbc be80 1ebf 22fa c0be 7dff f4be
00000190: 7409 943e c53f 2eba ccac 65bb 7b1d 84be
000001a0: d48c 21be 6a3a 7dbe 7482 8a3c f1b4 96be
000001b0: 5f31 58be 6a26 94be 031c 483d 83e2 7c3c
000001c0: 558f 8f3c c3e6 03bd 6b90 79bd 21bc 34bd
000001d0: fb86 49bc 2a97 c33c 7619 9abd 1571 59bd
000001e0: 15d5 443c 159c 173c eaf7 c23b a375 843a
000001f0: 6690 24bb 1fa9 603c 3aa1 aabc 03c7 b73c
00000200: 9d7d 6abc 4b40 b9bc 8f10 18bb 73c2 6d3b
00000210: 2372 9cbc 248d 043e 9fe4 8dbb 49ca 94bc
00000220: a5d3 8c3c b826 853c c581 9abc 105e efbc
00000230: acc6 833e ac54 ca3b 9a59 dabc b6c7 0abe
00000240: 0a14 32bd c178 8cbe 45a0 aabb 6cb8 b3be
00000250: df6d b6bd cff0 6cbe 8861 1c3f a779 77bb
00000260: c846 953c 7554 bebe 5c2d 08bf a1b8 f3be
00000270: 2041 1dbc 2c22 f2be 4e43 2abf 33cb 15bf
00000280: fc21 db3d a7ca 9f3c 7e1a 0c3d 49d6 99be
00000290: 7175 b9be bcba 98bd 3c16 8fbc 575f c5be
000002a0: b090 42be 1e93 d4bd 091b d63e e4af 533c
000002b0: b97e 533b a4f1 11bf aa4c 19bf 5980 2bbf
000002c0: 0e82 32bd ae5b 9cbd 5280 43be 3fc2 c1be
000002d0: 20d4 f53e ed6d 95bc cc4b 993d 0dc4 06bf
000002e0: ea69 0bbe d5f7 09be 4895 093c f7a8 4c3e
000002f0: 622a 363e 1677 f3be 1354 003d 8c93 4ebb
00000300: c3e8 20bd 518a cc3d 1be1 253e 36d7 343e
00000310: 577a c73c 89e4 cd3e 44c5 993e 3fb0 48bd
00000320: 816d 76be 7b5b 7ebb 69ec 49bd f42f 9c3e
00000330: c6ba 033e e634 a1bd ed2d 6a3c 229d aa3e
00000340: b95b 20be a875 813e 5a83 51be 7e8c 0bbb
00000350: f697 35bd 32fd e13c 758c 00be f811 1d3e
00000360: 16c4 283d 3a20 1ebe 45c8 7a3e e610 333e
00000370: 8fb7 063e f4c2 bf3b b342 363c 3ebb 3fbd
00000380: 9c01 f5bd 4654 503b 6201 0fbd cb9c 9fbe
00000390: 3908 48bf a4f6 13be bb7c 8f3e 7caa aebb
000003a0: 7330 04bd 99af 46be c389 683c 9a96 9abe
000003b0: 8afd 0fbd 581a cbbe 459b 95bc 96b6 8dbe
000003c0: c07f b33e e54f 87bc 648d a53c 0636 cebd
000003d0: 1f5e cbbd b39b 7dbe 0b13 1bbc c8d3 ebbe
000003e0: 7c70 f3bd 6eee aebe 0c06 1f3e c232 c53c
000003f0: 86dc 023a 812e fcbb 59ff 23bc da0a 30be

linear.bias f4 [10]
-0.009896518 0.03915307 -0.033864208 -0.009392338 0.0061080297 0.012126786 -0.015144284 0.014708618
-0.012270078 -0.03566043
00000000: 0125 22bc f85e 203d 32b5 0abd 52e2 19bc
00000010: de25 c83b 6daf 463c bb1f 78bc 6afc 703c
00000020: 7008 49bc ac10 12bd

exp_avg f4 [10, 1690]
0.0 0.0 0.0036588141 0.0 0.0 0.0 0.0014562205 0.0
0.0 0.0 0.0 -8.781949e-31 0.0036588141 0.0 7.5866876e-22 1.3983174e-15
0.0014562205 1.3983174e-15 0.0 2.3823583e-37 -4.771339e-13 7.678338e-29 0.0036588141 7.9262675e-15
9.035178e-09 9.034698e-09 0.0014562226 9.035179e-09 9.035168e-09 4.771339e-13 -4.7713705e-13 1.4422704e-28
0.0036588032 9.035179e-09 9.035179e-09 9.035236e-09 0.0014562205 9.035173e-09 9.035168e-09 4.7713705e-13
-6.827272e-07 -1.4008123e-20 0.0036588032 2.023068e-07 4.830885e-13 4.620374e-12 0.0014563687 1.2216743e-06
8.7722176e-05 6.827272e-07 -8.942506e-05 9.320817e-21 0.0036582574 8.961755e-05 8.912809e-05 4.901945e-07
0.0014753346 0.00011850564 8.96183e-05 8.942506e-05 -7.1223997e-07 4.5232114e-21 0.0036588141 0.00010916813
8.785703e-05 1.4802141e-06 0.0014753955 2.934758e-05 7.989489e-05 7.1223997e-07 -2.92175e-05 1.3809845e-20
0.0036588141 2.9425846e-05 2.9273879e-05 1.4265159e-07 0.0014750877 5.613831e-07 0.00011707321 2.92175e-05
3.7001842e-06 -4.5186413e-21 0.0036588032 -3.7001685e-06 9.149275e-09 3.4738576e-07 0.0014553283 2.5252728e-05
-3.8278677e-06 -3.7001842e-06 -5.857861e-07 1.3139797e-21 0.0036588141 9.146963e-09 -3.260391e-06 5.7663914e-07
0.0014554496 5.857861e-07 -3.8278827e-06 5.857861e-07 -9.767753e-30 -4.5268837e-22 0.0036588141 9.581418e-30
3.033965e-23 5.7663914e-07 0.0014563443 5.67308e-28 5.7663914e-07 9.767753e-30 -2.2275e-41 -6e-45
0.0036588141 2.2275e-41 2.2275e-41 2.2275e-41 0.0014562205 0.0 2.6816096e-30 2.2275e-41
0.0 0.0 0.0036588141 0.0 0.0 0.0 0.0014562205 0.0
0.0 0.0 -2.8646783e-21 8.995615e-37 0.0036588141 -1.2027346e-33 0.0 2.8646783e-21
0.0014562205 0.0 0.0 2.8646783e-21 -3.2663047e-07 -5.1283832e-23 0.0036588141 4.6920795e-13
3.2663024e-07 2.0297024e-13 0.0014562905 3.2663047e-07 3.2663047e-07 3.2663047e-07 -1.8859546e-07 7.949819e-21
0.0036588032 5.218309e-05 5.238771e-05 7.2887e-07 0.0014563347 5.18565e-05 5.256714e-05 1.8859546e-07
-8.602771e-07 -1.277838e-20 0.0036581995 5.267168e-05 0.000101813195 9.601466e-05 0.0014768625 5.8746664e-05
5.6769477e-05 8.602771e-07 -3.2043972e-05 -6.481369e-20 0.0035924413 0.00014682557 0.00018673211 0.00015802043
0.0014865424 1.1114084e-05 1.7703971e-05 3.2043972e-05 -0.0008797422 -1.2687521e-19 0.0034602163 0.00012370099
0.00077819143 4.9159193e-05 0.0014935706 0.00070441316 0.0007864974 0.0008797422 0.00079289044 8.568657e-20
0.00274052 0.0002386926 -0.001699094 0.00084141805 0.0014614804 0.000829654 -0.0018148955 -0.00079289044
0.00074697984 3.1170368e-19 0.0025879128 0.00088882464 -0.0026420166 0.0021080417 0.001063396 0.0008641398
0.00019380316 -0.00074697984 -0.0008667903 -7.0177034e-20 0.002924063 0.00019285569 -0.0016713352 0.00013427131
0.00071203243 -0.00084705686 -0.0015464305 0.0008667903 0.0018665126 -5.9988363e-19 0.0036524988 6.0408413e-05
0.00010891524 -7.405784e-05 0.0014463674 7.752236e-06 -5.0150535e-05 -0.0018665126 0.0018932079 -1.4576762e-18
0.003786029 1.0274217e-06 -0.00010945368 6.9594396e-05 0.0014456206 0.0017351308 -0.0019061326 -0.0018932079
-1.0127535e-06 5.290437e-20 0.0036588141 -0.000112463815 1.8587325e-07 2.8983763e-07 0.0014323489 4.1545336e-09
-0.00011246281 1.0127535e-06 -1.6500624e-22 -2.590748e-38 0.0036588141 0.0 0.0 3.086389e-09
00000000: 0000 0000 0000 0000 b7c8 6f3b 0000 0000
00000010: 0000 0000 0000 0000 a7de be3a 0000 0000
00000020: 0000 0000 0000 0000 0000 0000 ca7e 8e8d
00000030: b7c8 6f3b 0000 0000 274b 651c ce84 c926
00000040: a7de be3a ce84 c926 0000 0000 8922 a202
00000050: 1f4d 06ab 43ab c210 b7c8 6f3b 75c9 0e28
00000060: 2239 1b32 0637 1b32 b9de be3a 2339 1b32
00000070: 1739 1b32 1f4d 062b 594d 06ab 5ad4 3611
00000080: 88c8 6f3b 2339 1b32 2339 1b32 6339 1b32
00000090: a7de be3a 1c39 1b32 1739 1b32 594d 062b
000000a0: a844 37b5 904d 849e 88c8 6f3b ab39 5934
000000b0: 32fa 072b a190 a22c a0e3 be3a 69f8 a335
000000c0: 7cf7 b738 a844 3735 b789 bbb8 b510 301e
000000d0: 60bf 6f3b 0ef1 bb38 47ea ba38 e995 0335
000000e0: 0460 c13a 3b86 f838 75f1 bb38 b789 bb38
000000f0: c230 3fb5 d1e1 aa1d b7c8 6f3b 32f1 e438
00000100: e23f b838 c5ab c635 0f62 c13a 732f f637
00000110: 3e8d a738 c230 3f35 1a18 f5b7 286e 821e
00000120: b7c8 6f3b 86d7 f637 2d91 f537 c52b 1934
00000130: bb57 c13a f4b1 1635 3385 f538 1a18 f537
00000140: ae50 7836 9eb5 aa9d 88c8 6f3b 6950 78b6
00000150: f02e 1d32 5680 ba34 b7c0 be3a d2d5 d337
00000160: 2271 80b6 ae50 78b6 ea3e 1db5 2190 c61c
00000170: b7c8 6f3b c524 1d32 17cd 5ab6 57ca 1a35
00000180: c9c4 be3a ea3e 1d35 4371 80b6 ea3e 1d35
00000190: 131d 468f 11d1 089c b7c8 6f3b 9155 420f
000001a0: abb6 121a 57ca 1a35 cee2 be3a 7ec9 3312
000001b0: 57ca 1a35 131d 460f 183e 0080 0400 0080
000001c0: b7c8 6f3b 183e 0000 183e 0000 183e 0000
000001d0: a7de be3a 0000 0000 da8e 590e 183e 0000
000001e0: 0000 0000 0000 0000 b7c8 6f3b 0000 0000
000001f0: 0000 0000 0000 0000 a7de be3a 0000 0000
00000200: 0000 0000 0000 0000 f072 589d 6e0d 9903
00000210: b7c8 6f3b acd6 c788 0000 0000 f072 581d
00000220: a7de be3a 0000 0000 0000 0000 f072 581d
00000230: c05b afb4 4ffe 779a b7c8 6f3b ff11 042b
00000240: b85b af34 3086 642a 00e1 be3a c05b af34
00000250: c05b af34 c05b af34 ba80 4ab4 f72a 161e
00000260: 88c8 6f3b 2bdf 5a38 e0ba 5b38 91a7 4335
00000270: 7ce2 be3a 7e80 5938 897b 5c38 ba80 4a34
00000280: cbed 66b5 7460 719e 67be 6f3b c9eb 5c38
00000290: 8b84 d538 7a5b c938 4893 c13a c066 7638
000002a0: c31b 6e38 cbed 6635 f466 06b8 7909 999f
000002b0: 2a6f 6b3b 30f5 1939 85cd 4339 49b2 2539
000002c0: 16d8 c23a a176 3a37 fd82 9437 f466 0638
000002d0: 809e 66ba aec9 15a0 ccc4 623b bbb5 0139
000002e0: 8bff 4b3a 4830 4e38 eac3 c33a 5ea8 383a
000002f0: f22c 4e3a 809e 663a fad9 4f3a 5a52 ca1f
00000300: 4c9a 333b 8f49 7a39 22b4 deba 9c92 5c3a
00000310: 258f bf3a 237d 593a cae1 edba fad9 4fba
00000320: f8d0 433a 54ff b720 f999 293b 0300 693a
00000330: af25 2dbb 1227 0a3b a661 8b3a 7187 623a
00000340: a437 4b39 f8d0 43ba 5039 63ba 6ab3 a59f
00000350: a3a1 3f3b 4e39 4a39 b410 dbba 2ecb 0c39
00000360: b0a7 3a3a 060d 5eba 99b1 caba 5039 633a
00000370: c5a5 f43a ed0d 31a1 c35e 6f3b 0a5f 7d38
00000380: 6d69 e438 804f 9bb8 0994 bd3a 9a0f 0237
00000390: ba58 52b8 c5a5 f4ba 8425 f83a 731d d7a1
000003a0: 071f 783b f1e5 8935 7f8a e5b8 35f3 9138
000003b0: fa7a bd3a 546d e33a 32d7 f9ba 8425 f8ba
000003c0: f2ed 87b5 75d5 791f b7c8 6f3b 8dda ebb8
000003d0: 7394 4734 fb9a 9b34 a7bd bb3a aabf 8e31
000003e0: 03da ebb8 f2ed 8735 f57a 479b c20d 0d81
000003f0: b7c8 6f3b 0000 0000 0000 0000 5418 5431

exp_avg_sq f4 [10, 1690]
0.0 0.0 0.003409297 0.0 0.0 0.0 0.000540055 0.0
0.0 0.0 0.0 5.6760073e-36 0.003409297 0.0 6.6444866e-21 1.4390388e-05
0.00054533174 1.4390388e-05 0.0 0.0 3.2127669e-12 7e-43 0.003409297 6.6435757e-13
6.70508e-15 6.7050764e-15 0.0005400549 3.2211146e-12 3.2194722e-12 3.2127669e-12 8.9978516e-07 3.2480995e-37
0.003409297 8.2345326e-07 7.626591e-08 8.2345326e-07 0.0005400829 1.4112958e-07 6.518521e-08 8.9978516e-07
1.6441346e-06 1.7542781e-37 0.0034093019 9.651613e-07 9.194294e-07 6.931652e-08 0.0005401129 9.2369277e-07
1.5211062e-06 1.6441346e-06 2.6125888e-05 3.6979826e-36 0.0034026154 2.8712993e-05 2.6324737e-05 1.4424096e-06
0.0005427954 4.4596577e-06 6.5338027e-06 2.6125888e-05 4.8751255e-05 4.684103e-36 0.0034009009 6.647228e-05
5.0121995e-05 3.6039e-05 0.0005647291 5.7495527e-05 5.4471446e-05 4.8751255e-05 6.385667e-05 8.391019e-36
0.003404567 5.745235e-05 3.1497206e-05 4.992871e-05 0.0005681826 4.800039e-05 3.5072386e-05 6.385667e-05
3.1660053e-05 1.4128191e-36 0.0033662945 2.8949307e-05 2.6150417e-05 2.3609053e-05 0.0005496549 3.1158634e-05
1.3419638e-05 3.1660053e-05 1.3662775e-05 5.909481e-36 0.0034092693 1.988509e-06 2.474634e-05 1.4457643e-05
0.00054532936 7.357787e-08 1.4977649e-06 1.3662775e-05 1.9255126e-06 5.043217e-38 0.0034092953 4.374304e-12
2.965534e-08 4.068437e-09 0.00054006214 3.044935e-08 3.1558456e-10 1.9255126e-06 1.9354969e-10 1.9094e-41
0.003409297 1.9354969e-10 1.9354969e-10 1.9354969e-10 0.000540055 0.0 1.938602e-10 1.9354969e-10
0.0 0.0 0.003409297 0.0 0.0 0.0 0.000540055 0.0
0.0 0.0 2.0890745e-20 0.0 0.003409297 4.324193e-08 0.0 2.0890745e-20
0.000540055 0.0 0.0 2.0890745e-20 2.8087965e-10 2.991757e-39 0.00340905 1.4879967e-09
1.2535335e-06 4.013071e-09 0.0005400726 7.918633e-08 1.3744271e-06 2.8087965e-10 1.3784447e-06 4.490359e-37
0.0034105994 2.6665393e-06 4.867086e-06 4.37061e-06 0.0005481946 2.5155164e-06 6.03545e-06 1.3784447e-06
2.8357026e-05 1.4680244e-35 0.00329972 2.0844547e-05 5.737693e-05 9.7503e-05 0.0005770778 6.194383e-05
4.7209604e-05 2.8357026e-05 6.3362204e-05 4.414401e-35 0.003070282 6.8097404e-05 6.358179e-05 6.6248394e-05
0.000598261 0.00011916982 0.00010491522 6.3362204e-05 0.0001303155 5.253173e-35 0.0029731798 0.00019193889
0.00021143121 0.00024380462 0.0006353666 0.0002060203 0.00023494712 0.0001303155 0.00037090547 6.172853e-35
0.0024415755 0.00037011955 0.0004224548 0.00041260617 0.000697435 0.00046242707 0.00039465513 0.00037090547
0.0004300592 8.3395774e-35 0.002407862 0.00043222625 0.00047074177 0.00043804134 0.00070450903 0.00037093202
0.00031907705 0.0004300592 0.00036273978 3.2820104e-35 0.0028435146 0.00025469143 0.00031820827 0.00031425906
0.00061455154 0.00024081716 0.00034171395 0.00036273978 0.0001783545 1.7630521e-35 0.0032505407 0.00010934682
0.00011021508 0.00013032196 0.00060870196 0.000105704414 0.00016223484 0.0001783545 7.768547e-05 1.1458334e-35
0.0033146457 1.310502e-05 4.6634777e-05 6.187129e-05 0.0005713285 4.6524056e-05 9.177042e-05 7.768547e-05
1.2433891e-06 6.702498e-36 0.0034063188 2.9828494e-05 1.3203023e-06 1.1260541e-06 0.0005517645 4.1693283e-07
3.1067633e-05 1.2433891e-06 4.1912195e-08 1.033217e-39 0.003409297 0.0 0.0 4.1912138e-08
00000000: 0000 0000 0000 0000 836e 5f3b 0000 0000
00000010: 0000 0000 0000 0000 7a92 0d3a 0000 0000
00000020: 0000 0000 0000 0000 0000 0000 3f6e f104
00000030: 836e 5f3b 0000 0000 8805 fb1d 3f6e 7137
00000040: 98f4 0e3a 3f6e 7137 0000 0000 0000 0000
00000050: 1014 622c f401 0000 836e 5f3b 0200 3b2b
00000060: 7393 f127 6a93 f127 7992 0d3a 71aa 622c
00000070: db8c 622c 1014 622c c488 7135 e00d dd02
00000080: 836e 5f3b 470b 5d35 a1c7 a333 470b 5d35
00000090: 5a94 0d3a 6789 1734 f3fb 8b33 c488 7135
000000a0: 09ac dc35 acc7 6e02 986e 5f3b b18a 8135
000000b0: b5ce 7635 29db 9433 5d96 0d3a aff3 7735
000000c0: d028 cc35 09ac dc35 eb28 db37 774b 9d04
000000d0: 6afe 5e3b afdc f037 f1d3 dc37 d198 c135
000000e0: 624a 0e3a 2ba4 9536 f03c db36 eb28 db37
000000f0: 437a 4c38 5d3d c704 a6e1 5e3b 0967 8b38
00000100: 153a 5238 9528 1738 540a 143a 5a27 7138
00000110: 4578 6438 437a 4c38 caea 8538 0e75 3205
00000120: 281f 5f3b fef8 7038 de1b 0438 8b6a 5138
00000130: 17f2 143a 0754 4938 b01a 1338 caea 8538
00000140: b9ca 0438 f360 f003 0d9d 5c3b 2ad8 f237
00000150: 985d db37 0e0c c637 b716 103a 54b0 0238
00000160: e824 6137 b9ca 0438 2c39 6537 8d5c fb04
00000170: 0c6e 5f3b 5372 0536 5c96 cf37 1b8f 7237
00000180: 6ff4 0e3a dd01 9e33 cf06 c935 2c39 6537
00000190: 0e38 0136 184a 8901 7c6e 5f3b 3ae8 992c
000001a0: c8bc fe32 5aca 8b31 f592 0d3a 6ac7 0233
000001b0: 947e ad2f 0e38 0136 65cf 542f 3a35 0000
000001c0: 836e 5f3b 65cf 542f 65cf 542f 65cf 542f
000001d0: 7a92 0d3a 0000 0000 cc26 552f 65cf 542f
000001e0: 0000 0000 0000 0000 836e 5f3b 0000 0000
000001f0: 0000 0000 0000 0000 7a92 0d3a 0000 0000
00000200: 0000 0000 0000 0000 b94e c51e 0000 0000
00000210: 836e 5f3b 01b9 3933 0000 0000 b94e c51e
00000220: 7a92 0d3a 0000 0000 0000 0000 b94e c51e
00000230: 4c6a 9a2f cd93 2000 5e6a 5f3b 3b82 cc30
00000240: 153f a835 59e3 8931 a993 0d3a 250d aa33
00000250: f578 b835 4c6a 9a2f 0003 b935 8bcc 1803
00000260: 5d84 5f3b ccf2 3236 f34f a336 41a7 9236
00000270: b8b4 0f3a 3ed0 2836 1f84 ca36 0003 b935
00000280: 40e0 ed37 6d1b 9c05 1d40 583b 53db ae37
00000290: 02a8 7038 867a cc38 0947 173a d7e7 8138
000002a0: ed02 4638 40e0 ed37 53e1 8438 b6b5 6a06
000002b0: c936 493b 84cf 8e38 3757 8538 d6ee 8a38
000002c0: 9ed4 1c3a cfea f938 ee05 dc38 53e1 8438
000002d0: 4da5 0839 3ea7 8b06 aed9 423b 3443 4939
000002e0: a2b3 5d39 cea5 7f39 bb8e 263a 2707 5839
000002f0: 235c 7639 4da5 0839 1776 c239 431a a406
00000300: d702 203b 9b0c c239 ec7c dd39 1053 d839
00000310: 12d4 363a e971 f239 b7e9 ce39 1776 c239
00000320: 9279 e139 39b4 dd06 39cd 1d3b 6d9c e239
00000330: e4cd f639 eaa8 e539 cdae 383a a779 c239
00000340: cc49 a739 9279 e139 1c2e be39 6980 2e06
00000350: 425a 3a3b 1b88 8539 31d5 a639 23c3 a439
00000360: db19 213a dd83 7c39 1228 b339 1c2e be39
00000370: ac04 3b39 d87a bb05 0607 553b 2151 e538
00000380: 4523 e738 09a7 0839 4c91 1f3a a0ad dd38
00000390: 951d 2a39 ac04 3b39 12eb a238 1bb1 7305
000003a0: 873a 593b a2dd 5b37 b699 4338 e5c0 8138
000003b0: 35c5 153a d322 4338 de74 c038 12eb a238
000003c0: 86e2 a635 df8b 0e05 8c3c 5f3b 3438 fa37
000003d0: 3e35 b135 ed22 9735 4aa4 103a d0d6 df34
000003e0: 9e4e 0238 86e2 a635 f202 3433 3040 0b00
000003f0: 836e 5f3b 0000 0000 0000 0000 e202 3433

exp_avg f4 [10]
0.0054922467 -0.0054466506 0.005159132 0.0051545883 -0.017068377 0.0037261522 0.009863745 -0.0030982275
-0.040155157 0.036372554
00000000: 4ef8 b33b d179 b2bb f00d a93b d2e7 a83b
00000010: fbd2 8bbc 7632 743b 8c9b 213c a20b 4bbb
00000020: bc79 24bd 63fb 143d

exp_avg_sq f4 [10]
0.0076821763 0.0078787925 0.013945448 0.018069398 0.0153138535 0.017528597 0.010616556 0.010777086
0.020294439 0.01782692
00000000: c4ba fb3b 0d16 013c 737b 643c 4606 943c
00000010: f5e6 7a3c 2298 8f3c 10f1 2d3c 6092 303c
00000020: 8640 a63c c309 923c
