evaluation/Results/Seed_0_Trainable_yes_ENEQR_for_2x2_2x2_imgsize_14/model_checkpoints/epochs_1.pt (torch, 206799 bytes, 9 tensors)

qlayer_1.torch_qlayer.weights f8 [1, 4]
00000000: bc3f cf76 0ca8 cf3f 1e11 54a4 dac4 edbf
00000010: fd55 cf8d 6ce0 a73f e7cd abeb 2388 d5bf
0.24731593896149018 -0.9302800378359597 0.046634094534663696 -0.336434345386094

linear.weight f4 [10, 1690]
00000000: 43e2 2e3b 5dcd 6abc de72 3dbd 2d06 92bc
00000010: 0a1b a63c 04c1 85bc c71b 883c 31d6 73bc
00000020: b218 933a 5f83 253c f0bd c6bc e114 bb3c
00000030: 7a6d 20bd c3d8 e93b ff90 66bc 1d41 29bc
00000040: 8289 a23c 9eff ad3c 0859 b23c 34a3 a3bb
00000050: d740 57bc dd21 823c 0c3a 32bd 2b6f 03bb
00000060: f4ac 16bc faed a03c 6a45 fb39 23a7 b83b
00000070: 4fbc 323b bb24 1d3c 2757 ba3d c6c0 18bc
00000080: e042 04bd 80d0 9dbc a895 c3bd c8d0 313c
00000090: a3c2 c13c 778a a3bd 2bdb a739 9012 aabd
000000a0: 412d 1f3e 7d6b 19bb 5e7f 39bd 4bc6 03be
000000b0: 986e afbd 70df 7bbd 9567 d2bc 522f a0bd
000000c0: f6b1 0cbe 22e4 1bbe 66be 383e 1959 09bc
000000d0: fe85 09bd 0c2c cabd 595b 27be cc00 a0bd
000000e0: 9b49 01bd 74fc 53be 2ac5 2cbe b6cf 44be
000000f0: f27e 273e 6a6a 02bc d680 1bbd 97f9 e4bd
00000100: 990e 66be 5261 2abe da78 28bd ec29 07be
00000110: 8e26 52be 2770 03be 88aa 603d c552 1dbc
00000120: 747c 05bd 564f 48be 4ead 53be 8e72 3abd
00000130: b5b0 2ebd 2878 82be 6612 adbd f8ad 60bd
00000140: a6ed 2d3d e037 163c a722 cebc 959c 6dbe
00000150: 61d7 6dbe 40b7 c8bd 9061 9abc 9ec6 24be
00000160: 9756 6cbe ec77 83bd 4ddb 2d3e 76d5 653c
00000170: 2c71 37bd 5e83 83bd 5665 28bb 6063 f0bd
00000180: 9a56 bebb 2a34 3fbe a05c 98bd 9a99 2fbe
00000190: a66a 0b3e c53f 2eba b70e b0bc 2c70 21bd
000001a0: 1ea4 883b a5a4 a4bd be45 bb3c fe67 09be
000001b0: 3bf9 36bd 91a4 0bbe 7818 483d 83e2 7c3c
000001c0: ffa3 ffb9 35e3 03bd e28c 79bd 96b8 34bd
000001d0: 9946 babb 2a97 c33c b41c 8dbd 8c6d 59bd
000001e0: 15d5 443c 159c 173c df9f 45bc a375 843a
000001f0: 6690 24bb 1fa9 603c e1de 68bc 03c7 b73c
00000200: 9d7d 6abc 4b40 b9bc 1751 f1bb 73c2 6d3b
00000210: f7ff 17bd 3622 0f3c 9fe4 8dbb 31f0 56bc
00000220: 7d05 c33c b826 853c c581 9abc de0b c6bc
00000230: 38ac c13d ac54 ca3b d1d3 3cbd 4e00 94bd
00000240: 2deb 31bd 7684 bcbd c8b6 483a e7c6 9dbd
00000250: f6b9 99bd 0673 8cbd b47a 1b3e a779 77bb
00000260: 381a 28bb 281a bebd f7f9 8ebd cfea 06be
00000270: 530d afbc fae5 bebd c5db edbd 6721 01be
00000280: 73a4 673e a7ca 9f3c ebaf 0abc aecc f9bd
00000290: 26be eebc cedf 66bd a6d4 8f3c 41b3 54be
000002a0: 1ab5 c1bc 065d 64be 1b85 853e e4af 533c
000002b0: 7b69 c4bc 23dc c9bd f737 4abe 8be4 1fbe
000002c0: 1f08 d9bc 7102 de3c 652d 96be 9b58 62be
000002d0: c508 503e ed6d 95bc 668f 2abd 13c3 44be
000002e0: f18e 18be d966 c8bc 7394 99bb a36f 193d
000002f0: 9ae5 593c b54e 4bbe 1483 2f3d 8c93 4ebb
00000300: cdab b1bc 8000 a3bd a1e1 7cbc 219f a03d
00000310: 63f4 003d 87f9 253b 802e b13d 64df 77bd
00000320: 9120 293d 7b5b 7ebb e9a5 2cbd 5ff7 023e
00000330: 799c 053c 0917 103c 5e27 6abb 6ade 91bc
00000340: 9746 dcbc 5452 eebc 0aa5 163c 7e8c 0bbb
00000350: a0c1 02bd 26a4 b93b bdac e13d 7cbb c13d
00000360: 9e66 34bb 6efd c5bc 7fa5 953c 0673 1fbd
00000370: 1116 13bd f4c2 bf3b b3dd 44bd e208 0e3d
00000380: 413f cfbd 9d72 4e3b 5dc7 0cbb 8094 9dbc
00000390: a878 79be 7933 bc3c bf8d 7d3e 7caa aebb
000003a0: e36f 48bd 0ec0 59be 5e7d 34bd 2482 853c
000003b0: 5884 72ba ead7 71be fa4e 17be 7301 7abe
000003c0: 9686 433e e54f 87bc ce0c 49bc 4fb1 ac3c
000003d0: 5104 1dbd 601f f8bd 8aba eabc cbfe 14be
000003e0: d70a 20be f063 3abe 827f 9a3b c232 c53c
000003f0: fa76 8fbc 812e fcbb 59ff 23bc 38bb aebc
0.0026685155 -0.014331189 -0.046252124 -0.01782521 0.020276565 -0.016327389 0.016614808 -0.01488261
0.001122257 0.010102122 -0.024260491 0.022837104 -0.039166905 0.0071364357 -0.014072656 -0.010330466
0.01984096 0.021240052 0.021770969 -0.0049938206 -0.013138018 0.015885288 -0.04351239 -0.0020055275
-0.009196509 0.019644726 0.00047926168 0.0056351586 0.0027272885 0.009591277 0.09098654 -0.0093233045
-0.03229034 -0.01926446 -0.09550029 0.010853 0.02365238 -0.079853944 0.00032016015 -0.08304322
0.15544607 -0.0023410015 -0.045287482 -0.12868612 -0.08566016 -0.061492383 -0.025684157 -0.07821526
-0.13739762 -0.15223745 0.18041381 -0.008383059 -0.03357505 -0.098716825 -0.1634344 -0.07812652
-0.031564336 -0.20701772 -0.16872087 -0.1921986 0.1635702 -0.007959941 -0.037964664 -0.11180418
-0.22466506 -0.16638687 -0.041130878 -0.13199586 -0.2052252 -0.12835751 0.05485013 -0.009602253
-0.03258939 -0.19561514 -0.20671579 -0.045519404 -0.04264899 -0.25482297 -0.08450775 -0.05485341
0.042462967 0.009168595 -0.025163008 -0.23204263 -0.23226692 -0.09800577 -0.01884535 -0.16091391
-0.23079906 -0.06419358 0.16978188 0.014027944 -0.044785663 -0.06421541 -0.0025695167 -0.11737704
-0.0058086636 -0.18672243 -0.07439542 -0.17148438 0.13614902 -0.00066470756 -0.021491392 -0.039413616
0.004169955 -0.08039216 0.022860404 -0.13418576 -0.04467128 -0.13636996 0.04885146 0.015434864
-0.00048759577 -0.032199103 -0.060925372 -0.044121347 -0.0056846854 0.023875792 -0.0689024 -0.053082988
0.012013693 0.009253521 -0.012062042 0.0010105859 -0.0025110482 0.013712197 -0.014213295 0.022433763
-0.014312175 -0.022613665 -0.007364403 0.003627923 -0.03710934 0.008736184 -0.0043302323 -0.0131187895
0.023806328 0.016253814 -0.018860707 -0.02417558 0.09456676 0.0061746445 -0.04610044 -0.072266206
-0.04343717 -0.092049524 0.0007656631 -0.07703953 -0.07506172 -0.068578765 0.15183526 -0.003776172
-0.0025650393 -0.09282333 -0.06981271 -0.1317551 -0.021368658 -0.09321208 -0.11614183 -0.12610398
0.22621326 0.019505812 -0.008464794 -0.12197243 -0.029143404 -0.05636578 0.017557453 -0.20771505
-0.023645926 -0.2230111 0.26078114 0.012920354 -0.023976078 -0.09856441 -0.19747911 -0.15614526
-0.02649313 0.027100774 -0.29331508 -0.22104113 0.20315845 -0.018240893 -0.04164066 -0.1921504
-0.14898278 -0.024463104 -0.004686886 0.03745998 0.01329937 -0.19854243 0.042849615 -0.003152105
-0.021688366 -0.0795908 -0.0154346535 0.078428514 0.031483065 0.0025325732 0.08651447 -0.060515776
0.041290823 -0.003881185 -0.04215041 0.12789677 0.008154982 0.0087945545 -0.003572903 -0.01780625
-0.026889129 -0.029091991 0.009194622 -0.0021293457 -0.031922936 0.00566532 0.11019275 0.09459588
-0.0027526985 -0.024168696 0.018267391 -0.038928054 -0.035909716 0.0058520976 -0.04806299 0.03467644
-0.101194866 0.003150142 -0.0021481134 -0.01923585 -0.24362433 0.022973763 0.24761103 -0.005330382
-0.04893483 -0.2126467 -0.044064872 0.016297407 -0.0009251288 -0.23617521 -0.14776221 -0.24414615
0.19094309 -0.016517589 -0.012271119 0.021080641 -0.038334195 -0.12115359 -0.028653402 -0.14550321
-0.15629135 -0.18202186 0.004714907 0.024072055 -0.017512787 -0.0076959734 -0.01000961 -0.021329507

linear.bias f4 [10]
00000000: 14d5 84bd 0d78 183e f738 d6bb 5ed9 30bd
00000010: 368c aa3b be05 1dbd 3082 003c d8e3 933a
00000020: c511 e7bc 3426 233c
-0.06485954 0.14889546 -0.0065375525 -0.043176048 0.0052047027 -0.038335554 0.007843539 0.0011283113
-0.028206715 0.009957839

exp_avg f8 [1, 4]
00000000: 12c8 e18e 0e9e d83f 98b0 a770 9fdb 2dbe
00000010: 3342 4bd4 9602 a83f 4bd9 aa90 0e9e d83f
0.3846470256168014 -3.475917225264069e-09 0.046894753851692526 0.3846470272796025

exp_avg_sq f8 [1, 4]
00000000: c804 cc0c 10f2 d93f e942 3bab 44b6 ae3c
00000010: b249 c7df e698 d63f 06ae 6f06 10f2 d93f
0.40539933442785214 2.1310720760176183e-16 0.35308238843313255 0.40539932850398974

exp_avg f4 [10, 1690]
00000000: 0000 0000 0000 0000 f06e b039 0000 0000
00000010: 0000 0000 0000 0000 7195 34b9 0000 0000
00000020: 0000 0000 0000 0000 0000 0000 0000 0000
00000030: f06e b039 0000 0000 0000 0000 0000 0000
00000040: 7195 34b9 0000 0000 0000 0000 0000 0000
00000050: 0000 0000 0000 0000 f06e b039 0000 0000
00000060: 0000 0000 0000 0000 7195 34b9 0000 0000
00000070: 0000 0000 0000 0000 9472 11b8 0000 0000
00000080: f06e b039 0000 0000 9472 1138 a8b1 cd9e
00000090: f9af 0bb9 9472 1138 0000 0000 9472 1138
000000a0: 9eeb d3b7 fe6c 431e dd53 b439 ed23 1238
000000b0: 14b6 2338 1a59 3134 5d12 2fb9 1a59 3134
000000c0: bc59 1a38 9eeb d337 2083 a0b8 a1eb f99e
000000d0: 324d bb39 ffcd 8538 bbd7 9338 273d 9638
000000e0: d7ad bab8 905f c338 6c0b 2939 2083 a038
000000f0: 5fb1 03ba c4c0 41a0 12dc ba39 a975 6c38
00000100: ec97 3939 2c57 a938 33cc 59b7 a2d6 2eb8
00000110: 2d42 3d3a 5fb1 033a 1bf0 9938 ba88 02a1
00000120: 5ede bc39 cd6a 153a 33c4 533a 153e 88b8
00000130: acf2 323a 1daa a139 a344 a039 1bf0 99b8
00000140: 0a1e 0dba 934a 68a0 0335 b239 f868 9639
00000150: 1e5d 113a f40b 153a b7f7 dd38 5078 6538
00000160: 017f 3b38 0a1e 0d3a 3678 65b8 9c2a a19d
00000170: f844 c639 027d 0c38 0000 0000 983a a138
00000180: 13df a7b8 cf80 b838 df6d 7e38 3678 6538
00000190: b37f 0cb8 cfa0 0b9f 916e b039 a40e 8837
000001a0: 0000 0000 983a a138 da05 0db9 defa 3538
000001b0: 0514 8837 b37f 0c38 7c38 2cb1 868e 7317
000001c0: f06e b039 7c38 2c31 7c38 2c31 7c38 2c31
000001d0: 7195 34b9 0000 0000 7c38 2c31 7c38 2c31
000001e0: 0000 0000 0000 0000 f06e b039 0000 0000
000001f0: 0000 0000 0000 0000 7195 34b9 0000 0000
00000200: 0000 0000 0000 0000 0000 0000 0000 0000
00000210: f06e b039 0000 0000 0000 0000 0000 0000
00000220: 7195 34b9 0000 0000 0000 0000 0000 0000
00000230: c6a3 bfb7 f9e8 bf9e f06e b039 2d86 1f37
00000240: 6948 c335 6fb3 0738 784c 29b9 2d86 1f37
00000250: b1cd 0d38 c6a3 bf37 8663 f0b8 fe3d 5e9f
00000260: 2b32 be39 9d3d 1038 276e ec38 73bd 1739
00000270: b78d c3b8 75fd 5137 1758 0639 8663 f038
00000280: 20d5 6db9 377d 411f 3f12 fa39 eb00 a438
00000290: 6a2b fb38 87c9 6b39 797a 1338 850a 0e39
000002a0: 5982 2839 20d5 6d39 4dda 14b9 89c0 8a1e
000002b0: fdbb 093a 9f8c 9639 7fab 5a39 c083 9c39
000002c0: 4841 4139 6ceb d539 8523 8c39 4dda 1439
000002d0: b707 3c3a b4e5 c120 d917 3c3a 1891 c039
000002e0: ed77 6bba 1d6a 28ba a565 183a ea29 e239
000002f0: 78c0 2a38 b707 3cba de59 1c3a 6050 65a0
00000300: 6161 9439 198c 1eba 8ccc 6339 8b53 06bb
00000310: 3fbc beb9 b622 1cba 3e4e 0dbb de59 1cba
00000320: 9060 cab9 22e2 4a9f 80f0 ec39 bf50 82b9
00000330: ec39 b9ba 41fe bc39 c1ed f138 30ab 83ba
00000340: b1be 6139 9060 ca39 3c31 08bb 8aa5 5121
00000350: 32c6 f538 5ebb 10ba da12 d43a e23e 9e3a
00000360: 51d1 8f3a 14ab a63a bed3 ba3a 3c31 083b
00000370: 15d2 d2ba 7ace c521 6d15 ff39 8f39 9ab7
00000380: d4e9 5c39 00b6 9d38 773c 1a3a f3a9 343a
00000390: eed9 d83a 15d2 d23a c1c0 8eb9 4913 831f
000003a0: 69b5 023a cca6 5239 f5bf 4637 6004 5039
000003b0: 71a4 a5b8 79fa 8d39 ff55 8e39 c1c0 8e39
000003c0: f4bc 4db9 efff db9d 3fe5 fb39 0000 0000
000003d0: 8fee 1fb5 dc7e 6039 25b0 16b9 bc93 1b38
000003e0: fd9e 7439 f4bc 4d39 0000 0000 0000 0000
000003f0: f06e b039 0000 0000 0000 0000 0000 0000
0.0 0.0 0.0003365199 0.0 0.0 0.0 -0.00017221809 0.0
0.0 0.0 0.0 0.0 0.0003365199 0.0 0.0 0.0
-0.00017221809 0.0 0.0 0.0 0.0 0.0 0.0003365199 0.0
0.0 0.0 -0.00017221809 0.0 0.0 0.0 -3.4677403e-05 0.0
0.0003365199 0.0 3.4677403e-05 -2.1778696e-20 -0.00013321628 3.4677403e-05 0.0 3.4677403e-05
-2.5262878e-05 1.0345753e-20 0.00034394758 3.484257e-05 3.9031802e-05 1.6516825e-07 -0.00016696141 1.6516825e-07
3.6800033e-05 2.5262878e-05 -7.6538185e-05 -2.6461354e-20 0.00035724934 6.380304e-05 7.049689e-05 7.163948e-05
-8.901551e-05 9.3161245e-05 0.00016121351 7.6538185e-05 -0.0005023684 -1.6411517e-19 0.0003564065 5.6376364e-05
0.0001769957 8.074785e-05 -1.2981752e-05 -4.1684725e-05 0.0007219639 0.0005023684 7.340332e-05 -4.422667e-19
0.0003602383 0.00056998135 0.0008078247 -6.496549e-05 0.0006826322 0.00030835057 0.00030568716 -7.340332e-05
-0.00053831993 -1.9675839e-19 0.00033990302 0.00028688437 0.00055451866 0.000568568 0.00010584242 5.4709904e-05
4.4702556e-05 0.00053831993 -5.470981e-05 -4.2660402e-21 0.0003781689 3.3495024e-05 0.0 7.687992e-05
-8.004731e-05 8.797796e-05 6.0660645e-05 5.470981e-05 -3.349753e-05 -2.9567413e-20 0.00033651714 1.6219281e-05
0.0 7.687992e-05 -0.00013448988 4.33874e-05 1.6221786e-05 3.349753e-05 -2.5061402e-09 7.8697425e-25
0.0003365199 2.5061402e-09 2.5061402e-09 2.5061402e-09 -0.00017221809 0.0 2.5061402e-09 2.5061402e-09
0.0 0.0 0.0003365199 0.0 0.0 0.0 -0.00017221809 0.0
0.0 0.0 0.0 0.0 0.0003365199 0.0 0.0 0.0
-0.00017221809 0.0 0.0 0.0 -2.2845237e-05 -2.0319267e-20 0.0003365199 9.508379e-06
1.4549706e-06 3.235362e-05 -0.00016145583 9.508379e-06 3.3808585e-05 2.2845237e-05 -0.000114626295 -4.7061607e-20
0.00036277002 3.4389657e-05 0.000112738744 0.00014471058 -9.324721e-05 1.2516383e-05 0.00012812052 0.000114626295
-0.00022681477 4.0972915e-20 0.0004769731 7.8203004e-05 0.00011976699 0.00022486421 3.5161593e-05 0.00013546094
0.00016070287 0.00022681477 -0.00014195703 1.4690949e-20 0.00052541477 0.00028715 0.00020853987 0.000298528
0.00018430233 0.0004080193 0.00026729345 0.00014195703 0.00071727805 3.2847477e-19 0.00071751844 0.00036729197
-0.0008982409 -0.00064245035 0.0005813486 0.00043137308 4.071041e-05 -0.00071727805 0.0005964319 -1.9423648e-19
0.00028301313 -0.0006048098 0.00021724607 -0.0020496573 -0.00036379878 -0.00059561 -0.0021561529 -0.0005964319
-0.00038600387 -4.2962217e-20 0.00045192614 -0.00024855693 -0.0014131642 0.00036047588 0.000115360606 -0.0010045525
0.0002152871 0.00038600387 -0.00207813 7.1031044e-19 0.00011719427 -0.0005521084 0.0016179935 0.0012073184
0.0010972415 0.001271578 0.0014253778 0.00207813 -0.0016084338 1.3403893e-18 0.00048653354 -1.8385033e-05
0.00021067943 7.5202435e-05 0.0005883644 0.00068917795 0.001654444 0.0016084338 -0.00027227963 5.551256e-20
0.00049861387 0.00020089297 1.1846413e-05 0.00019838056 -7.898443e-05 0.00027080232 0.00027148423 0.00027227963
-0.00019620714 -5.8233446e-21 0.00048045252 0.0 -5.9579264e-07 0.00021409563 -0.00014370734 3.7092468e-05
0.00023328881 0.00019620714 0.0 0.0 0.0003365199 0.0 0.0 0.0

exp_avg_sq f4 [10, 1690]
00000000: 0000 0000 0000 0000 a759 a139 0000 0000
00000010: 0000 0000 0000 0000 5502 ec37 0000 0000
00000020: 0000 0000 0000 0000 0000 0000 0000 0000
00000030: a759 a139 0000 0000 0000 0000 0000 0000
00000040: 5502 ec37 0000 0000 0000 0000 0000 0000
00000050: 0000 0000 0000 0000 a759 a139 0000 0000
00000060: 0000 0000 0000 0000 5502 ec37 0000 0000
00000070: 0000 0000 0000 0000 3a7e fc30 0000 0000
00000080: a759 a139 0000 0000 3a7e fc30 f1e3 0700
00000090: 2f06 ec37 3a7e fc30 0000 0000 3a7e fc30
000000a0: 8341 f834 9bd3 6e01 a959 a139 11eb 3431
000000b0: ae2c dc32 d4af 5a30 d5c3 ec37 d4af 5a30
000000c0: 4c68 e933 8341 f834 2838 f734 3c62 ab03
000000d0: 127f a139 a056 5236 c5b5 a433 b2be 7733
000000e0: f668 1538 62fa f634 9e45 e136 2838 f734
000000f0: a201 9835 77de 7d01 f57f a139 bff4 5a36
00000100: d8ab 2735 437d 5336 b4ae 1338 224b 5b36
00000110: 6039 3b35 a201 9835 82ae 2035 d696 1c02
00000120: 8493 a139 fe4a 8236 0f96 a036 2071 9436
00000130: 9eec 0c38 585d 7935 4d29 a536 82ae 2035
00000140: c793 fc32 5165 3a00 1d5e a139 e3e5 7535
00000150: 231e 7533 d334 8236 53fb f237 7337 8c32
00000160: 6a4d 9232 c793 fc32 c982 8e32 29fd 1e00
00000170: 085a a139 af29 3331 0000 0000 3ae4 f933
00000180: 2126 ed37 89cc 0a34 63d2 f933 c982 8e32
00000190: 06ab 5031 2bc5 8500 3659 a139 79b1 0e2e
000001a0: 0000 0000 3ae4 f933 4d07 ec37 f436 f533
000001b0: e0e0 fd2f 06ab 5031 b10a ec2f 0676 0000
000001c0: a759 a139 b10a ec2f b10a ec2f b10a ec2f
000001d0: 5502 ec37 0000 0000 b10a ec2f b10a ec2f
000001e0: 0000 0000 0000 0000 a759 a139 0000 0000
000001f0: 0000 0000 0000 0000 5502 ec37 0000 0000
00000200: 0000 0000 0000 0000 0000 0000 0000 0000
00000210: a759 a139 0000 0000 0000 0000 0000 0000
00000220: 5502 ec37 0000 0000 0000 0000 0000 0000
00000230: c344 5132 b067 3600 a759 a139 929f 0530
00000240: 377c ed35 be9e 5932 3103 ec37 929f 0530
00000250: 722f ef35 c344 5132 2cd3 4b34 1e31 d400
00000260: d4a3 a139 0cb0 0136 8bdd ee35 72a9 1736
00000270: 22cc fe37 f010 0835 b04c 0136 2cd3 4b34
00000280: c0ac ba36 1c04 0f04 0072 a139 fa09 1d36
00000290: 33c5 8337 6ad5 ab37 c495 5b38 be12 c036
000002a0: 426b f837 c0ac ba36 dc31 1d37 bd6a a904
000002b0: 902a a739 2190 a237 2dda 3c37 7c04 da37
000002c0: 46e3 a338 2ad5 8838 d048 2536 dc31 1d37
000002d0: a3f9 4138 48c1 fd04 b7a1 7739 3dea e437
000002e0: 80f1 df37 8054 9a38 79d7 ac38 2eb0 8638
000002f0: 5ef8 a938 a3f9 4138 2c29 a038 3fff 0306
00000300: 4d8e 7a39 e028 3138 50a8 db38 3f88 dd38
00000310: b080 dc38 5022 d938 e9b4 2b39 2c29 a038
00000320: 58a7 9138 69ee ae05 bcfa 8539 adcb 2239
00000330: 6233 f638 fd56 0a39 dde8 1239 a979 a038
00000340: 1334 ad38 58a7 9138 95ec c838 bc4f 3204
00000350: 0fad 9a39 a17c bf38 2a5e 1439 ad41 2139
00000360: 2839 b438 6af7 a038 a081 cc38 95ec c838
00000370: 4044 a638 d75e 5604 77bf ab39 3404 a238
00000380: cbb6 4a38 2088 5238 0077 a238 ac2c 8238
00000390: 24bc 5437 4044 a638 7f09 5d37 034e 7404
000003a0: b988 a639 ac5b 4137 bd44 8537 d27b dd37
000003b0: a255 4038 c600 5737 8461 eb37 7f09 5d37
000003c0: ef9d 3937 6916 0b00 1771 a639 0000 0000
000003d0: ec5a 8b35 2ca8 3937 2fb8 fa37 d3f8 4233
000003e0: 1d46 3a37 ef9d 3937 0000 0000 0000 0000
000003f0: a759 a139 0000 0000 0000 0000 0000 0000
0.0 0.0 0.0003077511 0.0 0.0 0.0 2.8134478e-05 0.0
0.0 0.0 0.0 0.0 0.0003077511 0.0 0.0 0.0
2.8134478e-05 0.0 0.0 0.0 0.0 0.0 0.0003077511 0.0
0.0 0.0 2.8134478e-05 0.0 0.0 0.0 1.8371289e-09 0.0
0.0003077511 0.0 1.8371289e-09 7.24618e-40 2.8136272e-05 1.8371289e-09 0.0 1.8371289e-09
4.6241266e-07 4.3865516e-38 0.00030775115 2.6327067e-09 2.5631689e-08 7.9557805e-10 2.8224584e-05 7.9557805e-10
1.08688795e-07 4.6241266e-07 4.6048194e-07 1.007303e-36 0.00030802988 3.134286e-06 7.669909e-08 5.7682605e-08
3.562212e-05 4.6003248e-07 6.713627e-06 4.6048194e-07 1.1325358e-06 4.6628372e-38 0.00030803648 3.2626992e-06
6.2462414e-07 3.1514362e-06 3.5210236e-05 3.2677276e-06 6.974642e-07 1.1325358e-06 5.9858587e-07 1.1504358e-37
0.0003081822 3.883032e-06 4.7858407e-06 4.423913e-06 3.3598968e-05 9.289556e-07 4.9221912e-06 5.9858587e-07
2.9403862e-08 5.362804e-39 0.00030778433 9.160414e-07 5.7070917e-08 3.8804515e-06 2.896568e-05 1.632336e-08
1.703184e-08 2.9403862e-08 1.659045e-08 2.845882e-39 0.00030775391 2.6071623e-09 0.0 1.163648e-07
2.8270357e-05 1.2926661e-07 1.1633235e-07 1.659045e-08 3.03652e-09 1.2284852e-38 0.0003077478 3.244469e-11
0.0 1.163648e-07 2.8136792e-05 1.14186975e-07 4.6180215e-10 3.03652e-09 4.2935747e-10 4.2339e-41
0.0003077511 4.2935747e-10 4.2935747e-10 4.2935747e-10 2.8134478e-05 0.0 4.2935747e-10 4.2935747e-10
0.0 0.0 0.0003077511 0.0 0.0 0.0 2.8134478e-05 0.0
0.0 0.0 0.0 0.0 0.0003077511 0.0 0.0 0.0
2.8134478e-05 0.0 0.0 0.0 1.2181036e-08 4.996313e-39 0.0003077511 4.861188e-10
1.7694027e-06 1.2667156e-08 2.8134878e-05 4.861188e-10 1.7820696e-06 1.2181036e-08 1.8982672e-07 1.9486745e-38
0.00030830374 1.932497e-06 1.7796859e-06 2.2599384e-06 3.0374216e-05 5.0688595e-07 1.9267136e-06 1.8982672e-07
5.5633427e-06 1.6811456e-36 0.0003079325 2.340063e-06 1.5708245e-05 2.0484167e-05 5.235315e-05 5.724228e-06
2.961385e-05 5.5633427e-06 9.369538e-06 3.9829733e-36 0.00031884434 1.937902e-05 1.1256471e-05 2.5989713e-05
7.814779e-05 6.52469e-05 2.4629298e-06 9.369538e-06 4.6247278e-05 5.9657515e-36 0.00023615999 2.7288794e-05
2.6696129e-05 7.3590316e-05 8.241734e-05 6.422434e-05 8.10481e-05 4.6247278e-05 7.6370634e-05 2.4825887e-35
0.00023894869 4.2238156e-05 0.000104740844 0.00010563479 0.000105143874 0.000103537575 0.00016375225 7.6370634e-05
6.945309e-05 1.645046e-35 0.00025554548 0.00015525399 0.00011739765 0.00013193111 0.00014010393 7.6520555e-05
8.2589824e-05 6.945309e-05 9.58081e-05 2.0960412e-36 0.00029502108 9.130804e-05 0.00014149459 0.00015378623
8.593715e-05 7.675479e-05 9.7516226e-05 9.58081e-05 7.9282094e-05 2.5199127e-36 0.00032758314 7.725545e-05
4.8330792e-05 5.0194678e-05 7.7469274e-05 6.207204e-05 1.267999e-05 7.9282094e-05 1.31748375e-05 2.8717883e-36
0.00031763854 1.15250405e-05 1.5886844e-05 2.6402911e-05 4.585612e-05 1.2815179e-05 2.8059592e-05 1.31748375e-05
1.1063631e-05 1.01823e-39 0.00031746246 0.0 1.0382769e-06 1.1066015e-05 2.988809e-05 4.539545e-08
1.1102788e-05 1.1063631e-05 0.0 0.0 0.0003077511 0.0 0.0 0.0

exp_avg f4 [10]
00000000: cfc7 863b abc8 00bd 4b67 e13c 198c be3c
00000010: 8ae7 293b 25bf 843c daff acbd 2c8b 68bb
00000020: bdfb 1e3d f124 e43b
0.0041131745 -0.031441372 0.027515074 0.023260163 0.0025925362 0.016204426 -0.08447237 -0.0035483344
0.038814295 0.0069624116

exp_avg_sq f4 [10]
00000000: 1808 003b 7e8b 143b 3387 633b 6ae6 8e3b
00000010: a802 4b3b b2b3 a43b ccf5 633b b4cb 133b
00000020: da7b e53b 766f 293b
0.0019536074 0.0022666152 0.0034718036 0.0043609636 0.0030976925 0.005026304 0.0034783958 0.0022551836
0.0070032896 0.002585379
