evaluation/Results/Seed_0_Trainable_yes_ENEQR_for_2x2_2x2_imgsize_14/model_checkpoints/epochs_36.pt (torch, 206813 bytes, 9 tensors)

qlayer_1.torch_qlayer.weights f8 [1, 4]
0.28915652402310243 -1.358888677057271 -0.005845287846997284 -0.2945938457970938
00000000: 40ac 865d 8a81 d23f d8d9 ad0d 02be f5bf
00000010: 428a 3782 3af1 77bf e449 5325 a0da d2bf

linear.weight f4 [10, 1690]
0.0026685155 -0.014331189 -0.03816159 -0.01782521 0.020276565 -0.016327389 -0.14912257 -0.01488261
0.001122257 0.010102122 0.59118277 0.022837104 -0.031076424 0.0071364357 -0.9519758 -0.5325878
-0.44834945 -0.5134129 -0.5826562 -0.6204371 0.5180137 0.015885288 -0.035421852 -0.9611369
-0.97450304 -1.0759662 -0.45767474 -0.82186615 -0.6414786 -0.5215605 0.4389844 -0.0093233045
-0.02731213 -0.34611285 -1.0519077 -0.13669793 -0.46526158 -1.0360876 -1.0952568 -0.43104112
-0.17390676 -0.0023410015 -0.058598552 -0.12354566 -0.26688248 -0.9988983 -0.22141336 -0.17442353
-0.6860574 0.17711532 0.23793657 -0.008383059 -0.047427338 0.04233447 -0.04203828 -0.89768213
-0.1297995 -0.91865754 -0.15220888 -0.24972121 0.6100682 -0.007959941 -0.11997026 -0.53196037
-0.040813927 -0.69805217 0.20542505 -0.81692713 -0.8153099 -0.57485574 0.3600557 -0.009602253
-0.30692294 -0.5604752 -0.6897965 -0.8433027 -0.35223234 -0.44704747 -0.5940761 -0.360059
0.7086598 0.009168595 -0.06514996 -0.722682 -0.9303951 -0.43911862 -0.13576776 -0.72636074
-1.0962005 -0.73039037 0.01299496 0.014027944 -0.038559955 -0.0142813185 -1.1755341 -1.1871192
-0.40165707 -1.3023525 0.16262667 -0.014697476 0.33358455 -0.00066470756 -0.013400872 -0.9979857
-0.32285538 -0.40093088 -0.21320075 -0.8391213 -0.8812135 -0.33380547 0.33383006 0.015434864
0.007602833 -0.03680435 -0.08960248 -0.5911446 -0.18108885 -0.7776571 -0.10233401 -0.3380616
0.012013693 0.009253521 -0.003971657 0.0010105859 -0.0025110482 -0.1682274 -0.17995192 -0.15950584
-0.19625176 -0.022613665 0.42896074 0.003627923 -0.029018907 0.12944506 -0.0043302323 -0.44944394
-0.29456878 -0.23615995 -0.026446491 -0.46050072 0.5848342 0.0061746445 -0.04154911 -1.1714033
-0.35761404 -1.0111526 -0.27065724 -0.7824563 -0.100719854 -0.5588462 0.7180253 -0.003776172
0.021555992 -0.90348196 -0.34912205 -0.17695665 -0.15483966 -0.33788264 -0.7896294 -0.6922946
0.78847545 0.019505812 0.052550115 -0.31358105 -0.43974277 0.01734266 -0.47695974 -0.3975208
-0.00979518 -0.7852734 0.14972179 0.012920354 -0.63823396 -0.67039126 0.013437777 -0.5345563
-0.114775166 -0.07909331 -0.021952212 -0.10998219 0.4038494 -0.018240893 -0.013879465 -0.16962536
0.8115962 -0.13165052 0.1335835 0.2219964 -0.062637635 -0.3992334 -0.48838556 -0.003152105
0.27634344 0.23101102 0.79868937 0.06002257 0.4689162 1.0644463 0.22873165 0.47071922
0.03639252 -0.003881185 -0.46947452 0.6744446 0.007742204 -0.05461967 0.7962786 0.41564664
0.13627185 -0.024193646 -0.22126758 -0.0021293457 -0.18307039 -0.020651387 -0.39716184 0.0047325
0.754629 0.98677033 0.53305775 0.19153401 0.091727555 0.0058520976 0.15963544 0.12901036
-0.023191687 -0.13426222 0.19867481 0.113787025 -0.85131484 -0.10466336 -0.06914712 -0.005330382
-0.08672723 -0.85550094 0.41941708 -0.1712794 0.31096926 -0.30109015 -0.20379792 0.07261206
0.4980518 -0.016517589 -0.027477838 -0.12651458 -0.7329369 -0.6997304 -0.13806053 -1.2123091
-0.30452144 -0.4891306 0.15608695 0.024072055 -0.009422334 -0.0076959734 -0.31992745 -0.3525765
00000000: 43e2 2e3b 5dcd 6abc 544f 1cbd 2d06 92bc
00000010: 0a1b a63c 04c1 85bc 96b3 18be 31d6 73bc
00000020: b218 933a 5f83 253c c157 173f e114 bb3c
00000030: fc93 febc c3d8 e93b b0b4 73bf ad57 08bf
00000040: 0f8e e5be 076f 03bf f528 15bf f7d4 1ebf
00000050: 8c9c 043f dd21 823c 8116 11bd 110d 76bf
00000060: 0879 79bf 43b9 89bf 5854 eabe d265 52bf
00000070: f137 24bf fd84 05bf 90c2 e03e c6c0 18bc
00000080: b0bd dfbc b435 b1be e9a4 86bf 8bfa 0bbe
00000090: c436 eebe 859e 84bf 6031 8cbf 6cb1 dcbe
000000a0: 9d14 32be 7d6b 19bb 0905 70bd 8205 fdbd
000000b0: d2a4 88be cdb7 7fbf 2fba 62be 159c 32be
000000c0: 75a1 2fbf b85d 353e a5a5 733e 1959 09bc
000000d0: 2b43 42bd e966 2d3d 5530 2cbd 7fce 65bf
000000e0: 29ea 04be 242d 6bbf a5dc 1bbe ebb6 7fbe
000000f0: 6e2d 1c3f 6a6a 02bc f8b2 f5bd 8e2e 08bf
00000100: 812c 27bd 8cb3 32bf f25a 523e 2322 51bf
00000110: 26b8 50bf bf29 13bf 3959 b83e c552 1dbc
00000120: 0125 9dbe 4d7b 0fbf 8196 30bf b0e2 57bf
00000130: cc57 b4be 68e3 e4be 5f15 18bf a759 b8be
00000140: bb6a 353f e037 163c 586d 85bd b001 39bf
00000150: 602e 6ebf 28d4 e0be b406 0bbe c7f2 39bf
00000160: 4c50 8cbf ddfa 3abf d0e8 543c 76d5 653c
00000170: 0bf1 1dbd 31fc 69bc e777 96bf 86f3 97bf
00000180: ffa5 cdbe 7db3 a6bf 9b87 263e afcd 70bc
00000190: 98cb aa3e c53f 2eba 558f 5bbc fe7b 7fbf
000001a0: 4d4d a5be d046 cdbe 4c51 5abe a7d0 56bf
000001b0: 3597 61bf 8de8 aabe c6eb aa3e 83e2 7c3c
000001c0: 3021 f93b 28c0 16bd 8181 b7bd 4155 17bf
000001d0: 5b6f 39be 8914 47bf 7e94 d1bd 6916 adbe
000001e0: 15d5 443c 159c 173c ac24 82bb a375 843a
000001f0: 6690 24bb ce43 2cbe 5145 38be 8055 23be
00000200: 39f6 48be 4b40 b9bc bea0 db3e 73c2 6d3b
00000210: 0fb9 edbc 3f8d 043e 9fe4 8dbb 841d e6be
00000220: b8d1 96be ead3 71be 50a6 d8bc c0c6 ebbe
00000230: b2b7 153f ac54 ca3b 662f 2abd 8bf0 95bf
00000240: 3019 b7be 736d 81bf 9693 8abe 0e4f 48bf
00000250: 3646 cebd 8b10 0fbf 82d0 373f a779 77bb
00000260: 3196 b03c 984a 67bf 20c0 b2be 2034 35be
00000270: 4a8e 1ebe f4fe acbe 2725 4abf 383a 31bf
00000280: 87d9 493f a7ca 9f3c ca3e 573d b28d a0be
00000290: f725 e1be 3212 8e3c 1134 f4be d987 cbbe
000002a0: f67b 20bc ad07 49bf ab50 193e e4af 533c
000002b0: 4d63 23bf c39e 2bbf 1f2a 5c3c afd8 08bf
000002c0: 3e0f ebbd acfb a1bd 20d5 b3bc 583e e1bd
000002d0: 59c5 ce3e ed6d 95bc b266 63bc 45b2 2dbe
000002e0: c5c4 4f3f 65cf 06be 1dca 083e 0653 633e
000002f0: 2948 80bd 5268 ccbe ac0d fabe 8c93 4ebb
00000300: e37c 8d3e 278e 6c3e e876 4c3f 3ada 753d
00000310: c915 f03e c73f 883f a138 6a3e 1c02 f13e
00000320: 5310 153d 7b5b 7ebb f75e f0be 67a8 2c3f
00000330: 50b2 fd3b e0b8 5fbd ead8 4b3f a3cf d43e
00000340: d98a 0b3e c131 c6bc f893 62be 7e8c 0bbb
00000350: ce76 3bbe 192d a9bc cc58 cbbe 1613 9b3b
00000360: 5e2f 413f fb9c 7c3f 7976 083f 7e21 443e
00000370: a8db bb3d f4c2 bf3b 7977 233e 4b1b 043e
00000380: 7efc bdbc 097c 09be 6971 4b3e 2c09 e93d
00000390: c5ef 59bf be59 d6bd 019d 8dbd 7caa aebb
000003a0: 0c9e b1bd 1c02 5bbf d6bd d63e de63 2fbe
000003b0: 5d37 9f3e 7d28 9abe 67b0 50be a2b5 943d
000003c0: a500 ff3e e54f 87bc 3419 e1bc 0a8d 01be
000003d0: c1a1 3bbf 8821 33bf bd5f 0dbe f22c 9bbf
000003e0: 3cea 9bbe 536f fabe 42d5 1f3e c232 c53c
000003f0: 2260 1abc 812e fcbb 88cd a3be e884 b4be

linear.bias f4 [10]
-0.35556918 0.88654184 -0.029515252 -0.29684356 0.22457138 0.64194757 0.026519265 0.3952773
-1.0120072 -0.11769411
00000000: 2a0d b6be 68f4 623f f8c9 f1bc e1fb 97be
00000010: 0af6 653e ad56 243f ee3e d93c c961 ca3e
00000020: 7489 81bf 9c09 f1bd

exp_avg f8 [1, 4]
-0.5534062561223951 -2.7500257796654704e-08 0.38608922798059625 -0.5534061400556859
00000000: d051 6e09 81b5 e1bf 34fb 0f9b 3687 5dbe
00000010: 5fee e097 afb5 d83f 873b 1ecb 80b5 e1bf

exp_avg_sq f8 [1, 4]
5.282205833387404 1.6803661419642774e-14 3.48415892815057 5.2822058812624855
00000000: ab8e e490 fa20 1540 ce12 e95d 53eb 123d
00000010: efc8 53b7 8edf 0b40 810b 1b94 fa20 1540

exp_avg f4 [10, 1690]
0.0 0.0 0.00019914881 0.0 0.0 0.0 -2.8436707e-06 0.0
0.0 0.0 -8.566774e-09 -5.36756e-40 0.00019914881 0.0 8.566774e-09 8.566774e-09
-2.834575e-06 8.566774e-09 8.566774e-09 8.566774e-09 -2.1934614e-23 5.3802475e-24 0.00019914881 8.566774e-09
8.566774e-09 8.566774e-09 -2.834575e-06 8.566774e-09 8.566774e-09 2.1934598e-23 -1.0511361e-12 -5.392512e-28
0.00019914881 5.084597e-13 8.567359e-09 4.882696e-13 -2.8345744e-06 8.568135e-09 8.5668e-09 1.0511361e-12
-3.2541882e-11 -5.371497e-27 0.00019914881 3.3644504e-11 4.882918e-13 7.9485566e-13 -2.8436696e-06 3.3783896e-11
1.1129628e-17 3.2541882e-11 1.5255979e-09 -4.9730225e-25 0.00019914887 3.2869065e-11 -1.5107187e-09 -1.5108563e-09
-2.845339e-06 -1.5111163e-09 -1.5452071e-09 -1.5255979e-09 -1.0711314e-06 -1.9264946e-25 0.00019914884 -9.400279e-10
1.0716622e-06 1.0711298e-06 -1.7853798e-06 1.0711209e-06 1.0708176e-06 1.0711314e-06 -1.0742907e-06 -1.1173222e-19
0.00020047557 -2.817704e-10 5.0807438e-11 0.00017736814 -1.7830142e-06 0.00017736944 1.0745804e-06 1.0742907e-06
-0.0001773702 2.7848392e-20 0.0001991496 0.00017736954 0.00017736945 1.0620445e-09 0.00017872994 4.0832518e-10
1.8873536e-09 0.0001773702 -1.0335601e-09 -3.0503054e-26 0.0001991496 7.1193307e-10 1.8076911e-09 1.0957778e-09
-2.8422853e-06 4.146995e-12 6.5799194e-10 1.0335601e-09 -7.1193307e-10 -1.1476069e-29 0.00019914881 3.654584e-14
1.0317293e-26 7.1196954e-10 -2.8436707e-06 7.1193307e-10 7.1196954e-10 7.1193307e-10 -6e-45 -6e-45
0.00019914881 6e-45 6e-45 6e-45 -2.8436707e-06 6e-45 6e-45 6e-45
0.0 0.0 0.00019914881 0.0 0.0 6e-45 -2.8436707e-06 6e-45
6e-45 -6e-45 -4.8162982e-27 -6e-45 0.00019914881 -6e-45 0.0 4.8162982e-27
-2.8436707e-06 4.8162982e-27 4.8162982e-27 4.8162982e-27 -8.566785e-09 -5.0277265e-24 0.00019914881 1.1774843e-08
8.566774e-09 8.566774e-09 -2.831409e-06 8.5668e-09 2.8813767e-08 8.566785e-09 1.7072284e-09 1.7516287e-21
0.0001991586 8.566869e-09 3.7381486e-08 -6.2631348e-06 -2.7994186e-06 1.4758364e-06 -6.2457916e-06 -1.7072284e-09
4.208165e-06 -1.8868424e-21 0.00019918241 -6.274686e-06 -6.274041e-06 1.517522e-06 -2.800734e-06 3.2627258e-06
1.16173305e-05 -4.208165e-06 -0.00023373822 -5.7138317e-21 0.00020334857 -6.2395698e-06 0.00022876827 0.0002268205
0.00022253796 0.00021491337 0.00022766307 0.00023373822 -0.00031389794 -1.3307514e-19 0.0004148638 1.2618794e-05
9.2179573e-07 0.00018811783 6.814453e-05 0.0005664128 9.641313e-05 0.00031389794 -0.00026458086 -1.7711244e-20
0.00040150684 0.00047313367 0.0003380125 -7.535426e-05 0.00040000936 9.256056e-05 0.00040051743 0.00026458086
-0.00010471257 -1.7587895e-19 0.00060618296 0.00047519384 0.0005497791 0.00022398884 0.00023341765 -9.810878e-06
0.00019741479 0.00010471257 -0.00041418982 2.2722056e-18 0.00040586706 0.00040544447 0.00024553243 0.0036404012
0.0003221147 0.00047654368 0.00047422363 0.00041418982 -0.0001788555 -1.5899896e-20 0.00019915517 1.4846349e-06
0.00020538949 0.00018264346 0.00020848318 2.5575446e-05 1.4912239e-06 0.0001788555 -2.5559852e-05 2.40371e-22
0.00019914887 1.4718809e-06 7.5531394e-09 2.556115e-05 2.3218017e-05 2.692454e-10 2.4080822e-05 2.5559852e-05
-1.4726418e-06 -5.1124885e-27 0.00019914881 7.964622e-13 1.0651904e-12 1.503264e-11 -2.8436552e-06 1.9937514e-09
1.991911e-09 1.4726418e-06 -4.4631818e-36 -6e-45 0.00019914881 0.0 2.846553e-18 6.438742e-30
00000000: 0000 0000 0000 0000 9ad2 5039 0000 0000
00000010: 0000 0000 0000 0000 e4d5 3eb6 0000 0000
00000020: 0000 0000 0000 0000 122d 13b2 42d8 0580
00000030: 9ad2 5039 0000 0000 122d 1332 122d 1332
00000040: a139 3eb6 122d 1332 122d 1332 122d 1332
00000050: 7923 d499 6423 d018 9ad2 5039 122d 1332
00000060: 122d 1332 122d 1332 a139 3eb6 122d 1332
00000070: 122d 1332 6f23 d419 2bef 93ab 41e5 2a92
00000080: 9ad2 5039 621e 0f2b a52f 1332 886f 092b
00000090: 9e39 3eb6 0e33 1332 2f2d 1332 2bef 932b
000000a0: e71e 0fae 73c9 d493 9ad2 5039 58f8 132e
000000b0: 2271 092b 63bb 5f2b dfd5 3eb6 4995 142e
000000c0: 2f4e 4d23 e71e 0f2e 34ad d130 58e8 1997
000000d0: 9ed2 5039 478f 102e b0a1 cfb0 88a6 cfb0
000000e0: 8df2 3eb6 aeaf cfb0 245f d4b0 34ad d1b0
000000f0: cbc3 8fb5 0d7d 6e96 9cd2 5039 4b32 81b0
00000100: 08d6 8f35 bdc3 8f35 2fa1 efb5 6fc3 8f35
00000110: 03b9 8f35 cbc3 8f35 5930 90b5 fee8 03a0
00000120: c036 5239 a9e7 9aaf 1774 5f2e e6fb 3939
00000130: e74f efb5 3ffc 3939 4d3a 9035 5930 9035
00000140: 73fc 39b9 a482 031f d0d2 5039 46fc 3939
00000150: 40fc 3939 5ef7 9130 7469 3b39 a97a e02f
00000160: adb2 0131 73fc 3939 2a0d 8eb0 370b 1795
00000170: d0d2 5039 d6b1 4330 7a72 f830 419a 9630
00000180: 17be 3eb6 cfe8 912c 11de 3430 2a0d 8e30
00000190: d6b1 43b0 28c3 688f 9ad2 5039 7c96 2429
000001a0: e45a 4c14 67b4 4330 e4d5 3eb6 d6b1 4330
000001b0: 67b4 4330 d6b1 4330 0400 0080 0400 0080
000001c0: 9ad2 5039 0400 0000 0400 0000 0400 0000
000001d0: e4d5 3eb6 0400 0000 0400 0000 0400 0000
000001e0: 0000 0000 0000 0000 9ad2 5039 0000 0000
000001f0: 0000 0000 0400 0000 e4d5 3eb6 0400 0000
00000200: 0400 0000 0400 0080 11cb be93 0400 0080
00000210: 9ad2 5039 0400 0080 0000 0000 11cb be13
00000220: e4d5 3eb6 11cb be13 11cb be13 11cb be13
00000230: 1e2d 13b2 3180 c298 9ad2 5039 4f4a 4a32
00000240: 122d 1332 122d 1332 3c03 3eb6 2f2d 1332
00000250: 2582 f732 1e2d 1332 c2a3 ea30 6d59 041d
00000260: 3bd5 5039 7d2d 1332 618d 2033 eb27 d2b6
00000270: a5dd 3bb6 5a15 c635 f192 d1b6 c2a3 eab0
00000280: dd33 8d36 d790 0e9d 9fdb 5039 248b d2b6
00000290: 9a85 d2b6 a9ad cb35 3ef4 3bb6 34f5 5a36
000002a0: 0ee8 4237 dd33 8db6 a017 75b9 cadc d79d
000002b0: f739 5539 7f5d d1b6 84e1 6f39 aad6 6d39
000002c0: 1459 6939 5e5a 6139 d7b8 6e39 a017 7539
000002d0: ab92 a4b9 7e1b 1da0 1482 d939 4fb5 5337
000002e0: 5271 7735 7f41 4539 d1e8 8e38 527b 143a
000002f0: 6831 ca38 ab92 a439 71b7 8ab9 2947 a79e
00000300: 5681 d239 ed0e f839 4537 b139 8307 9eb8
00000310: 59b8 d139 121d c238 8afc d139 71b7 8a39
00000320: 2299 dbb8 27a4 4fa0 40e8 1e3a 7023 f939
00000330: 0d1f 103a 8cde 6a39 93c1 7439 6699 24b7
00000340: 2101 4f39 2299 db38 9e27 d9b9 c0a8 2722
00000350: 8eca d439 d691 d439 ceba 8039 cc93 6e3b
00000360: 81e1 a839 9cd8 f939 38a1 f839 9e27 d939
00000370: 288b 3bb9 972b 969e 4fd4 5039 ab43 c735
00000380: d25d 5739 fb83 3f39 479c 5a39 da8a d637
00000390: 1026 c835 288b 3b39 5d69 d6b7 9c4b 911b
000003a0: 9ed2 5039 718d c535 0fc3 0132 276c d637
000003b0: 50c4 c237 ec04 942f 2c01 ca37 5d69 d637
000003c0: 96a7 c5b5 cb86 ca93 9ad2 5039 262f 602b
000003d0: 87e9 952b 7f3a 842d a0d5 3eb6 7202 0931
000003e0: 12e2 0831 96a7 c535 bfd7 bd84 0400 0080
000003f0: 9ad2 5039 0000 0000 de09 5222 dc97 020f

exp_avg_sq f4 [10, 1690]
0.0 0.0 5.819662e-05 0.0 0.0 0.0 1.0128705e-05 0.0
0.0 0.0 2.7219372e-05 8.65561e-40 5.819662e-05 0.0 2.7210946e-05 2.7217602e-05
3.7237303e-05 2.721761e-05 2.7219367e-05 2.7219372e-05 8.2989077e-10 1.0732831e-35 5.819662e-05 2.7220118e-05
2.7220114e-05 2.7219368e-05 3.723123e-05 2.7211754e-05 2.7211026e-05 8.2989077e-10 5.588147e-06 5.6740647e-37
5.819726e-05 1.0454564e-08 2.7221375e-05 5.5917963e-06 3.7314283e-05 2.7215472e-05 2.7227075e-05 5.588147e-06
1.9897194e-05 3.4391805e-36 5.8289104e-05 2.364167e-05 1.9009412e-05 2.508122e-07 2.690683e-05 3.717398e-05
2.3995148e-05 1.9897194e-05 5.1525887e-05 2.6450607e-36 5.8244248e-05 4.104095e-05 7.996956e-06 2.1398788e-05
4.7096826e-05 3.311801e-05 1.1699189e-05 5.1525887e-05 7.353513e-05 5.402146e-36 5.8819194e-05 1.903009e-05
7.25389e-05 3.064607e-05 6.839488e-05 6.012433e-05 5.052413e-05 7.353513e-05 6.620754e-05 3.4409774e-36
8.424703e-05 2.3122728e-05 1.3499185e-05 7.940834e-06 7.576222e-05 4.117566e-05 6.4736276e-05 6.620754e-05
7.4681925e-06 2.5389399e-36 5.846191e-05 1.1369468e-05 5.2548207e-06 6.8104023e-06 1.8586808e-05 1.6198352e-06
1.6602928e-06 7.4681925e-06 4.4251947e-06 2.3181555e-37 5.819689e-05 1.4000395e-06 4.8416496e-07 3.1400256e-07
1.456915e-05 3.0757866e-07 4.124887e-06 4.4251947e-06 2.0180342e-07 2.7771174e-38 5.8196525e-05 2.4244209e-09
7.912765e-09 5.143172e-09 1.0340275e-05 2.384321e-07 2.2593255e-07 2.0180342e-07 1.2535349e-09 1.463e-42
5.819662e-05 1.2946855e-11 1.3102213e-11 1.4325874e-09 1.0130115e-05 1.4194462e-09 1.3546658e-11 1.2535349e-09
0.0 0.0 5.819662e-05 0.0 0.0 4.805444e-17 1.0128705e-05 4.805444e-17
4.805444e-17 0.0 1.3755083e-06 1.3607395e-37 5.819662e-05 4.447765e-09 0.0 1.3755083e-06
1.1483623e-05 1.3755083e-06 3.3247727e-20 1.3755083e-06 4.1083564e-05 8.058922e-39 5.82001e-05 2.751761e-05
2.7264263e-05 2.8886829e-05 4.016097e-05 3.1232423e-05 1.3935711e-05 4.1083564e-05 1.25210545e-05 5.1424603e-36
0.000100140394 2.7337872e-05 4.44822e-05 4.151814e-05 4.9861483e-05 7.978464e-06 3.7664217e-05 1.25210545e-05
0.000108684864 1.789829e-35 0.000103021834 7.015502e-05 6.0014645e-05 7.056815e-05 6.755798e-05 5.63857e-05
7.56912e-05 0.000108684864 0.00016031583 1.8758956e-35 0.00016839059 0.00011470355 0.0001775233 0.0001843829
0.00015894197 0.00022386244 0.00021695496 0.00016031583 0.00022135326 3.9313803e-35 0.00021233733 0.00018531898
0.00028071806 0.00019568451 0.00026623328 0.00024437247 0.0002563895 0.00022135326 0.00030253612 3.2503053e-35
0.0003081709 0.00030785325 0.00025850945 0.00027021632 0.0003282046 0.00031152877 0.00029002322 0.00030253612
0.00029777264 3.6853668e-35 0.0002449284 0.00025560605 0.0002593808 0.0002333874 0.00028747367 0.0002965263
0.00024936962 0.00029777264 0.00015193396 2.3959957e-35 0.00013356304 0.00013836713 9.051601e-05 0.00015204007
0.00015168138 0.00013649906 0.00019437805 0.00015193396 9.118437e-05 8.283756e-36 9.978682e-05 7.56484e-05
7.2401934e-05 7.450659e-05 8.7105596e-05 0.000107382184 7.293048e-05 9.118437e-05 4.6059457e-05 9.034163e-36
6.550403e-05 3.0707237e-05 5.463143e-05 7.3254036e-05 6.164289e-05 4.005847e-05 5.9816524e-05 4.6059457e-05
7.0215447e-07 3.0727547e-36 5.859759e-05 2.1694132e-06 7.696992e-06 7.999795e-06 1.3089348e-05 7.4005925e-06
3.3146434e-06 7.0215447e-07 2.4044448e-07 2.667458e-38 5.819662e-05 0.0 1.2021773e-07 3.60667e-07
00000000: 0000 0000 0000 0000 2518 7438 0000 0000
00000010: 0000 0000 0000 0000 75ee 2937 0000 0000
00000020: 0000 0000 0000 0000 2855 e437 d56c 0900
00000030: 2518 7438 0000 0000 1043 e437 5b51 e437
00000040: 402f 1c38 5f51 e437 2555 e437 2855 e437
00000050: 5f1e 6430 1743 6405 2518 7438 c256 e437
00000060: c056 e437 2655 e437 bb28 1c38 cc44 e437
00000070: 3c43 e437 5f1e 6430 d181 bb36 1314 4103
00000080: d518 7438 a99b 3332 7559 e437 2aa1 bb36
00000090: e881 1c38 c84c e437 b365 e437 d181 bb36
000000a0: e6e8 a637 5c49 9204 737b 7438 1a52 c637
000000b0: 6776 9f37 5ea7 8634 fab5 e137 42eb 1b38
000000c0: 3049 c937 e6e8 a637 801d 5838 5204 6104
000000d0: 494b 7438 6223 2c38 aa2a 0637 8c81 b337
000000e0: d589 4538 31e8 0a38 a247 4437 801d 5838
000000f0: df36 9a38 29c8 e504 a1b4 7638 cfa2 9f37
00000100: 0720 9838 f889 0038 396f 8f38 022e 7c38
00000110: dfe9 5338 df36 9a38 e7d8 8a38 ed5c 9204
00000120: c8ad b038 aef7 c137 8f7a 6237 9f39 0537
00000130: 88e2 9e38 07b4 2c38 06c3 8738 e7d8 8a38
00000140: 4997 fa36 37fd 5704 ff34 7538 7ebf 3e37
00000150: 9152 b036 e984 e436 deea 9b37 1d69 d935
00000160: 3ad7 de35 4997 fa36 227c 9436 f7c3 9d02
00000170: 6f18 7438 fee8 bb35 90f7 0135 2f94 a834
00000180: 066e 7437 4a21 a534 8268 8a36 227c 9436
00000190: 4daf 5834 5e33 1701 0b18 7438 dd9a 2631
000001a0: b5f0 0732 d2b7 b031 257b 2d37 dc01 8034
000001b0: de97 7234 4daf 5834 d748 ac30 1404 0000
000001c0: 2518 7438 74c3 632d 1f7f 662d b0e4 c430
000001d0: 83f4 2937 5316 c330 b950 6e2d d748 ac30
000001e0: 0000 0000 0000 0000 2518 7438 0000 0000
000001f0: 0000 0000 ab9c 5d24 75ee 2937 ab9c 5d24
00000200: ab9c 5d24 0000 0000 1b9e b835 da36 3902
00000210: 2518 7438 f4d2 9831 0000 0000 1b9e b835
00000220: c9a9 4037 1b9e b835 0902 1d1f 1b9e b835
00000230: 2451 2c38 ffc0 5700 e21b 7438 9ed5 e637
00000240: 8fb5 e437 fe51 f237 8372 2838 8fff 0238
00000250: 6ccd 6937 2451 2c38 8511 5237 6fbc da04
00000260: 7702 d238 a253 e537 6692 3a38 c323 2e38
00000270: 5c22 5138 3edb 0537 a5f9 1d38 8511 5237
00000280: beed e338 c853 be05 6d0d d838 3120 9338
00000290: 3cb8 7b38 fdfd 9338 eaad 8d38 af7f 6c38
000002a0: 67bc 9e38 beed e338 741a 2839 bc7a c705
000002b0: 0192 3039 008d f038 8c25 3a39 e856 4139
000002c0: a9a9 2639 9ebc 6a39 677e 6339 741a 2839
000002d0: 101b 6839 2d07 5106 dea6 5e39 2f52 4239
000002e0: 572d 9339 a930 4d39 3a95 8b39 1e1f 8039
000002f0: 046c 8639 101b 6839 b69d 9e39 ddd0 2c06
00000300: ff91 a139 5d67 a139 8d88 8739 d2ab 8d39
00000310: e012 ac39 af54 a339 420e 9839 b69d 9e39
00000320: 5e1e 9c39 9df2 4306 bc69 8039 dd02 8639
00000330: 80fd 8739 74b9 7439 10b8 9639 1677 9b39
00000340: d3bd 8239 5e1e 9c39 7650 1f39 35c9 fe05
00000350: 0e0d 0c39 a516 1139 6ad3 bd38 f26c 1f39
00000360: a90c 1f39 3021 0f39 f6d1 4b39 7650 1f39
00000370: 3c3a bf38 0f2d 3005 a444 d138 6da5 9e38
00000380: 7ed6 9738 6c40 9c38 76ac b638 5f32 e138
00000390: 41f2 9838 3c3a bf38 f72f 4138 a922 4005
000003a0: 355f 8938 a5cb 0038 0d24 6538 f69f 9938
000003b0: 4646 8138 7404 2838 81e3 7a38 f72f 4138
000003c0: b07b 3c35 56b3 8204 afc6 7538 3c96 1136
000003d0: 5422 0137 dc36 0637 529a 5b37 9b52 f836
000003e0: 2471 5e36 b07b 3c35 7016 8134 f03a 1101
000003f0: 2518 7438 0000 0000 3315 0134 b2a1 c134

exp_avg f4 [10]
0.011767374 -0.02687241 0.0047542145 0.011885069 -0.026139189 -0.04481993 0.016471092 0.0015800628
0.019582195 0.031791527
00000000: f2cb 403c 8723 dcbc 3ec9 9b3b 98b9 423c
00000010: da21 d6bc 1a95 37bd 62ee 863c 1c1a cf3a
00000020: d76a a03c d537 023d

exp_avg_sq f4 [10]
0.0069164466 0.0049009067 0.01056661 0.014709215 0.011648684 0.015399334 0.0068496796 0.010596587
0.016038379 0.015324885
00000000: 5ca3 e23b c997 a03b 931f 2d3c ebfe 703c
00000010: 1fda 3e3c 7d4d 7c3c 4773 e03b 4f9d 2d3c
00000020: eb62 833c 3a15 7b3c
