evaluation/Results/Seed_0_Trainable_yes_EFRQI_for_2x2_2x2_imgsize_14/model_checkpoints/epochs_19.pt (torch, 64733 bytes, 9 tensors)

qlayer_1.torch_qlayer.weights f8 [1, 4]
0.9325666359886191 -1.5827950084493798 0.0002589407806479905 -0.8842302966593157
00000000: ec2d 5dfc 95d7 ed3f 7cfe d8db 2053 f9bf
00000010: 0c55 3a2f 4ef8 303f ab17 c955 9d4b ecbf

linear.weight f4 [10, 507]
0.048853595 -0.03767694 0.000664441 0.16841637 0.30124584 0.012946425 0.23231162 0.2465856
0.04480447 0.2025043 -0.13290413 0.08504962 0.2735694 0.14806724 0.017355751 -0.048400536
0.0077952533 0.08811214 -0.11720024 0.13894847 0.030097727 0.014574776 0.23124003 0.04763924
-0.009095992 0.01716189 0.048490226 0.08878698 0.118664205 0.060279008 0.22405744 -0.30301833
0.026167171 0.084838785 -0.20744626 0.062578954 0.08996179 -0.048911564 0.043339983 0.018725079
-0.011073367 0.03848138 -0.1602432 0.011692664 0.10542466 0.18843643 0.29620513 0.06328342
0.29843366 0.15379134 -0.0095050875 0.0125030195 -0.0043183244 0.06797397 0.07462751 0.029069714
0.023525596 -0.098189436 -0.32777077 -0.071273275 -0.316188 -0.11605444 -0.026199272 -0.28932428
0.33877936 0.0102365 -0.17478979 -0.039288256 0.09020578 -0.032899737 -0.22582896 0.10173277
-0.3991392 0.29172143 0.04343359 0.076413244 -0.1061967 0.06944729 0.064454384 -0.05525851
0.00903631 0.33963588 0.35452434 0.06972422 0.5459323 0.7349216 0.1269578 -0.02201371
-0.13321045 0.03122273 -0.16341555 0.03789547 0.27294463 -0.07774075 -0.12679479 -0.010199784
-0.25558898 -0.79625326 -0.073627226 0.1890195 -0.20416275 -0.35333258 -0.2843051 0.29968047
-0.09501966 -0.33488646 0.36746708 0.0454003 -0.032788813 0.124525346 -0.008923692 0.17569281
0.17553075 -0.002238618 0.032138813 -0.097099006 0.002930865 0.12416162 -0.026399963 0.04374861
0.11820361 0.4733963 0.13740285 -0.13255407 0.15902908 0.31365916 0.01086999 0.012663604
0.1668109 -0.1750429 -0.07622434 -0.17189379 0.11048041 -0.27474475 0.11097336 0.05381934
-0.4375042 -0.46903637 -0.173971 -0.5643828 -0.05089415 -0.06719594 0.32183838 -0.33078578
-0.28170243 0.23637387 -0.48541877 -0.17663094 0.14926158 -0.14274718 -0.013310289 -0.0057933824
-0.039490875 0.15404058 0.14183225 0.05553591 0.26001123 0.31517863 0.010893611 -0.29413065
0.07265786 0.14629106 -0.13087614 -0.045808624 -0.08402495 -0.0073603373 -0.020929048 -0.19114894
-0.2604117 -0.11336344 0.20484221 -0.04574641 -0.06593628 -0.25178134 0.35641527 0.01113687
-0.23221846 0.38128877 -0.02327199 0.08459891 -0.07346065 -0.22378731 0.1202196 0.15322842
-0.24347818 -0.39024985 -0.2801917 0.005931013 -0.5098796 -0.39535016 0.029762415 -0.30332828
-0.32370567 0.24629265 -0.082556695 0.28580275 0.7265033 0.091130495 -0.19845563 -0.061301433
-0.025349345 -0.27177557 -0.34438294 -0.43769935 -0.5528476 0.13807623 -0.363429 -0.38508284
0.2955001 -0.46683156 0.046407282 0.7723135 -0.36858884 -0.04196047 0.7946017 -0.2021344
-0.3948025 0.18088664 -0.060742747 0.025479581 -0.830533 0.29167458 -0.34783337 -0.8002519
-0.37034118 0.16933307 -0.46878013 -0.45744127 0.029512592 -0.12758414 -0.4274567 -0.15463153
0.11963645 -0.19844292 0.41989082 0.92081547 0.08968927 -0.6220783 -0.34451294 -0.2255263
-0.25988284 -0.2173979 -0.4211629 -0.051136028 0.088259734 -0.49031216 -0.39622632 0.82224286
-0.7516423 -0.51900417 1.5519565 -0.21715237 0.19483157 1.3186533 -0.1690474 0.31524435
00000000: b51a 483d 2353 1abd e12d 2e3a 5775 2c3e
00000010: e53c 9a3e 3e1d 543c 19e3 6d3e ef80 7c3e
00000020: e484 373d 4a5d 4f3e 0518 08be 7f2e ae3d
00000030: 4a11 8c3e f09e 173e a62d 8e3c a43f 46bd
00000040: 536f ff3b 2374 b43d ae06 f0bd 8248 0e3e
00000050: 828f f63c 0bcb 6e3c 30ca 6c3e 5d21 433d
00000060: 5b07 15bc 1897 8c3c b09d 463d f3d5 b53d
00000070: 3806 f33d 1fe7 763d 506f 653e 3825 9bbe
00000080: 895c d63c f5bf ad3d cb6c 54be 6529 803d
00000090: e33d b83d 7e57 48bd 4485 313d 5665 993c
000000a0: 116d 35bc a79e 1d3d cb16 24be 9692 3f3c
000000b0: e2e8 d73d 7bf5 403e 33a8 973e bd9a 813d
000000c0: 4ccc 983e 7a7b 1d3e 3abb 1bbc 77d9 4c3c
000000d0: bb80 8dbb f035 8b3d 4fd6 983d 9c23 ee3c
000000e0: c0b8 c03c 8b17 c9bd 92d1 a7be b9f7 91bd
000000f0: 65e3 a1be f3ad edbd db9f d6bc 5022 94be
00000100: 7d74 ad3e feb6 273c 18fc 32be b9ec 20bd
00000110: cfbd b83d e0c1 06bd b53f 67be 4559 d03d
00000120: f95b ccbe 835c 953e 6ce7 313d 8c7e 9c3d
00000130: a87d d9bd 613a 8e3d a900 843d bf56 62bd
00000140: 080d 143c c1e4 ad3e 3784 b53e 92cb 8e3d
00000150: 38c2 0b3f d223 3c3f 3a01 023e 1956 b4bc
00000160: 5268 08be d0c6 ff3c 6856 27be 4838 1b3d
00000170: 66bf 8b3e 8b36 9fbd 7ed6 01be ff1c 27bc
00000180: 8fdc 82be 41d7 4bbf dfc9 96bd 548e 413e
00000190: 0a10 51be 02e8 b4be 7090 91be b86f 993e
000001a0: ab99 c2bd 3d76 abbe a524 bc3e aaf5 393d
000001b0: 904d 06bd 2507 ff3d ad34 12bc d1e8 333e
000001c0: 55be 333e c7b5 12bb fda3 033d d8db c6bd
000001d0: c113 403b 7348 fe3d bc44 d8bc be31 333d
000001e0: bc14 f23d 0061 f23e 55b3 0c3e 41bc 07be
000001f0: 85d8 223e ef97 a03e 0b18 323c 017b 4f3c
00000200: 7ad0 2a3e 723e 33be 821b 9cbd ed04 30be
00000210: 8e43 e23d 58ab 8cbe 0046 e33d ab71 5c3d
00000220: 8d00 e0be 8925 f0be 7425 32be 647b 10bf
00000230: 6276 50bd 069e 89bd 00c8 a43e c15c a9be
00000240: 4d3b 90be fe0b 723e cf88 f8be bede 34be
00000250: 07d8 183e 512c 12be 6613 5abc 6ad6 bdbb
00000260: 2fc1 21bd d0bc 1d3e 793c 113e 9f79 633d
00000270: 3120 853e 185f a13e 1e7b 323c 4b98 96be
00000280: a5cd 943d 53cd 153e 6504 06be d3a1 3bbd
00000290: 4615 acbd fc2e f1bb 6573 abbc 8cbc 43be
000002a0: af54 85be 172b e8bd 28c2 513e 9660 3bbd
000002b0: 9a09 87bd 7ce9 80be 107c b63e 6b77 363c
000002c0: adca 6dbe 4838 c33e e6a4 bebc 3142 ad3d
000002d0: 8a72 96bd 8028 65be b235 f63d e9e7 1c3e
000002e0: 5852 79be d4ce c7be 4975 8fbe f158 c23b
000002f0: 7887 02bf 566b cabe 4fd0 f33c d84d 9bbe
00000300: c0bc a5be 2434 7c3e 7c13 a9bd bd54 923e
00000310: 1ffc 393f a0a2 ba3d f437 4bbe 3617 7bbd
00000320: 6ea9 cfbc 2b26 8bbe f652 b0be 211a e0be
00000330: 6c87 0dbf db63 0d3e 5e13 babe 9429 c5be
00000340: ca4b 973e 8c04 efbe 9015 3e3d 56b6 453f
00000350: adb7 bcbe bede 2bbd 046b 4b3f 52fc 4ebe
00000360: 8e23 cabe 593a 393e 63cd 78bd 8eba d03c
00000370: d09d 54bf 5f56 953e 3717 b2be 4fdd 4cbf
00000380: 5c9d bdbe a665 2d3e f303 f0be be35 eabe
00000390: 64c4 f13c 6ba5 02be 9bdb dabe ba57 1ebe
000003a0: f503 f53d 9f34 4bbe eefb d63e 90ba 6b3f
000003b0: 02af b73d 8640 1fbf 0064 b0be 5ef0 66be
000003c0: 5d0f 85be 8e9d 5ebe aaa2 d7be 0374 51bd
000003d0: 85c1 b43d 320a fbbe 2dde cabe 827e 523f
000003e0: a16b 40bf 75dd 04bf 83a6 c63f 315d 5ebe
000003f0: ed81 473e a2c9 a83f c31a 2dbe b567 a13e

linear.bias f4 [10]
0.08616654 0.023952061 -0.004194953 -0.08592785 -0.012407817 -0.049864125 0.036473297 0.025846519
-0.0018436583 0.056299157
00000000: 1578 b03d 1d37 c43c d175 89bb f1fa afbd
00000010: 284a 4bbc 533e 4cbd 0665 153d 14bc d33c
00000020: e8a6 f1ba f299 663d

exp_avg f8 [1, 4]
0.09761480352592518 0.0008082963737472589 -0.0008807428907675443 0.8537927164550522
00000000: 0dd3 bfa4 48fd b83f a0e8 cf3e 7b7c 4a3f
00000010: 686f bdf4 34dc 4cbf 3199 571a 4552 eb3f

exp_avg_sq f8 [1, 4]
1.1793059439291804 0.0002831720374140361 0.009658919020676665 1.3754097921947024
00000000: c477 d2e8 6fde f23f 8e39 cca3 d68e 323f
00000010: 9dd8 772a 0ec8 833f c130 c1b2 ad01 f63f

exp_avg f4 [10, 507]
0.00023760546 2.361697e-09 -0.0010441841 0.00023760546 2.361697e-09 -0.0010441841 0.0002376054 2.2761093e-09
-0.0010441841 0.0011949346 0.0012515752 -0.0010441692 0.0011950661 0.00089760794 -0.001044182 0.0011951377
-6.2756684e-05 -0.0010441832 0.001170835 -0.0012794965 -0.0010441882 0.00020748527 -2.3631872e-05 -0.0010441841
0.00020748426 1.3388219e-05 -0.0010441841 0.00020751191 3.4627097e-05 -0.0010441841 0.0002319944 7.485709e-06
-0.0010441841 0.00023760546 2.3617075e-09 -0.0010441841 0.00023760546 2.3617106e-09 -0.0010441841 0.00023760546
2.361697e-09 -0.0010441841 0.00023760546 2.3616409e-09 -0.0010441841 0.00014980203 -9.673271e-05 -0.001044185
0.0002639924 0.0011775751 0.000570138 -0.00024696314 0.00040221354 0.0006008543 0.00036638466 -0.00031646076
-0.00069101615 0.00058986724 -0.0013006426 0.0005758063 0.00011099638 -1.6958978e-05 -0.0010660663 9.474704e-05
0.00013217336 -0.0010964248 0.00010803965 0.00018074413 -0.0010907396 0.00023605586 -1.2230521e-05 -0.0010554686
0.0002219072 1.1463715e-05 -0.0010441841 0.00022192037 1.6800357e-05 -0.0010441841 0.0002376052 2.0438473e-09
-0.0010441841 0.0002376052 2.0867887e-09 -0.0010441841 0.00020031074 -9.709108e-05 -0.0011804148 0.0007427781
0.0011813194 0.00053829385 0.0003076553 0.0001686386 -0.001002768 0.00043810447 -0.000512883 -0.00062257715
0.00045131307 -0.00089655246 0.00032864985 0.0012126961 -0.0012631826 -0.0010969174 0.00017281774 0.00012098661
-0.0012895379 0.00017501968 0.00020485578 -0.0012943126 0.00020575889 4.026742e-05 -0.001015489 0.00022635283
1.0637434e-05 -0.0010653674 0.00023336566 1.6830963e-05 -0.0010705732 0.00023760543 2.043847e-09 -0.0010441844
0.0002377029 1.15101365e-07 -0.0010441844 0.00020877432 -9.524211e-05 -0.0011880818 0.00082483114 0.0011831853
0.0005007107 0.00024091195 9.607925e-05 -0.0011583549 0.00049962685 -0.00034026123 -0.0008348961 0.00035271686
-0.00010398248 -0.00014058065 0.001160438 -0.0009345953 0.0009632352 0.0013251274 -0.00116041 -0.0011294035
0.00034638512 0.00017470225 -0.0011608785 0.00021693634 5.1391467e-06 -0.0010488922 0.00020955548 4.5896966e-05
-0.0010741797 0.00025440683 1.5068203e-05 -0.0010492222 0.00023760524 2.0437252e-09 -0.0010441844 0.00023713846
-3.5642265e-07 -0.001044023 0.00019174792 -9.5287505e-05 -0.0011869196 0.00080276356 0.0011623774 0.00048745828
0.00017838561 0.00016983118 -0.0012380554 9.7909324e-05 -0.00035066193 -0.00038809003 -7.154625e-05 0.00024156427
-0.00046616094 -2.332813e-05 -0.00035407153 -0.00040381617 0.0009360241 -0.000853796 0.0010643847 0.0010713373
-0.0011133361 -0.0010952103 0.00021188306 4.9947743e-05 -0.0011163738 0.00032305036 6.390476e-05 -0.0010156585
0.00025540253 1.50599635e-05 -0.0010414179 0.00023760583 2.043731e-09 -0.0010441841 0.00023740644 -3.4929081e-07
-0.0010445773 0.0001849574 -9.12619e-05 -0.0011666561 0.0007518219 0.0010635074 0.0004557207 0.00020189244
8.5488646e-05 -0.0011254617 0.00060180126 -0.00097464764 0.0006321764 -0.00095953926 0.0008012369 0.00033477583
-0.00010591651 0.00033455217 -6.260748e-05 0.00010964445 -0.00042027896 -0.00036199635 0.00014871775 -0.001148726
0.0008017138 0.00014150247 0.00016859289 -0.001105818 0.00023134166 -2.8413435e-06 -0.0010191945 0.00023810592
-1.3918631e-06 -0.0010419368 0.00023760546 2.361577e-09 -0.0010441841 0.00025559677 2.2913498e-05 -0.0010440068
0.00027461184 -0.0001584329 -0.0010126791 0.00081448123 0.00105708 0.0003049549 0.00029754033 0.00010700552
-0.0010995461 0.0007525727 -0.0008796915 0.00066826784 -2.05081e-05 -0.0005368567 0.00070222054 2.3114419e-05
00000000: bb25 7939 6a4b 2231 01dd 88ba bb25 7939
00000010: 6a4b 2231 01dd 88ba b725 7939 bd69 1c31
00000020: 01dd 88ba 5a9f 9c3a e50b a43a 81dc 88ba
00000030: c4a3 9c3a 734d 6b3a efdc 88ba 2ba6 9c3a
00000040: 3d9c 83b8 f9dc 88ba b476 993a c7b4 a7ba
00000050: 24dd 88ba 6790 5939 0f3d c6b7 01dd 88ba
00000060: 2290 5939 f69d 6037 01dd 88ba 8e97 5939
00000070: 903c 1138 01dd 88ba 8643 7339 c02d fb36
00000080: 01dd 88ba bb25 7939 994b 2231 01dd 88ba
00000090: bb25 7939 a74b 2231 01dd 88ba bb25 7939
000000a0: 6a4b 2231 01dd 88ba bb25 7939 6d4a 2231
000000b0: 01dd 88ba 2d14 1d39 fadc cab8 09dd 88ba
000000c0: 7668 8a39 dd58 9a3a 5075 153a d57a 81b9
000000d0: 30e0 d239 a682 1d3a 5117 c039 a5ea a5b9
000000e0: 4f25 35ba 52a1 1a3a 537a aaba b5f1 163a
000000f0: bac6 e838 2143 8eb7 40bb 8bba eeb2 c638
00000100: 0498 0a39 e9b5 8fba 5893 e238 2286 3d39
00000110: 26f7 8eba c385 7739 b031 4db7 a657 8aba
00000120: c3af 6839 4854 4037 01dd 88ba 4cb3 6839
00000130: 7eee 8c37 01dd 88ba a925 7939 be73 0c31
00000140: 01dd 88ba a925 7939 2d67 0f31 01dd 88ba
00000150: 810a 5239 609d cbb8 26b8 9aba ffb6 423a
00000160: 80d6 9a3a 4a1c 0d3a cc4c a139 94d4 3039
00000170: 506f 83ba 63b1 e539 ff72 06ba 7234 23ba
00000180: 379e ec39 9e06 6bba a34e ac39 54f3 9e3a
00000190: 6091 a5ba 71c6 8fba 6936 3539 31ba fd38
000001a0: b605 a9ba 7d85 3739 8ece 5639 eda5 a9ba
000001b0: fbc0 5739 d0e4 2838 281a 85ba 2059 6d39
000001c0: 6e77 3237 cca3 8bba 9eb3 7439 3830 8d37
000001d0: 7a52 8cba b925 7939 bd73 0c31 04dd 88ba
000001e0: e33f 7939 a52d f733 04dd 88ba 6eea 5a39
000001f0: b8bc c7b8 69b9 9bba 7b39 583a 1c15 9b3a
00000200: 2042 033a 4f9d 7c39 287e c938 f1d3 97ba
00000210: 64f9 023a 1765 b2b9 eedc 5aba dbec b839
00000220: 2b11 dab8 d568 13b9 d719 983a a1ff 74ba
00000230: 9f81 7c3a e6af ad3a e618 98ba 7e08 94ba
00000240: 069b b539 4730 3739 9e28 98ba 6879 6339
00000250: ef70 ac36 fb7a 89ba 1fbc 5b39 7e81 4038
00000260: 7dcb 8cba e861 8539 70cd 7c37 0e86 89ba
00000270: ac25 7939 9871 0c31 04dd 88ba 5fa8 7839
00000280: 5b5a bfb4 99d7 88ba f10f 4939 17d5 c7b8
00000290: 6a92 9bba 8d70 523a ea5a 983a 8b91 ff39
000002a0: 060d 3b39 b614 3239 3f46 a2ba ab54 cd38
000002b0: 0cd9 b7b9 9078 cbb9 1a0b 96b8 6a4c 7d39
000002c0: 1067 f4b9 c7b0 c3b7 ada2 b9b9 4ab7 d3b9
000002d0: 845f 753a 48d1 5fba d382 8b3a 1d6c 8c3a
000002e0: 5ced 91ba 298d 8fba ed2c 5e39 fb7e 5138
000002f0: 4a53 92ba 165f a939 9b04 8638 d81f 85ba
00000300: 8ce7 8539 0daa 7c37 3080 88ba d425 7939
00000310: b271 0c31 01dd 88ba 4ef0 7839 2a86 bbb4
00000320: 33ea 88ba 20f1 4139 dc63 bfb8 7cea 98ba
00000330: ea15 453a 6365 8b3a cced ee39 17b3 5339
00000340: 5e48 b338 3a84 93ba 33c2 1d3a 7f7f 7fba
00000350: a4b8 253a 9789 7bba 190a 523a da84 af39
00000360: 7e1f deb8 d566 af39 234c 83b8 eaf0 e538
00000370: e358 dcb9 54ca bdb9 1ef1 1b39 d990 96ba
00000380: 1a2a 523a 4860 1439 4fc8 3039 18f1 90ba
00000390: 4e94 7239 e9ad 3eb6 7e96 85ba 12ac 7939
000003a0: 0dd0 bab5 9991 88ba bb25 7939 4d49 2231
000003b0: 01dd 88ba 9e01 8639 5d36 c037 0ed7 88ba
000003c0: c7f9 8f39 0221 26b9 dfbb 84ba e982 553a
000003d0: b88d 8a3a 5be2 9f39 30ff 9b39 2768 e038
000003e0: a51e 90ba 4d48 453a 199b 66ba b22e 2f3a
000003f0: cf08 acb7 d8bb 0cba 3915 383a d6e5 c137

exp_avg_sq f4 [10, 507]
8.29184e-05 2.129855e-06 0.0063222735 0.00012530337 4.5218756e-05 0.0063222717 0.00012531565 3.1929565e-05
0.006322273 0.00035553702 0.00026808694 0.0063222656 0.00038003028 0.00019909223 0.006322267 0.0005161793
0.00020113657 0.0063217594 0.0007366135 0.0005090365 0.006321063 0.0005245204 0.00023198275 0.006321025
0.000511833 0.00037430887 0.0063214786 0.0002652609 0.00017382274 0.0063222726 0.00011578169 2.5602943e-05
0.0063222726 9.730339e-05 1.5308075e-05 0.0063222726 8.292772e-05 2.1395042e-06 0.0063222735 8.3512576e-05
2.730542e-06 0.0063222735 0.00014833898 0.00011132076 0.0062867412 0.0003566838 0.00027399027 0.006281581
0.001286334 0.0012696583 0.0060501965 0.0024965203 0.0020314383 0.0060398774 0.0036661082 0.0023170076
0.006105446 0.004037636 0.001583562 0.005817911 0.00430671 0.0013465658 0.00600486 0.004313889
0.002135423 0.0060438635 0.003630402 0.002511785 0.0062298123 0.0017797609 0.0013383752 0.006345382
0.00096279447 0.00082368596 0.0063206805 0.00017114432 9.1976915e-05 0.006322264 8.351343e-05 2.731583e-06
0.006322273 0.00033326808 0.00034713856 0.006218133 0.0008169454 0.00080096145 0.006091705 0.0018696447
0.002425259 0.0051622232 0.002469195 0.0026606887 0.004454729 0.0019779683 0.0017731397 0.0035624641
0.001741081 0.0013388827 0.0032079564 0.0015511909 0.00094536575 0.0037020275 0.0016662708 0.0014429748
0.0032659739 0.001951055 0.0023234787 0.003837474 0.002434185 0.0026501932 0.0051376563 0.0013039428
0.0016405967 0.005795704 0.00030571074 0.00028864894 0.0062431004 8.262174e-05 2.3431332e-06 0.0063223126
0.00032569902 0.0004817833 0.0060593574 0.0011925374 0.0014836901 0.0055293706 0.0023006618 0.0031771644
0.0042566448 0.001961578 0.0025532502 0.0033871396 0.001787413 0.0013522943 0.0029788597 0.001573656
0.0008803458 0.0031163958 0.001575505 0.0008106645 0.003216585 0.0014498864 0.0010381291 0.003400452
0.0016878571 0.0020958313 0.003114608 0.0020607966 0.0029282812 0.0039500687 0.0019301602 0.0026252202
0.0052516917 0.0003897915 0.0004707463 0.0061366265 0.000119884506 3.958131e-05 0.0063216095 0.0009538532
0.0011283461 0.0059701 0.001532822 0.0021083674 0.005111339 0.0019644524 0.00325802 0.0032436852
0.0018116867 0.0023804714 0.0028576648 0.0017002042 0.0014985736 0.002806575 0.0015015916 0.0015938084
0.0029845445 0.0017025766 0.0016480198 0.003394326 0.0017625062 0.0016024987 0.0032718973 0.0015077532
0.0025303366 0.002890525 0.0021479097 0.0031033712 0.0033226737 0.0013050456 0.0029351918 0.0042179353
0.00043133742 0.0005778337 0.0061428556 0.000103684404 5.8045538e-05 0.006297017 0.00089249597 0.0015660586
0.0054569924 0.0014113805 0.0024817018 0.0045488393 0.0019294005 0.0034225637 0.00319584 0.0012861713
0.0022193943 0.0026721864 0.0015841544 0.0016734083 0.0031405855 0.0021850632 0.0020667196 0.0037884135
0.0019639945 0.0017232501 0.0036260479 0.0012553828 0.0016800227 0.0031670223 0.0015132041 0.0024608125
0.0026326496 0.0019056173 0.0032474396 0.0031554778 0.0016105789 0.0030859942 0.004313438 0.0005360527
0.0007884359 0.005973411 0.00011606791 6.798628e-05 0.006277887 0.0009982575 0.0018794889 0.005366543
0.0012630337 0.0027090372 0.003971659 0.001551714 0.0032256518 0.0030018447 0.0016083438 0.0023744956
0.0034610566 0.0019165033 0.001656395 0.0040571806 0.0018732317 0.0015864713 0.0045952895 0.0014401912
00000000: 7ae4 ad38 a1ee 0e36 132b cf3b de63 0339
00000010: 45a9 3d38 0f2b cf3b 2a67 0339 1cec 0538
00000020: 122b cf3b 5f67 ba39 058e 8c39 022b cf3b
00000030: cd3e c739 6ac3 5039 052b cf3b 3550 073a
00000040: 30e8 5239 c326 cf3b 4c19 413a dc70 053a
00000050: eb20 cf3b f87f 093a 6540 7339 9a20 cf3b
00000060: 882c 063a e33e c439 6824 cf3b b712 8b39
00000070: 3044 3639 112b cf3b d2cf f238 e7c5 d637
00000080: 112b cf3b 5c0f cc38 d769 8037 112b cf3b
00000090: 7be9 ad38 6794 0f36 132b cf3b 7923 af38
000000a0: 5b3e 3736 132b cf3b 718b 1b39 e174 e938
000000b0: 0201 ce3b 4a01 bb39 5aa6 8f39 b8d5 cd3b
000000c0: 359a a83a aa6a a63a ba40 c63b a99c 233b
000000d0: e121 053b 2aea c53b 1743 703b f0d8 173b
000000e0: 3110 c83b 254e 843b 868f cf3a 2da4 be3b
000000f0: 4d1f 8d3b 407f b03a 6bc4 c43b 865b 8d3b
00000100: 74f2 0b3b 9a0b c63b 0aec 6d3b c29c 243b
00000110: 7423 cc3b de46 e93a 6b6c af3a ecec cf3b
00000120: 0b64 7c3a a1ec 573a b61d cf3b 3475 3339
00000130: bbe3 c038 ff2a cf3b ee23 af38 3d50 3736
00000140: 122b cf3b 7cba ae39 2600 b639 7bc1 cb3b
00000150: 4728 563a 9df7 513a ed9c c73b de0e f53a
00000160: 18f1 1e3b de27 a93b 38d2 213b f35e 2e3b
00000170: faf8 913b cda0 013b b268 e83a 3b78 693b
00000180: fc34 e43a 737d af3a 943c 523b 5451 cb3a
00000190: 6cd2 773a b79d 723b c566 da3a 3322 bd3a
000001a0: f309 563b 8bba ff3a 8145 183b 217e 7b3b
000001b0: d986 1f3b ddae 2d3b c959 a83b 0fe9 aa3a
000001c0: 4a09 d73a e4e9 bd3b cd47 a039 ce55 9739
000001d0: ec92 cc3b 3545 ad38 b93e 1d36 672b cf3b
000001e0: 95c2 aa39 dc97 fc39 938d c63b ea4e 9c3a
000001f0: 6178 c23a b92f b53b b3c6 163b f937 503b
00000200: 537b 8b3b d18d 003b 6e54 273b c6fa 5d3b
00000210: a147 ea3a 783f b13a f938 433b 2243 ce3a
00000220: 02c7 663a 723c 4c3b 2d81 ce3a c682 543a
00000230: 57cd 523b 1d0a be3a d511 883a 1eda 5e3b
00000240: 163b dd3a 375a 093b 731e 4c3b 6e0e 073b
00000250: 68e8 3f3b 946f 813b 6efd fc3a e30b 2c3b
00000260: 6216 ac3b ee5c cc39 80ce f639 c115 c93b
00000270: 816a fb38 1c04 2638 8125 cf3b 010c 7a3a
00000280: 03e5 933a d4a0 c33b f9e8 c83a 892c 0a3b
00000290: 057d a73b 0bbe 003b 8184 553b 0294 543b
000002a0: 1e76 ed3a af01 1c3b a947 3b3b 63d9 de3a
000002b0: c96b c43a 84ee 373b 0ed1 c43a 56e7 d03a
000002c0: 5998 433b fe28 df3a 5e02 d83a 5773 5e3b
000002d0: e503 e73a ef0a d23a 546d 563b cd9f c53a
000002e0: 01d4 253b f66e 3d3b f2c3 0c3b ee61 4b3b
000002f0: 37c1 593b 100e ab3a 595c 403b 9b36 8a3b
00000300: 2125 e239 c379 173a 024a c93b 2471 d938
00000310: ec75 7338 3557 ce3b 64f6 693a 3544 cd3a
00000320: 92d0 b23b 12fe b83a 0ca4 223b 6e0e 953b
00000330: f0e3 fc3a 174d 603b 4c71 513b bf94 a83a
00000340: 4273 113b d91f 2f3b 67a3 cf3a 4456 db3a
00000350: 48d2 4d3b 4733 0f3b cd71 073b 0847 783b
00000360: 5cb6 003b aede e13a fda2 6d3b a88b a43a
00000370: 3534 dc3a d18d 4f3b b456 c63a 9545 213b
00000380: 8888 2c3b e8c5 f93a ffd2 543b 22cc 4e3b
00000390: 0f1a d33a 643e 4a3b be57 8d3b e385 0c3a
000003a0: 0aaf 4e3a 9abc c33b 7c69 f338 db93 8e38
000003b0: bcb6 cd3b f7d7 823a 2f59 f63a d3d9 af3b
000003c0: 618c a53a 1a8a 313b b124 823b e262 cb3a
000003d0: 7565 533b 99ba 443b 10cf d23a 6d9d 1b3b
000003e0: e5d2 623b 2e33 fb3a 651b d93a 19f2 843b
000003f0: 3a87 f53a 25f1 cf3a 1594 963b ccc4 bc3a

exp_avg f4 [10]
-0.0010441841 -0.0046477346 -0.0077005485 0.024256412 0.0020063778 0.003339855 -0.00046456195 -0.039407533
-0.042226247 0.06588817
00000000: 01dd 88ba 064c 98bb e254 fcbb 62b5 c63c
00000010: 6f7d 033b 78e1 5a3b 7390 f3b9 cb69 21bd
00000020: 6ef5 2cbd 60f0 863d

exp_avg_sq f4 [10]
0.006322272 0.0068450924 0.017195703 0.019338118 0.015290482 0.014470762 0.009525961 0.014231136
0.019159514 0.021223895
00000000: 102b cf3b cc4c e03b 01de 8c3c f96a 9e3c
00000010: ee84 7a3c c616 6d3c c712 1c3c b629 693c
00000020: 6af4 9c3c bcdd ad3c
