evaluation/Results/Seed_0_Trainable_yes_EFRQI_for_2x2_2x2_imgsize_14/model_checkpoints/epochs_3.pt (torch, 64719 bytes, 9 tensors)

qlayer_1.torch_qlayer.weights f8 [1, 4]
0.4557231413597748 -1.1619713688651498 -0.012065154312155674 -0.4500375050722778
00000000: 67eb 0a65 912a dd3f 72a0 424a 6f97 f2bf
00000010: ea03 8999 9db5 88bf 4891 901b 6acd dcbf

linear.weight f4 [10, 507]
0.01587305 -0.036108945 -0.07409952 -0.02154321 0.027075842 -0.06181802 0.039434526 -0.03414799
-0.029959474 0.034167677 -0.04026898 0.009686188 -2.9795541e-05 0.0569904 -0.05770079 0.06086494
0.11815061 0.012783799 0.26911008 0.24497415 -0.053162217 0.25926983 0.094186336 -0.029977564
0.15829046 -0.14336108 -0.03338313 0.21130016 -0.035443936 -0.014497113 0.21304952 -0.3220153
-0.048608854 0.055376172 -0.20162995 -0.012193651 0.053413223 -0.025581768 -0.031423904 -0.022608785
-0.05967167 -0.036282506 -0.021990407 0.07599142 -0.01034362 -0.00688487 -0.047911678 -0.047823425
0.0026182889 -0.0596443 -0.06669887 -0.006054069 0.12672344 -0.017081613 -0.12988843 0.12938894
0.031444512 -0.15787184 -0.021153774 0.058411174 -0.22836849 -0.1828985 0.040567294 -0.1285091
0.103703015 0.041089147 -0.16797751 0.11377151 0.047059473 0.044528734 0.0012536561 0.018458446
0.077274606 -0.18952274 -0.03194912 0.11474391 -0.19107343 -0.005830142 0.043173965 -0.1061112
-0.06583017 -0.009110123 0.024269914 -0.0034669226 0.050454743 -0.004592938 -0.055214345 0.09118553
0.052663445 -0.082269326 0.050767954 0.2233589 0.051105347 0.090405 0.05339738 -0.09851104
0.20243254 -0.36230427 -0.1509243 0.29684302 -0.45814922 -0.17994234 0.06937867 -0.070748866
0.040833957 -0.112843886 0.23175746 -0.041305043 0.07897751 -0.008402001 -0.071930796 -0.077002205
0.0445524 0.106411755 -0.09000307 -0.06405908 -0.031153046 0.091224305 -0.030019868 -0.031143151
0.024412705 0.025629696 -0.024942132 0.081912205 -0.03208963 -0.016177071 0.053058494 0.14478873
-0.01608398 -0.09654125 0.024578283 -0.040237106 0.12396233 -0.110257104 0.09133548 0.016763201
-0.21831931 -0.11801345 0.035662632 -0.19983998 -0.08352492 -0.13995655 -0.07946041 0.0543343
-0.016324935 0.021235352 -0.31144893 -0.2318598 0.044645175 -0.014465599 0.09390495 -0.06514171
-0.03826756 -0.03198354 0.10666087 -0.07945017 0.05353529 0.033912167 -0.063887075 -0.04207213
-0.088533714 -0.018850274 0.03626993 0.10887765 -0.15345998 0.014964832 0.023001734 0.027943943
0.014216555 -0.09027203 0.018629586 0.0016948411 -0.09728371 -0.05009113 -0.024719622 -0.0288739
-0.122279465 0.011558347 0.022247003 0.03047572 -0.29866517 0.03892244 -0.171431 0.06801205
-0.18475908 -0.1569707 0.0814465 -0.060496878 -0.11159572 -0.058869604 -0.014307419 -0.17462686
0.106510565 0.087617174 -0.10625593 0.0006724621 -0.03246238 -0.0238481 -0.12598516 -0.11160907
-0.082282566 -0.06573341 0.03227832 -0.11122529 -0.15341707 0.14079325 -0.31492034 -0.087895714
0.055294555 -0.16268885 -0.09118451 0.11204808 -0.18561599 0.029388636 0.16843566 -0.10820634
0.013979585 0.12971507 -0.020418778 -0.1833704 -0.22450712 -0.04855241 -0.02843451 -0.3535463
-0.25223422 -0.09133243 -0.19557792 -0.0077304686 0.008706715 -0.053628623 -0.3712183 -0.03968329
-0.049345188 -0.105797224 0.025999652 0.008384959 -0.0562115 0.17709865 -0.014957708 -0.13648313
0.09302594 0.002736978 -0.2288086 0.10084338 0.041272562 -0.16745307 0.045102447 0.24915045
-0.26367667 -0.05980157 0.3976443 -0.041874927 0.12544493 0.3751949 0.0075040706 0.19036198
00000000: 3308 823c f9e6 13bd 7dc1 97bd 637b b0bc
00000010: 28ce dd3c e434 7dbd 1986 213d c3de 0bbd
00000020: 926d f5bc 68f3 0b3d 16f1 24bd d1b2 1e3c
00000030: 70f1 f9b7 c46e 693d aa57 6cbd 844d 793d
00000040: f2f8 f13d 2473 513c ccc8 893e 81da 7a3e
00000050: a0c0 59bd 04bf 843e c4e4 c03d 8293 f5bc
00000060: e516 223e 3fcd 12be c0bc 08bd 125f 583e
00000070: a92d 11bd 4d85 6dbc a729 5a3e 30df a4be
00000080: 141a 47bd 20d2 623d 1578 4ebe e1c7 47bc
00000090: d3c7 5a3d db90 d1bc 5ab6 00bd 0f36 b9bc
000000a0: 486a 74bd f79c 14bd 3a25 b4bc 64a1 9b3d
000000b0: 4978 29bc 7a9a e1bb 093f 44bd 7fe2 43bd
000000c0: 9997 2b3b 954d 74bd 6b99 88bd 3661 c6bb
000000d0: cac3 013e bdee 8bbc 7901 05be 897e 043e
000000e0: f6cb 003d 28a9 21be ae4a adbc 8e40 6f3d
000000f0: 6ed9 69be bf49 3bbe e429 263d e497 03be
00000100: 3f62 d43d 184d 283d 4c02 2cbe 0a01 e93d
00000110: 6fc1 403d c363 363d b851 a43a 2b36 973c
00000120: 2642 9e3d 4012 42be 15dd 02bd dbfe ea3d
00000130: c1a8 43be c70a bfbb 2fd7 303d d450 d9bd
00000140: f8d1 86bd a042 15bc b3d1 c63c 4f35 63bb
00000150: a2a9 4e3d 5b80 96bb 7028 62bd 7bbf ba3d
00000160: a0b5 573d d27c a8bd 0ff2 4f3d 32b8 643e
00000170: d753 513d 4226 b93d 36b7 5a3d 28c0 c9bd
00000180: 7a4a 4f3e f27f b9be e68b 1abe cffb 973e
00000190: 8992 eabe ce42 38be 6716 8e3d c8e4 90bd
000001a0: 8241 273d b21a e7bd d451 6d3e 7a2f 29bd
000001b0: f6be a13d 8ca8 09bc 7450 93bd 55b3 9dbd
000001c0: 947c 363d 68ee d93d 8853 b8bd 6831 83bd
000001d0: ac34 ffbc cfd3 ba3d 3aec f5bc ec1f ffbc
000001e0: 27fd c73c 5ef5 d13c 7153 ccbc 96c1 a73d
000001f0: 6a70 03bd c785 84bc dd53 593d 7f43 143e
00000200: 8dc2 83bc 6bb7 c5bd 6558 c93c aacf 24bd
00000210: f6df fd3d 7ace e1bd 190e bb3d fb52 893c
00000220: 198f 5fbe 09b1 f1bd fb12 123d daa2 4cbe
00000230: 1d0f abbd c550 0fbe 24bc a2bd a58d 5e3d
00000240: dfbb 85bc c3f5 ad3c 3c76 9fbe a86c 6dbe
00000250: dcdd 363d 1f01 6dbc 3d51 c03d 0469 85bd
00000260: 72be 1cbd 2c01 03bd 0471 da3d c5b6 a2bd
00000270: d247 5b3d 7ce7 0a3d 3ad7 82bd d353 2cbd
00000280: 2a51 b5bd e46b 9abc c78f 143d 3ffb de3d
00000290: 9d24 1dbe 0e2f 753c 226e bc3c b2ea e43c
000002a0: 8eec 683c 8be0 b8bd 139d 983c 6e25 de3a
000002b0: af3c c7bd 5b2c 4dbd ce80 cabc f588 ecbc
000002c0: a86d fabd 395f 3d3c 593f b63c 38a8 f93c
000002d0: a4ea 98be 236d 1f3d 9c8b 2fbe e749 8b3d
000002e0: 7c31 3dbe edbc 20be 6ccd a63d 93cb 77bd
000002f0: 4c8c e4bd 4121 71bd aa69 6abc 62d1 32be
00000300: 3622 da3d a270 b33d b69c d9bd 2b48 303a
00000310: 46f7 04bd 175d c3bc 4102 01be 4c93 e4bd
00000320: c383 a8bd 3d9f 86bd 4636 043d 16ca e3bd
00000330: 5d19 1dbe 1b2c 103e 3d3d a1be ab02 b4bd
00000340: 8b7c 623d e897 26be f2be babd 7779 e53d
00000350: 1e12 3ebe 70c0 f03c 667a 2c3e 499b ddbd
00000360: a10a 653c 07d4 043e 4845 a7bc 73c5 3bbe
00000370: 32e5 65be e4de 46bd 7def e8bc 0504 b5be
00000380: d824 81be 7f0c bbbd 9445 48be df4f fdbb
00000390: 9ca6 0e3c b0a9 5bbd 5310 bebe f28a 22bd
000003a0: 2e1e 4abd 37ac d8bd 39fd d43c 1161 093c
000003b0: 083e 66bd 5959 353e 2d11 75bc 3cc2 0bbe
000003c0: 6284 be3d df5e 333b cd4c 6abe f986 ce3d
000003d0: 6b0d 293d d178 2bbe 58bd 383d 4c21 7f3e
000003e0: a100 87be 7ef2 74bd 0998 cb3e 0b85 2bbd
000003f0: a374 003e 8c19 c03e b5e4 f53b 40ee 423e

linear.bias f4 [10]
0.011402621 -0.019829107 0.022068426 -0.038709577 -0.0021573557 0.011022188 0.037088953 0.003310231
-0.010223289 0.006928734
00000000: 0fd2 3a3c a770 a2bc d8c8 b43c ef8d 1ebd
00000010: 6c62 0dbb 6896 343c 96ea 173d 76f0 583b
00000020: 957f 27bc 6f0a e33b

exp_avg f8 [1, 4]
0.13269880577793322 0.0020442251076271643 0.06502147413840058 0.26430279394026507
00000000: cf69 8443 46fc c03f 3816 74ff 0cbf 603f
00000010: d34e f650 3fa5 b03f 5bc0 0d44 56ea d03f

exp_avg_sq f8 [1, 4]
0.09943078669887648 0.0007325088407965704 0.020354408929481444 0.0852128355930816
00000000: 7654 16c9 4b74 b93f 3ac8 f3c1 ba00 483f
00000010: d5e3 b942 c9d7 943f 9a5b 1226 82d0 b53f

exp_avg f4 [10, 507]
0.0004855598 0.00025969712 0.009028254 0.0004855598 0.00025969712 0.009028254 0.00046445217 0.0002389879
0.009028254 0.0004199645 0.00023593873 0.009028254 0.00044010175 0.00023008586 0.009028254 0.00043199048
0.00029404313 0.009028254 -0.0011053197 -0.0012866331 0.009028226 -0.001165528 -0.0009672794 0.009028252
6.714257e-05 0.001345062 0.009028254 0.00018962413 -0.00020169218 0.009028254 -0.0010581145 0.0016997879
0.009028254 0.00046252494 0.00028091052 0.009028254 0.00048524688 0.0002599936 0.009028254 0.0004855603
0.00025969764 0.009028254 0.00047074264 0.00024564532 0.009028254 0.0004859673 0.00022891338 0.009028252
0.0007241659 0.00043824498 0.008960614 1.789077e-05 -0.00054755586 0.00900575 -0.0024496908 -0.0028980984
0.008963387 -0.0036900127 -0.0032439714 0.007797465 -0.001269309 0.002572062 0.0068061105 -0.004337804
0.0023461627 0.010241737 -0.0039072204 -0.0036889561 0.010006546 -0.0018065603 0.0021264825 0.0067276284
0.013637376 -0.013296978 0.009025792 0.0004834603 0.00026115237 0.009028036 0.00048548792 0.00025969927
0.009028254 0.0006083325 0.000358962 0.009011278 0.00069236173 0.0002684005 0.00900919 0.00016964982
6.97652e-05 0.009292278 -0.02606911 -0.026278198 0.009004369 -0.006495761 -0.0014142187 0.005386921
-0.023930699 0.010092551 0.024461808 -0.015412752 0.0018247863 0.007082034 -0.011041873 0.0027051524
-0.0018433001 -0.0033083674 0.0018175251 -0.0019454439 -0.007563081 0.004977542 0.0256788 -0.0061549433
0.003807416 0.011570307 0.00045667312 0.0002650927 0.0090250615 0.00048554892 0.00025969878 0.009028148
0.000613133 0.00041731598 0.009173144 -0.017863391 -0.018202743 0.009193784 -0.019507132 -0.014565425
0.009214383 0.019956645 0.0020715278 -0.022655686 -0.0015052997 0.0056675733 0.009731258 -0.011095237
0.005449291 0.015020672 0.014609819 -0.0070167407 0.030902334 -0.013862961 -0.0048501324 -0.000610477
0.0011067356 0.0125480555 0.025514286 -0.016481206 0.01009769 -0.011922208 -0.004961635 0.007926702
0.0020815881 0.00042627135 0.00029155766 0.009005224 0.00048511088 0.00025918637 0.009028254 -0.01787233
-0.017887235 0.009226117 0.0051718145 -0.016753186 -0.013588614 0.019474838 0.005893973 -0.014816233
-0.007083516 0.005618738 0.024177046 -0.006514413 0.0063446257 0.012903314 0.0047036214 0.00059260696
0.0041608806 0.0006945773 -0.02086475 -0.0045203413 0.005644864 -0.0049007838 -0.015597773 0.008406065
0.0143889515 0.020795044 -0.006766667 0.0101591665 -0.022446813 -0.003273655 0.008534576 -0.00018627301
-0.003944001 0.004527977 0.008989422 0.00048517564 0.00025918472 0.009027582 0.0028262003 -0.01884477
-0.01382943 0.02396856 0.00586596 -0.010645504 -0.012540608 0.008985198 0.026210979 -0.011319337
0.004791485 0.006238888 -0.00012191251 0.00546439 -0.0001013201 -0.00025706575 0.0024686249 0.0039167013
0.00618601 -0.031268463 0.0063437293 -0.0050171 -0.013465221 -0.0301537 0.0014677005 0.0067007043
0.017667001 0.011878264 0.0018936205 0.0016904868 0.018466318 0.00691846 -0.0060477164 0.0022658755
0.0045219045 0.0022869294 0.0004853165 0.0002591847 0.009027548 -0.0009766648 -0.020125533 -0.015237937
-0.0011773891 0.012186876 0.022263255 -0.010684343 0.008620501 0.011650299 -0.005485028 0.0025240262
-0.0091895815 0.01781961 0.0039355927 0.018168518 0.0019143686 -0.00034638026 0.003612939 -0.005733377
00000000: bc92 fe39 f527 8839 3eeb 133c bc92 fe39
00000010: f527 8839 3eeb 133c b781 f339 d398 7a39
00000020: 3eeb 133c ae2e dc39 5266 7739 3eeb 133c
00000030: 75bd e639 3443 7139 3eeb 133c c87c e239
00000040: cd29 9a39 3eeb 133c 60e0 90ba 3ea4 a8ba
00000050: 20eb 133c a1c4 98ba 0691 7dba 3ceb 133c
00000060: e5ce 8c38 cb4c b03a 3eeb 133c d7d5 4639
00000070: 557d 53b9 3eeb 133c 6eb0 8aba 6bcb de3a
00000080: 3eeb 133c 0c7f f239 2c47 9339 3eeb 133c
00000090: bc68 fe39 c04f 8839 3eeb 133c cd92 fe39
000000a0: 0728 8839 3eeb 133c 02ce f639 f5c9 8039
000000b0: 3eeb 133c 6dc9 fe39 7808 7039 3ceb 133c
000000c0: f3d5 3d3a 3fc4 e539 8acf 123c 2314 9637
000000d0: da89 0fba da8c 133c fe8a 20bb 06ee 3dbb
000000e0: 2cdb 123c 24d4 71bb cf98 54bb e181 ff3b
000000f0: f15e a6ba 0a90 283b cb05 df3b 2324 8ebb
00000100: 14c2 193b f5cc 273c 2408 80bb 6ac2 71bb
00000110: 7ff2 233c 1bca ecba 755c 0b3b 7073 dc3b
00000120: 4d6f 5f3c 91db 59bc eae0 133c f178 fd39
00000130: 47eb 8839 54ea 133c 1689 fe39 3f28 8839
00000140: 3eeb 133c 8178 1f3a 1033 bc39 0aa4 133c
00000150: 9c7f 353a 1bb8 8c39 489b 133c 07e4 3139
00000160: e84e 9238 a43e 183c e38e d5bc 6045 d7bc
00000170: 1087 133c 65da d4bb 4e5d b9ba c584 b03b
00000180: 500a c4bc 3a5b 253c 2164 c83c c485 7cbc
00000190: ab2d ef3a 6810 e83b f9e8 34bc ed48 313b
000001a0: e39a f1ba 32d1 58bb 063a ee3a 44fe feba
000001b0: b9d3 f7bb a61a a33b 595c d23c 68af c9bb
000001c0: d785 793b 6391 3d3c a16d ef39 24fc 8a39
000001d0: dadd 133c 4691 fe39 2e28 8839 ccea 133c
000001e0: a9ba 203a 34cb da39 f44a 163c 3f56 92bc
000001f0: eb1d 95bc 86a1 163c 6ccd 9fbc d2a3 6ebc
00000200: ecf7 163c 1e7c a33c 78c2 073b 6b98 b9bc
00000210: 7a4d c5ba 0db7 b93b db6f 1f3c ccc8 35bc
00000220: f78f b23b 4419 763c 065e 6f3c b0ec e5bb
00000230: e426 fd3c 7921 63bc dced 9ebb 6b08 20ba
00000240: e20f 913a 5c96 4d3c 5603 d13c 9803 87bc
00000250: c870 253c 5d55 43bc 3695 a2bb ffde 013c
00000260: 416b 083b 2c7d df39 35dc 9839 a68a 133c
00000270: 7b56 fe39 68e3 8739 3eeb 133c fe68 92bc
00000280: 4088 92bc 2429 173c 5378 a93b fa3d 89bc
00000290: c7a2 5ebc b289 9f3c 3b22 c13b c9bf 72bc
000002a0: d71c e8bb 641d b83b f10e c63c db76 d5bb
000002b0: 94e6 cf3b 6c68 533c d620 9a3b 2e59 1b3a
000002c0: ff57 883b 4b14 363a 8dec aabc 5f1f 94bb
000002d0: 8df8 b83b c196 a0bb cd8d 7fbc 98b9 093c
000002e0: a3bf 6b3c 5e5a aa3c ebba ddbb a272 263c
000002f0: 61e2 b7bc d18a 56bb 9bd4 0b3c 4852 43b9
00000300: ae3c 81bb 6d5f 943b 5e48 133c 2c5f fe39
00000310: 2fe3 8739 6ce8 133c c637 393b 5960 9abc
00000320: d594 62bc b759 c43c 3d37 c03b 7b6a 2ebc
00000330: 1f77 4dbc a736 133c 68b8 d63c be74 39bc
00000340: e401 9d3b 966f cc3b 48ab ffb8 a00e b33b
00000350: d17b d4b8 c8c6 86b9 a7c8 213b ac57 803b
00000360: 03b4 ca3b 5c13 00bd 0fdf cf3b 7c66 a4bb
00000370: 3b9d 5cbc e404 f7bc db5f c03a 9591 db3b
00000380: 63ba 903c 0d9d 423c 5c33 f83a 5393 dd3a
00000390: ad46 973c 40b4 e23b ec2b c6bb 157f 143b
000003a0: 7c2c 943b 4fe0 153b 1472 fe39 2ee3 8739
000003b0: 48e8 133c 6f03 80ba 4dde a4bc 8aa8 79bc
000003c0: 9f52 9aba 76ab 473c 6e61 b63c 620d 2fbc
000003d0: 003d 0d3c e5e0 3e3c c0bb b3bb 226a 253b
000003e0: e68f 16bc 6efa 913c 25f6 803b 25d6 943c
000003f0: 8deb fa3a 5f9a b5b9 0fc7 6c3b 0ddf bbbb

exp_avg_sq f4 [10, 507]
0.00018543578 1.0221281e-05 0.00421371 0.00018543578 1.0221281e-05 0.00421371 0.00018544089 1.02259e-05
0.00421371 0.00018550748 1.0295001e-05 0.00421371 0.00018866129 1.3753071e-05 0.004213709 0.00026174836
0.00010902187 0.0042111804 0.0004204351 0.00021773417 0.0042108335 0.00042067023 0.00014047706 0.004210875
0.000529553 0.00023352423 0.0042137057 0.00057002105 0.00034062826 0.004213709 0.00032745829 0.00010529186
0.00421371 0.00025669337 7.552701e-05 0.00421371 0.00018543507 1.0221732e-05 0.00421371 0.00018792973
1.2713821e-05 0.00421371 0.00019019362 2.0312764e-05 0.00421371 0.0002795885 0.00010483862 0.0042137057
0.00068343006 0.0005118663 0.0042134495 0.0016304035 0.001215392 0.004211708 0.0024465318 0.0017031153
0.004104906 0.0027895912 0.0012459742 0.0039770314 0.0032746284 0.0011248905 0.00398533 0.0034659426
0.0011246817 0.0041544857 0.003109213 0.0022714403 0.004248808 0.001764249 0.0016098424 0.0043443968
0.0006931172 0.0005345832 0.004205867 0.00022089825 4.64281e-05 0.0042137094 0.0001879333 1.2717229e-05
0.00421371 0.00038359646 0.00021901191 0.0041900645 0.0005454166 0.0003231874 0.0041376003 0.00081239827
0.0010490903 0.003749604 0.0017962684 0.0020847789 0.0029216178 0.0017155019 0.0014474737 0.0020706842
0.0014483968 0.0010412319 0.0019071567 0.001134136 0.0004979476 0.0018019066 0.0007996407 0.0005692451
0.0017745403 0.0010007333 0.0018617923 0.0018878506 0.0013348846 0.0019254732 0.0029117728 0.001347684
0.0015486727 0.003997871 0.00044600928 0.0002797264 0.0042094667 0.00018396357 1.1275604e-05 0.0042139124
0.00021856152 0.00022242422 0.004044334 0.0007134031 0.000852911 0.0038060762 0.0014264454 0.0017484172
0.003081329 0.0015474014 0.0019413192 0.0018250188 0.0013239019 0.0009174721 0.0023699254 0.0009385066
0.0011172924 0.0020818422 0.0010713356 0.0005579883 0.0022491359 0.00045769752 0.00051973405 0.002290692
0.0008708754 0.0013977408 0.0021536867 0.0012616857 0.0021979224 0.002151673 0.0011572648 0.002153915
0.0033146169 0.0003379601 0.00034428216 0.0039767437 0.00018427949 1.1242761e-05 0.004210445 0.0005335652
0.0004895927 0.004040238 0.0006233124 0.0012724051 0.0033480795 0.0019227051 0.0020659394 0.002617859
0.0015607342 0.001849478 0.002069799 0.0013361814 0.0011051262 0.0017954852 0.0015153043 0.0012632138
0.0017354912 0.0012634346 0.0010884082 0.0025515193 0.0009390533 0.0015133714 0.0016821681 0.0006712437
0.0014995757 0.0017294729 0.0007351891 0.0018981608 0.0021433989 0.00089331024 0.0022881096 0.0028258744
0.0006331306 0.0006222533 0.004123289 0.00018575818 1.12392445e-05 0.0042139287 0.00058088306 0.0009067707
0.0037638678 0.0010377207 0.0014494769 0.0030898151 0.0016298409 0.0023364674 0.0028850597 0.0013316333
0.0017234465 0.0018438767 0.0015899095 0.0016707369 0.0020597172 0.0019723002 0.001507981 0.0030872289
0.0015141893 0.0010002998 0.003177539 0.001091011 0.0020209663 0.0018728522 0.00089745165 0.0018184797
0.0016306291 0.001076034 0.00197353 0.0021126657 0.0010112923 0.0022542528 0.0026779529 0.00029414974
0.0004940668 0.0038895288 0.00018561781 1.0289814e-05 0.004214042 0.0007621771 0.0012908252 0.0035024413
0.0006200385 0.0011100727 0.003104111 0.0010003013 0.0020515092 0.0019661828 0.0013604205 0.001963893
0.0022368059 0.0015428797 0.0016340248 0.002490489 0.0012149764 0.0010824008 0.0026191275 0.0009960291
00000000: 8a71 4239 117c 2b37 2913 8a3b 8a71 4239
00000010: 117c 2b37 2913 8a3b e972 4239 e88f 2b37
00000020: 2913 8a3b c984 4239 b1b8 2c37 2913 8a3b
00000030: 61d3 4539 fdbc 6637 2713 8a3b 453b 8939
00000040: aca2 e438 f1fd 893b d86d dc39 924f 6439
00000050: 08fb 893b 678d dc39 064d 1339 61fb 893b
00000060: b3d1 0a3a 2fde 7439 2013 8a3b 776d 153a
00000070: 5a96 b239 2713 8a3b b5ae ab39 23d0 dc38
00000080: 2913 8a3b cd94 8639 4164 9e38 2913 8a3b
00000090: 5971 4239 017e 2b37 2913 8a3b 010f 4539
000000a0: 724d 5537 2913 8a3b b66e 4739 5465 aa37
000000b0: 2913 8a3b bc95 9239 cedc db38 2013 8a3b
000000c0: 3728 333a c42e 063a fa10 8a3b 43b3 d53a
000000d0: ca4d 9f3a 5e02 8a3b fe55 203b 113b df3a
000000e0: 7382 863b 93d1 363b f54f a33a c251 823b
000000f0: 269b 563b 1071 933a 5f97 823b de24 633b
00000100: 0e6a 933a 5a22 883b f0c3 4b3b 72dc 143b
00000110: 9639 8b3b 603e e73a 5901 d33a 715b 8e3b
00000120: 4fb2 353a 4523 0c3a 5fd1 893b eca0 6739
00000130: cbbb 4238 2813 8a3b f60f 4539 155c 5537
00000140: 2913 8a3b 721d c939 90a6 6539 cf4c 893b
00000150: 4afa 0e3a 7b71 a939 b594 873b 20f7 543a
00000160: a181 893a ebbb 753b c470 eb3a c9a0 083b
00000170: 9d78 3f3b b1da e03a 28b9 bd3a 51b4 073b
00000180: 22d8 bd3a f279 883a 8ff9 f93a 4aa7 943a
00000190: b388 023a f42d ec3a fb9e 513a 6439 153a
000001a0: b197 e83a 0a2b 833a 6207 f43a c171 f73a
000001b0: 4bf7 ae3a 2960 fc3a 71d3 3e3b c5a4 b03a
000001c0: d5fc ca3a 9300 833b 5ad6 e939 3ea8 9239
000001d0: 91ef 893b 58e6 4039 5a2c 3d37 dc14 8a3b
000001e0: a92d 6539 8c3a 6939 5586 843b ac03 3b3a
000001f0: e395 5f3a 5d6f 793b 91f7 ba3a 252b e53a
00000200: 1ff0 493b 2dd2 ca3a dd73 fe3a 7835 ef3a
00000210: c786 ad3a 8382 703a c050 1b3b 1d06 763a
00000220: 1d72 923a 846f 083b 0f6c 8c3a f645 123a
00000230: 3d66 133b 1ff7 ef39 c33e 083a 6f1f 163b
00000240: 754b 643a 6634 b73a de24 0d3b 265f a53a
00000250: 050b 103b 1503 0d3b 5daf 973a b228 0d3b
00000260: 0b3a 593b 3d30 b139 c580 b439 584f 823b
00000270: 263b 4139 4a9f 3c37 c6f7 893b f4de 0b3a
00000280: 0358 003a f963 843b c965 233a d5c6 a63a
00000290: 746b 5b3b 4703 fc3a b664 073b 6390 2b3b
000002a0: 8d91 cc3a 2f6a f23a 77a5 073b cf22 af3a
000002b0: e2d9 903a 7c56 eb3a 2d9d c63a 6c92 a53a
000002c0: 6c79 e33a d599 a53a eba8 8e3a 6437 273b
000002d0: cd2a 763a 515c c63a 327c dc3a 67f6 2f3a
000002e0: 698d c43a 7baf e23a b5b9 403a b5cb f83a
000002f0: 4478 0c3b 092d 6a3a 1cf4 153b 4e32 393b
00000300: adf8 253a b61e 233a a81c 873b 15c8 4239
00000310: 3090 3c37 ff14 8a3b 6746 183a 5ab4 6d3a
00000320: 39ab 763b 2104 883a 60fc bd3a 7f7e 4a3b
00000330: 63a0 d53a 6b1f 193b 4513 3d3b 338a ae3a
00000340: 45e5 e13a 3cae f13a 8364 d03a a1fc da3a
00000350: 52fc 063b b541 013b 72a7 c53a 1b53 4a3b
00000360: c377 c63a 7e1c 833a 423e 503b 4100 8f3a
00000370: 3072 043b 7e7a f53a f642 6b3a 0e5a ee3a
00000380: d5ba d53a b609 8d3a 5756 013b a674 0a3b
00000390: 578d 843a 16bc 133b 9880 2f3b 1c38 9a39
000003a0: 4384 013a 77e7 7e3b 67a2 4239 6aa2 2c37
000003b0: f215 8a3b d7cc 473a e830 a93a 3789 653b
000003c0: 148a 223a dc7f 913a 576e 4b3b 8b1c 833a
000003d0: 9d72 063b 13db 003b 2350 b23a a8b4 003b
000003e0: 6097 123b 743a ca3a c62c d63a 7937 233b
000003f0: d83f 9f3a 58df 8d3a aba5 2b3b 318d 823a

exp_avg f4 [10]
0.009028252 0.0041082823 -0.0057558864 0.051352073 0.024404515 0.017073946 0.019779475 -0.044283424
-0.035671134 -0.040036127
00000000: 3ceb 133c c59e 863b e09b bcbb 8d56 523d
00000010: faeb c73c a9de 8b3c 9108 a23c 8962 35bd
00000020: e51b 12bd ecfc 23bd

exp_avg_sq f4 [10]
0.0042137103 0.0032975299 0.0074609076 0.008478595 0.007321321 0.00676398 0.005017232 0.0070203133
0.010213417 0.008352918
00000000: 2a13 8a3b 5f1b 583b a17a f43b cee9 0a3c
00000010: b1e7 ef3b 60a4 dd3b 9867 a43b a80a e63b
00000020: 2d56 273c adda 083c
