evaluation/Results/Seed_0_Trainable_yes_EFRQI_for_2x2_2x2_imgsize_14/model_checkpoints/epochs_18.pt (torch, 64733 bytes, 9 tensors)

qlayer_1.torch_qlayer.weights f8 [1, 4]
000000 cb 72 2b 5f 4a bc ec 3f fb e9 b3 12 a2 2f f9 bf
       0.897984681967125 -1.5741291742875763
000010 78 ba 97 a1 13 f2 6d bf 7a 57 a6 cf 84 cd ef bf
       -0.003655470220784548 -0.9938377433452239

linear.weight f4 [10, 507]
000000 20 09 0f 3e bd 05 1a bd b3 db 0d bd e3 45 78 3e
       0.13968325 -0.03760313 -0.03463335 0.2424541
000010 fb 3e 9a 3e 38 1a b7 bc 5b d9 9c 3e e6 85 7c 3e
       0.30126175 -0.02235137 0.3063458 0.24660453
000020 e1 c1 1b 3c 93 3a d9 3e ca 66 0d 3e 40 c9 4b 3d
       0.009506674 0.424275 0.13808742 0.049752474
000030 10 e4 f9 3e f8 02 bf 3e 0b fb 92 bc c6 ad 0b 3e
       0.4880681 0.37306952 -0.017941972 0.13640508
000040 af 5a 04 bc 68 52 58 3d 31 9d 5c 3d 4a f1 18 bd
       -0.008078261 0.052812964 0.053860847 -0.037339486
000050 06 7b aa bb 52 dc 6e 3d 4f 0d 73 3e 44 25 4a 3c
       -0.005202654 0.058315583 0.23735546 0.012337986
000060 46 1f 10 3d a5 f3 e3 3b ec 1b 58 3c a5 47 1a 3e
       0.035186075 0.006956535 0.013190251 0.15066393
000070 69 f4 e0 3d 61 a5 cc 3c ef a5 91 3e e7 19 84 be
       0.109841175 0.024981203 0.2844691 -0.25801012
000080 93 98 15 bc fd cf 2c 3e 92 65 54 be b6 7c df 3c
       -0.009130615 0.16876216 -0.20741871 0.027281146
000090 13 20 39 3e 3b 0a 48 bd 64 c3 03 3c ab b6 df 3d
       0.18078642 -0.04883788 0.00804219 0.10923513
0000a0 a1 5b 34 bc ae a3 50 3b a5 bc bc bd 63 bd 3f 3c
       -0.011008174 0.0031835842 -0.092156686 0.011702868
0000b0 8a 6b 8f 3d 39 a7 6d 3e 01 71 97 3e ab 57 e4 3c
       0.07002933 0.23208322 0.29578403 0.027873835
0000c0 8f 69 aa 3e d7 83 8e 3e 0d 91 e2 3c 1a 3b fd bc
       0.3328366 0.2783496 0.027657056 -0.03091197
0000d0 8d aa 14 bc 81 22 da 3d be fc 98 3d 80 d4 a0 bc
       -0.009073866 0.10651112 0.07470082 -0.019632578
0000e0 45 85 5e 3b d9 2c a1 bd 2c 0f e1 be 5d 17 02 bd
       0.0033953947 -0.07869882 -0.43956888 -0.031760562
0000f0 8c ce a8 be f1 68 f1 bd 18 82 6c bd 89 67 99 be
       -0.32970083 -0.11787594 -0.057741255 -0.29961804
000100 1f 5a b0 3e 7d 07 e2 bc db 37 3e be f8 3c a5 bc
       0.34443757 -0.027591461 -0.18575995 -0.020170674
000110 39 d8 6a 3d ca 47 1d bd 1d 03 47 be 50 6c 7e 3d
       0.057335112 -0.03839854 -0.19434781 0.062115014
000120 7b 08 bf be 65 7f 95 3e af 39 05 3c 5a e9 0c 3e
       -0.37311158 0.29198757 0.008131429 0.13760892
000130 5b de d3 bd 4e e0 0b 3d de ae 1e 3e 82 12 62 bd
       -0.10345145 0.03414946 0.15496394 -0.05519343
000140 53 22 d7 bc b5 30 c5 3e e7 84 b5 3e 83 d4 0b 3d
       -0.026261484 0.38513723 0.3545296 0.034138214
000150 c8 51 06 3f 3c c3 2f 3f 12 21 ba 3d ab 1f b9 3b
       0.5246854 0.6865728 0.09088339 0.005649527
000160 49 02 90 bd 7c 23 94 3d 1e 73 22 be 77 0d 08 3d
       -0.07031686 0.072333306 -0.15864226 0.033215966
000170 a6 a4 66 3e 11 65 f7 bc 56 b3 2b be a7 26 8d bd
       0.22523746 -0.03019956 -0.1676763 -0.06892138
000180 ea e0 61 be c4 84 61 bf ba b7 41 bd 78 a4 95 3e
       -0.22058454 -0.8809321 -0.047294356 0.29227042
000190 1c 08 b6 be 4c 5b d3 be 68 3d 8b be 7d db 9c 3e
       -0.35553062 -0.4128059 -0.27195287 0.30636206
0001a0 96 d1 1e be 72 7a a5 be 99 b5 c2 3e 80 4f f4 bc
       -0.15509638 -0.3231998 0.38029173 -0.029823065
0001b0 8f 0d 13 bd e3 9a 1a 3e 40 ff 94 bd e6 28 22 3e
       -0.035901602 0.15098147 -0.072752476 0.15835914
0001c0 87 9e 56 3e 81 23 21 bd c5 0b a1 3d ce ad c3 bd
       0.20958911 -0.0393405 0.07863573 -0.09554635
0001d0 b5 3b 07 bd db 50 5c 3e 5e b1 d7 bc b3 75 0a 3c
       -0.033015925 0.21515219 -0.026329692 0.008450913
0001e0 c1 b1 28 3e 8a a0 f2 3e a1 97 cf 3d 65 76 12 be
       0.16474058 0.47388107 0.10136343 -0.14302976
0001f0 0b dc fd 3d 93 51 89 3e b4 e2 9c 3d b5 d0 a2 3d
       0.123954855 0.2682005 0.07660428 0.07949964
000200 96 f9 31 3e f0 20 0b be 14 03 92 bd 37 44 6a be
       0.17380366 -0.13586783 -0.07129493 -0.22877584
000210 d3 74 19 3e 8d 75 98 be 1c e7 aa 3d 43 cc cb 3d
       0.14985971 -0.29777184 0.08344862 0.09951069
000220 94 1d e9 be 31 b4 f3 be e7 01 50 bd 15 bf 32 bf
       -0.4553038 -0.47598413 -0.050783064 -0.6982282
000230 f9 ed 93 3c 06 e8 80 3d 2b 92 4a 3e 04 03 cc be
       0.01805781 0.06294255 0.19782321 -0.3984605
000240 4c c4 7d be f9 eb 76 3e aa 90 10 bf 08 45 3d be
       -0.24781913 0.24113454 -0.5647074 -0.18483365
000250 94 b8 28 3e e8 1e 61 be 30 dd 80 bc 42 ca e0 3c
       0.16476661 -0.21984446 -0.01573047 0.027440194
000260 14 cd d8 bd a8 d2 4a 3e b3 87 11 3e 00 86 a1 3c
       -0.105859905 0.19806921 0.14211921 0.019717216
000270 a3 df ab 3e 51 61 a1 3e 18 ef c7 bc c6 bc a0 be
       0.3356906 0.3151956 -0.024406001 -0.31394023
000280 e2 67 03 3d 27 a9 e1 3d 85 c8 f4 bd 45 47 9a bd
       0.032081492 0.110185914 -0.119523086 -0.07533125
000290 0d a9 16 be 64 39 8c 3d 80 dc 73 3d 53 34 16 be
       -0.14712925 0.06846884 0.059536457 -0.14668398
0002a0 be b7 79 be cf e4 bd bd a6 23 12 3e fa a6 0b bc
       -0.24386498 -0.092721574 0.14271411 -0.008523697
0002b0 36 de d2 bd 51 fe 8d be b1 f3 ba 3e 18 ca d1 3c
       -0.102962896 -0.2773309 0.36514047 0.025609061
0002c0 51 9a 78 be 16 18 c2 3e 1e 39 8a bd 2b 5f 89 3d
       -0.24277617 0.37909 -0.067491755 0.06707605
0002d0 36 c3 83 3c cc a9 92 be bc e2 50 3e ae 2f 82 3e
       0.016084295 -0.2864517 0.20398992 0.25427002
0002e0 96 7b ae be 51 4d eb be 01 52 8f be c2 28 bd 3c
       -0.34078664 -0.45957425 -0.27992252 0.023090724
0002f0 88 cf 16 bf 4f ff bd be a2 30 79 3d f9 6e c1 be
       -0.5891042 -0.37108847 0.060837395 -0.37779978
000300 3d 51 91 be be 73 7b 3e c5 8d f1 bd 3e f8 bb 3e
       -0.28382292 0.24555871 -0.117946185 0.3671283
000310 07 fd 39 3f 35 68 64 3d 2f e6 48 be 0b 15 c4 bd
       0.72651714 0.055763442 -0.19619058 -0.09574326
000320 17 84 ad bd 2a 82 74 be c3 cf b7 be e8 7d fc be
       -0.0847246 -0.23877779 -0.35900697 -0.4931481
000330 3b 42 fd be 46 88 54 3e 6a b5 9c be 10 8e bc be
       -0.49464592 0.20755109 -0.30607158 -0.36827135
000340 d9 67 9c 3e ba 52 0a bf 4b 87 c5 3d 9a 32 2d 3f
       0.3054798 -0.5403248 0.09644946 0.67655337
000350 36 89 a5 be 2b 58 f7 bd a2 b3 58 3f 3f 1b 3e be
       -0.32331246 -0.120773636 0.846491 -0.18565081
000360 7c 3a d0 be 6b 19 56 3e ba 06 6c bd d7 af 09 3d
       -0.4066962 0.20908134 -0.057623602 0.03361496
000370 52 ff 5b bf 7f 41 93 3e 69 96 a9 be 80 9b 63 bf
       -0.8593646 0.28760907 -0.33122566 -0.8890915
000380 36 72 9a be 85 5c 27 3e 8a 7f e5 be 65 bf 0b bf
       -0.3016526 0.16343887 -0.44823867 -0.5458892
000390 88 ee 32 3d 36 03 d0 bd 77 0c 00 bf 5f 89 f3 bd
       0.043684512 -0.101568624 -0.5001902 -0.11891436
0003a0 99 de f4 3d 17 11 70 be ce 5b fe 3e 68 bb 6b 3f
       0.1195652 -0.2344402 0.49679416 0.92082834
0003b0 b0 49 5e 3d 1d 6a 0d bf bd 7b bf be 8d f2 86 be
       0.054269493 -0.5524004 -0.37399092 -0.26356927
0003c0 e8 25 81 be 6f b8 79 be 7d 4f f4 be 61 18 e2 3c
       -0.25224233 -0.24386762 -0.47716895 0.027599515
0003d0 ff de 21 3e 5a c6 e5 be d7 ec bc be 64 e2 53 3f
       0.15807723 -0.44877893 -0.36899444 0.8276732
0003e0 41 fe 4d bf ac c1 e6 be 1f 45 bb 3f 73 8e 1e be
       -0.80466086 -0.45069635 1.4630469 -0.15484028
0003f0 25 b4 41 3e 4f 88 a1 3f f3 dc ef bd b0 20 ab 3e
       0.18916376 1.2619723 -0.117120646 0.33423376

linear.bias f4 [10]
000000 be 5b 50 3d 9c be ab bc 50 36 08 bc e6 7e 3f bd
       0.050868742 -0.020964913 -0.00831373 -0.04675188
000010 94 50 63 bc 88 87 68 bc 1b a2 5a 3d 1f dc a3 3b
       -0.013874192 -0.014192469 0.053377252 0.0050006057
000020 f0 ee cd 3b 69 07 0c 3d
       0.006284587 0.034186754

exp_avg f8 [1, 4]
000000 a4 46 50 24 d7 75 c0 3f 7d ca 8c 0f e8 e6 52 bf
       0.12859620354770585 -0.0011536852091011123
000010 8e 59 8c c8 8c b2 58 bf e5 87 40 25 40 78 cb 3f
       -0.0015074133718307767 0.2146072561163798

exp_avg_sq f8 [1, 4]
000000 54 15 c8 72 f6 ae f1 3f e3 fa 0f 28 ef 6e 34 3f
       1.1052155002265254 0.00031178797513568677
000010 56 6a 6c ae e5 db 85 3f 95 23 11 f0 97 09 f4 3f
       0.010673326859934534 1.2523421647658541

exp_avg f4 [10, 507]
000000 54 d1 54 3a ea 05 a7 35 1c d1 8c 3c 54 d1 54 3a
       0.00081183505 1.2444191e-06 0.017189555 0.00081183505
000010 ea 05 a7 35 1c d1 8c 3c 54 d1 54 3a e7 03 a7 35
       1.2444191e-06 0.017189555 0.00081183505 1.2443605e-06
000020 1c d1 8c 3c 54 d1 54 3a 26 05 a7 35 1c d1 8c 3c
       0.017189555 0.00081183505 1.2443968e-06 0.017189555
000030 f3 9b 54 3a eb b3 05 35 1c d1 8c 3c 41 81 54 3a
       0.00081103964 4.9808176e-07 0.017189555 0.00081064185
000040 09 e8 b4 34 1c d1 8c 3c 7b 7d 54 3a 59 18 a4 35
       3.369644e-07 0.017189555 0.0008105856 1.2226038e-06
000050 1c d1 8c 3c 1c 7d 54 3a 94 a5 fb 35 1c d1 8c 3c
       0.017189555 0.0008105801 1.8749147e-06 0.017189555
000060 83 b2 54 3a d9 03 d6 35 1c d1 8c 3c a4 b4 54 3a
       0.00081137585 1.5945362e-06 0.017189555 0.0008114076
000070 8a f4 da 35 1c d1 8c 3c 4c d1 54 3a 67 fb a6 35
       1.6313436e-06 0.017189555 0.0008118346 1.2441132e-06
000080 1c d1 8c 3c 4c d1 54 3a d4 12 a7 35 1c d1 8c 3c
       0.017189555 0.0008118346 1.2447949e-06 0.017189555
000090 4c d1 54 3a c6 16 a7 35 1c d1 8c 3c 54 d1 54 3a
       0.0008118346 1.2449098e-06 0.017189555 0.00081183505
0000a0 ea 05 a7 35 1c d1 8c 3c 54 d1 54 3a e9 05 a7 35
       1.2444191e-06 0.017189555 0.00081183505 1.244419e-06
0000b0 1c d1 8c 3c 33 cb 54 3a fa 33 9a 35 1c d1 8c 3c
       0.017189555 0.0008117437 1.1489021e-06 0.017189555
0000c0 ec 40 55 3a 85 1e 46 36 1c d1 8c 3c d8 f0 8e bc
       0.0008134979 2.9522064e-06 0.017189555 -0.017448828
0000d0 66 fb 8e bc 35 cd 8c 3c cb 13 91 bc 5d c4 79 bc
       -0.01745386 0.017187694 -0.017709633 -0.015244571
0000e0 b9 cf 8c 3c 94 40 8a bc 8e 48 6c bb e8 ce 8c 3c
       0.017188894 -0.016876496 -0.0036053988 0.017188504
0000f0 0b 31 8a bc bc 08 ee ba 04 ce 8c 3c 28 8d 89 bc
       -0.016869089 -0.0018160562 0.01718808 -0.016790941
000100 77 19 ad b9 8a cf 8c 3c 77 6f 8c bc d5 19 06 3c
       -0.00033016104 0.017188806 -0.017142994 0.00818487
000110 01 d1 8c 3c a6 33 91 bc d4 74 8d 3c 1c d1 8c 3c
       0.017189505 -0.017724823 0.017267622 0.017189555
000120 3c 5d 08 3a 07 fa bb 38 1c d1 8c 3c 76 aa f0 39
       0.0005201881 8.963426e-05 0.017189555 0.0004590337
000130 de 0f ad 39 1c d1 8c 3c 54 d1 54 3a e6 05 a7 35
       0.00033008953 0.017189555 0.00081183505 1.2444186e-06
000140 1c d1 8c 3c 33 cb 54 3a c9 34 9a 35 1c d1 8c 3c
       0.017189555 0.0008117437 1.1489257e-06 0.017189555
000150 43 c3 8e bc 3b cf 8e bc 58 ce 8c 3c a5 b3 8e bc
       -0.017427092 -0.0174328 0.017188236 -0.017419646
000160 e1 3c 84 bc af d2 8c 3c 05 e1 64 bc d0 37 00 bc
       -0.01614231 0.017190306 -0.013969664 -0.007825807
000170 ea 59 40 3c 63 d1 fa 39 35 db 46 bb 93 89 10 bc
       0.011740187 0.0004783972 -0.003034306 -0.008821863
000180 81 ab e8 ba bf 2b fb b9 14 f3 bc 3b 7d 04 22 bb
       -0.0017751307 -0.00047907044 0.005766282 -0.0024721914
000190 f0 d7 49 b9 23 47 36 3c f1 88 16 bb af d1 db 37
       -0.00019249297 0.011125359 -0.0022969807 2.6204476e-05
0001a0 90 2f 5b 3c 99 6d 91 ba 67 ef 04 3b 12 e0 7e 3b
       0.013378039 -0.0011095285 0.0020284296 0.003889088
0001b0 6e c5 5b bc 03 fd 73 3c c2 30 48 bc 85 76 90 bc
       -0.01341377 0.014891866 -0.012218656 -0.01763464
0001c0 a2 a3 8f 3c 37 d0 8a 3c 67 a7 1b 3a 46 4f ad 39
       0.01753408 0.016944988 0.00059377257 0.00033056195
0001d0 41 66 89 3c 54 d1 54 3a e6 05 a7 35 1c d1 8c 3c
       0.016772391 0.00081183505 1.2444186e-06 0.017189555
0001e0 6d ce 54 3a 6c 06 99 35 d3 d0 8c 3c 13 37 6c bc
       0.0008117918 1.1401257e-06 0.017189419 -0.014417428
0001f0 d8 fc 8e bc 39 08 23 3c a0 44 4a 3b 2e 99 03 bc
       -0.01745455 0.009950691 0.0030863658 -0.008032126
000200 d0 3f 4b bc 4d 97 89 39 14 23 0f bb 57 a0 1a 3c
       -0.012405351 0.00026243404 -0.0021840977 0.009437642
000210 53 92 6f 3b cf d3 09 3b e3 6c 5c 3c 93 bc 20 3c
       0.0036555722 0.0021030789 0.013453695 0.009810585
000220 1a f8 55 3a 0c 21 fe 3b 42 4a 2b 3c 67 f2 e1 38
       0.0008162275 0.0077554043 0.010454716 0.00010773987
000230 7e 0a e2 3b c5 1c 22 3c b7 65 5e 3a 97 23 96 3b
       0.0068982234 0.0098945545 0.00084837846 0.0045818794
000240 c0 51 a7 3b 3b c2 74 bb 87 67 ba 3b a8 67 6f bc
       0.005106181 -0.0037347216 0.005688611 -0.014612116
000250 fd 95 62 3c 76 ff 5c bc 4b 73 08 bc 3e 3f 90 3c
       0.013829705 -0.013488641 -0.008328269 0.017608281
000260 98 ae fd bb 1d 17 92 3a 34 4f ad 39 d2 cf 8c 3c
       -0.0077417605 0.0011145804 0.00033056142 0.01718894
000270 0b d1 54 3a 6d 69 a6 35 1c d1 8c 3c f0 f3 8e bc
       0.0008118308 1.2398647e-06 0.017189555 -0.017450303
000280 dc fd 8e bc 8f ce 8c 3c 02 bf 7a bb cd 42 8f bc
       -0.017455034 0.017188339 -0.0038260822 -0.017487908
000290 8b 84 8b bb 02 15 18 3a bc 10 37 bb 86 08 67 3c
       -0.0042577437 0.000580147 -0.0027933558 0.014101153
0002a0 a1 2c 40 3a d3 23 b3 3b 42 7d 24 3b 69 3f 67 3c
       0.0007330869 0.005466917 0.0025099074 0.014114239
0002b0 ec de ba 3b 74 22 bb 3b 6c de 87 3b 9a de cc ba
       0.005702844 0.0057108942 0.004146388 -0.0015630305
0002c0 06 2f 2f 3c 5f cb 69 ba df a6 15 bb 85 3e 81 3c
       0.010692364 -0.0008918549 -0.0022835059 0.015776882
0002d0 b9 57 0d bb d6 e8 43 3b a2 22 58 3c 06 22 d1 ba
       -0.002156718 0.002989342 0.013191851 -0.0015955574
0002e0 f1 4b 10 bc 7e 53 31 3c 23 89 20 bc c6 39 35 3c
       -0.008807168 0.010823129 -0.009798321 0.011061138
0002f0 51 83 bc bb 29 65 b2 bb f8 c9 8a 3c 3f 3b 21 bc
       -0.005752959 -0.005444188 0.01694201 -0.0098407855
000300 a5 e0 4d 3a c0 3a e6 37 16 d1 8c 3c 44 d1 54 3a
       0.0007853604 2.7445494e-05 0.017189544 0.0008118341
000310 6d 69 a6 35 17 d1 8c 3c 52 c5 11 bc c4 fe 8e bc
       1.2398647e-06 0.017189546 -0.0088971425 -0.017455466
000320 07 3e 2e bb 1c 7c 59 3a bd 31 6b bc d2 8f b3 3b
       -0.0026587264 0.0008296387 -0.01435512 0.005479791
000330 33 89 32 39 b5 e1 36 b8 dc 58 8d 3c e3 d6 27 3a
       0.00017026514 -4.3602387e-05 0.017254286 0.0006402565
000340 e0 be af 3b 91 ab 34 3b 76 08 51 bb fb 59 7e ba
       0.0053633302 0.0027568082 -0.0031895912 -0.0009702739
000350 f4 d8 9d ba 2e be 22 ba 17 9f 94 ba b1 1c 98 b9
       -0.0012042806 -0.00062081486 -0.0011338916 -0.00029013076
000360 76 d0 04 bb f6 18 af ba d0 d3 0a 3c 00 54 32 bb
       -0.0020265854 -0.0013358879 0.008473352 -0.0027210712
000370 96 df 14 3a d3 59 2f 3c 31 17 a2 b9 f1 cb 10 bb
       0.0005679069 0.010702568 -0.00030916327 -0.0022094215
000380 56 5a 3a 3c 3e c8 44 bc 2c 67 4b 3c 4b 83 0e bc
       0.011374077 -0.012010632 0.012414735 -0.008698295
000390 0f 38 48 ba 26 a6 8a 3c f4 51 11 bc 7f 54 52 3a
       -0.0007637748 0.016924929 -0.008869637 0.0008023455
0003a0 d3 87 e2 37 eb 7a 8c 3c 26 d1 54 3a 71 69 a6 35
       2.7004548e-05 0.017148456 0.0008118324 1.2398651e-06
0003b0 17 d1 8c 3c 68 1d 8c 3c 99 22 91 bc 2f 8f 8c 3c
       0.017189546 0.017103866 -0.017716693 0.017158119
0003c0 f8 36 dd ba f6 2e 69 bc 76 5b 8f b9 b1 5d a9 3a
       -0.0016877344 -0.014232388 -0.0002734323 0.0012921599
0003d0 cd c8 bf ba 03 28 8a 3c ba 0a 70 39 fc 12 b8 39
       -0.0014631987 0.016864782 0.0002289218 0.0003510936
0003e0 f3 c2 8b 3c 91 00 b2 3a a0 20 ca b9 ff bc 93 3c
       0.017060732 0.0013580491 -0.0003855275 0.018034456
0003f0 a3 a4 c9 3a 7e 93 5b 39 24 31 8f 3c c6 1b 45 3b
       0.0015384149 0.00020940413 0.017479487 0.0030076369

exp_avg_sq f4 [10, 507]
000000 5e 92 a6 38 e1 f8 1d 36 3f 12 dc 3b 08 68 04 39
       7.94276e-05 2.353969e-06 0.0067160423 0.00012627256
000010 45 9e 51 38 3b 12 dc 3b a9 6b 04 39 a3 03 14 38
       4.9976883e-05 0.0067160404 0.00012628608 3.5289337e-05
000020 3e 12 dc 3b 42 bf 10 39 b0 73 f7 37 38 12 dc 3b
       0.006716042 0.00013804159 2.9498566e-05 0.006716039
000030 9e 0f 2d 39 48 a6 ad 38 33 12 dc 3b d6 67 a5 39
       0.00016504384 8.280255e-05 0.0067160367 0.00031548616
000040 85 65 68 39 73 0d dc 3b b3 29 12 3a 9c 3c 9a 39
       0.00022163063 0.0067154705 0.00055756717 0.00029418326
000050 0f 07 dc 3b 65 38 14 3a 48 58 85 39 b0 06 dc 3b
       0.0067147086 0.00056541554 0.00025433511 0.0067146644
000060 5f 8b 10 3a de ae d8 39 e7 0a dc 3b 07 36 92 39
       0.0005513932 0.00041329017 0.006715167 0.00027887544
000070 c3 52 47 39 3d 12 dc 3b 97 bc f1 38 4f df e8 37
       0.0001900895 0.0067160414 0.00011526903 2.7760541e-05
000080 3d 12 dc 3b e1 e9 c7 38 f9 ec 8d 37 3d 12 dc 3b
       0.0067160414 9.532623e-05 1.6918859e-05 0.0067160414
000090 e3 97 a6 38 1a b0 1e 36 3f 12 dc 3b f1 f2 a7 38
       7.943788e-05 2.364634e-06 0.0067160423 8.008432e-05
0000a0 80 86 4a 36 3f 12 dc 3b 41 1a 1f 39 ce 02 01 39
       3.0178635e-06 0.0067160423 0.00015173202 0.00012303444
0000b0 d1 c8 da 3b cb 46 c8 39 88 c3 9e 39 f7 98 da 3b
       0.006676771 0.00038199718 0.0003028179 0.006671067
0000c0 ee 19 b7 3a 27 f5 94 3a d7 39 da 3b c5 95 34 3b
       0.001396952 0.0011364565 0.006659727 0.002755509
0000d0 12 b7 10 3b e3 b8 d9 3b 95 16 83 3b dc e2 26 3b
       0.0022081775 0.0066443547 0.0040004947 0.0025464809
0000e0 fc 74 d8 3b 87 c9 8e 3b a7 37 c2 3a cb b9 d1 3b
       0.0066057425 0.00435752 0.0014817611 0.006400322
0000f0 b1 7e 9b 3b de ef c2 3a 1e 9e d0 3b 7d c2 9b 3b
       0.0047453274 0.0014872511 0.0063665053 0.0047534094
000100 0b 93 1a 3b d4 0c d2 3b 4d f5 82 3b de a8 35 3b
       0.002358618 0.0064102206 0.0039965273 0.002771906
000110 9d be d8 3b 4d fe ff 3a 9e 96 c1 3a d8 eb dc 3b
       0.0066145197 0.0019530744 0.0014769619 0.006741982
000120 83 df 89 3a 1a a5 6e 3a 7b 03 dc 3b 30 88 39 39
       0.0010518882 0.00091035815 0.006714282 0.00017693709
000130 aa 2f d5 38 28 12 dc 3b 6e f3 a7 38 47 9a 4a 36
       0.000101655096 0.0067160316 8.008523e-05 3.0190147e-06
000140 3e 12 dc 3b a7 b5 ba 39 c6 26 c9 39 bd 4c d8 3b
       0.006716042 0.00035612026 0.00038366596 0.006600945
000150 36 7d 69 3a 54 0f 68 3a 98 b8 d3 3b 29 8c 00 3b
       0.00089069025 0.0008852382 0.0064612143 0.0019614792
000160 6b 2e 1e 3b b2 02 ba 3b 00 b0 31 3b 15 02 40 3b
       0.0024136554 0.005676591 0.002711296 0.0029298116
000170 b3 f6 99 3b d7 eb 0c 3b 1d 30 fc 3a 5e 74 7b 3b
       0.0046985983 0.0021502876 0.0019240413 0.003836892
000180 68 f6 f7 3a a0 10 b1 3a 98 9a 67 3b 1d 4a bf 3a
       0.0018918039 0.0013508983 0.0035339948 0.0014594231
000190 2b e5 4b 3a ed 99 7a 3b 55 bf ef 3a 5b ff d0 3a
       0.0007777984 0.003823872 0.0018291274 0.0015945242
0001a0 59 07 5b 3b 86 75 0c 3b 18 17 28 3b b2 33 82 3b
       0.0033421128 0.0021432354 0.002564853 0.0039734477
0001b0 0d 53 2f 3b 00 a7 3f 3b 56 37 b1 3b 0f 4b bb 3a
       0.0026752383 0.0029243827 0.005408208 0.0014289337
0001c0 d6 a9 ed 3a 44 00 c9 3b ca bd aa 39 66 42 a7 39
       0.001813228 0.006134065 0.0003256633 0.00031902193
0001d0 34 34 d9 3b 56 e2 a5 38 89 ca 2d 36 9d 12 dc 3b
       0.0066285376 7.9099715e-05 2.58969e-06 0.006716086
0001e0 ab 52 b6 39 fa 95 0b 3a ad 8c d2 3b 6a 27 ab 3a
       0.00034775338 0.00053247774 0.0064254613 0.0013058011
0001f0 9a ee d6 3a 0b 5b bf 3b b0 27 1e 3b 8e a4 54 3b
       0.0016398013 0.0058397106 0.0024132542 0.0032446715
000200 34 63 99 3b c7 fa 0c 3b de 75 38 3b ba 6d 64 3b
       0.0046810154 0.002151178 0.0028146426 0.0034855441
000210 51 10 00 3b 66 cc c1 3a 0a 57 4d 3b da ca e2 3a
       0.0019540975 0.0014785647 0.0031332397 0.0017302886
000220 9d 94 7e 3a 9b 3e 60 3b 1f 30 cc 3a 93 ba 44 3a
       0.0009711476 0.0034217003 0.0015578306 0.00075046084
000230 f3 9e 5f 3b c0 9d b0 3a 60 9a 66 3a 68 bd 64 3b
       0.003412184 0.0013474748 0.00087968074 0.0034902934
000240 bf d3 f2 3a 1d b8 17 3b 6f f8 4f 3b 69 54 14 3b
       0.001852624 0.0023150512 0.0031733771 0.002263332
000250 ed f8 53 3b 06 45 86 3b 69 dc 0a 3b fb fb 3d 3b
       0.0032344416 0.0040975837 0.0021188504 0.0028989303
000260 8d 4c b5 3b c2 75 db 39 14 63 08 3a 0f 59 d5 3b
       0.005532807 0.00041858671 0.0005202752 0.0065108608
000270 af 40 fc 38 2b 7c 37 38 16 0c dc 3b ed 93 88 3a
       0.00012028345 4.374624e-05 0.006715308 0.0010420062
000280 e4 74 a3 3a 24 51 cf 3b 01 73 dc 3a 72 b6 18 3b
       0.0012470749 0.0063268114 0.0016818942 0.0023302105
000290 5e 37 b0 3b 54 b1 05 3b ee 62 5a 3b b5 67 69 3b
       0.005377694 0.0020399885 0.0033323127 0.0035614793
0002a0 1b 5c 02 3b 5f 1e 2c 3b 4a 11 3e 3b 58 9d f4 3a
       0.0019891325 0.002626322 0.0029002004 0.0018662615
0002b0 b6 4e d5 3a ac 89 47 3b 71 12 d9 3a b9 c6 e3 3a
       0.0016274068 0.003044705 0.0016561282 0.001737795
0002c0 5e bc 53 3b 43 54 f6 3a d8 46 ec 3a 2b b5 73 3b
       0.003230832 0.0018793422 0.0018026484 0.0037186842
0002d0 9b 45 e7 3a 5a 27 d5 3a 9a 1c 64 3b 1b fb b8 3a
       0.0017644645 0.0016262338 0.0034807087 0.0014112921
0002e0 5e c5 25 3b bb b3 3f 3b c9 b2 1a 3b 85 94 60 3b
       0.0025294642 0.0029251415 0.00236051 0.0034268212
0002f0 29 23 5f 3b 0b 2c bb 3a 92 6f 54 3b 15 dd 8f 3b
       0.0034048057 0.0014280094 0.0032415134 0.0043903687
000300 58 89 f3 39 ca 69 27 3a db 92 d5 3b 24 b4 d6 38
       0.000464509 0.0006386308 0.0065177507 0.00010237869
000310 12 8a 86 38 14 28 db 3b ec 60 7f 3a 8a dd e2 3a
       6.4153355e-05 0.0066881273 0.00097419205 0.0017308455
000320 fa bb bc 3b 6f a2 ca 3a 18 a4 33 3b 44 d8 9b 3b
       0.0057597132 0.0015459786 0.002741104 0.0047560055
000330 7e 16 03 3b 88 26 66 3b 82 0c 66 3b 48 4f b8 3a
       0.002000242 0.0035118181 0.003510267 0.0014061714
000340 3f 70 20 3b a4 a2 30 3b 33 4f da 3a 3e f9 dc 3a
       0.0024480966 0.002695241 0.0016655683 0.0016858948
000350 b8 ee 5e 3b b3 8c 14 3b c0 e9 0e 3b 81 67 88 3b
       0.00340168 0.002266687 0.0021806806 0.0041627293
000360 91 2a 0e 3b 0a ab f6 3a 8b 34 83 3b 7c 3b b5 3a
       0.0021692852 0.0018819284 0.0040040663 0.0013826932
000370 6c 67 ef 3a a3 2a 63 3b 25 5d d9 3a 19 bc 20 3b
       0.0018265075 0.0034662865 0.0016583545 0.0024526177
000380 23 87 38 3b d6 18 09 3b 9e ef 6a 3b df 07 53 3b
       0.002815672 0.0020919344 0.003584839 0.0032200736
000390 2b a6 e7 3a cf 7b 5f 3b 65 52 93 3b 96 1a 18 3a
       0.0017673423 0.0034100895 0.004495906 0.00058023015
0003a0 86 6d 64 3a e2 6f cf 3b 0a 68 f3 38 91 94 9d 38
       0.000871383 0.006330476 0.00011606522 7.514016e-05
0003b0 bb 76 da 3b 8e ff 8e 3a da 20 08 3b 63 75 b9 3b
       0.006666986 0.0010909901 0.0020771534 0.0056597455
0003c0 7c fe b4 3a 46 ea 43 3b d3 fb 86 3b 1a c7 cf 3a
       0.0013808752 0.0029894277 0.0041193753 0.0015852184
0003d0 7f f1 57 3b e5 25 58 3b 8e f9 e6 3a 96 c1 2b 3b
       0.003295034 0.0032981571 0.001762198 0.0026207916
0003e0 a3 1d 6a 3b f3 71 04 3b a3 6c dc 3a 4b c6 90 3b
       0.0035723231 0.002020952 0.0016817044 0.0044181696
0003f0 22 6e 07 3b 7e 81 de 3a de ad a3 3b b6 3a d0 3a
       0.002066501 0.0016975848 0.004995092 0.0015886638

exp_avg f4 [10]
000000 1d d1 8c 3c 47 00 c5 bc 5f 42 d1 3b b5 4c 14 3b
       0.017189557 -0.024047984 0.006386086 0.0022628729
000010 7d 60 26 bb 66 45 be bb 14 40 87 bc c1 5d 0d 3a
       -0.0025387101 -0.005806613 -0.016510047 0.00053926936
000020 8f f6 ff 3b ea 13 71 3c
       0.0078113745 0.014714221

exp_avg_sq f4 [10]
000000 3c 12 dc 3b 6b 4d e0 3b cd 39 86 3c 61 78 9b 3c
       0.006716041 0.0068451664 0.016384983 0.0189783
000010 68 b9 70 3c 2b a4 6f 3c c0 e8 1f 3c 34 22 78 3c
       0.014692642 0.014626543 0.009760082 0.015144873
000020 36 76 a0 3c b5 26 a8 3c
       0.019587617 0.02052627
