evaluation/Results/Seed_0_Trainable_yes_EFRQI_for_2x2_2x2_imgsize_14/model_checkpoints/epochs_28.pt (torch, 64733 bytes, 9 tensors)

qlayer_1.torch_qlayer.weights f8 [1, 4]
0	0x3ff12338847d60bf	1.071098821199527
1	0xbffa72c166e347f8	-1.6530164736800526
2	0x3fa6098801858b77	0.043041467843770435
3	0xbfec5358c9bd2caa	-0.8851741733755223

linear.weight f4 [10, 507]
0	0x3e90cc1c	0.28280723
1	0xbd96c5d4	-0.073619515
2	0x3d266163	0.04062022
3	0x3ebacaf5	0.3648297
4	0x3e96392d	0.29340497
5	0x3d58aff7	0.05290219
6	0x3edb80c6	0.42871684
7	0x3e72f35b	0.23725645
8	0x3dad96c0	0.08476019
9	0x3ea3e145	0.32007805
10	0xbe11e565	-0.14247663
11	0x3e000167	0.12500535
12	0x3ea3fa43	0.32026872
13	0x3d9ca7c4	0.07649186
14	0x3d6abdaf	0.057309803
15	0x3db364a1	0.08759428
16	0xbdc20635	-0.0947384
17	0x3e032514	0.12807113
18	0xbc7c4e10	-0.015399471
19	0x3e7a3c0d	0.2443697
20	0x3d8f7ae3	0.07005861
21	0x3e1271a0	0.14301157
22	0x3ec68f9b	0.38781437
23	0x3db3662d	0.08759723
24	0x3e22e2ce	0.15906832
25	0x3df7d284	0.121006995
26	0x3db523ea	0.08844741
27	0x3ebd8b17	0.3702018
28	0xbdb17313	-0.08664527
29	0x3dcd47da	0.1002347
30	0x3edca185	0.4309198
31	0xbea570c0	-0.32312584
32	0x3d876b76	0.066122934
33	0x3e9b538e	0.30337185
34	0xbe6119f7	-0.21982561
35	0x3dd1fdac	0.10253462
36	0x3ea5d6e1	0.32390502
37	0xbdad9dca	-0.084773615
38	0x3daa96f5	0.08329574
39	0x3e817ec2	0.2529202
40	0xbd113ea4	-0.03546013
41	0x3da0a3ab	0.07843717
42	0xbda29a22	-0.07939555
43	0xbde65506	-0.11246686
44	0x3e14ee8d	0.14544125
45	0x3e672547	0.22572814
46	0x3e809af7	0.2511823
47	0x3dd393ff	0.103309624
48	0x3e9c24f8	0.30496955
49	0x3e0ee7f5	0.13955672
50	0x3cef473b	0.02920877
51	0xbe693b5b	-0.22776549
52	0xbdc3b40f	-0.09555828
53	0x3e1cba18	0.15305364
54	0x3d4d92c6	0.050188802
55	0xbe286bd6	-0.16447386
56	0x3cc6127c	0.024178736
57	0xbc9b6030	-0.018966764
58	0xbe4aa4a4	-0.19789368
59	0xbdb43292	-0.08798708
60	0xbec2ee7d	-0.38072577
61	0xbda87ae8	-0.082265675
62	0x3d944d14	0.07241264
63	0xbea15ddc	-0.31516922
64	0x3e4539f4	0.19260389
65	0x3bf3cdfa	0.007440326
66	0xbe7cb469	-0.24678196
67	0xbe7a00cd	-0.24414368
68	0x3e5d9250	0.21637845
69	0xbe58df96	-0.21179041
70	0x3e41623d	0.18885131
71	0x3e1130a3	0.1417871
72	0xbf07b3bb	-0.5300862
73	0x3f16aba3	0.58855647
74	0x3daaab48	0.083334506
75	0x3edffbcd	0.43746796
76	0xbed050c6	-0.40686625
77	0x3de00eba	0.10940309
78	0x3e97cc91	0.2964826
79	0xbda31aa7	-0.07964068
80	0x3d48abec	0.048992082
81	0x3eda378f	0.42620513
82	0x3e8f64ee	0.2800669
83	0x3dbd4584	0.09241775
84	0x3e8c254b	0.27372202
85	0x3ee8b20e	0.45448345
86	0x3e06c88e	0.13162443
87	0xbe1d58ae	-0.1536586
88	0xbe06c693	-0.13161688
89	0x3e638f3f	0.22222613
90	0xbddb9f8a	-0.10723789
91	0x3e12f50f	0.14351295
92	0x3d6b8f55	0.05750974
93	0x3da2cbd0	0.079490304
94	0xbab2608c	-0.0013609095
95	0x3d642be1	0.05570591
96	0xbea20026	-0.31640738
97	0xbf4e3c2e	-0.80560577
98	0x3ed3fa2e	0.4140181
99	0x3e5e70df	0.21722744
100	0xbe8dfee0	-0.27733517
101	0xbe803fc4	-0.2504865
102	0xbe0c1245	-0.13678844
103	0x3e2fb5fb	0.17159264
104	0xbbf31107	-0.0074178013
105	0xbe526f41	-0.20550252
106	0x3eb40bf0	0.35165358
107	0x3d665c03	0.056240093
108	0xbe0e4640	-0.13893986
109	0x3e80b17c	0.2513541
110	0xbdc87c67	-0.09789353
111	0x3d115ea9	0.035490666
112	0x3ee12ea1	0.43980888
113	0xbde9f755	-0.11424128
114	0x3dbb5e5f	0.09148859
115	0xbe334ada	-0.17509022
116	0x3dff19f7	0.12456124
117	0x3eb78807	0.35845968
118	0xbd78902b	-0.060684364
119	0x3dab6d2a	0.08370431
120	0xbe41b612	-0.1891711
121	0x3d6f88b4	0.05847998
122	0x3e23c537	0.159932
123	0xbeca4567	-0.39506075
124	0xbdc88ddc	-0.097926825
125	0x3dee1220	0.11624551
126	0xbe9f880c	-0.31158483
127	0x3c243493	0.0100223
128	0x3e0e6152	0.13904312
129	0xbd5e18da	-0.05422292
130	0x3e1c14c3	0.15242295
131	0xbd81d8dc	-0.06340191
132	0xbcf12448	-0.029436246
133	0xbd921e44	-0.07134679
134	0x3e9d9d9c	0.3078431
135	0x3e302f45	0.17205532
136	0xbe96240a	-0.2932437
137	0xbf2ce256	-0.6753286
138	0x3e699ce9	0.22813763
139	0xbf1fd072	-0.6242744
140	0x3c8cb9e0	0.017178476
141	0xbd2ba31c	-0.0419036
142	0x3e345ff9	0.17614736
143	0xbf039dfb	-0.51412934
144	0xbec01a93	-0.37520275
145	0x3e71c53b	0.23610394
146	0xbeb27bac	-0.3485998
147	0xbe83b20d	-0.2572178
148	0x3e5c1b15	0.21494706
149	0xbebf8e53	-0.37413272
150	0x3e0e14eb	0.13875167
151	0xbca68ba5	-0.02033026
152	0xbdd36b67	-0.1032322
153	0xbe1519ca	-0.14560619
154	0x3e2a108f	0.16607879
155	0x3daef79b	0.08543321
156	0x3eeba41d	0.46023646
157	0x3e9d14bc	0.30679882
158	0x3d5048a5	0.05085053
159	0xbed90a8b	-0.42390856
160	0xbe36c0ca	-0.1784698
161	0x3de272e2	0.110570684
162	0xbe2d8546	-0.16945371
163	0xbeb866e1	-0.3601599
164	0xbec4478c	-0.38335836
165	0x3e226fc6	0.1586295
166	0x3e655eb3	0.22399406
167	0xbe999ff4	-0.30004847
168	0xbed0e4ab	-0.4079946
169	0xbcd0e298	-0.025498673
170	0x3f0c5c20	0.5482807
171	0x3ced7be0	0.028989732
172	0x3e871510	0.26383257
173	0xbf01f01b	-0.50756997
174	0x3ebf5b12	0.3737417
175	0xbcc7ce53	-0.024390375
176	0xbe8325b9	-0.25614718
177	0x3e61617a	0.2200984
178	0xbe9f2ce3	-0.31088933
179	0x3ea28e97	0.31749412
180	0x3e4471e3	0.1918407
181	0xbe960706	-0.29302233
182	0xbd1f716e	-0.038926534
183	0x3eb73237	0.35780498
184	0xbebe5b9c	-0.37179267
185	0xbe9f23e7	-0.3108208
186	0xbeaeebae	-0.34164184
187	0xbe5b01a0	-0.21387339
188	0xbf155e47	-0.5834698
189	0xbf3d0092	-0.73828995
190	0xbdd29dbc	-0.10283992
191	0xbeb03516	-0.344155
192	0xbf3b0b9b	-0.73064584
193	0x3effba03	0.49946603
194	0xbe11ec3a	-0.1425027
195	0x3eff705f	0.4989042
196	0x3f383698	0.71958303
197	0x3e0646f2	0.13113001
198	0x3d2e8df4	0.042615846
199	0xbcb4683d	-0.022022361
200	0xbde1d0cc	-0.11026153
201	0xbec1e5e5	-0.37870708
202	0xbeeb739a	-0.45986634
203	0xbf18fc5c	-0.5976007
204	0xbeafa8d3	-0.3430849
205	0x3f0d90bc	0.5529897
206	0xbea7a924	-0.32746232
207	0xbd9db527	-0.07700568
208	0x3eeae01d	0.4587411
209	0xbf021706	-0.5081638
210	0x3e60f913	0.21970014
211	0x3f2a5f7d	0.66551954
212	0xbdd486cf	-0.10377275
213	0x3d02f3fd	0.031970967
214	0x3f6da71e	0.92833126
215	0xbe99b7a0	-0.30022907
216	0xbdf67d44	-0.12035611
217	0x3e9d029e	0.3066606
218	0xbdb78837	-0.08961528
219	0x3cc7567e	0.024333235
220	0xbf84add0	-1.0365543
221	0x3ef79d2b	0.48362097
222	0xbe9e1576	-0.30875748
223	0xbf5fe80f	-0.8746347
224	0xbe8b91f6	-0.27259797
225	0xbce74680	-0.02823186
226	0xbf4192cc	-0.7561462
227	0xbf455927	-0.7708916
228	0xbd190aeb	-0.037363928
229	0xbe91fa4c	-0.28511274
230	0xbf1ca026	-0.6118187
231	0xbe97c208	-0.29640222
232	0x3f06675a	0.5250145
233	0xbe8c1af7	-0.27364323
234	0x3f2077f1	0.62683016
235	0x3f6b8859	0.92004925
236	0x3e04d5e4	0.12972218
237	0xbf1116ba	-0.56675303
238	0xbe8f770b	-0.2802051
239	0xbe02a209	-0.12757124
240	0x3d857df5	0.06518165
241	0xbdae6f13	-0.085172795
242	0xbef3aa4f	-0.47590873
243	0xbeac22dd	-0.3362035
244	0x3ed3026c	0.41212785
245	0xbedd3bb5	-0.43209615
246	0xbf1c2d60	-0.61006737
247	0x3f4ebb52	0.8075458
248	0xbf579022	-0.84204304
249	0xbef20c91	-0.47275212
250	0x3fd555d1	1.6666814
251	0x3e34fca1	0.17674495
252	0x3d5a4e6e	0.053297453
253	0x3fec97d0	1.848383
254	0xbe4171d3	-0.18891077
255	0x3eb5fb72	0.355434

linear.bias f4 [10]
0	0x3e012639	0.12612237
1	0xbd92e565	-0.0717266
2	0xbdce79f5	-0.10081855
3	0xbd004417	-0.031314936
4	0x3b740bbd	0.0037238442
5	0xbd876dd3	-0.06612744
6	0x3c5c867b	0.013459797
7	0x3da27e50	0.079342484
8	0x3c9ea8e3	0.01936764
9	0x3d9c3652	0.07627548

exp_avg f8 [1, 4]
0	0xbfd1aae2e1cc3a8a	-0.2760550694519358
1	0xbfa4f9b6f7d72dce	-0.04096767211339235
2	0x3fb336eb1e915505	0.07505673881799531
3	0xbfd060f0dbd8063b	-0.2559168002045202

exp_avg_sq f8 [1, 4]
0	0x4001c9724be5f7e7	2.223362534480646
1	0x3f795b970e2fcd57	0.006190862713072085
2	0x3f8e37fa423cd8b6	0.014755206247724178
3	0x4001af55ed750661	2.210613112577264

exp_avg f4 [10, 507]
0	0x3bc97ea9	0.0061491323
1	0x397a7883	0.00023886752
2	0xbd1339c6	-0.03594377
3	0x3bc97ea9	0.0061491323
4	0x397a7883	0.00023886752
5	0xbd1339c6	-0.03594377
6	0x3bc97ea9	0.0061491323
7	0x397a7883	0.00023886752
8	0xbd1339c6	-0.03594377
9	0x3bc97ea9	0.0061491323
10	0x397a7883	0.00023886752
11	0xbd1339c6	-0.03594377
12	0x3bc97ea7	0.0061491313
13	0x397a786d	0.0002388672
14	0xbd1339c6	-0.03594377
15	0x3bc97ea7	0.0061491313
16	0x397a7874	0.0002388673
17	0xbd1339c6	-0.03594377
18	0x3bc97e9f	0.0061491276
19	0x397a7758	0.00023886317
20	0xbd1339c6	-0.03594377
21	0x3bc97cd3	0.0061489134
22	0x397a3180	0.00023860298
23	0xbd1339c6	-0.03594377
24	0x3bc97ca5	0.006148892
25	0x397a4406	0.00023867199
26	0xbd1339c6	-0.03594377
27	0x3bc97caf	0.0061488966
28	0x397ac26c	0.00023914286
29	0xbd1339c6	-0.03594377
30	0x3bc97e7a	0.0061491104
31	0x397a7e69	0.0002388895
32	0xbd1339c6	-0.03594377
33	0x3bc97ea9	0.0061491323
34	0x397a7883	0.00023886752
35	0xbd1339c6	-0.03594377
36	0x3bc97ea9	0.0061491323
37	0x397a7883	0.00023886752
38	0xbd1339c6	-0.03594377
39	0x3bc82783	0.006108226
40	0x39480128	0.00019073917
41	0xbd1339c6	-0.03594377
42	0x3bc98791	0.006150194
43	0x39948c64	0.0002833336
44	0xbd1339c6	-0.03594377
45	0x3bc98796	0.0061501963
46	0x39aa088d	0.00032431298
47	0xbd1339c6	-0.03594377
48	0x3bcab98e	0.0061866706
49	0x397d78f8	0.00024173025
50	0xbd1339c6	-0.03594377
51	0x3bcabaf8	0.006186839
52	0x39783a7e	0.00023672913
53	0xbd1339c6	-0.03594377
54	0x3d1145a6	0.035466813
55	0x3d12f38c	0.035876796
56	0xbd13399f	-0.035943624
57	0x3d111347	0.035418775
58	0x3c812155	0.015762964
59	0xbd1339bf	-0.035943743
60	0x3d11132d	0.035418678
61	0xbcc2c59a	-0.023775864
62	0xbd133a07	-0.03594401
63	0x3d10e394	0.035373285
64	0xbd131d59	-0.03591666
65	0xbd133a2a	-0.03594414
66	0x3bc67189	0.006056015
67	0x399e12eb	0.00030150203
68	0xbd133a54	-0.035944298
69	0x3bc66d3a	0.0060555013
70	0x39b05bd5	0.00033637756
71	0xbd1339cf	-0.035943802
72	0x3bc97772	0.006148272
73	0x397b5d82	0.0002397206
74	0xbd1339c6	-0.03594377
75	0x3bc97e4e	0.00614909
76	0x397a8674	0.00023891946
77	0xbd1339c6	-0.03594377
78	0x3bcb4aef	0.006204001
79	0x3948012a	0.0001907392
80	0xbd1339c6	-0.03594377
81	0x3bcbf993	0.00622482
82	0x399483e3	0.00028327023
83	0xbd12ff2b	-0.03588788
84	0x3bcb6fe1	0.0062084054
85	0x39a896a0	0.0003215568
86	0xbd131782	-0.03591109
87	0x3bc940c7	0.0061417553
88	0x396f8e53	0.00022845836
89	0xbd133cb2	-0.035946555
90	0x3bc9119e	0.0061361333
91	0x396a2a7c	0.00022331806
92	0xbd133c06	-0.035945915
93	0x3c64cd8d	0.013965023
94	0x3d12ca2a	0.03583733
95	0x3cabccf6	0.020971756
96	0x3c0be07c	0.008537408
97	0x3c400765	0.011720513
98	0xbc2f036d	-0.010681969
99	0x3c15dab8	0.009146385
100	0xbc062d42	-0.008189501
101	0xba74b538	-0.0009334865
102	0x3c6b57bd	0.01436418
103	0xbd134f7e	-0.03596448
104	0x3c4d2352	0.012520628
105	0x3bc81462	0.0061059454
106	0x399627c4	0.00028639857
107	0xbd139447	-0.03603008
108	0x3bc70141	0.0060731475
109	0x39ade9f1	0.0003317143
110	0xbd13d202	-0.03608895
111	0x3bc81f36	0.0061072363
112	0x39977526	0.00028888247
113	0xbd133b07	-0.035944965
114	0x3bc97e8c	0.0061491188
115	0x397a8674	0.00023891946
116	0xbd1339dc	-0.03594385
117	0x3bc97ea9	0.0061491323
118	0x397a7883	0.00023886752
119	0xbd1339c6	-0.03594377
120	0x3bca226c	0.006168654
121	0x399171e4	0.0002774141
122	0xbd12fe7e	-0.035887234
123	0x3bc9ce89	0.006158654
124	0x398ea96e	0.00027210586
125	0xbd132667	-0.035925295
126	0x3bc928fa	0.006138918
127	0x3963f493	0.00021739518
128	0xbd133ca7	-0.035946514
129	0x3d1151e1	0.035478476
130	0x3d132148	0.03592041
131	0xbd131817	-0.035911646
132	0xbbf2da78	-0.0074112974
133	0x3ce31828	0.02772148
134	0x3c3efb5a	0.011656607
135	0x3bb2efc8	0.005460713
136	0x3b23917b	0.002495854
137	0xbd0161d0	-0.031587422
138	0x3b9a0649	0.0047004563
139	0x3993d850	0.0002819919
140	0xbd0fc203	-0.035097133
141	0x3ce278c6	0.02764548
142	0xbcec8e9e	-0.028876599
143	0x3cc1a2cc	0.023637198
144	0x3d116d74	0.035504773
145	0xbd134a05	-0.035959262
146	0xbd137a22	-0.036005147
147	0x3bc73868	0.006079722
148	0x39b07dce	0.00033663068
149	0xbd13cf7a	-0.036086537
150	0x3bc8cc6b	0.006127884
151	0x399793c7	0.00028911067
152	0xbd137dc9	-0.03600863
153	0x3bc97f2c	0.0061491933
154	0x397a865f	0.00023891915
155	0xbd1339c6	-0.03594377
156	0x3bc97ea9	0.0061491323
157	0x397a7883	0.00023886752
158	0xbd1339c6	-0.03594377
159	0x3bca0136	0.006164695
160	0x3990f331	0.00027647012
161	0xbd12fb73	-0.035884332
162	0x3bc9b0f6	0.0061551286
163	0x398d89d6	0.00026996311
164	0xbd131ff9	-0.035919163
165	0x3bc94b39	0.0061430004
166	0x3961f30a	0.00021548211
167	0xbd134912	-0.035958357
168	0x3cb3d197	0.021950526
169	0x3d12d844	0.03585078
170	0x3c38dc9a	0.011283064
171	0x3c1f10a0	0.009708554
172	0x3cb4f14c	0.022087716
173	0xbcc3d228	-0.023903921
174	0x3ba23b61	0.004950926
175	0xbc5133e4	-0.012768719
176	0xbbd86ea5	-0.0066049867
177	0xbb86879f	-0.0041055228
178	0x3c40926b	0.011753659
179	0xbbc26175	-0.005932028
180	0x3c40c0ce	0.011764718
181	0xbc8dbe51	-0.017302664
182	0xbc084ed0	-0.008319572
183	0x3c8ac057	0.016937418
184	0xbd133a0b	-0.035944026
185	0x3c924670	0.017855853
186	0x3bc9365c	0.0061405133
187	0x399c811a	0.00029850827
188	0xbd13f23d	-0.03611969
189	0x3bc8e7e1	0.0061311577
190	0x39972508	0.00028828555
191	0xbd138263	-0.03601302
192	0x3bc97ea7	0.0061491313
193	0x397a7874	0.0002388673
194	0xbd1339c6	-0.03594377
195	0x3bc97ea9	0.0061491323
196	0x397a7883	0.00023886752
197	0xbd1339c6	-0.03594377
198	0x3bc83334	0.0061096195
199	0x398ed0cb	0.00027239913
200	0xbd133b66	-0.03594532
201	0x3bca1f6f	0.006168298
202	0x398e8767	0.00027185233
203	0xbd13195d	-0.03591286
204	0x3bc8155d	0.0061060623
205	0x3935cefd	0.00017338614
206	0xbd1347f4	-0.03595729
207	0x3cb0acad	0.021566713
208	0x3d12e934	0.03586693
209	0x3c406f73	0.011745322
210	0x3b30be2d	0.0026968822
211	0x3c793340	0.015209973
212	0xbcd19b2c	-0.025586687
213	0x3cbd7c93	0.02313069
214	0xbcf7d461	-0.030252637
215	0x3cfdf0a5	0.030998537
216	0x3b91f513	0.004454264
217	0x3cf45a66	0.029828262
218	0x3accbbe0	0.0015619956
219	0x3ba071ff	0.004896402
220	0xbb10fdcb	-0.0022123929
221	0xbcf7c9d7	-0.030247612
222	0x3c94c29e	0.018159207
223	0xbd130626	-0.035894535
224	0x3c844f2c	0.016151033
225	0x3bcb05e8	0.0061957724
226	0x39a36c89	0.00031170648
227	0xbd135e06	-0.03597834
228	0x3bccae9d	0.0062464015
229	0x3982e64a	0.0002496711
230	0xbd133a21	-0.035944108
231	0x3bc97ea2	0.006149129
232	0x397a7950	0.0002388705
233	0xbd1339c6	-0.03594377
234	0x3bc97ea7	0.0061491313
235	0x397a786d	0.0002388672
236	0xbd1339c6	-0.03594377
237	0x3bc968f3	0.006146544
238	0x3974ec19	0.00023357607
239	0xbd133d06	-0.03594687
240	0x3bc86e6e	0.00611668
241	0x39620ddb	0.00021558201
242	0xbd12fef9	-0.035887692
243	0x3bc757c5	0.006083461
244	0x3932475f	0.0001700199
245	0xbd13848f	-0.03601509
246	0x3cad5b6d	0.02116176
247	0x3d1333f6	0.035938226
248	0x3c492103	0.012275937
249	0x3c02c4c7	0.007981486
250	0x3bab26b5	0.00522312
251	0xbd05a29b	-0.032625776
252	0x3cbf4359	0.023347544
253	0xbd136200	-0.035982132
254	0x3c1e4a20	0.009661227
255	0x3cbf76f9	0.02337216

exp_avg_sq f4 [10, 507]
0	0x386d78e2	5.6617784e-05
1	0x356cdaa0	8.823499e-07
2	0x3bb45317	0.005503069
3	0x389adbf3	7.384261e-05
4	0x379a4b47	1.8393284e-05
5	0x3bb45315	0.005503068
6	0x389ade9b	7.384756e-05
7	0x3759fb29	1.2992686e-05
8	0x3bb45316	0.0055030687
9	0x392f8a19	0.00016740746
10	0x38e4840d	0.000108964836
11	0x3bb45311	0.0055030663
12	0x3a1bbf98	0.00059413305
13	0x3a02c1a4	0.0004987961
14	0x3bb452ef	0.0055030505
15	0x3a3603e7	0.00069433305
16	0x399fcbee	0.00030478783
17	0x3bb45141	0.0055028503
18	0x3a8f5024	0.0010933918
19	0x3a808c9d	0.0009807531
20	0x3bb44ed0	0.0055025592
21	0x3a1cd9f9	0.0005983408
22	0x39627d49	0.00021599712
23	0x3bb44ed0	0.0055025592
24	0x3a1a7d06	0.0005893264
25	0x39cd108b	0.00039112972
26	0x3bb45063	0.005502747
27	0x3987fa7f	0.0002593584
28	0x3951f1a5	0.00020021813
29	0x3bb45315	0.005503068
30	0x3892c3a7	6.9982656e-05
31	0x372f00da	1.0431011e-05
32	0x3bb45315	0.005503068
33	0x3882fefb	6.246377e-05
34	0x36d14f85	6.2379427e-06
35	0x3bb45315	0.005503068
36	0x386d7ceb	5.6621542e-05
37	0x356de836	8.862729e-07
38	0x3bb45317	0.005503069
39	0x386e7dab	5.686066e-05
40	0x359765fe	1.128006e-06
41	0x3bb45317	0.005503069
42	0x38bf4915	9.121202e-05
43	0x385fe960	5.338469e-05
44	0x3bb3d9fd	0.0054886327
45	0x39c344ca	0.0003724455
46	0x39a56ebd	0.0003155376
47	0x3bb3c862	0.005486534
48	0x3a979c1d	0.0011566911
49	0x3a7b0901	0.0009576232
50	0x3bb0b357	0.0053924727
51	0x3af001a2	0.0018311033
52	0x3ae41b37	0.001740313
53	0x3ba509c3	0.005036564
54	0x3b396014	0.0028286027
55	0x3afbff87	0.0019225933
56	0x3ba5b6af	0.005057178
57	0x3b5d19a4	0.0033737207
58	0x3b0452a4	0.002019086
59	0x3b98fc2e	0.004668734
60	0x3b54688a	0.0032410943
61	0x3a787500	0.00094778836
62	0x3ba687c1	0.005082101
63	0x3b546f8c	0.003241512
64	0x3af1069f	0.0018388814
65	0x3ba7fc93	0.0051265447
66	0x3b29ae11	0.0025891105
67	0x3aee5ac9	0.0018185015
68	0x3bb0407b	0.0053787804
69	0x3aaa23a2	0.001298059
70	0x3a7dfe3a	0.0009689067
71	0x3bb4a1cf	0.005512453
72	0x3a4d6090	0.00078345183
73	0x3a1c8f00	0.00059722364
74	0x3bb44dad	0.0055024237
75	0x3966cd26	0.00022010933
76	0x3930eae7	0.00016872176
77	0x3bb4530e	0.005503065
78	0x386e7e13	5.6861038e-05
79	0x35977494	1.1284305e-06
80	0x3bb45316	0.0055030687
81	0x3927b651	0.00015994279
82	0x391c77c1	0.00014921931
83	0x3bb2b999	0.005454254
84	0x3a10bdf5	0.000552147
85	0x3a3a0d28	0.00070972973
86	0x3bac579d	0.0052594678
87	0x3ab1c53c	0.0013562809
88	0x3ae7e41c	0.0017691883
89	0x3b986467	0.0046506408
90	0x3ae4f5eb	0.0017468309
91	0x3b10be98	0.002208626
92	0x3b78591e	0.0037894915
93	0x3afdf582	0.0019375535
94	0x3b0d22cd	0.0021535635
95	0x3b4169de	0.0029512565
96	0x3a9d5283	0.001200274
97	0x3ab3129e	0.0013662165
98	0x3b2675d5	0.0025399823
99	0x3aa20d2d	0.0012363546
100	0x3a063ec5	0.0005121048
101	0x3b590310	0.0033113398
102	0x3ae3e05f	0.0017385593
103	0x3aeaf275	0.0017925041
104	0x3b4c048d	0.0031130642
105	0x3b0067ec	0.0019593192
106	0x3b16d536	0.0023015267
107	0x3b6c9ea4	0.00361053
108	0x3ab011b7	0.0013433014
109	0x3ac111b9	0.0014730013
110	0x3b931724	0.0044888426
111	0x3a6207aa	0.0008622358
112	0x3a86620c	0.0010252609
113	0x3b9d3d68	0.00479858
114	0x39a889b1	0.00032146045
115	0x39cb050c	0.00038722937
116	0x3bafabb1	0.0053610434
117	0x386cf75f	5.6497167e-05
118	0x35820f73	9.690251e-07
119	0x3bb45338	0.0055030845
120	0x39c291cd	0.00037111194
121	0x39dc44c8	0.00042012916
122	0x3bb09d35	0.0053898343
123	0x3a7c2eba	0.000962
124	0x3aaa7bb8	0.0013006842
125	0x3ba117a7	0.0049161497
126	0x3ae3bfd4	0.0017375895
127	0x3b1d7bbb	0.0024030048
128	0x3b7ec7c7	0.00388764
129	0x3aced2cc	0.0015779375
130	0x3b11133d	0.002213671
131	0x3b4bad18	0.0031078514
132	0x3abbd488	0.0014330307
133	0x3ae1c418	0.0017224578
134	0x3b0b6509	0.0021269938
135	0x3aa6cfcd	0.0012726724
136	0x3a58dc11	0.00082725385
137	0x3b32a940	0.0027261525
138	0x3acef71a	0.0015790195
139	0x3a15dc5b	0.00057167344
140	0x3b5cfe37	0.003372086
141	0x3ae11462	0.0017172212
142	0x3aa76c2b	0.0012773325
143	0x3b460988	0.0030218083
144	0x3b1236b8	0.0022310447
145	0x3b18ab5e	0.0023295502
146	0x3b46e5f8	0.0030349474
147	0x3b00367d	0.0019563728
148	0x3b10806f	0.0022049209
149	0x3b80c2c9	0.00392947
150	0x3abbbdb2	0.0014323501
151	0x3af1e6ca	0.0018455621
152	0x3b96b0fb	0.0045987344
153	0x398d29e5	0.0002692483
154	0x3a05e8e2	0.00051082496
155	0x3bab7c74	0.005233342
156	0x38963da2	7.1640374e-05
157	0x37871366	1.6102287e-05
158	0x3bb450d5	0.0055028
159	0x3a14570f	0.00056587247
160	0x3a38853f	0.0007038898
161	0x3baa2184	0.0051919837
162	0x3a9c4c9a	0.0011924685
163	0x3ae0b451	0.0017143582
164	0x3b94443b	0.0045247353
165	0x3ad85722	0.001650546
166	0x3b37bfd4	0.0028037922
167	0x3b4ccb53	0.003124912
168	0x3ab7d312	0.0014024696
169	0x3b13f648	0.0022577215
170	0x3b23f2fb	0.0025016654
171	0x3ab2418e	0.0013599859
172	0x3ae7e405	0.0017691856
173	0x3b1e0e63	0.0024117462
174	0x3ad2703d	0.0016055178
175	0x3ac5d061	0.0015092009
176	0x3b280865	0.002563977
177	0x3ac44830	0.0014975127
178	0x3a8eeda5	0.0010904564
179	0x3b3147cb	0.0027050849
180	0x3ab2bbb2	0.001363626
181	0x3aad936d	0.0013242789
182	0x3b2c6584	0.0026305625
183	0x3ab01a42	0.001343556
184	0x3b0fdd72	0.002195206
185	0x3b271fad	0.0025501058
186	0x3afb8922	0.0019190649
187	0x3b273faf	0.0025520136
188	0x3b4e3297	0.003146326
189	0x3ac04cda	0.0014671341
190	0x3b15b687	0.002284439
191	0x3b8246f1	0.003975742
192	0x3a5dff90	0.0008468563
193	0x3a82c37a	0.000997647
194	0x3ba915c4	0.0051600654
195	0x38886f27	6.505689e-05
196	0x37c6057d	2.3605995e-05
197	0x3bb3fcfd	0.005492805
198	0x3a398eea	0.0007078486
199	0x3a93accf	0.0011266711
200	0x3ba1fdc2	0.0049435804
201	0x3aa21278	0.0012365123
202	0x3b112311	0.0022146145
203	0x3b7b8193	0.0038376793
204	0x3abf4d9a	0.0014595271
205	0x3b41ef1c	0.0029591983
206	0x3b28ddde	0.0025767009
207	0x3a8c12b6	0.0010686729
208	0x3b0960b9	0.0020962192
209	0x3b1354c2	0.002248094
210	0x3ab08052	0.0013465977
211	0x3ad56225	0.001627986
212	0x3b2090bf	0.0024500338
213	0x3ae54832	0.0017492829
214	0x3acb30d2	0.001550222
215	0x3b602f5c	0.0034207916
216	0x3ae80786	0.0017702437
217	0x3ac4ca41	0.001501389
218	0x3b4ea91e	0.0031533907
219	0x3aa1fece	0.0012359263
220	0x3ab576d1	0.0013844614
221	0x3b3a54eb	0.0028431963
222	0x3ab4962a	0.0013777663
223	0x3b0debca	0.0021655434
224	0x3b107b8f	0.0022046303
225	0x3ad1ccd7	0.0016006482
226	0x3b21444c	0.0024607359
227	0x3b3f838c	0.0029222695
228	0x3ac9d540	0.0015398636
229	0x3b2b263f	0.0026115326
230	0x3b687ad8	0.0035473611
231	0x39fa38cf	0.00047726042
232	0x3a7c834f	0.00096326036
233	0x3b9f59f0	0.0048630163
234	0x38930210	7.0098904e-05
235	0x37e7fd1e	2.7655213e-05
236	0x3bb3bbc8	0.0054850318
237	0x3a5b8e30	0.00083753746
238	0x3ac8a9d4	0.0015309402
239	0x3b99f196	0.0046979887
240	0x3aa8b032	0.0012869893
241	0x3b209257	0.0024501288
242	0x3b615bff	0.003438711
243	0x3a9d8bb9	0.001201979
244	0x3b33cc81	0.0027435126
245	0x3b17a45c	0.0023138737
246	0x3a8ee30c	0.0010901405
247	0x3b1097ad	0.0022063062
248	0x3b151b35	0.0022751812
249	0x3a932a39	0.0011227793
250	0x3adc05c4	0.0016786386
251	0x3b4528c6	0.0030084117
252	0x3abcc817	0.0014402893
253	0x3ac8bec2	0.0015315639
254	0x3b6c3a91	0.003604565
255	0x3ac633d9	0.0015121653

exp_avg f4 [10]
0	0xbd1339c6	-0.03594377
1	0xbc476afe	-0.012171505
2	0x3cf11e0e	0.029433277
3	0xbc967599	-0.018366622
4	0xbd2361ec	-0.039888307
5	0x3ba5856a	0.0050513046
6	0x3a5c2aad	0.0008398693
7	0x3d6da929	0.05802265
8	0x3c49065d	0.0122695835
9	0x3a458820	0.0007535238

exp_avg_sq f4 [10]
0	0x3bb45315	0.005503068
1	0x3be624d4	0.007023433
2	0x3c684586	0.014176732
3	0x3ca18dc3	0.019720918
4	0x3c66dc7c	0.0140906535
5	0x3c8bdca9	0.017072992
6	0x3c0f126c	0.008732419
7	0x3c81e056	0.015854042
8	0x3c94984e	0.01813903
9	0x3ca28e6a	0.019843299
