evaluation/Results/Seed_0_Trainable_no_FRQI_for_2x2_2x2_imgsize_14/model_checkpoints/epochs_12.pt (torch, 63969 bytes, 7 tensors)

qlayer_1.torch_qlayer.weights f8 [1, 4]
0	0xbfb299e8725aad20	-0.07266094962931335
1	0xbfec23a0927b051a	-0.8793490277240921
2	0xbfd12ca668071a58	-0.26835022124251884
3	0xbfe501522296d97c	-0.6564112353869826

linear.weight f4 [10, 507]
0	0x3d340f78	0.043960065
1	0x3c53baf3	0.01292299
2	0xbb44d05d	-0.003003142
3	0x3bd576b1	0.0065143933
4	0x3d9be9ac	0.07612929
5	0x3c18b814	0.009321231
6	0x3d88f9fb	0.06688305
7	0x3c439b25	0.011938845
8	0x3d28ae74	0.041181996
9	0x3d6b4b61	0.057444934
10	0xbba86358	-0.005138796
11	0x3da5b5dc	0.080913275
12	0x3c0e74c1	0.0086948285
13	0x3d5a11b3	0.053239536
14	0x3c7bdc92	0.015372412
15	0x3c92742b	0.017877659
16	0x3da2fb25	0.07958058
17	0x3db6accf	0.089196794
18	0x3db24d07	0.08706098
19	0x3d28e0b7	0.04122993
20	0x3d0fa5cf	0.035070237
21	0x3d7e6c77	0.06211516
22	0x3cfe3275	0.03102992
23	0x3da0f3c1	0.07858992
24	0x3d89ae86	0.06722741
25	0x3dd7fcd4	0.1054627
26	0x3da4de9f	0.08050274
27	0x3d87de68	0.066342175
28	0x3d531497	0.051533308
29	0x3d8b8e0c	0.06814203
30	0x3d98e238	0.07465023
31	0x3cb979fe	0.022641178
32	0x3cc139d6	0.023587149
33	0x3b83122a	0.003999968
34	0xbb449be2	-0.003000014
35	0x3d71949e	0.058979623
36	0x3da5a7ec	0.08088669
37	0x3cd12bd0	0.025533587
38	0x3d228df3	0.039686155
39	0x3ca321d3	0.01991359
40	0x3d29692c	0.041360065
41	0x3d0d53e7	0.034503844
42	0xbb010086	-0.001968415
43	0x3d28c7aa	0.04120604
44	0x3d793370	0.06084007
45	0x3d44453c	0.04791759
46	0x3b924414	0.004463682
47	0x3d0a7d6f	0.03381103
48	0x3d700a8b	0.058603805
49	0x3d991c9f	0.07476162
50	0x3d559b53	0.05215008
51	0x3d11196c	0.035424635
52	0x3d888a25	0.06666974
53	0x3e0110e8	0.12604105
54	0x3c87feb2	0.01660094
55	0x3d9f13f3	0.07767477
56	0x3e090fef	0.13384984
57	0x3dcd283f	0.10017442
58	0x3bbbe55b	0.0057341284
59	0x3d1a6944	0.037698045
60	0xbb550826	-0.0032506078
61	0xbd5f104c	-0.0544589
62	0xbd4819f9	-0.048852894
63	0x3d81d354	0.06339136
64	0x3cad1122	0.021126334
65	0x3d5db988	0.054132015
66	0xbd9064bd	-0.07050464
67	0x3d884778	0.066542566
68	0x3df1b715	0.11802498
69	0x3e2d7e03	0.16942601
70	0x3e018013	0.12646513
71	0x3dae5450	0.08512175
72	0x3cfb3808	0.030666366
73	0x3be82176	0.007084067
74	0x3cae27de	0.021259245
75	0x3dacbeab	0.084348045
76	0x3c027720	0.007962972
77	0x3d86d7eb	0.06584152
78	0x3d69f86a	0.05712167
79	0xbb8249ed	-0.003976098
80	0x3ba26f85	0.004957142
81	0x3d5ce0f9	0.05392549
82	0x3d175568	0.036946684
83	0x3d707652	0.05870659
84	0x3c93523f	0.017983554
85	0x3d982d97	0.074305706
86	0x3da9794b	0.08275088
87	0x3c8d84dd	0.017275268
88	0x3d4d99a7	0.050195362
89	0x3e397beb	0.18113677
90	0x3dc825b2	0.09772815
91	0x3dc87e11	0.0978967
92	0x3e4c1118	0.19928396
93	0x3e0be802	0.13662723
94	0x3d222cd5	0.039593536
95	0x3dbd11c1	0.09231902
96	0x3e162fe7	0.14666711
97	0xbc912ae2	-0.017720643
98	0xbe770e94	-0.24126655
99	0xbd58f247	-0.05296543
100	0x3d47d88a	0.048790492
101	0xbf16eb76	-0.58953035
102	0xbe49d3e4	-0.19709736
103	0x3d8ccdad	0.06875167
104	0xbeb009bf	-0.34382436
105	0xbe45a5d4	-0.1930154
106	0x3e1c2ee9	0.1525227
107	0x3d4d813f	0.050172087
108	0x3e1a3796	0.15060267
109	0x3d3cf2d1	0.046130005
110	0x3e1960cd	0.14978333
111	0x3dc865c2	0.09785034
112	0x3dea1a7b	0.11430832
113	0x3e0125f5	0.12612136
114	0x3d4f5e5e	0.050627105
115	0x3d86547b	0.06559082
116	0x3d2a41e5	0.04156675
117	0x3da8c016	0.082397625
118	0x3c362c80	0.011119008
119	0x3d24af1b	0.040206056
120	0x3d64812f	0.05578726
121	0x3d80c83b	0.06288191
122	0x3d93f6d5	0.07224814
123	0x3be9ca4a	0.0071347104
124	0x3d7e3051	0.062057797
125	0x3e19c9ba	0.15018359
126	0x3cfd84d0	0.030947119
127	0x3df01bbb	0.11724039
128	0x3e3aa561	0.1822715
129	0x3d1f1434	0.038837627
130	0x3d14c32e	0.03631895
131	0x3e2b56be	0.16732308
132	0x3c9f4d4c	0.019446038
133	0x3cbd52c7	0.02311076
134	0xbe0e00ca	-0.13867489
135	0x3d36d351	0.04463512
136	0xbd1e9e1a	-0.038724996
137	0xbeaa71e8	-0.3329003
138	0xbd0492b6	-0.032366477
139	0xbdf3aa08	-0.11897665
140	0xbf0f2749	-0.5591932
141	0xbe0819de	-0.13291118
142	0xbdd9675a	-0.10615416
143	0xbf1a0afb	-0.60173005
144	0xbe2b4b03	-0.16727833
145	0xbc5bc36b	-0.0134132905
146	0xbea3931e	-0.3194818
147	0xbe22b8c1	-0.1589079
148	0x3d2ab0ad	0.041672397
149	0xbd188c25	-0.037243027
150	0x3cf552a1	0.029946627
151	0x3d2d6197	0.042329397
152	0x3dc15c9d	0.09441493
153	0x3d572c20	0.052532315
154	0x3d29bf6c	0.04144232
155	0x3d52f656	0.051504456
156	0x3cf3c84f	0.0297586
157	0x3d99389d	0.07481501
158	0x3c61676f	0.013757571
159	0x3cdf9ac4	0.027295478
160	0x3d942a57	0.07234638
161	0x3ddba3f3	0.1072463
162	0x3d8bc3cc	0.06824455
163	0x3db39d59	0.08770246
164	0x3d8124c8	0.063058436
165	0x3d7f8a0d	0.062387515
166	0xbc2ef50b	-0.01067854
167	0x3dfa807d	0.122315384
168	0x3deef01f	0.11666893
169	0x3ad8263d	0.0016490888
170	0xbe190996	-0.14945063
171	0xbe52d7fe	-0.20590207
172	0x3cfbc663	0.030734247
173	0xbe6f1f2f	-0.2335174
174	0xbdb66cdf	-0.08907484
175	0x3d02b9d1	0.03191549
176	0xbbc6e8fd	-0.006070255
177	0x3d8a458b	0.067515455
178	0x3de5bc0e	0.11217509
179	0x3cd5bc17	0.026090665
180	0x3e571947	0.21005736
181	0x3d3512d1	0.044207398
182	0xbebc3730	-0.36760855
183	0xbe1c8aaf	-0.15287279
184	0x3bea2997	0.007146071
185	0xbf4e3ab9	-0.80558354
186	0xbef7ba43	-0.48384294
187	0x3bf0a0fa	0.0073434087
188	0xbefba4b1	-0.49149087
189	0xbe686f0a	-0.22698608
190	0x3ce95b19	0.028485822
191	0xbdd693aa	-0.104773834
192	0x3d42d8b1	0.047569934
193	0x3cddda4f	0.027081637
194	0x3a761972	0.0009387947
195	0x3cd41bb6	0.02589212
196	0x3c126105	0.008934264
197	0x3d53c7a4	0.051704064
198	0xbbbeb860	-0.005820319
199	0x3cd17c33	0.025571918
200	0x3daf9498	0.08573264
201	0x3daae731	0.083448775
202	0xbb0a6531	-0.0021117444
203	0xbd35b277	-0.04435965
204	0xbe3b505b	-0.18292372
205	0x3cad301e	0.021141108
206	0xbe9e9446	-0.309725
207	0x3af8dab6	0.0018986079
208	0x3d935d54	0.07195535
209	0xbea8a27c	-0.32936466
210	0xbeee3607	-0.46525595
211	0x3da6fac1	0.08153296
212	0xbc02b16d	-0.007976872
213	0xbe2d0e91	-0.16900088
214	0x3e1775c8	0.14791024
215	0x3ef6fd87	0.482403
216	0x3dea12ff	0.114294045
217	0x3e3aff12	0.18261364
218	0x3f1a8063	0.6035215
219	0x3e942c39	0.2893999
220	0x3e23a513	0.1598094
221	0x3e547003	0.20745854
222	0x3c6d0f39	0.014468961
223	0x3d8d20e4	0.06891039
224	0xbf1275a1	-0.5721074
225	0xbeb3077b	-0.34966645
226	0x3ce52f5a	0.02797668
227	0xbf44d15e	-0.7688197
228	0xbec6bb97	-0.38814995
229	0x3c8bf126	0.017082762
230	0xbe90faff	-0.28316495
231	0xbb934a0a	-0.00449491
232	0x3c35ae04	0.011088852
233	0xbc830351	-0.015992792
234	0x3d46c716	0.048529707
235	0x3d4faf6f	0.050704416
236	0x3cab673e	0.020923253
237	0x3da97c48	0.08275658
238	0x3c4f1549	0.012639352
239	0x3d1d9a5a	0.03847728
240	0x3dbbedab	0.09176191
241	0xbb26070f	-0.0025333797
242	0xbe89afd8	-0.2689197
243	0xbe685587	-0.22688876
244	0x3d3b0f96	0.04566916
245	0xbf1e98c4	-0.6195185
246	0xbea0df58	-0.31420398
247	0x3d9b59bf	0.07585477
248	0xbe8c4ba5	-0.27401462
249	0xbefc05e1	-0.49223235
250	0x3e623b5c	0.22092956
251	0x3eaccf68	0.33751988
252	0xbd85d8f8	-0.06535524
253	0x3e9b3f69	0.30321816
254	0x3f590dd3	0.8478672
255	0x3e3ac4d7	0.18239151

linear.bias f4 [10]
0	0x3da8f530	0.08249891
1	0xbd9a799a	-0.07542725
2	0x3d7860fa	0.06063936
3	0xbb2f4a46	-0.0026747151
4	0xbd2e8a34	-0.04261227
5	0x3cd281c2	0.025696639
6	0xbcb0c7c0	-0.021579623
7	0x3c87d123	0.016579216
8	0x3c261cb4	0.010138679
9	0x3b8cfa16	0.0043022735

exp_avg f4 [10, 507]
0	0x3bbe2256	0.005802433
1	0x3ac103d5	0.0014725873
2	0x3c0eb488	0.008710034
3	0x3bbe2256	0.005802433
4	0x3ac103d5	0.0014725873
5	0x3c0eb488	0.008710034
6	0x3bbe2256	0.005802433
7	0x3ac103d5	0.0014725873
8	0x3c0eb488	0.008710034
9	0x3bbe2256	0.005802433
10	0x3ac103d5	0.0014725873
11	0x3c0eb488	0.008710034
12	0x3bbe2292	0.005802461
13	0x3ac103a1	0.0014725813
14	0x3c0eb441	0.008709968
15	0x3bbe2202	0.005802394
16	0x3ac10374	0.001472576
17	0x3c0eb401	0.008709908
18	0x3bbe2c7a	0.005803642
19	0x3ac0fb22	0.0014723281
20	0x3c0ea937	0.008707336
21	0x3bbe3f01	0.0058058505
22	0x3ac0dc88	0.0014714161
23	0x3c0e7dae	0.008696957
24	0x3bbeabaa	0.005818804
25	0x3ac06b16	0.0014680352
26	0x3c0dd8b6	0.008657625
27	0x3bbf1988	0.005831901
28	0x3abf6c80	0.0014604479
29	0x3c0c745d	0.008572665
30	0x3bbae479	0.0057035056
31	0x3abfdf0f	0.001463862
32	0x3c0d1978	0.008612029
33	0x3bbe09c5	0.0057995045
34	0x3ac0fc6e	0.0014723667
35	0x3c0ea99a	0.008707428
36	0x3bbe2256	0.005802433
37	0x3ac103d5	0.0014725873
38	0x3c0eb488	0.008710034
39	0x3bbe2256	0.005802433
40	0x3ac103d5	0.0014725873
41	0x3c0eb488	0.008710034
42	0x3bbe2256	0.005802433
43	0x3ac103d5	0.0014725873
44	0x3c0eb488	0.008710034
45	0x3bbe2f23	0.005803959
46	0x3ac0f949	0.001472273
47	0x3c0ea5db	0.008706535
48	0x3bbe042d	0.0057988376
49	0x3ac0f804	0.0014722352
50	0x3c0ea40e	0.008706106
51	0x3bbe2044	0.005802186
52	0x3ac101b9	0.0014725245
53	0x3c0eb0f9	0.008709186
54	0x3bc15156	0.0058995886
55	0x3abe6ebb	0.001452885
56	0x3c0b17f5	0.0084895985
57	0x3bcfe362	0.006344245
58	0x3aad9a41	0.0013244824
59	0x3bedc41b	0.0072560436
60	0x3bcd66bc	0.0062683504
61	0x3a823fc9	0.0009937222
62	0x3ba3a05e	0.0049934825
63	0x3ba6f6cf	0.00509534
64	0x3a6ae2bd	0.0008960178
65	0x3b898631	0.004196905
66	0x3b7106e6	0.0036777793
67	0x3aa20b42	0.0012362974
68	0x3bcd8719	0.0062722084
69	0x3bb6f723	0.00558366
70	0x3abd592f	0.0014446134
71	0x3c04610b	0.0080797775
72	0x3bb58a1e	0.0055401465
73	0x3abeae05	0.0014547711
74	0x3c0b0d45	0.00848705
75	0x3bbe2256	0.005802433
76	0x3ac103d5	0.0014725873
77	0x3c0eb488	0.008710034
78	0x3bbe2256	0.005802433
79	0x3ac103d5	0.0014725873
80	0x3c0eb488	0.008710034
81	0x3bbe225e	0.0058024367
82	0x3ac103cf	0.0014725866
83	0x3c0eb47f	0.008710026
84	0x3bbe4cd8	0.0058075003
85	0x3ac0fd77	0.0014723976
86	0x3c0e7fa6	0.008697426
87	0x3bbd5884	0.005778374
88	0x3ac15262	0.0014749283
89	0x3c0ef6e3	0.008725855
90	0x3bb94381	0.005653799
91	0x3ac64223	0.0015125911
92	0x3c14e5c5	0.009087984
93	0x3be6f2ba	0.007047978
94	0x3aada80d	0.0013248936
95	0x3be0a922	0.0068560997
96	0x3bbf3ac6	0.0058358638
97	0x3a8ea019	0.0010881453
98	0x3b3daab5	0.002894086
99	0x3bae0e20	0.0053117424
100	0x3a3d1008	0.00072121667
101	0x3a5cfb27	0.00084297586
102	0x3b85b0f4	0.0040799323
103	0x3a4d48f6	0.00078310014
104	0x3a8b9b3e	0.0010651124
105	0x3b1620ea	0.0022907802
106	0x3aac6d80	0.0013155192
107	0x3b9d68da	0.004803759
108	0x3bb79113	0.005602011
109	0x3abe327a	0.0014510893
110	0x3bfdee07	0.0077493223
111	0x3bad1fbf	0.0052833254
112	0x3ac0beba	0.0014705278
113	0x3c075f4a	0.008262465
114	0x3bbe07ff	0.005799293
115	0x3ac0fbd4	0.0014723488
116	0x3c0ea8da	0.00870725
117	0x3bbe2258	0.005802434
118	0x3ac103d4	0.0014725872
119	0x3c0eb486	0.008710032
120	0x3bbe22bb	0.00580248
121	0x3ac1038e	0.0014725791
122	0x3c0eb412	0.008709924
123	0x3bbe1925	0.0058013373
124	0x3ac132f5	0.0014739918
125	0x3c0eb530	0.008710191
126	0x3bb984d0	0.0056615844
127	0x3ac39f7c	0.0014924849
128	0x3c142520	0.009042054
129	0x3beceaca	0.0072301375
130	0x3aac3a78	0.0013139984
131	0x3bdcbced	0.006736389
132	0x3bdbada4	0.006704049
133	0x3a834299	0.0010014354
134	0x3aaec3f7	0.0013333549
135	0x3adcdc01	0.0016850234
136	0x3a7e345a	0.0009697132
137	0x3a815d79	0.0009869776
138	0x3b976852	0.0046205902
139	0x3a739cf6	0.00092931034
140	0x3b8d4085	0.00431067
141	0x3ba603db	0.0050663776
142	0x3a90c4e7	0.001104501
143	0x3b9d3d30	0.004798554
144	0x3b85c1c8	0.0040819384
145	0x3ab73d6d	0.0013980098
146	0x3bb7cae9	0.0056089056
147	0x3ba760d0	0.0051079765
148	0x3ab871f1	0.0014072043
149	0x3befe7f2	0.007321351
150	0x3bad1fc0	0.005283326
151	0x3abdcf56	0.0014481347
152	0x3c072eb8	0.008250885
153	0x3bbdd950	0.005793728
154	0x3ac10272	0.001472546
155	0x3c0e943b	0.008702333
156	0x3bbe27f8	0.0058031045
157	0x3ac0ffa9	0.001472463
158	0x3c0eae5b	0.008708562
159	0x3bbe3dc0	0.005805701
160	0x3ac0ebc9	0.0014718707
161	0x3c0e9118	0.008701585
162	0x3bc26e90	0.0059335902
163	0x3abbf42f	0.001433974
164	0x3c098da7	0.008395589
165	0x3bcb30ec	0.0062009003
166	0x3aa2a8cb	0.0012409923
167	0x3be2d39c	0.0069221985
168	0x3bd10108	0.0063782968
169	0x3a9be5bc	0.0011894028
170	0x3b066e09	0.0020512363
171	0x3b397eb4	0.002830428
172	0x3a889c4e	0.0010422559
173	0x38cda670	9.806163e-05
174	0x3afce59c	0.0019294503
175	0x3a8f3870	0.0010926854
176	0x3b9eec98	0.0048499815
177	0x3bb41d48	0.0054966547
178	0x3ab823ed	0.0014048793
179	0x3c080490	0.008301869
180	0x3bcd7c46	0.006270918
181	0x3ab91388	0.0014120201
182	0x3bf2bc0e	0.007407672
183	0x3ba008ea	0.004883875
184	0x3abc0375	0.0014344292
185	0x3bd7419c	0.0065691005
186	0x3ba7b98f	0.005118556
187	0x3ac09b6a	0.0014694754
188	0x3bfb461c	0.00766827
189	0x3bb5e9a0	0.005551532
190	0x3ac15e3f	0.0014752819
191	0x3c0b045b	0.008484925
192	0x3bbe005d	0.005798383
193	0x3ac0f95a	0.001472275
194	0x3c0ea591	0.008706466
195	0x3bbfd5c8	0.005854342
196	0x3abe854f	0.0014535579
197	0x3c0bf07f	0.008541225
198	0x3bc0607f	0.005870878
199	0x3aba7905	0.001422674
200	0x3c06c618	0.00822594
201	0x3bc9186c	0.0061369445
202	0x3aad4701	0.0013220013
203	0x3bdf3287	0.0068114433
204	0x3bb354dc	0.0054727625
205	0x3a982ca3	0.0011609982
206	0x3b8ffb95	0.0043940046
207	0x3b992e26	0.004674691
208	0x3a99c067	0.0011730314
209	0x3b125464	0.0022328133
210	0x3af4b1cd	0.0018668711
211	0x3ab16aef	0.0013535897
212	0x3b904365	0.0044025653
213	0x3baeda14	0.0053360555
214	0x3abdd1d1	0.0014482086
215	0x3c018e29	0.007907429
216	0x3bbc44b1	0.0057454933
217	0x3ababfb1	0.0014247802
218	0x3c092251	0.008369998
219	0x3be0c941	0.006859929
220	0x3ab45685	0.0013758695
221	0x3bc091c9	0.005876754
222	0x3b7196b4	0.0036863508
223	0x3ab3d647	0.0013720476
224	0x3ba9914e	0.0051747924
225	0x3b9f2782	0.0048570046
226	0x3abb0085	0.0014267123
227	0x3c020f4e	0.007938219
228	0x3bbefb66	0.005828309
229	0x3ac083f5	0.0014687764
230	0x3c100d9d	0.008792308
231	0x3bbf56d8	0.00583921
232	0x3ac13f75	0.0014743643
233	0x3c0f3b6e	0.0087421965
234	0x3bc0a749	0.005879317
235	0x3ac02643	0.001465984
236	0x3c0b04f7	0.00848507
237	0x3bc9a9bf	0.0061542685
238	0x3aba7990	0.0014226902
239	0x3bf104ea	0.007355322
240	0x3bc56ff3	0.0060253083
241	0x3ab92fce	0.0014128627
242	0x3ba3bd10	0.0049969032
243	0x3b5f70b5	0.0034094278
244	0x3ab8c4c0	0.0014096722
245	0x3b89a529	0.004200597
246	0x3bb1fc5f	0.0054316963
247	0x3ab77466	0.0013996481
248	0x3b98d71a	0.004664314
249	0x3b7e9fee	0.003885265
250	0x3ab6fa40	0.0013960078
251	0x3bbe99aa	0.005816658
252	0x3bbb7c39	0.0057215956
253	0x3aaa7f89	0.0013007979
254	0x3bd8f2f2	0.006620758
255	0x3bc56b5e	0.006024762

exp_avg_sq f4 [10, 507]
0	0x3b9635c2	0.004584045
1	0x399acbda	0.0002952505
2	0x3c293bfd	0.010329244
3	0x3b9635f0	0.0045840666
4	0x399acbb5	0.00029524943
5	0x3c293bb3	0.010329175
6	0x3b963552	0.004583993
7	0x399acbb5	0.00029524943
8	0x3c293bb3	0.010329175
9	0x3b9635f5	0.004584069
10	0x399acbab	0.00029524913
11	0x3c293ba1	0.010329158
12	0x3b963ab0	0.004584633
13	0x399ac837	0.0002952234
14	0x3c2934e5	0.010327552
15	0x3b96bd0a	0.004600172
16	0x399a4961	0.0002942784
17	0x3c284d5c	0.01027235
18	0x3b963af7	0.004584666
19	0x39999832	0.00029295828
20	0x3c26ecad	0.010188264
21	0x3b95fcf4	0.0045772735
22	0x3998a8f9	0.00029117594
23	0x3c25c40c	0.010117542
24	0x3b93f872	0.004515701
25	0x39990697	0.00029187344
26	0x3c269214	0.010166664
27	0x3b9558d2	0.0045577073
28	0x399a70a0	0.0002945708
29	0x3c2891d7	0.010288677
30	0x3b962bd7	0.004582863
31	0x399ac8cf	0.00029522783
32	0x3c29351c	0.010327604
33	0x3b963593	0.0045840233
34	0x399acbc8	0.00029524998
35	0x3c293bdf	0.010329216
36	0x3b9635c2	0.004584045
37	0x399acbda	0.0002952505
38	0x3c293bfd	0.010329244
39	0x3b963725	0.0045842105
40	0x399acac0	0.0002952423
41	0x3c2939a5	0.010328685
42	0x3b963376	0.0045837713
43	0x399aca18	0.0002952374
44	0x3c29383d	0.01032835
45	0x3b969c3d	0.004596262
46	0x399a75ea	0.00029461022
47	0x3c289396	0.0102890935
48	0x3b99bcd5	0.0046917
49	0x3996a810	0.00028735446
50	0x3c22f1b2	0.00994532
51	0x3b97b65f	0.0046298946
52	0x399097a3	0.00027578798
53	0x3c19835e	0.009369699
54	0x3b9b2c21	0.004735485
55	0x3989661a	0.00026206748
56	0x3c0bdfd6	0.008537253
57	0x3b9b3762	0.0047368268
58	0x397ac26b	0.00023914284
59	0x3befa5a5	0.0073134475
60	0x3b89ecb4	0.0042091254
61	0x396c0a42	0.00022510535
62	0x3bd80faa	0.006593664
63	0x3b7accd0	0.003826905
64	0x397beb60	0.0002402491
65	0x3bf2b5d8	0.0074069314
66	0x3b8510b5	0.0040608295
67	0x398a7016	0.00026404922
68	0x3c0f1085	0.008731966
69	0x3b8b90f5	0.0042592236
70	0x399384d9	0.00028137004
71	0x3c1e04cb	0.009644697
72	0x3b936b16	0.0044988496
73	0x3999869a	0.0002928272
74	0x3c26d2a7	0.010182059
75	0x3b95d51c	0.0045725238
76	0x399aac5e	0.00029501593
77	0x3c28fa74	0.010313619
78	0x3b963725	0.0045842105
79	0x399acac0	0.0002952423
80	0x3c2939a4	0.010328684
81	0x3b964e69	0.004586984
82	0x399ab5d3	0.0002950864
83	0x3c290cfc	0.010318037
84	0x3b98cd13	0.0046631186
85	0x3999961b	0.0002929427
86	0x3c24d1dd	0.010059801
87	0x3ba2d68e	0.0049694246
88	0x3993e1df	0.00028206312
89	0x3c1225da	0.008920157
90	0x3b9ea249	0.0048411232
91	0x3987e910	0.00025922852
92	0x3bec60ba	0.007213679
93	0x3ba37ce3	0.004989253
94	0x396bf5e8	0.00022502954
95	0x3ba3506b	0.004983952
96	0x3b931af0	0.004489295
97	0x394e1fa2	0.00019657475
98	0x3b532ba3	0.0032222054
99	0x3b7b751c	0.0038369363
100	0x39406a78	0.0001835021
101	0x3b1f772c	0.0024332507
102	0x3b3be71d	0.002867169
103	0x39473fee	0.00019001935
104	0x3b458b4d	0.0030142844
105	0x3b40217c	0.0029316833
106	0x3968067c	0.0002212766
107	0x3ba732da	0.0051024975
108	0x3b634d56	0.0034683547
109	0x3989d4b9	0.00026289167
110	0x3c002cb1	0.007823155
111	0x3b897b71	0.0041956236
112	0x39969d0e	0.00028727244
113	0x3c1dc4f9	0.0096294815
114	0x3b940076	0.0045166565
115	0x399a4c32	0.0002942994
116	0x3c27b1c1	0.010235251
117	0x3b9636a0	0.0045841485
118	0x399acb29	0.00029524535
119	0x3c293a7c	0.010328885
120	0x3b969bc6	0.0045962064
121	0x399a747c	0.00029459957
122	0x3c28667c	0.01027834
123	0x3b9d3cc9	0.004798506
124	0x3996ec7e	0.0002878643
125	0x3c1cf674	0.009580243
126	0x3baced17	0.0052772867
127	0x398d4bc7	0.00026950074
128	0x3bf1e55f	0.0073820795
129	0x3ba2b06a	0.004964878
130	0x39750eb8	0.00023370504
131	0x3b9b47b3	0.004738772
132	0x3b8fcc15	0.004388342
133	0x3955f4b8	0.00020404428
134	0x3b513b44	0.0031926194
135	0x3b70d72d	0.0036749349
136	0x3943c980	0.00018671714
137	0x3b29dee9	0.0025920218
138	0x3b7ac09e	0.0038261781
139	0x394030a3	0.00018328665
140	0x3b27e6f7	0.0025619844
141	0x3b58dd24	0.0033090794
142	0x394b997d	0.00019416767
143	0x3b246531	0.002508473
144	0x3b327121	0.0027228075
145	0x39637ee5	0.00021695679
146	0x3b5fbb49	0.003413873
147	0x3b3ad63f	0.0028509048
148	0x39870268	0.00025751
149	0x3bcb6b93	0.006207892
150	0x3b7fa125	0.0039005962
151	0x3994ff74	0.00028419087
152	0x3c1501bb	0.009094651
153	0x3b93cb50	0.0045103207
154	0x399a2283	0.00029398882
155	0x3c278e55	0.010226806
156	0x3b963939	0.004584458
157	0x399acb19	0.00029524488
158	0x3c2936d8	0.010328017
159	0x3b9896ec	0.004656663
160	0x39990979	0.00029189492
161	0x3c256aa6	0.010096228
162	0x3ba5d3ca	0.0050606476
163	0x39932916	0.00028068636
164	0x3c0ced1d	0.008601454
165	0x3bacf097	0.005277704
166	0x3987c1e1	0.00025893658
167	0x3bbd3fe5	0.005775439
168	0x3b941928	0.0045196004
169	0x3975ce17	0.00023441795
170	0x3b59922a	0.0033198693
171	0x3b63305d	0.0034666278
172	0x3964abae	0.0002180773
173	0x3b328171	0.0027237798
174	0x3b4c030f	0.0031129753
175	0x3961b26c	0.0002152414
176	0x3b8f515f	0.004373714
177	0x3b836155	0.0040094056
178	0x396cafab	0.00022572155
179	0x3ba1241c	0.0049176347
180	0x3b8f3e64	0.004371451
181	0x397bfc1f	0.00024031148
182	0x3b8fc640	0.004387647
183	0x3b80c820	0.0039301068
184	0x398481aa	0.0002527361
185	0x3b7718d7	0.0037704015
186	0x3b3b859a	0.0028613568
187	0x398d843b	0.00026992135
188	0x3bb2bb8c	0.0054544862
189	0x3b766fd3	0.0037603274
190	0x3996e194	0.00028778298
191	0x3c10f36a	0.008847097
192	0x3b947ea0	0.0045316964
193	0x399a89d8	0.0002947587
194	0x3c280e97	0.010257385
195	0x3b9656e6	0.004587996
196	0x399ab470	0.00029507605
197	0x3c2907dd	0.010316816
198	0x3b9ca0a7	0.0047798934
199	0x3998f9ab	0.00029177716
200	0x3c203acf	0.009779646
201	0x3bae6a6c	0.005322745
202	0x39923336	0.00027885445
203	0x3bf7cd0d	0.0075622858
204	0x3b9fd3c5	0.00487754
205	0x39860aa4	0.000255664
206	0x3b9cf32d	0.004789731
207	0x3b8c8f73	0.0042895614
208	0x3978dd7c	0.00023733632
209	0x3b477a70	0.0030437969
210	0x3b3ca10d	0.0028782517
211	0x3978a902	0.00023714083
212	0x3b7fd1dc	0.0039034998
213	0x3b585bea	0.003301377
214	0x39813d3b	0.00024650418
215	0x3bcb6fc0	0.00620839
216	0x3b8cd694	0.0042980406
217	0x3985ef92	0.0002554623
218	0x3bd65b97	0.00654168
219	0x3b9af366	0.0047287224
220	0x3983811c	0.0002508246
221	0x3ba7c559	0.005119961
222	0x3b891897	0.0041838395
223	0x3982fdb9	0.0002498457
224	0x3b654d0a	0.0034988546
225	0x3b350d2f	0.0027626266
226	0x398ae84b	0.00026494483
227	0x3b9e3493	0.0048280447
228	0x3b61ceb1	0.0034455473
229	0x39948570	0.00028328178
230	0x3c076730	0.008264348
231	0x3b934574	0.0044943634
232	0x399a8358	0.00029471028
233	0x3c2730b7	0.010204486
234	0x3b9674c2	0.0045915553
235	0x399aca16	0.00029523735
236	0x3c28e257	0.01030787
237	0x3ba0a354	0.0049022827
238	0x3998c089	0.0002913515
239	0x3c1a89d8	0.009432279
240	0x3bb383ed	0.0054783733
241	0x3992b61c	0.00027982972
242	0x3be1fec8	0.0068968274
243	0x3b929958	0.0044738464
244	0x39890860	0.00026136916
245	0x3b8dc034	0.004325891
246	0x3b89d6cc	0.004206514
247	0x398344c8	0.00025037513
248	0x3b80900c	0.0039234217
249	0x3b41a4eb	0.0029547762
250	0x397ec6f2	0.0002429744
251	0x3ba37866	0.004988718
252	0x3b7413a5	0.0037243154
253	0x3981cdc1	0.00024758096
254	0x3bddbaa4	0.006766634
255	0x3b99bb57	0.004691522

exp_avg f4 [10]
0	0x3c0eb488	0.008710034
1	0x390ecd90	0.00013618753
2	0xbbacdecd	-0.0052755834
3	0x3ce0b7d3	0.027431404
4	0xbd1e3be2	-0.038631327
5	0x3ccaf208	0.024773613
6	0xbba247d0	-0.0049524084
7	0xbd023973	-0.03179307
8	0x3c7e2ade	0.01551315
9	0x3b85f4ab	0.0040880046

exp_avg_sq f4 [10]
0	0x3c293bfd	0.010329244
1	0x3c91bb0a	0.017789382
2	0x3cabb849	0.020961897
3	0x3cb55268	0.02213402
4	0x3ca36bb0	0.01994881
5	0x3cbb1d23	0.022841042
6	0x3c88c5e0	0.016695917
7	0x3c9d0785	0.019168625
8	0x3ce70a02	0.028203014
9	0x3cefff8e	0.029296663
