evaluation/Results/Seed_0_Trainable_no_FRQI_for_2x2_2x2_imgsize_14/model_checkpoints/epochs_20.pt (torch, 63969 bytes, 7 tensors)

qlayer_1.torch_qlayer.weights f8 [1, 4]
000000 20 ad 5a 72 e8 99 b2 bf 1a 05 7b 92 a0 23 ec bf
       -0.07266094962931335 -0.8793490277240921
000010 58 1a 07 68 a6 2c d1 bf 7c d9 96 22 52 01 e5 bf
       -0.26835022124251884 -0.6564112353869826

linear.weight f4 [10, 507]
000000 2e 52 58 3d e7 62 b2 3c 76 ad bf 3b ae 5f 7b 3c
       0.052812748 0.021775676 0.0058495356 0.015342636
000010 5d 14 ae 3d 33 2c 95 3c 42 58 95 3d 56 9d bb 3c
       0.08499978 0.018209552 0.072922245 0.022902172
000020 90 3c 5d 3d 8a 35 93 3d 34 ce c5 3b 77 c7 c0 3d
       0.054012835 0.07187946 0.006036544 0.09413045
000030 6b e3 ad 3c 47 e9 76 3d ae ba a9 3c a6 c8 de 3c
       0.021226605 0.060281064 0.020718899 0.027195286
000040 b5 72 ab 3d a3 15 b6 3d 5e 3b af 3d c9 b5 49 3d
       0.08371488 0.088908456 0.08556245 0.04924563
000050 f1 d6 2c 3d bf cb 8b 3d 74 f5 46 3d a8 b5 d1 3d
       0.04219717 0.06825971 0.048573926 0.10239726
000060 9d df bf 3d b9 bf f8 3d 0b 2b cf 3d c7 5e 92 3d
       0.09368823 0.12145943 0.10115632 0.071469836
000070 e5 0c 86 3d e8 81 ad 3d d3 66 bd 3d 25 79 1a 3d
       0.06545428 0.08472043 0.09248128 0.03771319
000080 d8 95 2e 3d c1 09 8c 3c a4 eb f1 3b 56 00 91 3d
       0.04262337 0.017094495 0.007382827 0.07080142
000090 5d 56 b8 3d 78 2c 0d 3d e8 77 47 3d ca a6 eb 3c
       0.090008475 0.034466237 0.048698336 0.028766055
0000a0 12 ac 4d 3d ed 96 31 3d ea 77 b9 3b 19 eb 4f 3d
       0.050212927 0.043356825 0.005660047 0.050761316
0000b0 f8 72 92 3d 66 52 4f 3d 46 9f 91 3c 8b 71 74 3d
       0.07150835 0.05061569 0.017776143 0.059678596
0000c0 5a 7e c5 3d 34 29 ba 3d af b7 a1 3d 9f 93 24 3d
       0.0964324 0.0908989 0.07896363 0.040179845
0000d0 0e f1 b8 3d 9c ca 13 3e 04 b3 b3 3c 60 3c ea 3d
       0.090303525 0.14432758 0.021935947 0.11437297
0000e0 87 8a 18 3e 7f c1 ca 3d 11 3e 33 3d 82 05 66 3d
       0.14896594 0.09900188 0.043760363 0.056157596
0000f0 fb 19 a0 bc 73 57 bd bc ac be 9c 3b e6 b4 05 3e
       -0.019543638 -0.023112988 0.004783472 0.13057289
000100 0d e3 55 3d bd 0f a7 3d 68 65 ae bd bd 13 a3 3d
       0.052218486 0.08157299 -0.085154355 0.07962749
000110 bf 20 fe 3d 69 6a 39 3e 0a 83 02 3e 05 3e e1 3d
       0.124085896 0.18106999 0.127453 0.109981574
000120 06 de 4a 3d f3 fe 81 3c 8b b8 1b 3d 03 5d c2 3d
       0.049528144 0.01586864 0.03801779 0.09490397
000130 be a1 8d 3c 95 06 9b 3d d4 1c 87 3d 7d ce 9f 3b
       0.017289039 0.07569615 0.065972954 0.0048769102
000140 e8 4a 62 3c 1a 94 7d 3d f1 72 34 3d 90 e9 8c 3d
       0.013811804 0.06190882 0.04405493 0.06880486
000150 37 23 bf 3c a0 89 9b 3d f6 d2 d1 3d 60 69 7b 3d
       0.023332221 0.07594609 0.10245316 0.06137979
000160 b0 eb 75 3d 7c 4c 53 3e c0 00 08 3e 10 5e e0 3d
       0.060039222 0.20634645 0.13281536 0.10955441
000170 5d 55 4a 3e 1c 03 e6 3d 78 72 84 3d 39 8f 72 3d
       0.19759126 0.11231062 0.06467146 0.05921862
000180 e2 bb 1a 3e fb c7 dd 3c 54 88 96 be 32 6e dc bd
       0.15110734 0.027072897 -0.29400885 -0.107632056
000190 db 10 b3 3d c1 31 1d bf 0e b0 11 be 1e b4 ec 3d
       0.08743449 -0.61404043 -0.14227316 0.11557792
0001a0 ac 30 cd be e9 d9 89 be 82 1b 4c 3e ce 9f f4 3a
       -0.40076196 -0.26924065 0.19932368 0.0018663348
0001b0 02 b7 9a 3d a6 91 cc 3d 8e a6 5d 3e 55 47 35 3e
       0.07554437 0.09988718 0.21645567 0.17702992
0001c0 c1 1f 1e 3e 1f 6a 47 3e 1b 28 9a 3d f6 ef 9e 3d
       0.154418 0.19474076 0.07527181 0.07760613
0001d0 da 00 74 3d 7c e0 ba 3d 27 9e a3 3c a6 f4 48 3d
       0.059571125 0.09124848 0.019972874 0.04906144
0001e0 e3 e0 89 3d 57 36 95 3d 38 7a 9d 3d c1 56 3f 3b
       0.06732347 0.07285755 0.07689327 0.0029195996
0001f0 f2 2e a4 3d 77 42 34 3e 31 99 84 3d 78 d2 0f 3e
       0.080167666 0.1760348 0.064745314 0.14045131
000200 e7 11 66 3e f6 0d 03 3e e6 d0 a9 3d eb c7 a0 3d
       0.22467767 0.12798294 0.08291797 0.07850631
000210 42 ac 9b bc 4f 5c 21 3d 55 62 e5 be 5e ac 1b bd
       -0.019003037 0.039394673 -0.44801584 -0.03800618
000220 0b 77 c1 bd 03 0a 37 bf 9f 03 02 be 71 5e af bd
       -0.09446534 -0.7149965 -0.12696694 -0.08562935
000230 c5 9a 55 bf ea bf 43 be 76 9a 94 bc ad 52 3f bf
       -0.83439285 -0.19116178 -0.018140059 -0.7473553
000240 f5 cb 73 be ac 47 12 3d 2a d2 ba be 11 9f aa be
       -0.23808272 0.035712883 -0.36488467 -0.33324483
000250 8d 7a b6 3d 1c 72 be 3d 00 c4 22 3e 64 90 b0 3d
       0.089100935 0.092991084 0.1589508 0.0862129
000260 80 76 80 3e ec e7 09 3e a7 7a 88 3d c5 2c cc 3d
       0.25090408 0.13467377 0.06664019 0.099694766
000270 8b c6 1d 3d bf 7d ab 3d fe 55 ba 3c 04 1c 0f 3d
       0.038519423 0.083735935 0.022746082 0.034938827
000280 23 c9 b1 3d bc b7 f3 3d c5 80 51 3d d1 ff ef 3d
       0.08680942 0.11900279 0.051148195 0.11718715
000290 0f c5 19 3e 4f b7 06 3e d8 ca ff 3c 17 55 83 3e
       0.15016578 0.13155864 0.031224653 0.25650856
0002a0 fd 75 80 3e ae 85 1c 3d fa 3c 8d be a8 66 87 be
       0.25090018 0.038213424 -0.27585584 -0.26445508
0002b0 dc 13 58 bc 19 9c 41 bf 38 1f b2 be e4 3e d6 bc
       -0.013188329 -0.7562881 -0.34789443 -0.026153035
0002c0 28 8b b5 be 14 41 54 3d e6 dc e3 3d 28 25 19 be
       -0.3545773 0.051819876 0.111261174 -0.1495558
0002d0 c4 71 18 3e a5 5b aa 3d e1 b8 0b bf a5 91 a3 be
       0.14887148 0.08318261 -0.5457898 -0.31947055
0002e0 74 8a ad 3d ef f1 50 bf 49 07 03 bf b5 09 ae 3d
       0.084736735 -0.8161916 -0.5118299 0.08497945
0002f0 f9 b3 b6 be f8 f4 15 be 98 44 b1 3d 30 a8 c8 bc
       -0.35684183 -0.1464423 0.08655661 -0.02449426
000300 72 8b a8 3d 62 1a 4c 3d ae 64 c2 3c 87 e5 0a 3d
       0.08229722 0.049829848 0.023729648 0.0339103
000310 93 86 94 3c d0 6a 7d 3d 40 26 40 bc 49 b1 28 3d
       0.018130576 0.061869442 -0.0117278695 0.041184697
000320 41 92 f9 3d 90 67 8b 3d bf 11 1b 3d 5a 8d e8 3d
       0.12186099 0.06806862 0.03785872 0.11355086
000330 61 1f 3b bd 14 21 76 3d ef e0 06 be 7f 26 cf 3d
       -0.045684222 0.06009014 -0.13171743 0.101147644
000340 20 f9 bd 3d 15 94 0f bf eb e6 41 bf 58 9d bf 3d
       0.092760324 -0.5608533 -0.7574298 0.09356183
000350 d0 30 a0 be fa 3c c6 be ad ef 19 3e cd 35 12 3f
       -0.3128724 -0.38718396 0.15032835 0.57113343
000360 2a 92 5e 3e c7 a9 6a 3e 0a c5 45 3f ea c2 a6 3e
       0.21735445 0.22916327 0.7725378 0.32570583
000370 64 f5 77 3e fc ae 37 3e dd 38 30 be eb d6 27 3e
       0.24214703 0.17937845 -0.17209192 0.16390578
000380 c3 6b 01 bf 3d b6 21 be bf 6f e7 3d 00 e9 2b bf
       -0.50555056 -0.15792175 0.11300611 -0.67152405
000390 48 c7 c1 be 87 f2 42 3d 87 87 a9 be c6 3c 4c bd
       -0.37847352 0.047594573 -0.33111212 -0.049862646
0003a0 be 90 8e 3c a9 ca 14 bd b3 56 60 3d 32 71 79 3d
       0.017403003 -0.036326084 0.054770183 0.060898967
0003b0 45 52 0a 3d b8 49 81 3d 87 d1 17 3d 1d 55 e9 3d
       0.033769865 0.06312889 0.037065055 0.11393187
0003c0 5a 85 09 3e 7a 58 10 3d d9 e2 bc bd 3f 11 e5 bd
       0.13429776 0.035240628 -0.09222955 -0.1118493
0003d0 09 45 c8 3d 7d 81 10 bf 40 9d c4 be 2a 5a 1a 3e
       0.097787924 -0.56447583 -0.38401222 0.15073457
0003e0 27 fa 06 bf 6b 5d 6a bf 58 9d a3 3e 0b 9a b7 3e
       -0.5272545 -0.91548795 0.3195598 0.35859713
0003f0 31 a9 9b bd 2f 61 e7 3e 69 5a 99 3f 89 dd a3 3e
       -0.0760063 0.45191333 1.1980716 0.32004955

linear.bias f4 [10]
000000 91 16 bb 3d eb c0 a3 bd 68 b0 4a 3d ff f7 52 bc
       0.091351636 -0.079957806 0.04948464 -0.01287651
000010 5a 56 86 bd 80 31 9d 3d 40 ea 9b 37 10 0b 3d 3c
       -0.06559439 0.07675457 1.8586521e-05 0.011538282
000020 3e c8 2c 3b ce cf 93 bb
       0.002636447 -0.0045108562

exp_avg f4 [10, 507]
000000 00 6d d8 bc 79 b4 db bb 3a 70 22 bd 00 6d d8 bc
       -0.026419163 -0.0067048636 -0.03965781 -0.026419163
000010 79 b4 db bb 3a 70 22 bd 00 6d d8 bc 79 b4 db bb
       -0.0067048636 -0.03965781 -0.026419163 -0.0067048636
000020 3a 70 22 bd 00 6d d8 bc 79 b4 db bb 3a 70 22 bd
       -0.03965781 -0.026419163 -0.0067048636 -0.03965781
000030 02 6d d8 bc 77 b4 db bb 36 70 22 bd 13 6d d8 bc
       -0.026419166 -0.0067048627 -0.039657794 -0.026419198
000040 65 b4 db bb 1e 70 22 bd ca 6c d8 bc 74 b4 db bb
       -0.0067048543 -0.039657705 -0.026419062 -0.0067048613
000050 33 70 22 bd cc 6c d8 bc bd b4 db bb 97 70 22 bd
       -0.039657783 -0.026419066 -0.0067048953 -0.039658155
000060 94 6d d8 bc bc b4 db bb 94 70 22 bd b9 6c d8 bc
       -0.026419438 -0.006704895 -0.039658144 -0.02641903
000070 bd b4 db bb 9a 70 22 bd bf 6d d8 bc b5 b4 db bb
       -0.0067048953 -0.039658166 -0.026419519 -0.0067048916
000080 8e 70 22 bd 00 6d d8 bc 79 b4 db bb 3a 70 22 bd
       -0.03965812 -0.026419163 -0.0067048636 -0.03965781
000090 00 6d d8 bc 79 b4 db bb 3a 70 22 bd 00 6d d8 bc
       -0.026419163 -0.0067048636 -0.03965781 -0.026419163
0000a0 79 b4 db bb 3a 70 22 bd f1 6c d8 bc 83 b4 db bb
       -0.0067048636 -0.03965781 -0.026419135 -0.0067048683
0000b0 48 70 22 bd 40 6c d8 bc 13 b5 db bb 09 71 22 bd
       -0.03965786 -0.026418805 -0.0067049353 -0.03965858
0000c0 80 e4 d8 bc c6 55 db bb ab ea 21 bd 9a d2 d8 bc
       -0.026476145 -0.0066935746 -0.039530437 -0.02646761
0000d0 03 83 da bb fb bb 20 bd 18 9d e0 bc 1e 1e d3 bb
       -0.00666845 -0.039241772 -0.027418658 -0.0064427992
0000e0 84 c1 17 bd 02 29 d9 bc da e4 cb bb d5 21 10 bd
       -0.037049785 -0.026508812 -0.0062223496 -0.035188515
0000f0 7a ec f3 bc d2 32 b7 bb 83 6c f3 bc fa b1 bc bc
       -0.029775847 -0.005590775 -0.029714828 -0.023034085
000100 37 c3 ab bb 06 18 d6 bc 30 57 a8 bc ce 23 c6 bb
       -0.0052417773 -0.026134502 -0.020549387 -0.0060467487
000110 5b 4d 08 bd d5 ec d2 bc 83 7d d9 bb 87 95 1f bd
       -0.033276897 -0.025747696 -0.0066372766 -0.03896096
000120 d5 00 d8 bc 24 93 db bb 8f 40 22 bd 00 6d d8 bc
       -0.026367584 -0.00670089 -0.03961235 -0.026419163
000130 79 b4 db bb 3a 70 22 bd 00 6d d8 bc 79 b4 db bb
       -0.0067048636 -0.03965781 -0.026419163 -0.0067048636
000140 3a 70 22 bd f0 6c d8 bc 80 b4 db bb 49 70 22 bd
       -0.03965781 -0.026419133 -0.006704867 -0.039657865
000150 fa 7e d8 bc 25 a7 db bb 73 5c 22 bd d8 7a db bc
       -0.026427735 -0.006703275 -0.039638948 -0.026791975
000160 04 5e da bb 19 d7 1e bd 60 43 e7 bc 9f ad c8 bb
       -0.0066640396 -0.03877935 -0.02823037 -0.006124213
000170 12 a6 05 bd 49 f5 fc bc c2 3a a8 bb e4 a2 93 bc
       -0.03262908 -0.03087868 -0.0051339576 -0.018022008
000180 2f 91 b2 bc 74 97 9d bb 66 3d 20 bc 18 f1 df bc
       -0.021797745 -0.0048093144 -0.0097802635 -0.027336642
000190 89 d4 b5 bb e6 a4 ce bb ac d6 67 bc 97 25 df bb
       -0.005549018 -0.0063062785 -0.014150303 -0.006809901
0001a0 e8 51 3f bc 86 23 80 bc 98 8b ec bb 62 ec f9 bc
       -0.011677243 -0.015641939 -0.0072187893 -0.030508224
0001b0 c5 c2 cf bc 79 f6 e0 bb 09 30 23 bd 97 ac da bc
       -0.025361428 -0.0068653193 -0.03984073 -0.026693625
0001c0 bc 11 dd bb 78 a6 23 bd d5 74 d8 bc d7 b6 db bb
       -0.006746499 -0.03995368 -0.026422897 -0.006705146
0001d0 b7 73 22 bd 00 6d d8 bc 79 b4 db bb 3a 70 22 bd
       -0.039661136 -0.026419163 -0.0067048636 -0.03965781
0001e0 fa 6c d8 bc 79 b4 db bb 3c 70 22 bd a9 f6 d8 bc
       -0.026419152 -0.0067048636 -0.039657816 -0.026484804
0001f0 16 8f db bb 26 d4 21 bd 5d 87 da bc 65 a0 dd bb
       -0.006700407 -0.03950896 -0.026675874 -0.0067635053
000200 8f 14 1f bd 83 3d f3 bc de ee e7 bb 5b a0 f6 bc
       -0.038837966 -0.029692417 -0.0070780357 -0.03010576
000210 28 bc e7 bc 29 f9 91 bb c2 7d 2c bc 67 4a 60 bc
       -0.028287962 -0.004454751 -0.01052803 -0.013689614
000220 e4 49 7e bb 55 4a e6 bb 3e 78 d2 bc 92 c4 d4 bb
       -0.0038801366 -0.007027904 -0.025692102 -0.0064931596
000230 16 3e 58 bc d5 38 89 bc ca fa e3 bb 89 23 83 bc
       -0.013198396 -0.016750732 -0.0069573866 -0.016008155
000240 db 92 34 bc f7 6e e6 bb 81 a6 05 bd 31 29 d2 bc
       -0.011021341 -0.007032271 -0.032629494 -0.025654407
000250 b5 6a e1 bb f7 83 37 bd 85 56 ed bc e4 a9 dd bb
       -0.0068791755 -0.044803586 -0.02897192 -0.0067646373
000260 8b e9 2d bd a5 44 da bc 17 23 dc bb 72 40 23 bd
       -0.042459052 -0.02664406 -0.00671805 -0.03985638
000270 00 6d d8 bc 79 b4 db bb 3a 70 22 bd 00 6d d8 bc
       -0.026419163 -0.0067048636 -0.03965781 -0.026419163
000280 79 b4 db bb 3a 70 22 bd 50 7f da bc 11 1d db bb
       -0.0067048636 -0.03965781 -0.026672035 -0.0066868146
000290 0b d7 1f bd 7e f2 d3 bc d9 28 da bb 07 30 20 bd
       -0.03902344 -0.025872465 -0.0066577015 -0.039108302
0002a0 4a 81 fa bc 04 fb c8 bb 84 0a d7 bc 41 d4 ad bc
       -0.030579228 -0.006133439 -0.026250131 -0.021219375
0002b0 1d b5 d2 bb 38 d1 3c bc f6 46 29 bc c3 bf dd bb
       -0.006430282 -0.011524491 -0.01033186 -0.0067672445
0002c0 9b 91 b5 bc 07 a9 02 bd 12 39 dd bb 16 f3 cb bc
       -0.022164157 -0.03189948 -0.006751188 -0.024896186
0002d0 41 11 9a bc 2d e4 ed bb ae 1b 49 bc 33 f0 11 bb
       -0.018807055 -0.0072598667 -0.012274666 -0.0022268414
0002e0 d7 1f ed bb c0 dc f4 bc 99 14 02 bd b3 b1 e8 bb
       -0.0072364616 -0.029890418 -0.031757925 -0.0071012615
0002f0 d9 92 37 bd 48 76 cf bc 42 7d e1 bb 9b 78 20 bd
       -0.04481778 -0.025324956 -0.006881387 -0.03917752
000300 41 0c d9 bc f2 fa db bb 39 b6 22 bd 00 6d d8 bc
       -0.0264951 -0.0067132646 -0.039724562 -0.026419163
000310 79 b4 db bb 3b 70 22 bd 35 79 d8 bc 5c ab db bb
       -0.0067048636 -0.039657813 -0.026424984 -0.0067037772
000320 d1 62 22 bd cb 9b de bc b7 2e d9 bb 58 55 1a bd
       -0.03964502 -0.027173897 -0.0066278833 -0.037679046
000330 5c 0d d9 bc 89 ed de bb 68 c9 0b bd 7a ac fa bc
       -0.026495628 -0.0068032187 -0.034127623 -0.030599821
000340 01 c1 e4 bb cd e8 56 bc 0a a5 4a bc 95 8a d5 bb
       -0.0069810157 -0.0131170275 -0.01236845 -0.0065167644
000350 ba 1c 9f bb 0d ec 4c bc 3c 1d cd bb f2 7f db bc
       -0.0048557194 -0.012507451 -0.0062595885 -0.026794408
000360 97 da fe bc 2a 04 e3 bb f5 07 ed bc a2 09 99 bc
       -0.031110091 -0.0069279866 -0.028934458 -0.018681351
000370 00 31 ec bb 61 1d 9e bc b1 bb 31 bc 93 ee eb bb
       -0.0072079897 -0.019301118 -0.010847972 -0.007200071
000380 18 87 04 bd 43 53 08 bd ad e3 e8 bb 07 a7 17 bd
       -0.032355398 -0.03328253 -0.007107219 -0.037024524
000390 6a f3 9f bc 2b b4 dc bb f8 65 08 bd 54 20 d5 bc
       -0.019525249 -0.006735345 -0.03330037 -0.026016392
0003a0 b6 a8 db bb 9f fb 20 bd 00 6d d8 bc 79 b4 db bb
       -0.0067034615 -0.039302465 -0.026419163 -0.0067048636
0003b0 3b 70 22 bd 94 32 d9 bc 9c 53 db bb 83 8f 21 bd
       -0.039657813 -0.026513375 -0.0066933166 -0.039443504
0003c0 c0 33 e3 bc e7 45 d9 bb 85 05 12 bd 00 d9 db bc
       -0.027734637 -0.0066306475 -0.035649795 -0.026836872
0003d0 d9 cd d1 bb 95 31 d8 bc f8 75 ea bc e0 ef ce bb
       -0.006402713 -0.02639083 -0.028620705 -0.0063152164
0003e0 b3 dc 10 bc fc 2c 85 bb 6b e6 cc bb 43 3b 6d bc
       -0.008841681 -0.0040642004 -0.006253054 -0.014479461
0003f0 dd 0c aa bc f7 27 d3 bb f1 80 1c bd 04 ec fe bc
       -0.020758087 -0.006443973 -0.038208906 -0.0311184

exp_avg_sq f4 [10, 507]
000000 db 29 a3 3b 41 25 a8 39 10 d4 37 3c 87 2a a3 3b
       0.004979355 0.00032071213 0.011219993 0.004979435
000010 c1 24 a8 39 0c d3 37 3c b6 73 a3 3b 10 f0 a7 39
       0.0003207084 0.011219751 0.004988159 0.00032031583
000020 5d 69 37 3c 7c a9 a2 3b d4 ea a7 39 8f 5e 37 3c
       0.011194554 0.004964052 0.00032027683 0.011191978
000030 05 97 a3 3b 14 cc a7 39 00 1c 37 3c e6 86 a3 3b
       0.004992368 0.00032004772 0.011176109 0.0049904464
000040 89 26 a7 39 cf d8 35 3c 56 3a a2 3b a8 ec a6 39
       0.00031881433 0.0110990545 0.004950802 0.0003183831
000050 9c 60 35 3c 53 62 a3 3b c8 46 a6 39 8c 7f 34 3c
       0.011070397 0.0049860864 0.00031714723 0.011016738
000060 bb eb a0 3b a1 63 a6 39 cf c1 34 3c 9f 26 a2 3b
       0.0049109138 0.00031736217 0.011032536 0.0049484516
000070 08 7a a7 39 31 95 36 3c 47 d5 a2 3b 1f d4 a7 39
       0.00031943643 0.011143968 0.0049692723 0.00032010765
000080 14 4b 37 3c 3c e9 a2 3b e3 0b a8 39 45 9f 37 3c
       0.011187334 0.0049716514 0.00032052313 0.011207406
000090 fb 24 a3 3b b7 23 a8 39 cd d0 37 3c 87 2a a3 3b
       0.0049787736 0.00032070067 0.011219216 0.004979435
0000a0 c4 24 a8 39 15 d3 37 3c ed 45 a3 3b 43 14 a8 39
       0.0003207085 0.0112197595 0.004982701 0.00032058553
0000b0 ae a3 37 3c 6b fb a4 3b c1 f9 a6 39 8c 31 35 3c
       0.011208458 0.005034854 0.00031848068 0.011059176
0000c0 13 f3 a3 3b cf 29 a4 39 cd 55 30 3c a6 ff a8 3b
       0.005003342 0.00031311667 0.010762644 0.005157429
0000d0 ed f1 9d 39 35 05 26 3c 49 95 a5 3b a5 a0 95 39
       0.00030125622 0.010133077 0.0050531966 0.00028539184
0000e0 47 43 16 3c 83 14 a9 3b 7a b1 87 39 be e2 01 3c
       0.009171314 0.005159916 0.00025881437 0.007927595
0000f0 2f 37 94 3b 4b 16 80 39 26 2c ed 3b 23 da 89 3b
       0.00452318 0.00024430672 0.007237929 0.004206912
000100 17 97 8a 39 43 5c 05 3c 55 21 90 3b 22 36 97 39
       0.00026433982 0.008139673 0.0043985047 0.00028841296
000110 a7 8d 1b 3c ea 55 98 3b 28 7f a1 39 f6 33 2c 3c
       0.009494222 0.0046489136 0.00030803052 0.010510435
000120 22 0d a0 3b dd 27 a7 39 12 60 35 3c 3c f2 a2 3b
       0.004884378 0.00031882423 0.011070268 0.0049727242
000130 f9 13 a8 39 64 ae 37 3c 87 2a a3 3b c4 24 a8 39
       0.00032058338 0.011211012 0.004979435 0.0003207085
000140 15 d3 37 3c 15 d4 a3 3b 41 ea a7 39 f7 cb 36 3c
       0.0112197595 0.0049996474 0.00032027255 0.011157027
000150 e8 ac a7 3b ef bc a6 39 ec a0 31 3c 9d 26 af 3b
       0.0051170476 0.00031802754 0.010841589 0.0053451792
000160 72 16 a0 39 0e 66 1e 3c 11 e5 ab 3b 58 fc 93 39
       0.000305343 0.009667886 0.0052458127 0.00028226036
000170 c8 db 04 3c 65 06 aa 3b 39 a1 86 39 36 3f c3 3b
       0.008109041 0.0051887506 0.00025678592 0.005958463
000180 91 3f a9 3b 50 75 75 39 25 38 8b 3b a8 30 89 3b
       0.0051650484 0.00023408723 0.0042486363 0.0041867085
000190 28 d3 66 39 6c bb 5f 3b b8 6c 60 3b 80 73 6a 39
       0.00022013171 0.0034138812 0.003424449 0.00022359006
0001a0 ae 42 7f 3b 00 80 51 3b 29 33 84 39 63 bf c2 3b
       0.0038949656 0.0031967163 0.0002521512 0.005943225
0001b0 43 81 81 3b d7 c4 96 39 b5 4a 0c 3c a1 04 93 3b
       0.003952177 0.00028756887 0.008562733 0.004486636
0001c0 c5 1d a2 39 f9 32 2a 3c b9 48 a1 3b 45 aa a7 39
       0.00030921228 0.010388129 0.0049219993 0.00031979583
0001d0 bd 88 36 3c 47 2a a3 3b f3 24 a8 39 6c d3 37 3c
       0.011140999 0.004979405 0.00032070986 0.0112198405
0001e0 6b 32 a4 3b 98 ec a7 39 02 36 36 3c b1 e0 ab 3b
       0.005010893 0.00032028998 0.011121275 0.005245291
0001f0 0b 8e a5 39 a8 40 2b 3c c9 51 b6 3b 7d 8f 9c 39
       0.00031577083 0.010452427 0.005563949 0.00029861546
000200 59 2c 0a 3c 8e 37 ac 3b ad b5 8c 39 53 1c c7 3b
       0.008433425 0.005255646 0.0002683824 0.0060763746
000210 a2 e8 9e 3b 20 41 73 39 5f 65 86 3b 5b a1 8e 3b
       0.0048495093 0.00023198547 0.00410144 0.004352731
000220 f1 e3 51 39 9b 18 3b 3b 4d c1 84 3b b9 28 53 39
       0.00020016708 0.0028548602 0.0040513636 0.00020137698
000230 a7 59 22 3b 6e 65 71 3b 58 3b 68 39 05 79 4b 3b
       0.0024772675 0.0036834138 0.00022147351 0.0031047475
000240 4b e7 56 3b 3e 90 7e 39 48 65 82 3b 45 cc 5e 3b
       0.003279167 0.00024277062 0.003979359 0.0033996266
000250 75 49 92 39 e1 f0 d5 3b 25 1a 82 3b ab f6 9f 39
       0.0002790202 0.006528959 0.003970402 0.00030510625
000260 6b 06 19 3c f0 25 9e 3b 1d 7f a6 39 3f 07 34 3c
       0.009339909 0.0048263 0.00031756694 0.010988056
000270 fb 2b a3 3b 7f 24 a8 39 de d0 37 3c c6 09 a5 3b
       0.004979608 0.0003207065 0.011219231 0.0050365655
000280 8a 30 a7 39 d0 eb 34 3c c0 9c b2 3b c2 ed a2 39
       0.00031888887 0.01104255 0.005450815 0.0003107619
000290 1c 08 1f 3c 45 65 b6 3b 7a 05 99 39 fe f3 e3 3b
       0.009706523 0.0055662715 0.00029186514 0.0069565764
0002a0 71 bc a9 3b 77 0b 88 39 c5 5f 91 3b 31 16 8a 3b
       0.0051799347 0.00025948483 0.0044364654 0.004214071
0002b0 e5 73 71 39 66 dc 4a 3b 94 06 6e 3b 1b a5 71 39
       0.00023026725 0.0030954122 0.003631984 0.00023045058
0002c0 34 81 83 3b f7 2a 8a 3b 09 4b 80 39 7d a1 9e 3b
       0.004013205 0.0042165476 0.00024469968 0.0048410282
0002d0 e0 22 8f 3b 13 d8 87 39 69 40 9f 3b a8 c7 95 3b
       0.004368171 0.00025910194 0.004859973 0.00457092
0002e0 64 9c 8f 39 0e d8 8f 3b 8c c9 5f 3b 00 cf 97 39
       0.00027391606 0.0043897694 0.003414723 0.0002895519
0002f0 62 b7 c3 3b 5b ca 7c 3b b0 a2 a0 39 08 aa 14 3c
       0.0059727887 0.0038572762 0.0003063879 0.009073742
000300 88 68 9d 3b 02 fb a5 39 15 70 33 3c b9 3d a3 3b
       0.004803721 0.00031658268 0.010952015 0.004981723
000310 31 19 a8 39 0e b5 37 3c 7f b5 a7 3b 32 9e a6 39
       0.00032062226 0.0112126 0.0051180716 0.00031779852
000320 38 39 31 3c 15 be ba 3b cb db 9f 39 b1 98 0e 3c
       0.010816865 0.005698929 0.00030490602 0.008703397
000330 6b f0 af 3b 50 dc 92 39 b7 6f b7 3b 52 f3 a3 3b
       0.005369236 0.00028011436 0.0055980342 0.0050033713
000340 f4 47 87 39 f1 69 55 3b f4 29 4f 3b ad 77 83 39
       0.00025802816 0.0032564367 0.00316107 0.00025075432
000350 1d 47 7b 3b cc 88 6e 3b e7 c8 87 39 da 21 c3 3b
       0.0038341947 0.0036397455 0.0002589889 0.005954963
000360 17 95 9f 3b f5 bd 8d 39 ae cb d8 3b 01 ec a3 3b
       0.004870068 0.00027035145 0.0066160774 0.005002499
000370 de 0a 8d 39 a7 e9 a8 3b 53 aa 80 3b 93 63 8c 39
       0.00026901712 0.0051548067 0.003926554 0.0002677707
000380 8f 93 84 3b b1 37 50 3b eb be 95 39 17 0b c4 3b
       0.0040459107 0.0031771476 0.0002856174 0.0059827673
000390 3f e0 80 3b 4d 6c a1 39 fd d8 17 3c 63 9c 9e 3b
       0.003932982 0.00030789003 0.009268043 0.00484042
0003a0 75 9c a7 39 15 6f 34 3c 90 6b a3 3b 82 0d a8 39
       0.00031969292 0.011012812 0.0049871877 0.0003205352
0003b0 28 71 37 3c a2 23 ac 3b 83 0e a5 39 11 b1 2a 3c
       0.011196412 0.005253271 0.00031482065 0.0104181925
0003c0 79 c1 bd 3b 12 a6 9f 39 85 a1 03 3c 04 f4 aa 3b
       0.005790886 0.00030450575 0.008034115 0.005217077
0003d0 43 11 92 39 44 01 9a 3b 1c 58 94 3b 02 75 89 39
       0.0002786015 0.004699858 0.004527105 0.00026217854
0003e0 24 29 67 3b f5 52 44 3b cc 28 8a 39 52 3d a9 3b
       0.0035272324 0.0029956673 0.00026351807 0.0051647807
0003f0 bf c1 8a 3b 54 0f 90 39 b1 49 fe 3b 7f 34 ad 3b
       0.004234522 0.0002747724 0.0077602495 0.005285799

exp_avg f4 [10]
000000 3a 70 22 bd 43 98 94 3c bd 76 b5 3c 3b 8a b1 3c
       -0.03965781 0.01813901 0.022151345 0.021672359
000010 7b 57 64 3d dc 4a 02 3b ca 9d 90 3c 75 60 f9 bc
       0.05574749 0.0019881045 0.017653365 -0.030441502
000020 ad 40 1a bd 0e 6d f2 bc
       -0.037659336 -0.029593017

exp_avg_sq f4 [10]
000000 10 d4 37 3c 86 87 89 3c c7 97 b2 3c 37 8d d8 3c
       0.011219993 0.016788255 0.021800889 0.026434524
000010 c1 a0 c3 3c a1 5a e8 3c 65 5a 94 3c e2 3f b1 3c
       0.023880364 0.028363528 0.01810951 0.021636907
000020 08 08 f1 3c af e0 08 3d
       0.029422775 0.0334174
