evaluation/Results/Seed_0_Trainable_no_FRQI_for_2x2_2x2_imgsize_14/model_checkpoints/epochs_2.pt (torch, 63958 bytes, 7 tensors)

qlayer_1.torch_qlayer.weights f8 [1, 4]
000000 20 ad 5a 72 e8 99 b2 bf 1a 05 7b 92 a0 23 ec bf
       -0.07266094962931335 -0.8793490277240921
000010 58 1a 07 68 a6 2c d1 bf 7c d9 96 22 52 01 e5 bf
       -0.26835022124251884 -0.6564112353869826

linear.weight f4 [10, 507]
000000 9d 50 a6 3b 36 ad d4 bc 55 92 2b bd b6 77 04 bd
       0.005075528 -0.0259615 -0.0418876 -0.032340728
000010 7d 77 18 3d 82 88 f2 bc 9d c8 e4 3c 85 ec dc bc
       0.037223328 -0.029606108 0.027927691 -0.02696825
000020 a0 9d 13 3b 9c 9a 98 3c f0 88 34 bd 7a ba 2b 3d
       0.0022524372 0.018628411 -0.044075906 0.041925885
000030 0c 9a f1 bc 6c 61 61 3c f4 c8 c9 bc c6 98 b6 bc
       -0.0294924 0.013756137 -0.024631955 -0.022289645
000040 e2 c5 22 3d 2a de 48 3d ef 51 44 3d 58 a7 95 b9
       0.039739497 0.049039997 0.0479297 -0.00028544175
000050 10 2a 01 bc 7c d3 15 3d 54 b2 fc bc 69 e3 00 3c
       -0.007883564 0.03657864 -0.030846752 0.007866719
000060 3a d8 26 bc 9f d4 21 3d 6b d4 8c 3b 53 f8 49 3c
       -0.010183388 0.039509412 0.004297783 0.0123272715
000070 12 c2 c0 3b 0d b3 9b 3c ab 94 0c 3d 18 ef 88 bc
       0.00588251 0.019006277 0.03432147 -0.016715571
000080 70 f3 84 bc ae 29 0f bd 6d a4 2b bd fb 49 a4 3c
       -0.016229361 -0.03495186 -0.041904856 0.020054808
000090 4e 0a 2c 3d 0f be 5a bc 80 1b 52 3a 9d 63 9b bc
       0.042002015 -0.013350978 0.0008014962 -0.018968398
0000a0 a4 1f 22 3b 57 a9 8f bb 09 b5 26 bd 98 a3 0f 3b
       0.0024738098 -0.0043842006 -0.040699992 0.0021917578
0000b0 63 db b1 3c 38 01 45 3c 1a 0f 18 bd 5a 0b 25 bc
       0.021711057 0.012024216 -0.037123777 -0.010073507
0000c0 f1 5b 19 3d f6 90 2b 3c 22 14 cf bc c6 37 cd bc
       0.037441198 0.010471573 -0.025278155 -0.025051009
0000d0 54 e5 da ba ee 8d 15 3d c3 1b 54 bd 8d f8 36 3d
       -0.0016700425 0.036512308 -0.05178429 0.04467063
0000e0 ab 28 c3 3d 31 67 02 3d e4 ad bd 3c c7 bc ae 3d
       0.09529241 0.031836692 0.023154207 0.085321
0000f0 57 d1 87 3d 71 be 18 bd 50 20 28 bd 6b ee e8 3c
       0.06631725 -0.037290994 -0.04104644 0.028433999
000100 f6 13 fe bc 8c 8f 46 bd 3a 4c 9a bd e6 cf 38 bd
       -0.031015377 -0.04847674 -0.0753407 -0.045120142
000110 74 5f ef bc 36 6b a0 3c e8 ad 1e 3d 0d f9 be bc
       -0.02922032 0.019582372 0.03874007 -0.023312116
000120 f3 cd 5c bc a4 6a 07 bd f1 af a5 bc 5e 24 37 3d
       -0.0134768365 -0.033060685 -0.020225497 0.044712417
000130 24 bc ff bc ae 7c d9 3c d7 6b 95 3c b4 90 2f bd
       -0.031217642 0.02654871 0.018239899 -0.04286261
000140 a9 fb 0a bd 5d c0 80 3c 7f 9b 20 bb 6b e0 99 3c
       -0.033931408 0.015716726 -0.0024506745 0.018783769
000150 23 98 77 bb 3b 4a d3 3c c0 eb 3a 3c 52 c9 7e 3b
       -0.003777989 0.025792232 0.011408746 0.003887732
000160 ac f8 23 bc f9 e6 95 3c a5 d0 f1 bb 59 97 1b 3d
       -0.010008018 0.018298613 -0.0073796087 0.037986133
000170 de 86 b1 3c 34 90 44 3d 5e 0c 06 bc 78 c1 52 3d
       0.021670755 0.047989085 -0.0081816595 0.051454037
000180 c8 67 0f 3d 15 40 7d bd 0c be 3b 3c 0c 30 14 3d
       0.035011083 -0.06182869 0.011458885 0.036178634
000190 68 fc 8f bb 18 02 53 be 7b dd af bb f2 17 3a bd
       -0.004394103 -0.20606267 -0.0053669787 -0.045432992
0001a0 00 71 85 be 9c 4b e3 bd 9e e7 1f 3d 63 e9 18 be
       -0.26062775 -0.11098406 0.039039247 -0.1493278
0001b0 50 ea 23 bd 7b 02 cb bc f1 e5 07 bd de b6 e3 3c
       -0.04001838 -0.024781456 -0.033178274 0.027797159
0001c0 71 b5 48 3d 96 f5 49 3d 74 c3 99 bb a1 db a7 3c
       0.04900116 0.049306475 -0.0046924893 0.02049047
0001d0 72 d3 fe bb ed 58 32 3d 45 a0 e3 bc 8c a9 a7 3a
       -0.007776671 0.043541837 -0.027786383 0.0012791618
0001e0 f2 f5 a4 3c d9 f3 99 3c a8 ea c4 3c d7 9d d1 bb
       0.020136807 0.018793033 0.024037674 -0.00639699
0001f0 b9 0b 65 3b 78 bf 3b 3d e0 06 b3 bc 79 18 7c 3d
       0.0034949614 0.045836896 -0.021853864 0.061546776
000200 a2 12 b2 3b 36 d6 2f bd 82 1f 3c 3b aa 5b 0a 3d
       0.00543435 -0.042928897 0.0028705304 0.033778824
000210 fa 7d 11 3d af 70 4b 3c db 9c 21 be aa cf 45 bd
       0.03552053 0.012417003 -0.15782492 -0.048293747
000220 91 e1 c1 3c 53 3c 43 be 0b c9 29 bd d6 24 86 bd
       0.023667129 -0.1906598 -0.041451495 -0.06549995
000230 e1 95 54 be b0 d2 b4 bb 6c 5c c0 bd 48 ae 77 be
       -0.207603 -0.00551828 -0.09392628 -0.24187577
000240 56 e0 b9 bc 80 77 0b bd fd fa 46 be b9 cf f6 bd
       -0.02268998 -0.03404951 -0.19431682 -0.12051339
000250 94 e6 ae bc 3b 4d a5 bd 9e b1 dc 3a 99 93 da bb
       -0.021350183 -0.08071371 0.0016837602 -0.006670427
000260 0b 57 da 3c 3b 42 1f bc 9a 24 b1 ba 39 81 07 bb
       0.026652833 -0.00972038 -0.0013514936 -0.0020676388
000270 23 e1 11 bc 33 46 12 3d 2e 10 d1 bc 31 a3 3a bb
       -0.008903774 0.03571148 -0.02552041 -0.0028478617
000280 0f 8e be 3c 56 f2 43 3d 43 0e 05 3d 69 85 2c 3d
       0.023261098 0.04783853 0.032484304 0.042119417
000290 a0 f7 77 bc 23 b6 45 3d c4 e0 10 bd c5 7c 9c 3b
       -0.015134722 0.048269402 -0.035370603 0.004775616
0002a0 32 c5 c2 3c c0 00 0e bd 29 c1 25 be dc 14 c2 bc
       0.02377567 -0.034668684 -0.16186966 -0.023691587
0002b0 11 4b 1f bd 50 40 66 be 38 e6 4a bd dd b5 79 bd
       -0.03888995 -0.22485471 -0.04953596 -0.060964454
0002c0 3c fc 31 be 70 ba c4 bc 9f 24 b9 3b bf 79 05 bd
       -0.17381376 -0.024014682 0.0056501175 -0.03258681
0002d0 97 63 29 3d f7 14 2b bd 96 8c f6 bc 68 63 e2 3c
       0.041354742 -0.04176804 -0.030096333 0.027635291
0002e0 9a 08 27 bd a9 f7 8d be 25 b2 7c be 12 58 01 bd
       -0.040779687 -0.27728012 -0.24677332 -0.03157813
0002f0 0a d2 71 be 96 1e 00 be b7 95 66 bc 66 d6 8f bd
       -0.2361528 -0.12511668 -0.014073781 -0.07023315
000300 06 3a 17 3c 22 81 5d bc 0e c7 1a bd 4c f8 4b bc
       0.009230142 -0.013519557 -0.03778749 -0.012449335
000310 93 5e f8 bc 00 a4 43 3c 7a 1e 42 bd 70 00 58 bc
       -0.030318534 0.011940956 -0.047392346 -0.013183698
000320 31 fe 40 3d ae 12 b5 3c 45 f1 0d bd 7d 57 b3 3b
       0.047117416 0.022103634 -0.03465392 0.005473076
000330 a4 49 40 bd 9c 71 3a bd b4 1c 92 be 06 0f ae bd
       -0.04694523 -0.045518503 -0.28537524 -0.08498959
000340 05 32 83 bc 78 11 9b be 82 7e 14 be 96 55 b9 3a
       -0.016015062 -0.30286765 -0.14501384 0.0014139886
000350 dc c8 b8 bd ae 1d 65 bd 3b 1a 0b 3c 4d d3 69 3d
       -0.09022686 -0.055936508 0.008490141 0.057086278
000360 49 45 ca bb bc 69 7f 3c 7d 78 18 3e a2 d4 80 bb
       -0.00617281 0.015589174 0.14889713 -0.003931598
000370 a2 ed 6a 3c 89 38 1b 3e 49 f3 ac 3d 91 e6 c8 bc
       0.014338883 0.15158285 0.084448405 -0.024524005
000380 e8 e3 1f be c3 38 5a be 68 c8 c6 bc 12 4c bb be
       -0.15614283 -0.21310715 -0.024265483 -0.36581475
000390 98 15 fa bd 94 fa fc bc bd 23 10 be 55 5b e3 bc
       -0.1221115 -0.030881204 -0.14076133 -0.027753511
0003a0 9b 95 e2 bc 29 fb 3b bd 8c 34 26 3c 82 ce 3e 3c
       -0.027659228 -0.045893822 0.010144364 0.011645915
0003b0 26 23 99 bc ad 56 d7 3b 00 bd f8 bc ff c7 7b 3d
       -0.018693518 0.006571612 -0.03036356 0.061470028
0003c0 24 16 6c 3d 5b 84 33 bd 66 72 b0 bd 83 34 57 bd
       0.057638302 -0.043827396 -0.0861557 -0.052540313
0003d0 72 58 03 bc 5d 2c d1 be 6c 65 86 be 0d ad cc bc
       -0.0080166925 -0.4085416 -0.26249254 -0.02498486
0003e0 e2 ca 1c be b8 cb f9 bd 01 9b 01 3d 0c 71 1e 3e
       -0.15311769 -0.121970594 0.031641964 0.15472811
0003f0 d9 11 bb 3c 89 15 44 3d d7 ec 6e 3e 29 6f e3 3c
       0.022835659 0.0478721 0.23332535 0.027762966

linear.bias f4 [10]
000000 23 a5 32 3d 72 77 08 bd e6 99 16 3d 12 6a 6a bb
       0.043614518 -0.033317037 0.036767863 -0.003576879
000010 c3 ca b7 bc 2b 22 d9 3c 96 72 aa 3a 19 56 a4 3c
       -0.022435552 0.02650555 0.001300412 0.020060586
000020 89 6c c3 bc 90 ba d1 3a
       -0.023855465 0.0016001035

exp_avg f4 [10, 507]
000000 5b 1d 26 bd b0 a1 28 bc d3 5a 79 bd 5b 1d 26 bd
       -0.04055534 -0.010292456 -0.060877632 -0.04055534
000010 b0 a1 28 bc d3 5a 79 bd 5b 1d 26 bd b0 a1 28 bc
       -0.010292456 -0.060877632 -0.04055534 -0.010292456
000020 d3 5a 79 bd 45 1d 26 bd c0 a1 28 bc 02 5b 79 bd
       -0.060877632 -0.040555257 -0.01029247 -0.060877807
000030 5f 1b 26 bd 47 a3 28 bc 17 5f 79 bd eb 3b 22 bd
       -0.040553447 -0.010292835 -0.0608817 -0.039607923
000040 9a e0 2d bc 7a 63 82 bd d3 49 32 bd 3c 4f 2e bc
       -0.010612631 -0.0636663 -0.043527436 -0.010639008
000050 4e fa 82 bd e5 49 24 bd 54 1d 2b bc fd 18 80 bd
       -0.06395398 -0.040109534 -0.010444004 -0.06254766
000060 95 fa 2a bd c8 f6 2a bc c5 d7 7f bd 8b 07 27 bd
       -0.04174288 -0.010434814 -0.062461633 -0.040778678
000070 f5 f0 28 bc 43 42 7a bd 6f 2f 26 bd 58 a7 28 bc
       -0.010311355 -0.06109835 -0.04057258 -0.010293804
000080 b9 6a 79 bd 5b 1d 26 bd b0 a1 28 bc d3 5a 79 bd
       -0.060892794 -0.04055534 -0.010292456 -0.060877632
000090 5b 1d 26 bd b0 a1 28 bc d3 5a 79 bd 41 1e 26 bd
       -0.04055534 -0.010292456 -0.060877632 -0.040556196
0000a0 00 a1 28 bc d3 58 79 bd 9f 1a 26 bd 7b a1 28 bc
       -0.010292292 -0.060875725 -0.04055273 -0.010292406
0000b0 41 5a 79 bd 0a 85 25 bd ca 2c 29 bc 15 bf 7a bd
       -0.06087709 -0.04041008 -0.01032562 -0.061217386
0000c0 ae 0d 26 bd 22 c5 29 bc 58 3c 7c bd 83 27 31 bd
       -0.04054039 -0.0103619415 -0.061580986 -0.043250572
0000d0 ee 4f 22 bc 12 c9 67 bd 14 e5 1b bd 10 c8 1a bc
       -0.009906752 -0.05658824 -0.038060263 -0.009447113
0000e0 ad 2a 66 bd fb ad 29 bd 33 6a 25 bc c9 e8 80 bd
       -0.056193043 -0.041425686 -0.010096121 -0.062944
0000f0 ea 9a 22 bd 65 33 2d bc 59 b9 86 bd 27 10 37 bd
       -0.03969852 -0.010571335 -0.06578321 -0.04469314
000100 a9 bd 26 bc 50 fa 80 bd 48 ac 22 bd 1a 12 26 bc
       -0.010177054 -0.06297743 -0.03971508 -0.010136152
000110 e7 03 77 bd c4 9e 26 bd d7 e2 28 bc 47 1d 7a bd
       -0.060306456 -0.040678754 -0.010307989 -0.061063077
000120 26 56 26 bd 6f b4 28 bc 1f 8d 79 bd fb 1d 26 bd
       -0.0406095 -0.010296925 -0.0609256 -0.040555935
000130 e1 a1 28 bc 61 5b 79 bd 41 1e 26 bd 00 a1 28 bc
       -0.010292501 -0.06087816 -0.040556196 -0.010292292
000140 d3 58 79 bd 52 e4 25 bd 27 c7 28 bc 7b d2 79 bd
       -0.060875725 -0.040500946 -0.010301388 -0.060991745
000150 26 f6 23 bd 76 29 29 bc 80 8b 7e bd ab 8e 2d bd
       -0.040029667 -0.010324826 -0.062144756 -0.042372387
000160 59 60 26 bc c8 13 74 bd 5c a9 47 bd 4f 33 0e bc
       -0.010154807 -0.059589177 -0.048745498 -0.008679225
000170 9b a5 0b bd 4c 14 1b bd 8b 45 fb bb 23 ac 6a bc
       -0.03409348 -0.037861153 -0.0076682023 -0.014323267
000180 b2 08 3d bd df 31 c9 bb d5 4b e0 bb d3 ab 8c bc
       -0.04615087 -0.0061399783 -0.0068449774 -0.017171776
000190 25 0c e6 bb 0a 3c 7a bc 37 24 1d bd 76 c3 19 bc
       -0.0070204907 -0.0152731035 -0.038364615 -0.00938498
0001a0 c2 09 02 bd ae a0 cc bc 1e 77 1c bc 92 76 35 bd
       -0.031747587 -0.024978962 -0.009549884 -0.04430253
0001b0 c2 5f 20 bd e0 94 26 bc 45 8a 74 bd 25 57 26 bd
       -0.03915382 -0.0101673305 -0.059702177 -0.04061045
0001c0 81 a8 28 bc 2a 94 79 bd 4a 21 26 bd a0 a2 28 bc
       -0.010294081 -0.060932316 -0.04055909 -0.010292679
0001d0 83 5e 79 bd ef 1c 26 bd 06 a2 28 bc c5 5b 79 bd
       -0.06088115 -0.040554937 -0.010292536 -0.060878534
0001e0 09 e4 25 bd ec cd 28 bc 43 db 79 bd 1c 73 24 bd
       -0.040500674 -0.010303002 -0.06100012 -0.04014884
0001f0 bb d0 29 bc a3 78 7d bd d2 48 3c bd 03 5a 27 bc
       -0.010364707 -0.061882626 -0.045967884 -0.010214332
000200 4a f5 4c bd 73 af 4b bd 58 ff 29 bc 04 4f 2c bc
       -0.050038613 -0.04972787 -0.01037582 -0.010516886
000210 38 bd ec bc ba ad 0f bc 0c 56 63 3c fb cc 00 bd
       -0.02889882 -0.008769447 0.013875496 -0.031445485
000220 6e 42 8d bb af a6 34 3c cb 47 b4 bc 0d a0 bc bb
       -0.0043108976 0.011026069 -0.02200689 -0.005756384
000230 71 14 97 3a 16 51 1a bd fa c9 07 bc 45 49 52 bb
       0.0011526478 -0.037674986 -0.008287901 -0.003208713
000240 7c 4a 31 bc bb 84 09 bc 50 c7 b6 bc c5 cd 07 bd
       -0.010820981 -0.008393462 -0.022311836 -0.03315522
000250 d0 2f 24 bc 91 73 58 bd 11 b7 21 bd 22 67 27 bc
       -0.010021165 -0.052844588 -0.039481226 -0.01021746
000260 c6 c2 75 bd 74 32 26 bd 2c a6 28 bc 1b 6d 79 bd
       -0.060000204 -0.04057546 -0.010293525 -0.060895067
000270 bd 1b 26 bd f9 a1 28 bc c5 5e 79 bd 21 19 26 bd
       -0.040553797 -0.010292524 -0.060881395 -0.04055131
000280 8e a3 28 bc 20 6c 79 bd 5c 1e 26 bd 04 9e 28 bc
       -0.010292901 -0.06089413 -0.040556297 -0.01029158
000290 d9 7e 79 bd 24 dd 48 bd b3 6b 1e bc fb 77 04 bd
       -0.060911987 -0.04903902 -0.009669232 -0.032340985
0002a0 59 9f 3b bd ff e9 14 bc 69 74 90 3c 00 4a 92 39
       -0.045806263 -0.009088992 0.017633634 0.00027902424
0002b0 89 49 15 bc 3a b1 37 3c 56 11 94 bc 0c fd 1c bc
       -0.00911177 0.011211688 -0.018074673 -0.009581815
0002c0 72 f5 0f bd 1a dc 35 bd eb c4 1a bc 91 05 3a bd
       -0.035146184 -0.04439936 -0.009446363 -0.045415465
0002d0 65 d4 41 bd 83 52 1b bc 39 96 ad bc 3e ce c6 bc
       -0.047321696 -0.009480122 -0.021189796 -0.024268266
0002e0 7e 33 1f bc 29 c3 7d bc 3f 87 b0 bc e9 c4 20 bc
       -0.009716867 -0.015488424 -0.021548865 -0.009812572
0002f0 47 44 29 bd 7a 22 1f bd c8 55 28 bc 5e 60 6f bd
       -0.04132488 -0.03885124 -0.010274358 -0.058441512
000300 80 03 24 bd 33 0a 28 bc 1c 81 77 bd fe 1b 26 bd
       -0.0400424 -0.010256338 -0.060425863 -0.04055404
000310 a4 a2 28 bc 33 5e 79 bd df 1d 26 bd f2 a3 28 bc
       -0.010292683 -0.06088085 -0.04055583 -0.010292994
000320 38 61 79 bd 8c 63 29 bd 97 7e 26 bc 10 6d 71 bd
       -0.06088373 -0.0413547 -0.010162017 -0.0589419
000330 a0 8b 4a bd f8 7b 27 bc e5 da a7 bc 42 10 03 bd
       -0.049449563 -0.010222428 -0.02049012 -0.031997927
000340 94 02 15 bc be 88 c1 3c 81 fa c9 3b 8f 15 10 bc
       -0.009094853 0.023624774 0.0061638956 -0.0087942025
000350 84 58 17 bc 6a 3a 09 bd 2c b5 24 bc a6 e9 62 bd
       -0.009237412 -0.033502974 -0.01005296 -0.055398606
000360 00 a1 2a bd d4 0e 29 bc a6 e3 76 bd a6 3c 3f bd
       -0.041657448 -0.010318477 -0.060275696 -0.0466887
000370 a0 d8 21 bc ff ab 37 bd fb 52 3c bd e1 cb 08 bc
       -0.009878308 -0.044841763 -0.045977574 -0.00834939
000380 8e 7d 08 bc ac 79 d0 3a 0f a2 0c bc e4 e6 a9 bc
       -0.008330716 0.0015905402 -0.00858356 -0.02073998
000390 61 de 1c bd f2 3c 25 bc 15 7d 68 bd 09 7f 20 bd
       -0.038298015 -0.010085331 -0.056759913 -0.03918365
0003a0 27 9b 28 bc c0 6f 74 bd 0e 1d 26 bd b8 a1 28 bc
       -0.010290897 -0.059676886 -0.040555052 -0.010292463
0003b0 84 5b 79 bd 3b dc 26 bd b1 28 28 bc 94 ae 77 bd
       -0.06087829 -0.040737372 -0.010263608 -0.060469225
0003c0 37 cc 2e bd b1 da 26 bc e2 76 62 bd af 11 4e bd
       -0.042675223 -0.010183976 -0.055289157 -0.050309833
0003d0 7c 01 27 bc 66 a1 a3 bc 3c 31 4f bc da 0c 1b bc
       -0.010193225 -0.019974422 -0.012646016 -0.009463513
0003e0 0e eb cb bb fa 07 9a bc 8d 72 1d bc ee fc 30 bd
       -0.006223089 -0.018802632 -0.009609831 -0.043209963
0003f0 d9 a4 17 bd 58 a4 33 bc 40 cf 8e bd b3 f6 2d bd
       -0.037022445 -0.010964476 -0.069731236 -0.0424716

exp_avg_sq f4 [10, 507]
000000 81 5a 16 3b c1 f1 1a 39 64 65 a9 3b 81 5a 16 3b
       0.0022942128 0.00014776645 0.0051695574 0.0022942128
000010 c1 f1 1a 39 64 65 a9 3b 81 5a 16 3b c1 f1 1a 39
       0.00014776645 0.0051695574 0.0022942128 0.00014776645
000020 64 65 a9 3b b6 5a 16 3b 99 f1 1a 39 10 65 a9 3b
       0.0051695574 0.0022942252 0.00014776587 0.0051695183
000030 21 60 16 3b 3a ed 1a 39 33 5d a9 3b 28 b1 17 3b
       0.002294548 0.00014774958 0.005168581 0.0023146365
000040 72 80 19 39 41 15 a7 3b 43 53 14 3b 21 fd 18 39
       0.00014639067 0.005098969 0.0022632636 0.00014590147
000050 cb ff a5 3b 24 e8 15 3b 86 ae 19 39 04 cc a6 3b
       0.0050658933 0.0022873962 0.00014656232 0.0050902385
000060 7e cd 14 3b e9 18 1a 39 29 bc a7 3b 68 ec 15 3b
       0.002270549 0.00014695864 0.005118866 0.0022876505
000070 19 d2 1a 39 b7 21 a9 3b 2f 61 16 3b e4 f3 1a 39
       0.00014764852 0.00516149 0.002294611 0.00014777441
000080 0c 6a a9 3b a6 5a 16 3b ca f1 1a 39 7e 65 a9 3b
       0.0051701125 0.0022942214 0.00014776658 0.0051695695
000090 81 5a 16 3b c1 f1 1a 39 64 65 a9 3b 37 62 16 3b
       0.0022942128 0.00014776645 0.0051695574 0.0022946724
0000a0 e6 eb 1a 39 ef 58 a9 3b 64 4c 16 3b 92 e9 1a 39
       0.00014774463 0.0051680724 0.0022933716 0.00014773596
0000b0 e6 53 a9 3b 82 be 16 3b f3 7f 1a 39 4b bc a8 3b
       0.005167472 0.0023001735 0.00014734249 0.0051493994
0000c0 96 22 18 3b 2f 9a 18 39 0a 7f a5 3b 03 e4 19 3b
       0.0023213974 0.00014553287 0.0050505446 0.0023481853
0000d0 2d 7f 14 39 9b af 9d 3b 8e 56 19 3b 9b 2d 10 39
       0.00014161757 0.0048121936 0.0023397538 0.000137499
0000e0 ce c5 92 3b fc d2 1c 3b d0 65 05 39 ef 41 81 3b
       0.0044791466 0.0023929467 0.00012721797 0.0039446275
0000f0 d0 be 15 3b 67 6a ed 38 8e c4 5e 3b a0 13 fd 3a
       0.0022849329 0.000113208596 0.0033991667 0.0019308217
000100 c6 63 ed 38 c4 7f 62 3b 0d 3c ed 3a 7f f6 06 39
       0.00011319625 0.0034561018 0.0018099562 0.00012871063
000110 09 13 89 3b ac 25 0f 3b 7a 0b 17 39 de 3c a3 3b
       0.0041831774 0.0021842523 0.00014404758 0.004981621
000120 be ad 15 3b d9 b5 1a 39 23 ed a8 3b b8 56 16 3b
       0.0022839154 0.00014754328 0.005155222 0.0022939872
000130 7e f0 1a 39 d6 62 a9 3b 37 62 16 3b e6 eb 1a 39
       0.00014776175 0.005169253 0.0022946724 0.00014774463
000140 ee 58 a9 3b 25 62 16 3b 11 dd 1a 39 da 30 a9 3b
       0.005168072 0.0022946682 0.00014768938 0.0051632943
000150 8e 12 18 3b 47 04 1a 39 56 b2 a6 3b 5c 97 20 3b
       0.0023204419 0.00014688178 0.0050871773 0.002450428
000160 51 12 13 39 0e 99 95 3b bd 58 22 3b eb b6 06 39
       0.00014025836 0.0045653647 0.002477213 0.00012847378
000170 2e 46 73 3b 20 c5 25 3b e9 46 e2 38 11 60 24 3b
       0.0037120688 0.0025294498 0.00010789728 0.0025081674
000180 33 d8 0c 3b e8 a1 b8 38 26 d9 df 3a 5e c4 02 3b
       0.002149117 8.803961e-05 0.0017078265 0.001995347
000190 9b 5a b4 38 9c ed ae 3a 9f a9 bd 3a 15 4f d5 38
       8.5999454e-05 0.001334596 0.0014470107 0.00010171362
0001a0 d2 32 e3 3a 11 0d a6 3a 22 65 fb 38 a9 d8 32 3b
       0.0017333871 0.0012668689 0.0001198745 0.0027289784
0001b0 6f db f0 3a 27 85 0d 39 61 29 8c 3b 3b fa 0e 3b
       0.0018375943 0.00013496411 0.0042773937 0.002181663
0001c0 52 86 17 39 6a 78 a2 3b b8 e1 14 3b d2 3b 1a 39
       0.0001445052 0.004958202 0.0022717547 0.0001470887
0001d0 98 67 a8 3b 23 5f 16 3b 2b ee 1a 39 fe 5d a9 3b
       0.0051393025 0.002294489 0.00014775309 0.0051686754
0001e0 2d 92 16 3b 25 ca 1a 39 15 07 a9 3b d0 36 1d 3b
       0.002297531 0.00014761889 0.005158315 0.002398897
0001f0 13 48 17 39 94 9f 9e 3b 7a f7 2e 3b 59 52 0b 39
       0.00014427332 0.0048408005 0.00266978 0.0001328675
000200 a8 c9 74 3b 95 37 32 3b 4a b5 eb 38 d9 3d 11 3b
       0.0037351642 0.0027193774 0.00011239441 0.0022162108
000210 92 1e 02 3b 2e 90 d5 38 c7 c5 c0 3a ff 6e e5 3a
       0.0019854647 0.00010183487 0.001470738 0.0017504393
000220 14 83 cd 38 d9 3e bf 3a b8 67 f3 3a 30 5c d1 38
       9.799577e-05 0.0014590874 0.0018570339 9.983068e-05
000230 3b 1b cd 3a 91 9e d8 3a 9b 18 e0 38 fb 72 b3 3a
       0.0015648374 0.0016526749 0.000106857355 0.0013690883
000240 39 05 af 3a 7a da f1 38 82 fd 07 3b 02 16 d9 3a
       0.0013352997 0.0001153247 0.0020750468 0.0016562345
000250 81 45 0c 39 64 56 58 3b bf 36 07 3b bf ae 16 39
       0.00013377333 0.0033010477 0.0020631996 0.00014370213
000260 0f c7 99 3b 31 77 14 3b 9d 66 1a 39 36 1b a8 3b
       0.004692919 0.0022654051 0.00014724811 0.005130197
000270 91 6c 16 3b 76 ee 1a 39 4c 4b a9 3b ad d6 17 3b
       0.0022952894 0.00014775418 0.005166447 0.0023168728
000280 6e f6 19 39 52 26 a7 3b 6b 2f 28 3b 15 c3 14 39
       0.00014683019 0.0051010037 0.002566303 0.00014187054
000290 bf 12 8f 3b 24 8c 37 3b 50 c1 06 39 7e 92 38 3b
       0.0043662484 0.0028007114 0.0001285125 0.0028163488
0002a0 d4 d5 11 3b 53 c4 ec 38 bb 85 ca 3a 58 3e be 3a
       0.0022252696 0.00011289925 0.0015451232 0.001451443
0002b0 66 59 e4 38 cc 2f b5 3a bc 9e e4 3a 32 bb ed 38
       0.00010888539 0.0013823449 0.0017442326 0.000113359085
0002c0 36 24 13 3b 0a 70 f5 3a 06 f2 f5 38 f4 b9 2b 3b
       0.0022452003 0.0018725407 0.00011727591 0.0026203366
0002d0 fa 4e 08 3b 82 3c fb 38 29 70 0b 3b 45 e6 12 3b
       0.0020799027 0.00011979883 0.002127657 0.0022415083
0002e0 bf 93 01 39 78 be e7 3a 7a 5d ad 3a 0d cc 0c 39
       0.00012357438 0.0017680665 0.0013226711 0.00013427455
0002f0 8c 6c 27 3b a6 ad fe 3a ac 34 18 39 16 ab 91 3b
       0.0025546877 0.0019430413 0.00014515471 0.004445444
000300 ca 92 13 3b c6 56 1a 39 e7 81 a7 3b 29 ff 16 3b
       0.0022517913 0.0001471891 0.005111921 0.002304027
000310 72 7e 1a 39 e1 63 a8 3b f6 06 1a 3b 94 86 19 39
       0.00014733689 0.0051388596 0.0023502684 0.00014641351
000320 55 5a a4 3b e1 9a 37 3b 32 05 13 39 45 c8 7b 3b
       0.005015651 0.00280159 0.00014020948 0.003841893
000330 d5 43 2a 3b 8c fb 02 39 31 f1 08 3b 36 dc e0 3a
       0.0025980372 0.00012491475 0.0020895714 0.0017155472
000340 5d 01 f5 38 e9 97 d5 3a 42 d1 be 3a 0e 9e fe 38
       0.00011682764 0.0016295883 0.0014558213 0.00012141104
000350 39 cf 27 3b 3d fc 02 3b 7b 9c 05 39 18 75 5f 3b
       0.0025605692 0.0019986772 0.00012742162 0.0034096893
000360 a8 bc 08 3b 2f c1 0b 39 c0 55 6b 3b 38 ca 0f 3b
       0.00208644 0.0001332804 0.0035909265 0.00219406
000370 79 da 0b 39 82 ec 53 3b 05 56 2f 3b 62 c1 09 39
       0.0001333746 0.0032337015 0.0026754152 0.00013137379
000380 52 d9 f9 3a 76 91 a4 3a 38 c2 0c 39 8c f3 17 3b
       0.0019061959 0.0012555558 0.00013423793 0.0023185937
000390 d4 ca e9 3a 4c 3e 14 39 48 88 87 3b a9 59 0f 3b
       0.0017836937 0.00014137587 0.004136119 0.002187351
0003a0 41 5f 1a 39 ac 7c a4 3b c1 9f 17 3b 52 f1 1a 39
       0.0001472207 0.005019745 0.0023135992 0.00014776483
0003b0 5d 9a a7 3b 19 9c 1d 3b f6 9a 19 39 f7 ca 9f 3b
       0.005114837 0.002404934 0.00014648944 0.00487649
0003c0 c2 ab 46 3b 02 4f 12 39 9e 10 52 3b 66 ca 19 3b
       0.0030314778 0.00013953078 0.0032053362 0.0023466586
0003d0 74 64 0c 39 36 e5 de 3a e8 5d cb 3a 7f 6c 08 39
       0.00013388862 0.0017005566 0.0015515657 0.00013010389
0003e0 4b f3 0d 3b e1 4e ea 3a 89 1d 08 39 44 73 5a 3b
       0.0021659906 0.0017876291 0.00012980973 0.0033332864
0003f0 57 68 0b 3b 08 39 0d 39 af 44 7e 3b 61 fd 10 3b
       0.0021271908 0.00013468054 0.0038798263 0.0022123682

exp_avg f4 [10]
000000 d3 5a 79 bd c7 61 80 bc e8 c3 61 bc 89 7a 81 3d
       -0.060877632 -0.015671624 -0.013779618 0.063222
000010 33 14 2f 3d cd 2f 13 3c f4 e9 92 b9 f6 3d fb 3c
       0.042743873 0.008983565 -0.000280216 0.030669194
000020 a5 3c 0c 3c 6b 30 82 bd
       0.008559381 -0.06356891

exp_avg_sq f4 [10]
000000 64 65 a9 3b 6c 7b c6 3b a5 a9 06 3c de ff 3a 3c
       0.0051695574 0.0060571935 0.008219157 0.011413543
000010 43 c2 cd 3b 45 14 17 3c e7 3a 1d 3c 20 88 ff 3b
       0.0062792613 0.009221141 0.009596563 0.00779821
000020 53 b9 4c 3c 57 f2 f7 3b
       0.012495357 0.007566731
