evaluation/Results/Seed_0_Trainable_no_FRQI_for_2x2_2x2_imgsize_14/model_checkpoints/epochs_7.pt (torch, 63958 bytes, 7 tensors)

qlayer_1.torch_qlayer.weights f8 [1, 4]
-0.07266094962931335 -0.8793490277240921 -0.26835022124251884 -0.6564112353869826
00000000: 20ad 5a72 e899 b2bf 1a05 7b92 a023 ecbf
00000010: 581a 0768 a62c d1bf 7cd9 9622 5201 e5bf

linear.weight f4 [10, 507]
0.03759166 0.0065546203 -0.0093715135 0.00014603013 0.06976096 0.0029528597 0.060514703 0.005570466
0.034813583 0.0510992 -0.011523751 0.07451186 0.0029037537 0.04644369 0.008203138 0.0103157675
0.073052086 0.08253936 0.081718475 0.034088682 0.02790656 0.057386406 0.017028585 0.0620702
0.051595982 0.09049627 0.06165886 0.054217916 0.042998508 0.057850618 0.067767106 0.01608162
0.016871335 -0.0024139895 -0.009382618 0.052583802 0.07451812 0.019165127 0.033317603 0.013546296
0.034990944 0.028133916 -0.008336839 0.034835745 0.054467767 0.043728713 -0.0035983778 0.024167052
0.065972514 0.048063736 0.01604433 0.010832559 0.03769036 0.081156895 -0.0032278765 0.07040395
0.123108365 0.09181135 0.013622467 0.06292676 0.015954407 -0.027297433 -0.020140823 0.07447669
0.029291162 0.047677178 -0.05439685 0.032612585 0.07504069 0.120123036 0.10101598 0.055053324
0.024367208 0.0027235437 0.01843692 0.0802723 0.00228378 0.060822595 0.05075457 -0.0103453975
-0.001413112 0.047631167 0.030502934 0.05220337 0.022589631 0.0646862 0.058378406 0.031815805
0.039171275 0.09326875 0.03718038 0.09219746 0.11605646 0.12482734 0.02439542 0.08998781
0.16237597 -0.07287894 -0.226427 -0.06310287 0.0019207809 -0.5206022 -0.12406147 0.038029805
-0.2887561 -0.15572987 0.12934269 0.013568785 0.10620057 0.037619933 0.12052753 0.08721761
0.102417834 0.12473154 0.049406145 0.05906592 0.038201 0.0760297 0.0047506015 0.033837076
0.04973795 0.056299627 0.06533101 0.009877453 0.056985676 0.12657113 0.028069273 0.11210706
0.1274408 0.02103982 0.01881159 0.12364826 0.0840034 -0.007688136 -0.24696076 0.02588748
-0.037546027 -0.5356497 -0.059469502 -0.124356955 -0.6298321 -0.10339261 -0.124209575 -0.584512
-0.18778372 -0.021672914 -0.25824946 -0.08301119 0.031444993 0.0009359036 0.021131886 0.040962804
0.08838507 0.047439314 0.03567619 0.04587897 0.023516953 0.068294846 0.0071408697 0.024655959
0.06089828 0.093214534 0.05701123 0.07099937 0.047366295 0.09670264 -0.024484001 0.072023414
0.09150757 -0.019109292 -0.21077251 -0.082899295 -0.027053282 -0.4233484 -0.08058975 -0.049435884
-0.3053678 0.0279788 0.047766045 -0.19117685 0.07572233 -0.004083156 -0.35311204 -0.08588671
-0.018205253 -0.62433034 -0.36276537 0.0019437271 -0.40999258 -0.21860348 0.02334216 -0.099725656
0.044594623 0.021237148 -0.0034666376 0.01984425 0.002291468 0.044791315 -0.009417387 0.01831294
0.072246924 0.06347038 -0.00493786 -0.025254028 -0.082806446 0.002069982 -0.33860365 -0.06995166
0.033273574 -0.3116678 -0.23609208 0.06610504 -0.056818433 -0.113236405 0.10160348 0.19973764
0.055842817 0.112305716 0.32464984 0.13080426 0.11103497 0.1566242 0.1108604 0.026238238
-0.48299304 -0.37625825 -0.0037722823 -0.7149804 -0.32288766 -0.0003850957 -0.24283369 -0.004608527
0.0051962947 -0.01881887 0.042400353 0.04424944 0.014191982 0.06730247 0.0030039453 0.0471291
0.0725245 -0.014305766 -0.18028362 -0.1384747 0.031764794 -0.46725544 -0.2928636 0.051024355
-0.06226398 -0.21446143 0.1624815 0.35613877 -0.043277483 0.22015546 0.6159956 0.12856856
00000000: b6f9 193d 24c8 d63b fa8a 19bc aa1f 1939
00000010: d6de 8e3d c484 413b 44de 773d 7588 b63b
00000020: b098 0e3d 654d 513d 1dce 3cbc ad99 983d
00000030: e74c 3e3b bd3b 3e3d 7466 063c 7703 293c
00000040: 559c 953d 650a a93d 045c a73d 93a0 0b3d
00000050: 4c9c e43c 020e 6b3d 887f 8b3c 523d 7e3d
00000060: 4f56 533d 1c56 b93d 008e 7c3d 9b13 5e3d
00000070: 341f 303d c5f4 6c3d 7bc9 8a3d 9abd 833c
00000080: c135 8a3c 0634 1ebb 8db9 19bc 1d62 573d
00000090: f59c 983d 2f00 9d3c 0a78 083d 49f1 5d3c
000000a0: aa52 0f3d 1979 e63c 3d97 08bc edaf 0e3d
000000b0: 9819 5f3d e11c 333d c3d2 6bbb fbf9 c53c
000000c0: 991c 873d 7bde 443d 666f 833c 0c7b 313c
000000d0: 3561 1a3d 9635 a63d c88a 53bb f22f 903d
000000e0: 3d20 fc3d 9707 bc3d c530 5f3c bfdf 803d
000000f0: d1b2 823c de9e dfbc 5efe a4bc 3c87 983d
00000100: 05f4 ef3c 2549 433d 3bcf 5ebd c694 053d
00000110: efae 993d 1103 f63d 77e1 ce3d 987f 613d
00000120: bd9d c73c 7b7d 323b 0609 973c ce65 a43d
00000130: 78ab 153b 1d21 793d 06e4 4f3d be7f 29bc
00000140: 2c38 b9ba e618 433d 4ae1 f93c 33d3 553d
00000150: e40d b93c 337a 843d 321e 6f3d 4a51 023d
00000160: 0f72 203d b003 bf3d 744a 183d 06d2 bc3d
00000170: 02af ed3d 7aa5 ff3d e7d8 c73c 874b b83d
00000180: e345 263e 8e41 95bd 7bdc 67be 143c 81bd
00000190: b6c2 fb3a 3046 05bf f113 febd 24c5 1b3d
000001a0: d7d7 93be a777 1fbe 6972 043e 9c4f 5e3c
000001b0: af7f d93d 5c17 1a3d 23d7 f63d 259f b23d
000001c0: 71c0 d13d 4073 ff3d 195e 4a3d 1bef 713d
000001d0: a778 1c3d 76b5 9b3d efaa 9b3b bf98 0a3d
000001e0: 05ba 4b3d 709a 663d 44cc 853d 0ad5 213c
000001f0: d069 693d dd9b 013e 88f1 e53c 6398 e53d
00000200: d77f 023e b35b ac3c c31a 9a3c 4d3b fd3d
00000210: f909 ac3d c2ec fbbb 48e3 7cbe fb11 d43c
00000220: ddc9 19bd 5720 09bf 4b96 73bd dcae febd
00000230: ad3c 21bf 81bf d3bd 9761 febd 94a2 15bf
00000240: 604a 40be 658b b1bc 4639 84be c501 aabd
00000250: 77cc 003d 6d57 753a c71c ad3c 9dc8 273d
00000260: 3b03 b53d ba4f 423d 3221 123d 96eb 3b3d
00000270: a0a6 c03c 2bde 8b3d f5fd e93b 4bfb c93c
00000280: 7a70 793d 43e7 be3d 9c84 693d 1e68 913d
00000290: 2903 423d 090c c63d ac92 c8bc 0381 933d
000002a0: 5268 bb3d 178b 9cbc c0d4 57be 1bc7 a9bd
000002b0: d89e ddbc 1fc1 d8be 3d0c a5bd 487d 4abd
000002c0: 2b59 9cbe cc33 e53c 54a6 433d ddc3 43be
000002d0: 4f14 9b3d ffcb 85bb 1acb b4be 5fe5 afbd
000002e0: 2f23 95bc 1dd4 1fbf 62bc b9be a9c4 fe3a
000002f0: 8cea d1be 97d9 5fbe 0f38 bf3c f73c ccbd
00000300: daa8 363d 87f9 ad3c 8730 63bb 6990 a23c
00000310: 742c 163b 1977 373d 624b 1abc 0505 963c
00000320: 32f6 933d c2fc 813d c6cd a1bb 89e1 cebc
00000330: 6d96 a9bd 89a8 073b 755d adbe d142 8fbd
00000340: df49 083d ec92 9fbe 1fc2 71be 1462 873d
00000350: 72ba 68bd 7de8 e7bd 7c15 d03d 0688 4c3e
00000360: 70bb 643d 8a00 e63d 8138 a63e 8df1 053e
00000370: 4d66 e33d 1862 203e c70a e33d 93f1 d63c
00000380: dd4a f7be eca4 c0be 6538 77bb f508 37bf
00000390: 8851 a5be abe6 c9b9 65a9 78be 2003 97bb
000003a0: ae45 aa3b 082a 9abc feab 2d3d e73e 353d
000003b0: 7d85 683c e1d5 893d d7dd 443b 710a 413d
000003c0: ba87 943d bb62 6abc 459c 38be 50cc 0dbe
000003d0: cd1b 023d 1b3c efbe 38f2 95be eafe 503d
000003e0: 8408 7fbd c79b 5bbe 8d61 263e d257 b63e
000003f0: bb43 31bd 6f70 613e e3b1 1d3f 7aa7 033e

linear.bias f4 [10]
0.076130606 -0.059275646 0.016590655 -0.0025880656 -0.035251617 0.051469177 -0.009586374 0.015481976
-0.0044356436 0.003430245
00000000: 5dea 9b3d 05cb 72bd 20e9 873c 899c 29bb
00000010: 0064 10bd 58d1 523d 2b10 1dbc 1da8 7d3c
00000020: e058 91bb f6cd 603b

exp_avg f4 [10, 507]
0.00084993744 0.00021570364 0.0012758385 0.00084993744 0.00021570364 0.0012758385 0.00084993744 0.00021570364
0.0012758385 0.00084993744 0.00021570364 0.0012758385 0.0008499389 0.00021570364 0.001275837 0.0008499442
0.00021570195 0.0012758219 0.0008499601 0.00021569553 0.0012757486 0.0008500385 0.00021566036 0.0012753949
0.0008496123 0.00021566112 0.0012754032 0.00084986014 0.0002156977 0.0012757721 0.00084993744 0.00021570364
0.0012758385 0.00084993744 0.00021570364 0.0012758385 0.00084993744 0.00021570364 0.0012758385 0.00084993744
0.00021570364 0.0012758385 0.0008499389 0.00021570364 0.001275837 0.00084999856 0.00021566733 0.001275594
0.0008512853 0.00021537753 0.0012723161 0.0008465449 0.000215616 0.0012751919 0.0007910911 0.0002270367
0.0014093779 0.00043627102 0.00030435095 0.0022684238 0.0014290337 0.0003267607 0.0024507872 0.001030752
0.00025918605 0.0017290424 0.0009989477 0.00022529926 0.0014122439 0.00084593124 0.0002153402 0.0012721161
0.0008497281 0.00021568619 0.0012756416 0.0008499329 0.00021570345 0.0012758363 0.00084993744 0.00021570364
0.0012758385 0.00085038174 0.00021561614 0.0012748404 0.00085469 0.00021455268 0.0012634575 0.00084671465
0.00021445623 0.0012570822 0.00045200856 0.00029734822 0.002155676 -0.00031411546 0.0006754821 0.005899578
0.0012310742 0.0007282322 0.009080697 0.003337836 0.0004186262 0.007131699 0.0014319232 0.0003330408
0.0043912786 0.00053530256 0.00046996505 0.004687369 0.0023889262 0.0004737023 0.0039579784 0.0015482104
0.00026741307 0.0018626438 0.0008429565 0.00021426949 0.0012593056 0.00084993744 0.00021570364 0.0012758385
0.00085191877 0.00021549582 0.0012707382 0.0008529843 0.00021555855 0.0012560823 2.3059325e-05 0.00039536261
0.0031317687 -0.00021166571 0.0006525113 0.007784906 0.0032260509 0.0006823276 0.010419999 0.0027419245
0.00071204524 0.008719813 0.0032822068 0.0005446697 0.004561987 0.0022046487 7.845312e-05 -9.436237e-05
3.3140026e-05 -7.7845354e-05 -0.0012121107 -0.0013994039 0.000113802445 0.0023372273 0.0025311382 0.00025182767
0.003356643 0.0011397122 0.00023928059 0.0015200103 0.00084993744 0.00021570364 0.0012758385 0.001135077
0.00015931443 0.00063246884 9.722038e-05 0.00024815855 0.0016890529 0.00026720602 0.00015305256 0.0051001436
0.0037785447 4.2331052e-05 0.00441288 0.0044172145 -0.00017087505 -0.0013712908 0.001693853 -0.00062762684
-0.0062604574 0.0008959169 -0.0005740825 -0.008624117 0.0013261714 -0.00020228403 -0.011308956 -6.79915e-05
1.4968153e-05 -0.013001808 -0.007825104 8.8308014e-05 -0.0041398867 0.0018753355 0.0001810191 0.003513478
0.0015075763 0.00021446637 0.0018557123 0.0009972523 0.00018751128 0.0009487878 0.0023461399 -0.00015809671
-0.0038163061 -0.0013972652 -0.0003704726 -0.003108407 0.004415756 -5.6435824e-06 -0.0009845399 0.0036658633
0.00023786562 -0.007816017 -0.00035995326 0.0001048431 -0.011015058 -0.00037305927 -0.00021327738 -0.009813859
-8.563481e-05 -0.00051070977 -0.008789519 0.0013265163 -0.00035869962 -0.010206494 0.0009116221 5.3119158e-05
-0.013830401 -0.009691183 0.00021462508 -0.0052937125 0.0015183081 0.00022798011 0.0043398924 0.002212467
0.00022964245 0.0024696141 0.0010197127 0.00020494606 0.00089953665 0.0024050584 -0.00010708675 -0.0038778465
-0.0019041209 -0.00037310692 -0.0027536594 0.005973772 -0.000491607 -0.0015430345 0.0001508351 -0.00054898433
-0.0054849503 -0.00042214867 -0.00030799423 -0.0040254863 -0.00021960567 -6.409366e-05 -0.0019329024 0.00095635356
00000000: 56ce 5e3a 812e 6239 093a a73a 56ce 5e3a
00000010: 812e 6239 093a a73a 56ce 5e3a 812e 6239
00000020: 093a a73a 56ce 5e3a 812e 6239 093a a73a
00000030: 6fce 5e3a 812e 6239 fc39 a73a cace 5e3a
00000040: 0d2e 6239 7b39 a73a dbcf 5e3a 542c 6239
00000050: 0537 a73a 1ed5 5e3a e322 6239 272b a73a
00000060: 84b8 5e3a 1723 6239 6e2b a73a 26c9 5e3a
00000070: e92c 6239 cf37 a73a 56ce 5e3a 812e 6239
00000080: 093a a73a 56ce 5e3a 812e 6239 093a a73a
00000090: 56ce 5e3a 812e 6239 093a a73a 56ce 5e3a
000000a0: 812e 6239 093a a73a 6fce 5e3a 812e 6239
000000b0: fc39 a73a 70d2 5e3a c224 6239 d531 a73a
000000c0: ca28 5f3a f7d6 6139 d8c3 a63a abea 5d3a
000000d0: fb16 6239 5724 a73a 3a61 4f3a b310 6e39
000000e0: e0ba b83a 4ebb e439 4b91 9f39 d6a9 143b
000000f0: 6a4e bb3a 1451 ab39 639d 203b 4c1a 873a
00000100: 5de3 8739 09a1 e23a 1fef 823a 4f3e 6c39
00000110: 0b1b b93a 7cc1 5d3a f2cc 6139 22bd a63a
00000120: 4ac0 5e3a d229 6239 6e33 a73a 08ce 5e3a
00000130: 742e 6239 f639 a73a 56ce 5e3a 812e 6239
00000140: 093a a73a 27ec 5e3a 0417 6239 8c18 a73a
00000150: 460d 603a 8cf9 6039 999a a53a 0ff6 5d3a
00000160: a8df 6039 aec4 a43a 90fb ec39 67e5 9b39
00000170: 3e46 0d3b ddaf a4b9 d612 313a 3f51 c13b
00000180: ff5b a13a d6e6 3e3a 34c7 143c 98bf 5a3b
00000190: 0f7b db39 07b1 e93b 5faf bb3a fb9b ae39
000001a0: b7e4 8f3b 8c53 0c3a a465 f639 8098 993b
000001b0: 888f 1c3b 3f5b f839 eeb1 813b 52ed ca3a
000001c0: 9333 8c39 f423 f43a daf9 5c3a 87ad 6039
000001d0: 490f a53a 56ce 5e3a 812e 6239 093a a73a
000001e0: 4d53 5f3a b8f6 6139 e68e a63a cf9a 5f3a
000001f0: 8f07 6239 21a3 a43a 866f c137 ac48 cf39
00000200: 5c3e 4d3b 95f2 5db9 4b0d 2b3a 8618 ff3b
00000210: 276c 533b 3bde 323a a5b8 2a3c dcb1 333b
00000220: 8ca8 3a3a 8cdd 0e3c 4b1a 573b 2ac8 0e3a
00000230: b87c 953b de7b 103b 3387 a438 69e4 c5b8
00000240: d5ff 0a38 e840 a3b8 b0df 9eba 346c b7ba
00000250: 39a9 ee38 2b2c 193b 74e1 253b bd07 8439
00000260: 20fb 5b3b 6562 953a 65e7 7a39 153b c73a
00000270: 56ce 5e3a 812e 6239 093a a73a ddc6 943a
00000280: a40d 2739 44cc 253a cbe2 cb38 471b 8239
00000290: 3663 dd3a c917 8c39 bc7c 2039 1b1f a73b
000002a0: 76a1 773b 9f8c 3138 ec99 903b 48be 903b
000002b0: ec2c 33b9 e2bc b3ba 4604 de3a 5387 24ba
000002c0: 8624 cdbb f7db 6a3a 067e 16ba 2b4c 0dbc
000002d0: eed2 ad3a 351c 54b9 3349 39bc a996 8eb8
000002e0: ba1f 7b37 8905 55bc dd34 00bc 0132 b938
000002f0: e3a7 87bb d1cd f53a f2cf 3d39 6142 663b
00000300: de99 c53a 61e2 6039 5f3b f33a 3cb6 823a
00000310: ad9e 4439 12b8 783a b2c1 193b c3c6 25b9
00000320: fe1a 7abb 7124 b7ba fe3b c2b9 6ab6 4bbb
00000330: 0cb2 903b 015e bdb6 ad0b 81ba fb3e 703b
00000340: 916b 7939 c00e 00bc 1cb8 bcb9 36df db38
00000350: 8078 34bc 2b97 c3b9 36a3 5fb9 4fca 20bc
00000360: d796 b3b8 27e1 05ba ea01 10bc 80de ad3a
00000370: d90f bcb9 2339 27bc ecf9 6e3a 43cc 5e38
00000380: e898 62bc c5c7 1ebc fb0c 6139 e176 adbb
00000390: f701 c73a f20d 6f39 a835 8e3b 09ff 103b
000003a0: 2dcc 7039 40d9 213b e1a7 853a cae6 5639
000003b0: e2ce 6b3a 2f9e 1d3b c393 e0b8 7823 7ebb
000003c0: b293 f9ba 909d c3b9 bd76 34bb a2bf c33b
000003d0: 30df 00ba a53f caba 7d29 1e39 b7e9 0fba
000003e0: 19bb b3bb d653 ddb9 497a a1b9 3ae8 83bb
000003f0: f345 66b9 066a 86b8 7159 fdba cdb3 7a3a

exp_avg_sq f4 [10, 507]
0.0042627207 0.00027455433 0.009605201 0.004262756 0.0002745528 0.009605086 0.004262634 0.0002745528
0.009605086 0.004262733 0.00027455355 0.009605149 0.0042629167 0.0002745442 0.00960459 0.0042882534
0.00027308633 0.00952022 0.0042524408 0.00027152742 0.009419092 0.0042635226 0.0002698936 0.009357354
0.0041783117 0.000270675 0.009412084 0.004238284 0.000273879 0.0095655145 0.004261073 0.0002745245
0.009602993 0.004262718 0.0002745543 0.009605199 0.0042627207 0.00027455433 0.009605201 0.004262991
0.0002745411 0.009604302 0.0042622685 0.00027453294 0.009603733 0.004266855 0.0002742645 0.009590822
0.0042929654 0.00027254442 0.009491287 0.0043807128 0.00026561687 0.009087184 0.0044556144 0.00025088046
0.008227986 0.0043811644 0.00022892177 0.0070452974 0.0039902464 0.00021451332 0.006410324 0.0036910046
0.00022103712 0.0068407445 0.003730278 0.00023952647 0.007833762 0.0038457324 0.0002602634 0.008880794
0.0042134887 0.00027346043 0.009532928 0.00426003 0.00027449208 0.009601443 0.004262991 0.0002745411
0.009604301 0.0042675394 0.0002742849 0.009586821 0.0042998022 0.00027241666 0.009455309 0.004524909
0.0002598169 0.0085853115 0.004593514 0.00023737905 0.0069841044 0.004848755 0.00019867769 0.004628272
0.004098114 0.00016464232 0.002787195 0.0033720504 0.0001598249 0.0024019044 0.0028596958 0.00017519713
0.003029485 0.0028775784 0.00020421641 0.0046665967 0.0030527415 0.00023990248 0.006905828 0.0038779876
0.0002640233 0.008908423 0.0041928473 0.0002730287 0.009507091 0.0042628916 0.00027454592 0.009604636
0.0042826673 0.00027348468 0.009521606 0.0044201887 0.00026651693 0.008981496 0.0048900004 0.00024970656
0.006996363 0.00491643 0.00021532847 0.0041559767 0.0040167337 0.00018354332 0.002545457 0.0033499529
0.00016637889 0.0019895844 0.0031215267 0.00016792047 0.0024530194 0.0030275148 0.00018499962 0.002492695
0.0027425645 0.00020182884 0.0033668503 0.0027472905 0.00023638974 0.0055763517 0.0035761623 0.00026460402
0.008293286 0.00417176 0.00027309457 0.00947776 0.004263382 0.00027454624 0.009603257 0.004312227
0.0002728791 0.009438298 0.004776389 0.00026161637 0.008050815 0.005062308 0.00023718772 0.005097705
0.0043700812 0.00021341997 0.0027443962 0.0028396288 0.00019851007 0.0023419461 0.00284825 0.00019931314
0.0039035087 0.0035550322 0.00021029761 0.0046874224 0.0040397076 0.00021941654 0.0041037323 0.00382404
0.00023156576 0.0036492913 0.0027032592 0.0002500707 0.0049375603 0.0034750707 0.0002670721 0.008077313
0.0041999593 0.00027395866 0.009519478 0.004268941 0.0002742815 0.009585699 0.0044290596 0.00026950036
0.009110119 0.005133833 0.00025448218 0.006952603 0.0047148736 0.00023248968 0.0039379755 0.0036716016
0.00021711164 0.0026288365 0.0024659387 0.00021941826 0.0041278834 0.0031575956 0.00023074167 0.006024134
0.0038611416 0.00023852088 0.006429453 0.004461578 0.00023734849 0.0054848916 0.0045129186 0.00023783412
0.003543349 0.0025637252 0.0002478122 0.004509674 0.0031722083 0.00026236716 0.007528239 0.004140745
0.00027399595 0.009435015 0.0042748167 0.00027454676 0.009570902 0.004645586 0.0002700282 0.008535985
0.0051905494 0.00026002768 0.0062074214 0.0043617464 0.00024566002 0.0034881553 0.003715852 0.00023865794
0.0034455503 0.0028292022 0.00023408193 0.005122176 0.0036418368 0.00023422614 0.006256601 0.0041438197
00000000: 4bae 8b3b 0ff2 8f39 225f 1d3c 97ae 8b3b
00000010: daf1 8f39 a75e 1d3c 91ad 8b3b daf1 8f39
00000020: a75e 1d3c 65ae 8b3b f4f1 8f39 ea5e 1d3c
00000030: f0af 8b3b b3f0 8f39 925c 1d3c 7a84 8c3b
00000040: 072d 8f39 b2fa 1b3c 0f58 8b3b cb5b 8e39
00000050: 8952 1a3c 05b5 8b3b 8180 8d39 964f 193c
00000060: 38ea 883b 62e9 8d39 2435 1a3c 4ee1 8a3b
00000070: 6b97 8f39 adb8 1c3c 79a0 8b3b 0eee 8f39
00000080: df55 1d3c 45ae 8b3b 0ef2 8f39 205f 1d3c
00000090: 4bae 8b3b 0ff2 8f39 225f 1d3c 8fb0 8b3b
000000a0: 48f0 8f39 5d5b 1d3c 80aa 8b3b 30ef 8f39
000000b0: fa58 1d3c f9d0 8b3b 28cb 8f39 d322 1d3c
000000c0: 01ac 8c3b 4be4 8e39 5881 1b3c 158c 8f3b
000000d0: 7e42 8b39 6ae2 143c 6700 923b 9b88 8339
000000e0: adce 063c df8f 8f3b b80a 7039 3ddc e63b
000000f0: 9dc0 823b fbee 6039 b20d d23b c8e4 713b
00000100: 33c6 6739 5328 e03b ae77 743b 6629 7b39
00000110: 2e59 003c af08 7c3b f673 8839 c080 113c
00000120: 4e11 8a3b 3d5f 8f39 ff2f 1c3c b997 8b3b
00000130: b4e9 8f39 5f4f 1d3c 8fb0 8b3b 48f0 8f39
00000140: 5c5b 1d3c b7d6 8b3b e5cd 8f39 0b12 1d3c
00000150: 5be5 8c3b 25d3 8e39 71ea 1a3c b045 943b
00000160: 0938 8839 68a9 0c3c 3085 963b f4e8 7839
00000170: eada e43b 4ee2 9e3b 2354 5039 c2a8 973b
00000180: 7949 863b d6a3 2c39 5fa9 363b 9efd 5c3b
00000190: ab96 2739 4569 1d3b bc69 3b3b 1fb5 3739
000001a0: 538a 463b c195 3c3b ed22 5639 40ea 983b
000001b0: 8110 483b 558e 7b39 494a e23b d625 7e3b
000001c0: 9c6c 8a39 a2f4 113c 2764 893b 4b25 8f39
000001d0: a1c3 1b3c baaf 8b3b eef0 8f39 c35c 1d3c
000001e0: 9e55 8c3b 7e62 8f39 8300 1c3c 3bd7 903b
000001f0: 4cbb 8b39 2027 133c 4c3c a03b 0ceb 8239
00000200: bf41 e53b 011a a13b ccc9 6139 dc2e 883b
00000210: ce9e 833b 8975 4039 afd1 263b e28a 5b3b
00000220: fe75 2e39 b063 023b 8792 4c3b cf13 3039
00000230: d6c2 203b 4569 463b 75fc 4139 7c5c 233b
00000240: 99bc 333b 04a2 5339 60a6 5c3b e30b 343b
00000250: 63df 7739 d4b9 b63b 0c5e 6a3b 8dba 8a39
00000260: 90e0 073c 42b3 883b 222e 8f39 9b48 1b3c
00000270: d7b3 8b3b f9f0 8f39 fb56 1d3c 954d 8d3b
00000280: 3611 8f39 17a3 1a3c 4183 9c3b 8e29 8939
00000290: 91e7 033c b8e1 a53b 98b5 7839 a60a a73b
000002a0: e632 8f3b 7dc9 5f39 54db 333b 1119 3a3b
000002b0: 2427 5039 567b 193b b5a9 3a3b b7fe 5039
000002c0: 02d2 7f3b 8bfb 683b 5683 5c39 f398 993b
000002d0: 865f 843b 2e13 6639 9a78 863b bf9c 7a3b
000002e0: 76d0 7239 f328 6f3b 2a29 313b ec1b 8339
000002f0: 42cb a13b 03be 633b cf05 8c39 b556 043c
00000300: d09f 893b 1ca2 8f39 96f7 1b3c 79e2 8b3b
00000310: 71cd 8f39 560d 1d3c a521 913b ba4b 8d39
00000320: 9c42 153c b639 a83b 056c 8539 a9d2 e33b
00000330: 3a7f 9a3b 79c8 7339 220a 813b 419f 703b
00000340: 76a8 6339 8f48 2c3b 969b 213b a413 6639
00000350: 3243 873b aaef 4e3b 3ff3 7139 1966 c53b
00000360: 350b 7d3b 761b 7a39 29ae d23b 6e32 923b
00000370: c0e0 7839 9bba b33b 1be1 933b 1c63 7939
00000380: 8837 683b 2c04 283b caec 8139 e3c5 933b
00000390: d3e4 4f3b 538e 8939 72af f63b 16af 873b
000003a0: 1da7 8f39 5295 1a3c c313 8c3b 0bf1 8f39
000003b0: 46cf 1c3c 003a 983b 9292 8d39 84da 0b3c
000003c0: 7c15 aa3b 5354 8839 a067 cb3b fbec 8e3b
000003d0: eecb 8039 8999 643b a785 733b 4140 7a39
000003e0: bece 613b 236a 393b e473 7539 edd7 a73b
000003f0: e2ab 6e3b 9a9a 7539 2c04 cd3b e1c8 873b

exp_avg f4 [10]
0.0012758385 0.0076538073 0.0050741145 0.025498787 0.052492626 -0.02544566 0.0040535904 -0.08177368
0.024392243 -0.013221665
00000000: 093a a73a cacc fa3b c244 a63b d5e2 d03c
00000010: 8202 573d 6b73 d0bc fbd3 843b f678 a7bd
00000020: 3ed2 c73c af9f 58bc

exp_avg_sq f4 [10]
0.009605201 0.01129906 0.01654932 0.019340074 0.015981589 0.020809144 0.017131813 0.016248668
0.023884518 0.021659313
00000000: 225f 1d3c b11f 393c 7192 873c 136f 9e3c
00000010: d2eb 823c f077 aa3c 0458 8c3c ed1b 853c
00000020: 77a9 c33c df6e b13c
