evaluation/Results/Seed_0_Trainable_no_FRQI_for_2x2_2x2_imgsize_14/model_checkpoints/epochs_33.pt (torch, 63969 bytes, 7 tensors)

qlayer_1.torch_qlayer.weights f8 [1, 4]
00000000: 20ad 5a72 e899 b2bf 1a05 7b92 a023 ecbf
00000010: 581a 0768 a62c d1bf 7cd9 9622 5201 e5bf
-0.07266094962931335 -0.8793490277240921 -0.26835022124251884 -0.6564112353869826

linear.weight f4 [10, 507]
00000000: 4952 753d 1f63 ec3c 7ed7 533c 409b b73c
00000010: 4598 bc3d 2e4b cf3c 95cd a33d e2d6 f53c
00000020: f274 7a3d 8dce a13d 6550 573c 1761 cf3d
00000030: 5f92 ed3c f2ed 883d 8190 db3c 5ce3 f33c
00000040: 95be bd3d 1e19 cb3d f388 b13d e526 883d
00000050: 9b45 893d 59b8 a83d b91e 973d a412 113e
00000060: ad01 f23d a982 143e 6a73 0d3e 0f39 be3d
00000070: 2f45 a63d 3be8 dc3d 8c41 d93d 45e7 423d
00000080: f2a0 613d a0d9 cd3c ca9c 713c 68a8 a03d
00000090: 76d6 c63d 992c 2a3d 1578 643d 7acb 123d
000000a0: 2bb2 6a3d 05a3 4e3d 0cb4 503c 26fb 6c3d
000000b0: a103 a13d 0fcf 823d b0bc 9d3c 0d3a 693d
000000c0: d412 e63d bc6c 923d 8564 4e3d ef4c 293d
000000d0: 4a70 6e3d 923a c93d 0d0d 383c 9b83 a73d
000000e0: f55a ce3d 2ba5 cb3d 610d c6bc c6d7 8abc
000000f0: 62ec c5bd 061e d3bd 4279 21bd a3bd b23d
00000100: 66a4 213d 4e81 053e dd8d a5bd 2ac1 f83d
00000110: f96b 603e 55e6 5d3e 3088 2d3e 2ebd 463e
00000120: 4fce c33d b8e2 1c3d da89 a23d ae25 e33d
00000130: 900d e13c bfb3 b53d fe31 953d 2268 463c
00000140: 819c ad3c 642d 863d b2d3 5e3d 146e a73d
00000150: 12e6 2e3d 11d4 b73d 5dba c03d ddf2 8f3d
00000160: 9eb2 883d f2fe 183e abe8 cc3d eba7 d13d
00000170: 137c 113e 33b0 1e3e d792 a43d 32ca 9abc
00000180: 905d bc3d 35c4 fd3d 22a9 eabe aa37 f5bd
00000190: 8080 3b3e c4d7 5cbf a99e bbbe 2fbe 2f3e
000001a0: 2c7b 09bf 6381 83be a273 703e 7b8b 92bc
000001b0: 6f92 6dbb b346 f73d c766 6a3e 1598 273e
000001c0: b000 4c3e 60d3 8a3e 1346 103e ff18 e03d
000001d0: ffd5 e73d ceda c83d 9300 de3c a87e 673d
000001e0: b23c 8a3d 5c50 a53d 3958 c33d b3aa 2a3d
000001f0: 4053 b53d 699c 0e3e 1a2d 4f3d c21d 193e
00000200: 74d3 e33d 1d14 a83c 93ed e43d 19ca 853d
00000210: 8064 a0bd 4c77 6a3d 9f91 4abe 3d05 ea3d
00000220: ddfa ccbd 5bd8 0fbf 68aa 17bd ec26 8abd
00000230: 4206 98bf 01ed e6be d89d 093d 2809 8ebf
00000240: c6cd c1be cf6d aa3d f08c 02bf dad0 a4be
00000250: f26f ef3d f2ea 14bd d494 27bd 4ccb f23d
00000260: 3ef6 4a3e 6261 293e 3978 b63d da3a 083e
00000270: 8c6d 3a3d 3f14 ba3d 9660 f53c 78a4 213d
00000280: 0836 c43d 05b8 053e cfa2 e33d 6028 f23d
00000290: db2f 183d 66ac 1f3d 3f61 cb3c 4094 1a3d
000002a0: 2dd5 e53d 2f22 1c3e 1b9e 5abe 9714 b2be
000002b0: 5eda 0e3e a461 babe cf8c 1bbe ae30 6d3d
000002c0: 9a97 96be 4ab8 4ebd 8667 3e3e 98a8 a5be
000002d0: 713f 9f3d 96c8 0c3e 94f2 3bbf 9333 03bf
000002e0: 3aba 153e 1c86 70bf a3f3 c3be b545 003e
000002f0: 36c0 1fbf 3d64 f0be a403 cd3d b0d2 91be
00000300: 5433 913b 4343 613d 6d50 8dbc 44b9 273d
00000310: e9b5 ce3c a059 8d3d e60d b2bb ff76 4e3d
00000320: fe9d 043e 96d6 ed3d cdae 823d 27f8 35bc
00000330: a34d 5ebe e641 e43d 6b90 95be 0452 68bb
00000340: 447c dc3d cb47 cdbe b8b2 19bf 2303 033e
00000350: 8058 a1be 75c6 14bf 46ba 673e 61e8 e23e
00000360: 72ed 023d ba84 ab3e 7fbc 6a3f 8db5 e23e
00000370: cbae c53e df34 a53e 5ee8 53be 0d76 823e
00000380: c7a5 24bf 4ea8 67be 46f6 193e 2ea7 88bf
00000390: 3fa3 32bf e564 483d d501 28bf 961b 45be
000003a0: 5b52 473c 7992 e3bd 1a44 7d3d 1742 8b3d
000003b0: 6372 273d aebe 803d e5c8 313d f9b0 013e
000003c0: e3d1 1d3e 359f 2c3d 46f0 26be 3703 88be
000003d0: e01e df3d d2cc 27bf 288a efbe 711f 5b3e
000003e0: 1ea3 febe 41cf 7cbf 8389 d03e 12b0 c93e
000003f0: b25f 4abe d4bf 113f 51e1 ab3f 3fe5 803e
0.059892926 0.028855858 0.012929795 0.022412896 0.092087306 0.025304403 0.07998196 0.03000969
0.061146684 0.079007246 0.013141726 0.1012594 0.02900046 0.066860095 0.026802303 0.0297715
0.09264866 0.099169 0.08668699 0.066480435 0.06702729 0.082382865 0.07378907 0.14167267
0.11816726 0.14502968 0.13813558 0.09288227 0.081186645 0.10786482 0.10608205 0.047583837
0.05508513 0.025128186 0.014746854 0.07844621 0.09708874 0.041546438 0.05577858 0.03583858
0.05729882 0.050448436 0.012738239 0.0578567 0.0786202 0.063871495 0.019255012 0.056940127
0.1123406 0.07149646 0.05038883 0.041333135 0.058212556 0.098256245 0.01123358 0.081793986
0.100759424 0.09943613 -0.024176301 -0.016948592 -0.09664227 -0.10308461 -0.03942228 0.087275766
0.039463423 0.13037607 -0.08083699 0.12146218 0.21916188 0.21669896 0.16946483 0.19408104
0.095608346 0.038302153 0.07936449 0.11091171 0.027472287 0.088721745 0.07284926 0.012109788
0.021192791 0.06551626 0.054401107 0.081752926 0.04269988 0.08975995 0.09410546 0.07028744
0.066746935 0.14941004 0.100053154 0.10237106 0.14207487 0.15496902 0.0803582 -0.018895242
0.09197533 0.12390939 -0.45832163 -0.11973508 0.18310738 -0.8626673 -0.36644486 0.17162393
-0.5370357 -0.25684652 0.2348161 -0.017888775 -0.0036250611 0.12074032 0.22890769 0.16366608
0.19922137 0.2711439 0.14089231 0.109422676 0.113201134 0.09807359 0.027099883 0.056517273
0.06749858 0.08071968 0.095383115 0.041666698 0.08853769 0.13926853 0.05058012 0.14952758
0.11124316 0.020517403 0.11178126 0.06532688 -0.07831669 0.057242677 -0.19782113 0.114267804
-0.10008786 -0.5618951 -0.037027746 -0.06745705 -1.187691 -0.45102695 0.033597797 -1.1096544
-0.37852305 0.083217256 -0.50996304 -0.3219059 0.11691274 -0.036356874 -0.040913418 0.11855182
0.19820496 0.16541055 0.089096494 0.133037 0.04551463 0.09085893 0.029953282 0.03946349
0.09580618 0.13058479 0.11115038 0.11824107 0.037155014 0.03898277 0.024826644 0.03773904
0.11222301 0.15247415 -0.21349375 -0.34781334 0.13950488 -0.3640262 -0.15190433 0.057907753
-0.29412538 -0.05046872 0.18594179 -0.3235519 0.07775772 0.13748392 -0.7341702 -0.5125057
0.14621821 -0.93954635 -0.38271818 0.12526591 -0.62402666 -0.46951476 0.1001046 -0.28481054
0.0044311676 0.054995786 -0.017250264 0.040948167 0.025233226 0.0690186 -0.0054337857 0.050406452
0.12950894 0.11613195 0.06380997 -0.011106527 -0.21709304 0.11145382 -0.29211745 -0.0035449276
0.10765889 -0.40093836 -0.6003833 0.12794165 -0.31512833 -0.5811532 0.22629651 0.44317916
0.031964727 0.334997 0.9169387 0.44279137 0.3860992 0.322669 -0.2069411 0.2548069
-0.64315456 -0.22622797 0.15035352 -1.0676019 -0.69780344 0.048924346 -0.65627795 -0.19248804
0.012165631 -0.11111922 0.061832525 0.06799715 0.040880572 0.06286369 0.04340448 0.12665166
0.15412097 0.04214402 -0.16302595 -0.26564953 0.10894561 -0.65546906 -0.46785092 0.21398713
-0.49733824 -0.98753744 0.40729913 0.39392143 -0.19763067 0.5693333 1.3428136 0.251749

linear.bias f4 [10]
00000000: a396 c93d cf0b d6bd f142 113d 879f 803c
00000010: 03f7 a8bd 1783 713d edda a33c 8e0c 363c
00000020: c89c 393d aaae 7ebc
0.09843185 -0.10451471 0.03546423 0.015701069 -0.08250239 0.058962908 0.020001853 0.011111392
0.045315534 -0.015544573

exp_avg f4 [10, 507]
00000000: 104d a3bc 7ac6 a5bb 9821 f5bc 104d a3bc
00000010: 7ac6 a5bb 9821 f5bc 104d a3bc 7bc6 a5bb
00000020: 9821 f5bc 104d a3bc 7bc6 a5bb 9821 f5bc
00000030: 1d4d a3bc 72c6 a5bb 7f21 f5bc f64c a3bc
00000040: 72c6 a5bb 7d21 f5bc 0e4d a3bc 7ac6 a5bb
00000050: 9721 f5bc a84c a3bc d2c6 a5bb 8a22 f5bc
00000060: a64c a3bc 82c7 a5bb 4c24 f5bc 114f a3bc
00000070: 35c7 a5bb 7923 f5bc 2c4d a3bc 86c6 a5bb
00000080: bb21 f5bc 144d a3bc 7cc6 a5bb 9e21 f5bc
00000090: 104d a3bc 7ac6 a5bb 9821 f5bc 104d a3bc
000000a0: 7ac6 a5bb 9821 f5bc 104d a3bc 7ac6 a5bb
000000b0: 9821 f5bc 104d a3bc 7bc6 a5bb 9821 f5bc
000000c0: 8f4c a3bc e0c6 a5bb ba22 f5bc 776e a3bc
000000d0: ecad a5bb e8d9 f4bc 8a44 a5bc e190 a3bb
000000e0: 8019 f0bc 1cc3 a3bc 6da5 a0bb 020d eabc
000000f0: d4cf a1bc c20c 9fbb 67ad e4bc ef4f b0bc
00000100: 0550 96bb 3e4e cabc 9979 8ebc b8ed 95bb
00000110: 3b7b c8bc 53f6 95bc 7ead a1bb 942b e9bc
00000120: 4a48 a3bc 1dc5 a5bb 951d f5bc 2e4d a3bc
00000130: 83c6 a5bb b321 f5bc 104d a3bc 7ac6 a5bb
00000140: 9821 f5bc 0e4d a3bc 7bc6 a5bb 9c21 f5bc
00000150: 104d a3bc 7dc6 a5bb 9e21 f5bc 244e a3bc
00000160: b6c4 a5bb 5120 f5bc 52f3 a4bc 5bd7 a4bb
00000170: d73f f1bc 72e7 a2bc a661 a3bb 86ab e9bc
00000180: 4465 afbc aab5 98bb d44a c8bc 4130 c3bc
00000190: 5998 81bb 5804 50bc e51a 7fbc 4586 8bbb
000001a0: c1b0 e4bb 8507 a8bc 1dbf 8bbb a9a8 babb
000001b0: 1879 27bc ada5 7cbb 9d49 34bc 816f 5cbc
000001c0: 69d7 99bb 271a d4bc c36f aabc 033e a9bb
000001d0: f99b fdbc 0b4d a3bc 7fc6 a5bb a521 f5bc
000001e0: 064d a3bc 89c6 a5bb c921 f5bc fb4c a3bc
000001f0: a2c6 a5bb 1822 f5bc d30f a4bc 3544 a5bb
00000200: e65e f3bc 3a8a a5bc ecf8 a3bb e87f ebbc
00000210: 29f8 adbc 49c0 92bb 5393 bdbc 03de abbc
00000220: 0a23 97bb b138 74bc fc86 8ebc 8b95 87bb
00000230: 80f8 2bbc 9600 5fbc 882b 6cbb 2cef 7bbc
00000240: d000 c8bc 9b63 5cbb 704e 62bc 68a9 8bbc
00000250: 4400 5abb 6d7a d439 5c78 563b ed45 98bb
00000260: 2fe7 47bc ff5e a9bc b52e a8bb 54ac fcbc
00000270: 0b4d a3bc 7fc6 a5bb a521 f5bc 0e4d a3bc
00000280: 88c6 a5bb b221 f5bc 1a64 a3bc e9b4 a5bb
00000290: 19ef f4bc 53a7 a7bc 7423 a3bb fae4 e9bc
000002a0: a555 b4bc 2d8a 8abb 14eb abbc 936a c9bc
000002b0: 6fbf 6fbb e97b c7ba 7161 77bc ef52 88bb
000002c0: 6a86 0d3c 52fa 2bbc 410c 80bb ac9b 30bb
000002d0: 6500 3abc f79d 84bb 321c a0bc 1960 94bc
000002e0: 40f7 a5bb cb51 f2bc 9bbd ebbc 0b74 a6bb
000002f0: 0dc9 edbb 0dbd d03b 0aa2 a1bb ed04 bebb
00000300: 29f5 9abc 31cb a4bb 71bf edbc 104d a3bc
00000310: 7ac6 a5bb 9a21 f5bc 144d a3bc 81c6 a5bb
00000320: 7321 f5bc 3e06 a5bc d0a7 a4bb 7abb f0bc
00000330: 60c1 bbbc b782 93bb f345 afbc 680c c2bc
00000340: 1d2d 82bb eafc 7eba 1de7 33bc c12f 64bb
00000350: 4de4 2b3c a09c 31bc e951 2ebb cc01 fc3a
00000360: 77a9 8bbc 4e01 39bb b6a7 e3bb 35f2 88bc
00000370: 97b9 80bb 1e58 c2bb 871e cabb f40a 9abb
00000380: 37b9 7dbc 51e3 d6bc 747d 9ebb 4731 5abc
00000390: f109 aebb d9c8 a0bb a327 4bbc 0e4a 91bc
000003a0: 9480 a5bb a32d e5bc 104d a3bc 7ac6 a5bb
000003b0: 9821 f5bc c75d a3bc b9b9 a5bb bbfc f4bc
000003c0: b997 b2bc d786 9bbb 70b8 cebc 8b7e cfbc
000003d0: 511d 97bb d545 f3bb 4069 a8bc f3fe 9cbb
000003e0: a2bd 483c 6ca6 e93b d3b8 99bb a75a 51bb
000003f0: b8bd 87bc f68f a0bb 5df7 e5bc b42b a8bc
-0.019934207 -0.0050590606 -0.029923245 -0.019934207 -0.0050590606 -0.029923245 -0.019934207 -0.005059061
-0.029923245 -0.019934207 -0.005059061 -0.029923245 -0.019934231 -0.005059057 -0.029923199 -0.019934159
-0.005059057 -0.029923195 -0.019934203 -0.0050590606 -0.029923243 -0.019934013 -0.0050591016 -0.029923696
-0.01993401 -0.0050591836 -0.029924534 -0.019935163 -0.0050591477 -0.029924141 -0.01993426 -0.005059066
-0.02992331 -0.019934215 -0.0050590616 -0.029923256 -0.019934207 -0.0050590606 -0.029923245 -0.019934207
-0.0050590606 -0.029923245 -0.019934207 -0.0050590606 -0.029923245 -0.019934207 -0.005059061 -0.029923245
-0.019933967 -0.005059108 -0.029923785 -0.019950135 -0.0050561335 -0.029889062 -0.020174284 -0.004991636
-0.029309034 -0.019990496 -0.004902533 -0.028570656 -0.01975242 -0.004853816 -0.027914716 -0.02152249
-0.004587176 -0.024695512 -0.017391967 -0.0045754574 -0.024472823 -0.018305933 -0.004934012 -0.028463162
-0.019931931 -0.005058898 -0.029921332 -0.019934263 -0.005059065 -0.029923296 -0.019934207 -0.0050590606
-0.029923245 -0.019934203 -0.005059061 -0.029923253 -0.019934207 -0.005059062 -0.029923256 -0.019934721
-0.00505885 -0.029922636 -0.020135555 -0.005030555 -0.029449387 -0.019885752 -0.004986006 -0.028524172
-0.021410592 -0.004660328 -0.024449743 -0.02382672 -0.003954929 -0.012696348 -0.015570377 -0.0042579495
-0.0069790785 -0.020511398 -0.004264726 -0.0056963754 -0.010221742 -0.00385509 -0.011003879 -0.013454319
-0.0046948683 -0.025891377 -0.020805245 -0.005164863 -0.030958163 -0.019934198 -0.005059063 -0.02992327
-0.019934189 -0.0050590676 -0.029923337 -0.019934168 -0.0050590793 -0.029923484 -0.020027077 -0.0050435313
-0.029708337 -0.020207513 -0.005004039 -0.028747514 -0.021236496 -0.0044784886 -0.023141539 -0.020979887
-0.0046123313 -0.014906094 -0.01739835 -0.0041377 -0.010496259 -0.01361098 -0.0036036689 -0.015376847
-0.02441445 -0.0033628705 -0.013812646 -0.017048553 -0.0033264318 0.00040527005 0.0032725548 -0.0046470077
-0.012201115 -0.02067518 -0.005132521 -0.030843891 -0.019934198 -0.005059063 -0.02992327 -0.019934203
-0.005059067 -0.029923294 -0.019945193 -0.0050569666 -0.029899167 -0.020465529 -0.0049785916 -0.028551567
-0.022013495 -0.0042278976 -0.020986117 -0.024586951 -0.003658261 -0.0015219423 -0.015098915 -0.004160277
0.008638004 -0.010496693 -0.003907711 -0.0026948256 -0.011352633 -0.004047151 -0.019544695 -0.01811223
-0.005064875 -0.029580018 -0.028776934 -0.0050797514 -0.007256633 0.006370193 -0.0049326466 -0.005798927
-0.01891573 -0.005029105 -0.02902195 -0.019934207 -0.0050590606 -0.029923249 -0.019934215 -0.005059064
-0.029923176 -0.020144578 -0.0050248876 -0.02938627 -0.022919357 -0.0045016664 -0.02139566 -0.023687556
-0.003972663 -0.0009727018 -0.010980395 -0.0034818503 0.010491443 -0.010840565 -0.0026599115 0.001922661
-0.01704858 -0.0028229537 -0.006947483 -0.016717056 -0.003928374 -0.0059309145 -0.00616819 -0.0047010127
-0.015486053 -0.02623144 -0.0048367325 -0.013317413 -0.0053112437 -0.0049067554 -0.012399587 -0.017735507
-0.005050728 -0.027975863 -0.019934207 -0.0050590606 -0.029923245 -0.019942177 -0.0050575403 -0.029905668
-0.021800863 -0.004746299 -0.025234431 -0.025328895 -0.004611649 -0.007424096 -0.020558 -0.0047911345
0.012252243 0.0071304347 -0.004691222 -0.0031944902 -0.016569957 -0.004899974 -0.028072054 -0.020528652

exp_avg_sq f4 [10, 507]
00000000: e71d c13b 5903 c739 3193 593c 1a1e c13b
00000010: 2f03 c739 e292 593c 0e32 c13b d1f4 c639
00000020: 1576 593c d8fa c03b 6ef3 c639 2873 593c
00000030: c76a c13b 4ec7 c639 b214 593c 169b c13b
00000040: 2e0d c639 93a2 573c 864a c03b 0d80 c539
00000050: 249e 563c c277 c03b 9551 c539 ac62 563c
00000060: 3599 bf3b a8a2 c539 a805 573c e7a1 c03b
00000070: 1a07 c639 a2a4 573c a6cd bf3b 0872 c639
00000080: ff6d 583c 24f2 c03b 5af4 c639 4f73 593c
00000090: 8b1c c13b ea02 c739 5392 593c 1c1e c13b
000000a0: 2f03 c739 e792 593c 9e25 c13b 9dfe c639
000000b0: db85 593c 4f42 c23b b62a c639 49e4 573c
000000c0: 8e84 c23b c5c8 c339 e181 543c b303 c83b
000000d0: 45cf bc39 af72 483c 5b41 c33b f23b b439
000000e0: a26f 373c cf32 c73b 5ef7 a839 d16e 243c
000000f0: 8c63 b13b 52e7 a139 cefb 1a3c 1ae3 ad3b
00000100: 90f8 a739 116a 243c 39d4 ae3b 0beb b239
00000110: 63cf 363c 6b5a b43b 3d6f bd39 6f28 483c
00000120: c89f b93b 1502 c439 1f7e 533c 1794 c03b
00000130: 5dcd c639 8224 593c 301f c13b 5f02 c739
00000140: 1e91 593c ba91 c13b 88b6 c639 0fd4 583c
00000150: cd98 c43b 8b44 c539 61f7 533c 95d9 c73b
00000160: 2646 c039 f315 493c c4b8 d03b 1cb9 b639
00000170: 39e7 2c3c 7f6b c83b 0fc5 a339 cb17 023c
00000180: a337 cc3b dfc1 8e39 905f b53b d0f8 a83b
00000190: 2cc6 8439 7667 8c3b b452 8b3b 1016 8a39
000001a0: 9ccd 9d3b 8231 863b 4ce6 9b39 1cdd eb3b
000001b0: 3b7e 9d3b de8a ad39 47c3 203c 8f88 a73b
000001c0: 1bfb ba39 ed3b 3e3c f0d8 bb3b 5080 c439
000001d0: 86c9 543c 5d1f c13b 0303 c739 ca90 593c
000001e0: 74e2 c13b 73ef c639 bc58 583c 49a9 c73b
000001f0: b0af c439 e9ef 4e3c fb1d d03b e4da ba39
00000200: ba89 333c 6b40 d63b 7f2c a739 0926 013c
00000210: c217 bf3b 84af 9139 cc16 9e3b 5c3c a33b
00000220: 996b 8539 94cb 843b 74f0 ab3b b3d1 8439
00000230: 6b1e 683b 753c 8f3b 3b57 8939 1c66 5f3b
00000240: adc1 6e3b c69d 9539 03d2 a73b e023 8e3b
00000250: b2d9 aa39 bed5 043c 3317 9a3b c272 bb39
00000260: d38a 2e3c a152 b83b 5b92 c439 5743 523c
00000270: d01e c13b e902 c739 dd91 593c d901 c23b
00000280: 1175 c639 092b 583c 9659 cf3b d407 c239
00000290: 00f9 433c 700b d93b b369 b739 0698 153c
000002a0: 5310 d43b 370d a339 43d9 ae3b c5db a33b
000002b0: ea7e 9439 64c7 793b e8e0 833b 0a0f 9739
000002c0: 653d b03b 1b28 ac3b b130 9639 54ee b83b
000002d0: 55e2 aa3b b505 9939 5728 a93b 425d 9a3b
000002e0: 8f1a a639 5836 b33b acc5 903b 3db7 b239
000002f0: 880c fa3b c321 973b c0c0 bf39 b478 2d3c
00000300: 7fa3 b83b 0df0 c539 2365 533c 4a23 c13b
00000310: 1200 c739 ba8a 593c 01c7 c33b f1fc c539
00000320: ca9c 553c 9c86 da3b bed3 be39 29a7 323c
00000330: 49fd db3b 3aa9 af39 9e89 e63b 3d70 c23b
00000340: 6bbd a039 50d8 6d3b f8e9 703b 6261 9c39
00000350: ac05 963b 89a9 8c3b d044 a139 3465 ed3b
00000360: b3df b33b d678 a839 71eb 033c ed23 c43b
00000370: 7e1b ac39 f2dc d53b 81af a63b 220f ae39
00000380: 0de5 b63b 0c44 8f3b 1a40 b439 b933 f13b
00000390: e161 933b 046b be39 fb1e 2b3c d849 b83b
000003a0: c2f7 c539 c4f7 523c c62f c13b e8fc c639
000003b0: 4d78 593c 5898 c73b 2480 c539 7328 503c
000003c0: 2307 e83b ca38 be39 04c4 1e3c 5519 dd3b
000003d0: b4d3 ae39 976e b03b b4a8 a93b 884d a339
000003e0: d67c 6e3b ca45 503b 3a99 a539 c7f4 c43b
000003f0: 2335 a43b 5dc0 ad39 b59f 143c b508 c63b
0.005893457 0.00037958732 0.013279722 0.005893481 0.0003795861 0.0132796485 0.0058958596 0.00037947905
0.013272782 0.005889278 0.00037946872 0.013272084 0.0059026214 0.00037913996 0.013249563 0.0059083803
0.00037775323 0.013161319 0.005868259 0.00037670173 0.013099227 0.0058736512 0.0003763555 0.013085049
0.005847121 0.00037695956 0.013123907 0.0058786753 0.00037770794 0.01316181 0.0058533726 0.00037850463
0.013209819 0.0058882404 0.0003794756 0.013272121 0.005893295 0.0003795841 0.013279515 0.005893482
0.0003795861 0.013279653 0.005894377 0.00037955205 0.013276543 0.0059283148 0.00037797325 0.013176986
0.005936212 0.00037342883 0.012970419 0.0061039566 0.00036012582 0.012234374 0.0059587187 0.00034376938
0.011196049 0.006079055 0.0003222776 0.010036186 0.0054134782 0.0003088066 0.009459449 0.0053066136
0.00032037916 0.010035054 0.0053353575 0.00034125926 0.011157843 0.0055039427 0.00036131768 0.012216671
0.0056647994 0.00037385584 0.012908488 0.0058770287 0.0003791851 0.013253333 0.0058936104 0.00037958004
0.013279228 0.0059072645 0.000379015 0.013234152 0.0059996606 0.00037625837 0.012937398 0.006098936
0.00036673358 0.0122732995 0.006369682 0.00034851662 0.010553175 0.00611633 0.00031236603 0.007940243
0.0062322184 0.00027228796 0.0055350736 0.005156614 0.00025324652 0.0042847944 0.0042518023 0.0002633785
0.0048157703 0.0040952573 0.00029735488 0.007197989 0.0048063076 0.00033100595 0.009812183 0.0051127146
0.00035663773 0.011610967 0.005732648 0.00037479633 0.0129875 0.0058936314 0.00037958482 0.013279149
0.005916888 0.00037943907 0.01320475 0.0060931784 0.0003751493 0.012630441 0.00635123 0.0003563977
0.01095813 0.006538441 0.00031885874 0.007882603 0.0058316896 0.00027787325 0.004824495 0.0049815606
0.00025447903 0.0040525887 0.00524717 0.0002533324 0.003541852 0.0043712207 0.00026195668 0.0034087962
0.0036431358 0.00028537045 0.005121471 0.0043377727 0.00032587122 0.008107601 0.0047024726 0.0003575292
0.010653215 0.0056250845 0.00037493077 0.012833438 0.0058935657 0.00037958406 0.013279405 0.0059206304
0.00037852724 0.013193854 0.006327818 0.00037008396 0.011961222 0.006623678 0.00034983232 0.0091304835
0.0064716726 0.00031099629 0.005335958 0.005000564 0.00028323318 0.003811323 0.0040246136 0.0002881217
0.0053784125 0.0052538044 0.00028646507 0.0056436453 0.005214969 0.00029186686 0.0051622796 0.004710824
0.00031681775 0.0054691248 0.0044180956 0.0003408733 0.0076308884 0.004612179 0.0003657397 0.01058786
0.0056347246 0.0003775362 0.012902531 0.0058940994 0.0003795629 0.013277704 0.005974651 0.00037763224
0.01303787 0.0066688787 0.00036397384 0.010904112 0.0067135436 0.00033504685 0.007035448 0.00593379
0.00030658706 0.0036292262 0.003676055 0.00029827195 0.004578313 0.004292671 0.00030759582 0.0072447304
0.0054893135 0.00032133487 0.008051739 0.005985728 0.0003282688 0.006526583 0.0050868397 0.0003319914
0.005581504 0.0043721255 0.00034380035 0.007360902 0.004497752 0.00036319357 0.010444398 0.0056240372
0.00037759362 0.012876455 0.0058955876 0.00037953933 0.013273311 0.006091159 0.0003767024 0.012704956
0.007080929 0.00036281935 0.009690288 0.0067474046 0.00033345597 0.005384277 0.0051775817 0.00031147548
0.0036390326 0.0031779879 0.00031585415 0.006010625 0.005011217 0.00033140453 0.00907128 0.0060435184

exp_avg f4 [10]
00000000: 9821 f5bc 5430 963b ae8d 973c 99f1 0bbc
00000010: 9f36 833c f8db 2a3d 2898 e23a 891a 0cbd
00000020: 848e a5bc 4458 293c
-0.029923245 0.004583398 0.018500175 -0.008541488 0.016017256 0.041713685 0.0017287778 -0.034204993
-0.020209558 0.010335986

exp_avg_sq f4 [10]
00000000: 3193 593c 4696 753c 176b a33c 3912 be3c
00000010: 89a0 d93c eee2 e83c 321f 973c 297c d43c
00000020: 736f 003d 7a1f 1b3d
0.013279722 0.014989441 0.019948525 0.023202049 0.026565807 0.028428521 0.018447492 0.02593811
0.031356286 0.037871815
