evaluation/Results/Seed_0_Trainable_no_FRQI_for_2x2_2x2_imgsize_14/model_checkpoints/epochs_39.pt (torch, 63969 bytes, 7 tensors)

qlayer_1.torch_qlayer.weights f8 [1, 4]
-0.07266094962931335 -0.8793490277240921 -0.26835022124251884 -0.6564112353869826
00000000: 20ad 5a72 e899 b2bf 1a05 7b92 a023 ecbf
00000010: 581a 0768 a62c d1bf 7cd9 9622 5201 e5bf

linear.weight f4 [10, 507]
0.053363264 0.022326298 0.006400148 0.01499992 0.08622022 0.020079212 0.07013356 0.026872821
0.061035108 0.079028025 0.009822742 0.10079047 0.023777911 0.060879678 0.021317875 0.026154986
0.0847675 0.0899839 0.07645441 0.058644515 0.05796866 0.07004211 0.07082748 0.14176723
0.12423244 0.1401301 0.13485324 0.0808514 0.072842956 0.098212324 0.09955469 0.04105523
0.048557263 0.018598916 0.00821733 0.071916774 0.09055904 0.035016853 0.049248926 0.029308956
0.050769288 0.043918833 0.0020523346 0.05203541 0.07845257 0.045256563 0.02068597 0.08242233
0.11508918 0.08595347 0.09301894 0.0423683 0.0816548 0.13921106 0.028107727 0.09677284
0.11507443 0.08460059 -0.01861835 -0.019659115 -0.120289765 -0.089506105 -0.007823282 0.14173783
0.036607597 0.12896636 -0.109537296 0.10029353 0.18207395 0.17680492 0.17439465 0.198843
0.1032712 0.055642 0.104082234 0.12706298 0.028112844 0.09519014 0.06631963 0.0055802152
0.014663167 0.055675276 0.05037359 0.080342 0.032400418 0.09578687 0.10507521 0.065569565
0.084892236 0.17128848 0.11202786 0.10746799 0.14298667 0.18854983 0.044739287 -0.12302447
0.009117015 0.080487154 -0.5765753 -0.12644084 0.14566362 -0.88800055 -0.3905144 0.14406171
-0.57102215 -0.25646722 0.21420445 -0.050257813 -0.05058128 0.11128469 0.23165971 0.16282886
0.21006551 0.30187166 0.161459 0.1105952 0.12392958 0.091544025 0.020570291 0.0499877
0.063004814 0.07305657 0.08596775 0.044456445 0.08190638 0.11403974 0.021380734 0.14303428
0.09296314 0.035506297 0.09743131 0.027572885 -0.077457435 0.012716838 -0.38785362 -0.004450505
-0.1268952 -0.73617494 -0.010730429 -0.09579237 -1.2924339 -0.52884185 -0.027586553 -1.2380766
-0.40315834 0.047522612 -0.6002266 -0.3657929 0.092651084 -0.08734036 -0.09267097 0.106036216
0.1919531 0.17034155 0.0859443 0.1349676 0.038978826 0.08433417 0.023433141 0.03538851
0.09219976 0.12071933 0.09516371 0.12238949 0.041448824 0.030582428 0.032113962 0.067198865
0.1407897 0.17187735 -0.23650481 -0.39464155 0.16028354 -0.5112761 -0.24301639 0.041330375
-0.3928637 0.0006096504 0.16494888 -0.44864643 -0.02211666 0.12515694 -0.8870211 -0.6213562
0.13861397 -0.9943893 -0.33271056 0.119708166 -0.6872492 -0.5770707 0.088563405 -0.33098114
0.0041774386 0.048416503 -0.018137846 0.03273186 0.019940045 0.065079324 -0.012860256 0.048603177
0.13069817 0.11230917 0.048690192 0.0029782134 -0.21281362 0.08419055 -0.25918755 0.070422225
0.058721088 -0.5197217 -0.69717723 0.09761371 -0.53520656 -0.76673514 0.22547154 0.43017203
0.08594997 0.3429639 0.955092 0.3991091 0.3983452 0.30472156 -0.3425039 0.2520861
-0.5631702 -0.062403947 0.14824907 -1.09113 -0.83919454 0.045233008 -0.7412256 -0.20847987
0.008504489 -0.12120852 0.051835686 0.06146961 0.03970482 0.05833426 0.036682308 0.13587832
0.21786849 0.02518416 -0.21087323 -0.32416952 0.08987125 -0.7043109 -0.41659123 0.2103227
-0.57975847 -1.1274211 0.4087664 0.2907005 -0.3750271 0.6233498 1.4541264 0.3099323
00000000: 7093 5a3d a4e5 b63c 55b8 d13b 39c2 753c
00000010: 3a94 b03d 297d a43c 2fa2 8f3d 6424 dc3c
00000020: f3ff 793d 72d9 a13d 91ef 203c 3c6b ce3d
00000030: e5c9 c23c f85c 793d d3a2 ae3c fb42 d63c
00000040: 959a ad3d 7b49 b83d 2194 9c3d 3b35 703d
00000050: 8c70 6d3d 3d72 8f3d ff0d 913d 6e2b 113e
00000060: 946d fe3d 447e 0f3e f816 0a3e 6b95 a53d
00000070: b02e 953d 8b23 c93d 54e3 cb3d 8729 283d
00000080: fbe3 463d c15c 983c fba1 063c 1a49 933d
00000090: 0577 b93d d56d 0f3d 3eb9 493d 5619 f03c
000000a0: 75f3 4f3d 3ce4 333d 7680 063b 1523 553d
000000b0: beab a03d f25e 393d a075 a93c 0acd a83d
000000c0: e0b3 eb3d 5f08 b03d b780 be3d 628a 2d3d
000000d0: a23a a73d 588d 0e3e 2d42 e63c d730 c63d
000000e0: 25ac eb3d 1343 ad3d 8385 98bc 270c a1bc
000000f0: 7b5a f6bd fa4e b7bd 392d 00bc b923 113e
00000100: d9f1 153d c20f 043e 1755 e0bd b266 cd3d
00000110: 9871 3a3e 590c 353e 8394 323e 809d 4b3e
00000120: da7f d33d dee8 633d 1129 d53d cc1c 023e
00000130: e84c e63c 0cf3 c23d 96d2 873d 3dda b63b
00000140: c83d 703c c20b 643d 8a54 4e3d 598a a43d
00000150: 4db6 043d e82b c43d ac31 d73d 5649 863d
00000160: fbdb ad3d 3f66 2f3e dd6e e53d 2d18 dc3d
00000170: 196b 123e 3513 413e 8b40 373d 41f4 fbbd
00000180: 885f 153c 73d6 a43d 709a 13bf b579 01be
00000190: d828 153e 0154 63bf 81f1 c7be ea84 133e
000001a0: 822e 12bf ac4f 83be 6958 5b3e 23db 4dbd
000001b0: 512e 4fbd 3ae9 e33d 3438 6d3e 9cbc 263e
000001c0: 6a1b 573e ec8e 9a3e 8255 253e bc7f e23d
000001d0: cbce fd3d 6f7b bb3d 0783 a83c e7bf 4c3d
000001e0: ab08 813d af9e 953d dc0f b03d f617 363d
000001f0: 88be a73d ab8d e93d a626 af3c 9477 123e
00000200: 7563 be3d 0d6f 113d 118a c73d 88e0 e13c
00000210: 01a2 9ebd 495a 503c c094 c6be 8bd5 91bb
00000220: d1f0 01be f675 3cbf aece 2fbc ca2e c4bd
00000230: 796e a5bf 2e62 07bf 32fd e1bc 4b79 9ebf
00000240: c56a cebe 12a7 423d 73a8 19bf 3549 bbbe
00000250: dabf bd3d 81df b2bd 47ca bdbd 8429 d93d
00000260: 5a8f 443e 046e 2e3e 9103 b03d f234 0a3e
00000270: 43a8 1f3d 65b7 ac3d dcf6 bf3c 8bf3 103d
00000280: 3ad3 bc3d b23b f73d 31e5 c23d 57a7 fa3d
00000290: 3ec6 293d 0088 fa3c ee89 033d 8f9f 893d
000002a0: 2d2b 103e 9e00 303e 512e 72be 750e cabe
000002b0: 5e21 243e fee2 02bf 4ad9 78be 0a4a 293d
000002c0: 6e25 c9be f2d0 1f3a 5ce8 283e fcb4 e5be
000002d0: ff2d b5bc 2429 003e d113 63bf 3311 1fbf
000002e0: d2f0 0d3e 4c90 7ebf 0a59 aabe 8e29 f53d
000002f0: 90ef 2fbf e8ba 13bf bb60 b53d 5c76 a9be
00000300: e5e2 883b 6250 463d d295 94bc d811 063d
00000310: 4e59 a33c 4f48 853d d3b3 52bc 2014 473d
00000320: bed5 053e 5a02 e63d 5e6f 473d 212e 433b
00000330: d0eb 59be 186c ac3d 3bb4 84be 8739 903d
00000340: 8685 703d 7b0c 05bf 357a 32bf b2e9 c73d
00000350: 4c03 09bf c148 44bf 03e2 663e 823f dc3e
00000360: 8a06 b03d f798 af3e e980 743f 0758 cc3e
00000370: e7f3 cb3e 7704 9c3e ac5c afbe 6e11 813e
00000380: ec2b 10bf 489b 7fbd 9bce 173e 26aa 8bbf
00000390: 74d5 56bf 3f46 393d f6c0 3dbf bf7b 55be
000003a0: 6a56 0b3c 2c3c f8bd a851 543d 8fc7 7b3d
000003b0: 85a1 223d e8ef 6e3d 3040 163d b023 0b3e
000003c0: eb18 5f3e 034f ce3c 27ef 57be 8cf9 a5be
000003d0: 6b0e b83d b84d 34bf 724b d5be d55e 573e
000003e0: 0d6b 14bf 564f 90bf d449 d13e b2d6 943e
000003f0: 8d03 c0be da93 1f3f d020 ba3f 72af 9e3e

linear.bias f4 [10]
0.0919022 -0.10527552 0.06805533 -0.00815313 -0.08135097 0.05599258 0.0146100605 -0.002664369
0.055685073 -0.0035256401
00000000: 3837 bc3d b19a d7bd 9860 8b3d b594 05bc
00000010: 569b a6bd 7a58 653d 095f 6f3c b29c 2ebb
00000020: 0816 643d 6d0e 67bb

exp_avg f4 [10, 507]
0.005785676 0.0014683346 0.008684878 0.005785676 0.0014683346 0.008684878 0.0057856776 0.0014683343
0.0086848745 0.005786179 0.0014682426 0.008683816 0.005784478 0.0014682432 0.00868382 0.005785682
0.0014683331 0.008684866 0.005787669 0.0014679404 0.008680368 0.005839021 0.0014576516 0.008560603
0.0059069577 0.0014291963 0.008230831 0.0054078996 0.0014394866 0.008350609 0.005785676 0.0014683346
0.008684878 0.005785676 0.0014683346 0.008684878 0.005785676 0.0014683346 0.008684878 0.005785676
0.0014683346 0.008684878 0.005785677 0.0014683346 0.008684877 0.00578668 0.0014681452 0.008682591
0.005788001 0.0014679432 0.008675975 0.005726578 0.0014781343 0.008793157 0.0057612937 0.0015295063
0.009030309 0.0071495376 0.001177378 0.0066372743 0.0050802412 0.00081080204 0.002503956 0.0021696775
0.0011527967 0.0040498497 0.0049560396 0.0014682937 0.007953712 0.0058873696 0.001449286 0.008463344
0.0062493077 0.0013544286 0.007434342 0.0046001086 0.0013735687 0.0076569556 0.005785676 0.0014683346
0.008684878 0.0057856804 0.0014683343 0.008684872 0.005789466 0.0014681527 0.00867554 0.005768681
0.001469658 0.0086933095 0.0050401282 0.0015997126 0.010497292 0.006495943 0.0018251152 0.012237832
0.00957237 0.0016595708 0.004829637 0.00335821 0.0014770345 -0.0018339183 0.0008749913 0.0014892915
0.0033371279 0.005336343 0.0014319216 0.008077889 0.0067727165 0.0013646684 0.0064560086 0.0043056505
0.0013227031 0.0055157356 0.0045170053 0.0014131535 0.0075776232 0.005785676 0.0014683346 0.008684878
0.005785831 0.001468313 0.008684542 0.0057909237 0.0014682829 0.008672394 0.005557702 0.0014975792
0.009175508 0.0047837757 0.0015838942 0.013054608 0.009485341 0.0014298216 0.01159112 0.006690057
0.0012543823 0.0027777199 0.0008300512 0.0014004766 0.0045970664 0.006715619 0.0015077906 0.009811279
0.0070865806 0.0013652968 0.006686654 0.005046595 0.0012991386 0.004041742 0.003235843 0.0014140607
0.006229942 0.00570159 0.0014618428 0.008604564 0.005785676 0.0014683346 0.008684878 0.0057869973
0.001468168 0.008681926 0.0057910113 0.0014678369 0.008669128 0.0051092845 0.0014981471 0.010412312
0.0066532483 0.0013815631 0.013126168 0.011931951 0.0012571512 0.0054554185 0.00058520166 0.0012861475
0.0009402957 0.0017216573 0.0013744205 0.010488802 0.008411596 0.0014704601 0.013308022 0.009515982
0.0014608527 0.0062050456 0.0025236316 0.0014037037 0.0046890513 0.0052091926 0.0014192238 0.008173087
0.005784671 0.0014682477 0.008683871 0.005785677 0.0014683345 0.008684877 0.005790358 0.0014678683
0.008672019 0.005773832 0.0014682442 0.0086713275 0.0049977363 0.0014545263 0.010624662 0.009303558
0.0012773613 0.007864443 0.0060710427 0.0011760361 0.0020809253 0.0027425503 0.0012249764 0.0033576426
0.004920207 0.0013040396 0.0072763893 0.005109537 0.0014438467 0.010106908 0.009393022 0.0013948774
0.008632075 0.0041220007 0.001383675 0.007329111 0.0058395024 0.0014690429 0.008727414 0.005784742
0.0014682863 0.008684053 0.0057856776 0.0014683346 0.008684877 0.0057901354 0.0014682132 0.008672213
0.005722246 0.0014691523 0.00877884 0.0063084727 0.001293847 0.007183094 0.007301166 0.0012296587
0.002631681 0.0010731359 0.0013466943 0.0043429337 0.0073434655 0.0013734011 0.0071090665 0.0071358033
00000000: c595 bd3b 2275 c03a 054b 0e3c c595 bd3b
00000010: 2275 c03a 054b 0e3c c895 bd3b 2075 c03a
00000020: 014b 0e3c fd99 bd3b 0c72 c03a 9046 0e3c
00000030: b88b bd3b 1172 c03a 9546 0e3c d195 bd3b
00000040: 1575 c03a f84a 0e3c 7da6 bd3b e867 c03a
00000050: 1a38 0e3c 4255 bf3b ac0e bf3a c541 0c3c
00000060: 278f c13b df53 bb3a 9bda 063c c034 b13b
00000070: 28ad bc3a fed0 083c c595 bd3b 2275 c03a
00000080: 054b 0e3c c595 bd3b 2275 c03a 054b 0e3c
00000090: c595 bd3b 2275 c03a 054b 0e3c c595 bd3b
000000a0: 2275 c03a 054b 0e3c c795 bd3b 2275 c03a
000000b0: 044b 0e3c 319e bd3b c76e c03a 6d41 0e3c
000000c0: 46a9 bd3b 0068 c03a ad25 0e3c 05a6 bb3b
000000d0: f5bd c13a 2c11 103c 3cc9 bc3b b779 c83a
000000e0: dcf3 133c ab46 ea3b 4052 9a3a 7e7d d93b
000000f0: 2778 a63b 018c 543a 6919 243b 2631 0e3b
00000100: 7019 973a 9ab4 843b 4666 a23b c373 c03a
00000110: 4950 023c d6ea c03b f8f5 bd3a d6a9 0a3c
00000120: fec6 cc3b 1587 b13a c89b f33b 82bc 963b
00000130: 5109 b43a 33e7 fa3b c595 bd3b 2275 c03a
00000140: 054b 0e3c ce95 bd3b 2075 c03a fe4a 0e3c
00000150: 90b5 bd3b 086f c03a da23 0e3c 3407 bd3b
00000160: 8aa1 c03a 626e 0e3c a927 a53b 73ad d13a
00000170: d5fc 2b3c ebdb d43b b438 ef3a 3081 483c
00000180: 6ed5 1c3c f585 d93a ee41 9e3b 6a15 5c3b
00000190: 0e99 c13a 1660 f0ba ac5f 653a 5534 c33a
000001a0: b7b3 5a3b 7ddc ae3b 51af bb3a 1f59 043c
000001b0: aaed dd3b acde b23a ed8c d33b 6a16 8d3b
000001c0: 8d5e ad3a 58bd b43b 6303 943b 9039 b93a
000001d0: b64d f83b c595 bd3b 2275 c03a 054b 0e3c
000001e0: 1197 bd3b 6974 c03a 9c49 0e3c cac1 bd3b
000001f0: 6673 c03a a816 0e3c 621d b63b 6b4a c43a
00000200: df54 163c 38c1 9c3b ac9a cf3a ffe2 553c
00000210: 6768 1b3c da68 bb3a aee8 3d3c 4438 db3b
00000220: 166a a43a 680a 363b cb97 593a 3290 b73a
00000230: fda2 963b b20e dc3b 0fa1 c53a 7dbf 203c
00000240: 8c36 e83b c2f3 b23a b81b db3b e85d a53b
00000250: dc47 aa3a 9770 843b 7010 543b 0158 b93a
00000260: 8b24 cc3b 67d4 ba3b 4e9b bf3a 28fa 0c3c
00000270: c595 bd3b 2275 c03a 054b 0e3c daa0 bd3b
00000280: 8b6f c03a a33e 0e3c 86c2 bd3b 6f64 c03a
00000290: f508 0e3c c96b a73b 7a5d c43a 6798 2a3c
000002a0: 7e03 da3b 9115 b53a 240f 573c 3b7e 433c
000002b0: ffc6 a43a 5ec3 b23b 3868 193a f393 a83a
000002c0: 2d7e 763a 3ca9 e13a e625 b43a 39d9 2b3c
000002d0: cad0 093c 74bc c03a e409 5a3c ece8 1b3c
000002e0: 157a bf3a b253 cb3b 8363 253b 7bfc b73a
000002f0: 9da6 993b e0b1 aa3b 4005 ba3a 69e8 053c
00000300: 568d bd3b 3872 c03a cb46 0e3c c795 bd3b
00000310: 2175 c03a 044b 0e3c 0bbd bd3b 7d65 c03a
00000320: 1515 0e3c 6a32 bd3b 1a72 c03a 2f12 0e3c
00000330: 0dc4 a33b cea5 be3a 1013 2e3c f36d 183c
00000340: 226d a73a ddd9 003c 99ef c63b 3925 9a3a
00000350: 2260 083b 5cbc 333b 638f a03a e50b 5c3b
00000360: b039 a13b 4fec aa3a c76e ee3b e76d a73b
00000370: 753f bd3a 7297 253c 31e5 193c 52d4 b63a
00000380: 8c6d 0d3c d911 873b 6e5c b53a 0a29 f03b
00000390: 4c59 bf3b e68c c03a 6dfd 0e3c ef8d bd3b
000003a0: 8373 c03a 8f47 0e3c c895 bd3b 2275 c03a
000003b0: 044b 0e3c 2dbb bd3b 0f71 c03a e615 0e3c
000003c0: ae81 bb3b 9290 c03a 20d5 0f3c 4eb7 ce3b
000003d0: 4d96 a93a 2960 eb3b 9f3e ef3b 802c a13a
000003e0: 4878 2c3b 77a8 8c3a 9083 b03a 2b4f 8e3b
000003f0: 74a1 f03b b203 b43a 2cf3 e83b 75d3 e93b

exp_avg_sq f4 [10, 507]
0.005326675 0.0003430821 0.012002596 0.005329754 0.00034293617 0.011992643 0.00533986 0.0003423042
0.01195313 0.005303288 0.00034236012 0.011956605 0.005328732 0.00034270916 0.0119772805 0.00534056
0.00034176835 0.011917188 0.005307588 0.00034101796 0.01187127 0.0053302576 0.00034025282 0.011828964
0.0052790986 0.00034019136 0.011825819 0.0052905907 0.00034144567 0.011899476 0.005304684 0.00034248777
0.011964245 0.0053238133 0.0003430205 0.011998425 0.005326585 0.00034308023 0.0120024765 0.0053266883
0.00034308145 0.012002558 0.0053421836 0.00034290797 0.011955588 0.0053938264 0.00034060905 0.011794053
0.0053296997 0.00033587427 0.011641114 0.0054440503 0.00032657557 0.011138124 0.0054893233 0.0003107397
0.0101368865 0.0054414035 0.00028889693 0.009014939 0.0047275117 0.0002828679 0.008721895 0.004793499
0.00030053046 0.009519076 0.004967326 0.00031542373 0.010398893 0.0050356355 0.000326652 0.011102737
0.005161674 0.0003355952 0.011585024 0.005240669 0.0003411088 0.01188106 0.0053267623 0.00034307802
0.01200233 0.005346129 0.00034223025 0.011940452 0.005439057 0.000337347 0.011623251 0.005471443
0.00032887742 0.011085519 0.0057739364 0.00031091154 0.009494642 0.005653022 0.0002780819 0.00709247
0.0057217367 0.00024120724 0.0048010657 0.004370483 0.00022568778 0.003814656 0.003762242 0.000239981
0.0046779765 0.0040378845 0.0002700306 0.0069277734 0.0043908814 0.00029720346 0.00883195 0.004532319
0.0003213039 0.010399977 0.005156053 0.0003390577 0.011722834 0.005326773 0.00034308064 0.012002288
0.0053473804 0.00034271184 0.011936962 0.0055127973 0.00033874027 0.011445514 0.005663942 0.00032263767
0.010139425 0.0060823006 0.00028682486 0.007257098 0.0053448346 0.00025029 0.0044743265 0.004704912
0.00023152259 0.0033058086 0.004423699 0.00023313622 0.0026645355 0.0036765838 0.00024160995 0.0031759636
0.003698427 0.00026048053 0.0046724253 0.003912551 0.0002949725 0.007232767 0.0040720706 0.0003238992
0.0094492035 0.0051591834 0.0003401194 0.011725799 0.005326763 0.00034307898 0.012002337 0.0053787
0.00034149986 0.011841698 0.0057060816 0.00033313432 0.010781267 0.0059546493 0.0003124994 0.008355886
0.005706427 0.0002819281 0.005199759 0.0048536975 0.0002474898 0.0032429567 0.0036663024 0.00024354023
0.003942019 0.004517244 0.00025551204 0.004544405 0.0046937657 0.00026625517 0.004662729 0.0045419186
0.00029003952 0.0046084668 0.004010123 0.0003109374 0.006715265 0.004041574 0.00032943604 0.009398111
0.00513933 0.00034138368 0.011726708 0.00533569 0.00034267153 0.011972826 0.0054611103 0.00034015605
0.011568147 0.0059953914 0.0003268041 0.009722669 0.005858663 0.00030487316 0.0066397646 0.005408504
0.0002775835 0.0034591402 0.00357961 0.00026496671 0.004205092 0.0037944845 0.00027236855 0.0061713634
0.00491462 0.0002808816 0.0070780595 0.0056235613 0.00029142227 0.005525208 0.0043883277 0.00029608238
0.0046155117 0.003783078 0.00030654657 0.0066676536 0.004092923 0.0003278584 0.009547394 0.0051166615
0.00034156695 0.011686296 0.0053459993 0.00034305494 0.011941528 0.0056352946 0.00033763258 0.011041293
0.006146676 0.00032551697 0.008638722 0.0058091464 0.0002991396 0.0052817557 0.004939077 0.00028401476
0.0038195157 0.0030710835 0.00029013233 0.0057083024 0.004452093 0.00029875815 0.008274874 0.005607266
00000000: 638b ae3b b3df b339 89a6 443c 38a5 ae3b
00000010: 1dcc b339 ca7c 443c fef9 ae3b 4b77 b339
00000020: 10d7 433c 34c7 ad3b cc7e b339 a3e5 433c
00000030: a59c ae3b a5ad b339 5b3c 443c ddff ae3b
00000040: 5f2f b339 4f40 433c 46eb ad3b a8ca b239
00000050: b77f 423c 71a9 ae3b f663 b239 45ce 413c
00000060: 4afc ac3b b65b b239 14c1 413c b15c ad3b
00000070: 1004 b339 05f6 423c ead2 ad3b ee8f b339
00000080: ae05 443c 6273 ae3b 6fd7 b339 0b95 443c
00000090: a28a ae3b 73df b339 09a6 443c 808b ae3b
000000a0: 9ddf b339 61a6 443c 7c0d af3b 54c8 b339
000000b0: 5fe1 433c b2be b03b c693 b239 d83b 413c
000000c0: c3a4 ae3b 4818 b039 5fba 3e3c 0164 b23b
000000d0: 3b38 ab39 ae7c 363c c8df b33b c7ea a239
000000e0: 2f15 263c cd4d b23b 1777 9739 65b3 133c
000000f0: 3ee9 9a3b e34d 9439 47e6 0e3c c912 9d3b
00000100: 8490 9d39 e6f5 1b3c f3c4 a23b 755f a539
00000110: 1e60 2a3c f901 a53b 7d42 ab39 41e8 353c
00000120: 4323 a93b d3f2 af39 1dcf 3d3c ebb9 ab3b
00000130: d9d6 b239 c7a8 423c 1f8c ae3b 27df b339
00000140: 6ca5 443c 952e af3b 5e6d b339 e3a1 433c
00000150: 1e3a b23b f3dd b039 736f 3e3c ca49 b33b
00000160: 2e6d ac39 09a0 353c 4a33 bd3b d701 a339
00000170: 6a8f 1b3c fc3c b93b 85cb 9139 f367 e83b
00000180: 687d bb3b 93ec 7c39 4252 9d3b 4536 8f3b
00000190: 9aa6 6c39 4fff 793b f28f 763b 69a3 7b39
000001a0: b649 993b 3b50 843b e592 8d39 6002 e33b
000001b0: 62e1 8f3b f9d1 9b39 e2b3 103c d983 943b
000001c0: ae74 a839 aa64 2a3c 1cf4 a83b 8ec3 b139
000001d0: 2111 403c 368c ae3b 81df b339 3fa5 443c
000001e0: 1439 af3b 01ae b339 3f93 433c b2a4 b43b
000001f0: f398 b139 f785 3b3c 9798 b93b b227 a939
00000200: d51f 263c 094e c73b fb60 9639 f3cc ed3b
00000210: b923 af3b 5b39 8339 5f9d 923b aa2b 9a3b
00000220: dfc4 7239 44a6 583b adf4 903b 0776 7439
00000230: 7d9f 2e3b d7f2 703b ad58 7d39 d423 503b
00000240: 4f61 723b 1b91 8839 251b 993b db34 803b
00000250: 8aa6 9a39 d900 ed3b 016f 853b 04d1 a939
00000260: d5d0 1a3c 5e0e a93b 0e52 b239 911d 403c
00000270: 208c ae3b 48df b339 73a5 443c ce3f b03b
00000280: 560b b339 ae03 423c 15fa ba3b 88a8 ae39
00000290: e9a3 303c 381f c33b f6d6 a339 20e7 083c
000002a0: fbfc ba3b c0cf 9339 bd62 aa3b c40b 9f3b
000002b0: 85c1 8139 c987 543b 5946 703b d55e 7f39
000002c0: 0d2c 813b 6405 943b 3ff6 8539 3be9 943b
000002d0: 29ce 993b 2a98 8b39 cec9 983b 60d4 943b
000002e0: 7210 9839 9f02 973b 5a67 833b 5005 a339
000002f0: ba0b dc3b 2e6f 843b 28b8 ac39 89fa 193c
00000300: d367 a83b befb b239 6121 403c 03d7 ae3b
00000310: 98a8 b339 ac29 443c 1df3 b23b f956 b239
00000320: 5388 3d3c fd74 c43b e756 ab39 d44b 1f3c
00000330: 07fa bf3b 62d7 9f39 6292 d93b d239 b13b
00000340: a088 9139 beb2 623b e497 6a3b 3beb 8a39
00000350: deca 893b e3ac 783b b0cc 8e39 2639 ca3b
00000360: d20a a13b 4a43 9339 11ef e73b da45 b83b
00000370: 09ca 9839 ce0c b53b f6cb 8f3b 813b 9b39
00000380: b83d 973b 84ed 773b fcb7 a039 557c da3b
00000390: ed1d 863b 69e4 ab39 ac6c 1c3c aba9 a73b
000003a0: 5714 b339 e177 3f3c 7e2d af3b 0edc b339
000003b0: 66a6 433c 47a8 b83b 4704 b139 8ae6 343c
000003c0: 0e6a c93b 26aa aa39 6d89 0d3c a75a be3b
000003d0: d6d5 9c39 9412 ad3b fbd7 a13b d1e7 9439
000003e0: d750 7a3b 3b44 493b e71c 9839 b60c bb3b
000003f0: dde2 913b a4a2 9c39 5693 073c 28bd b73b

exp_avg f4 [10]
0.008684878 0.0019500216 0.005120124 -0.0012103266 0.02314244 -0.032969456 0.033668626 0.016120205
-0.044276733 -0.010229779
00000000: 054b 0e3c de97 ff3a b7c6 a73b d2a3 9eba
00000010: 3795 bd3c fb0a 07bd 1de8 093d 850e 843c
00000020: 855b 35bd ce9a 27bc

exp_avg_sq f4 [10]
0.012002596 0.013442644 0.020149633 0.023599729 0.025341779 0.02841277 0.016204206 0.023269666
0.027750913 0.03410472
00000000: 89a6 443c 893e 5c3c d810 a53c 3854 c13c
00000010: 9099 cf3c e6c1 e83c afbe 843c 07a0 be3c
00000020: e255 e33c 64b1 0b3d
