evaluation/Results/Seed_0_Trainable_no_NEQR_2x2_imgsize_14/model_checkpoints/epochs_32.pt (torch, 206049 bytes, 7 tensors)

qlayer_1.torch_qlayer.weights f8 [1, 4]
-0.07266094962931335 -0.8793490277240921 -0.26835022124251884 -0.6564112353869826
00000000: 20ad 5a72 e899 b2bf 1a05 7b92 a023 ecbf
00000010: 581a 0768 a62c d1bf 7cd9 9622 5201 e5bf

linear.weight f4 [10, 1690]
0.0026685155 0.0054045618 -0.003318379 0.0019105969 0.040012386 0.0034083368 0.034921 0.004853137
0.001122257 0.010102122 -0.024260491 0.042572882 0.0037667819 0.034060568 0.013040338 0.016593643
0.03833594 0.04116464 0.021770969 -0.0049938206 -0.013138018 0.03580982 -0.0003898905 0.025107456
0.018105384 0.046568953 0.01897422 0.025559701 0.0027272885 0.009591277 -0.2516387 0.010601343
0.01102971 -0.01903633 -0.0031419394 0.030598197 0.042625632 -0.0072165504 0.00032016015 -0.0106172925
-0.27293786 0.02400192 -0.016662238 0.021274542 0.033113226 0.01289648 -0.0016694828 0.013305089
0.02032363 0.0018778584 -0.19440702 0.052937075 0.040260516 0.025271427 0.061596245 0.025179656
0.047414128 0.05860931 -0.0006631678 0.008036751 -0.28947467 0.100194104 0.022458877 0.012419973
0.12667674 0.11407611 0.08811162 0.019076454 0.0126859695 0.019661736 -0.33815122 0.12535357
0.04473636 0.06688718 0.11197979 0.1549948 0.12802675 0.08159937 0.009762699 -0.023501135
-0.6256123 0.20610914 0.097332686 0.14847149 0.17194445 0.1247935 0.20876244 0.14717454
-0.008663454 -0.0032056759 -0.4449987 0.16585031 0.081829414 0.14051628 0.09819776 0.08475633
0.16316664 0.052280262 0.01927469 -0.008774876 -0.21065171 0.057342544 0.09367644 0.06550808
0.04936264 0.10199324 0.062558934 0.012873162 0.013695424 -0.0125558125 -0.018911991 0.053919464
0.05134514 0.07891001 0.049951524 0.080192566 0.0126570845 0.0438439 -0.0154379085 0.00038148783
0.012013693 0.028989334 0.030871682 0.039495174 0.035973493 0.052196834 0.0040928777 0.042169545
-0.014312175 -0.022613665 -0.007364403 0.023363423 0.0058243712 0.028472003 0.015405527 0.006617021
0.042112555 0.03598961 -0.018860707 -0.02417558 -0.14319196 0.026098948 0.005138203 0.03518078
0.02520038 -0.005511782 0.028458243 0.023921201 -0.007747326 0.014947331 0.36309022 0.0559227
0.018618967 0.039627843 0.018942494 -0.038028747 0.02651871 0.04906727 -0.014903071 0.0014245515
0.05128222 0.08868365 -0.00797337 0.060963564 0.10952533 0.026002996 0.005911947 0.049293477
0.015214622 -0.007429712 -0.39565414 0.18684879 -0.023855073 -0.02633521 0.10372925 0.10774366
0.03931823 0.0037877585 0.017099716 0.02184714 -0.10172482 0.28966334 0.013939209 0.07407443
0.06719531 0.019683914 0.15177341 0.0970469 0.020470042 -0.009812299 0.32934657 0.0317926
-0.025657536 -0.026418263 -0.015385896 -0.20994593 0.1981344 0.09171687 -0.021604141 -0.010424912
0.29711142 -0.5391095 -0.108922586 -0.24058764 -0.26040238 -0.39086685 -0.008636439 -0.09794074
-0.0014390069 -0.0010126071 0.27164415 -0.3181062 -0.071445964 -0.0008213725 -0.13764141 -0.3781629
-0.0025835135 0.030511232 0.00733653 -0.018325035 -0.020858293 0.123709075 0.00027097203 0.111971796
-0.1659614 -0.24367264 -0.032931875 0.17121194 0.01929099 -0.011858456 -0.8883061 0.18569012
0.060834065 0.11125442 -0.056864478 -0.06856206 0.04224371 0.07968548 -0.015678717 0.022824533
-0.48785266 0.08352786 0.1098699 0.25800142 0.09475025 0.13243859 0.11545472 0.064299814
-0.01168575 0.0068904175 -0.36943227 0.028465478 0.06951723 0.10561523 0.057386346 0.09008597
00000000: 43e2 2e3b c018 b13b 2979 59bb fe6c fa3a
00000010: 07e4 233d 675e 5f3b 5309 0f3d 1007 9f3b
00000020: b218 933a 5f83 253c f0bd c6bc e760 2e3d
00000030: 1ddc 763b 1883 0b3d 24a7 553c 64ef 873c
00000040: 2606 1d3d 419c 283d 0859 b23c 34a3 a3bb
00000050: d740 57bc 51ad 123d 386a ccb9 27ae cd3c
00000060: be51 943c 16bf 3e3d d36f 9b3c 9462 d13c
00000070: 4fbc 323b bb24 1d3c cad6 80be 41b1 2d3c
00000080: f5b5 343c 14f2 9bbc ffe8 4dbb 12a9 fa3c
00000090: 3798 2e3d d078 ecbb 2bdb a739 27f4 2dbc
000000a0: 83be 8bbe ad9f c43c 3f7f 88bc f347 ae3c
000000b0: bca1 073d c24b 533c 8cd2 daba 97fd 593c
000000c0: be7d a63c 7922 f63a a212 47be 8cd4 583d
000000d0: 36e8 243d 0606 cf3c 584c 7c3d 9145 ce3c
000000e0: 5135 423d 5110 703d 70d8 2dba 94ac 033c
000000f0: 0636 94be 9132 cd3d aefb b73c 247d 4b3c
00000100: 8cb7 013e bca0 e93d dd73 b43d 3946 9c3c
00000110: d0d8 4f3c a611 a13c 2822 adbe b05c 003e
00000120: 793d 373d 25fc 883d a955 e53d f5b6 1e3e
00000130: 7219 033e 921d a73d baf3 1f3c 7485 c0bc
00000140: 2128 20bf 460e 533e 5c56 c73d e908 183e
00000150: 3512 303e bc93 ff3d d2c5 553e ecb4 163e
00000160: 29f1 0dbc 5116 52bb dfd6 e3be aad4 293e
00000170: 2e96 a73d 80e3 0f3e e81b c93d ba94 ad3d
00000180: 2815 273e d423 563d f4e5 9d3c 7fc4 0fbc
00000190: 15b5 57be 04e0 6a3d 6fd9 bf3d 1a29 863d
000001a0: 7b30 4a3d d5e1 d03d e61e 803d f4e9 523c
000001b0: c662 603c e5b6 4dbc 52ed 9abc a8da 5c3d
000001c0: 484f 523d 929b a13d f899 4c3d 003c a43d
000001d0: a95f 4f3c a995 333d 48ef 7cbc 6e02 c839
000001e0: 15d5 443c 0a7b ed3c 9ce6 fc3c b1c5 213d
000001f0: f158 133d 59cc 553d 8c1d 863b f9b9 2c3d
00000200: 9d7d 6abc 4b40 b9bc 1751 f1bb a664 bf3c
00000210: 5eda be3b 1e3e e93c 7767 7c3c 98d3 d83b
00000220: 377e 2c3d d769 133d c581 9abc de0b c6bc
00000230: eaa0 12be 76cd d53c 5f5e a83b b919 103d
00000240: 0771 ce3c 2e9c b4bb 4321 e93c 65f6 c33c
00000250: 48dd fdbb a6e5 743c f6e6 b93e 330f 653d
00000260: ce86 983c ce50 223d 4a2d 9b3c 08c4 1bbd
00000270: c43d d93c c3fa 483d 032c 74bc 04b8 ba3a
00000280: 4e0d 523d c69f b53d bda2 02bc eeb4 793d
00000290: d14e e03d 3c04 d53c 02b9 c13b f5e7 493d
000002a0: c046 793c f174 f3bb 2e93 cabe 4a55 3f3e
000002b0: b76b c3bc f0bc d7bc 0070 d43d b5a8 dc3d
000002c0: 270c 213d 0b3c 783b b414 8c3c c6f8 b23c
000002d0: 1a55 d0bd c14e 943e 4861 643c 56b4 973d
000002e0: b29d 893d 2940 a13c 7d6a 1b3e 86c0 c63d
000002f0: cab0 a73c c4c3 20bc 1da0 a83e f538 023d
00000300: c12f d2bc 1d6b d8bc 2015 7cbc 11fc 56be
00000310: bfe3 4a3e 0ed6 bb3d 2bfb b0bc 40cd 2abc
00000320: fd1e 983e 1503 0abf ce12 dfbd 9b5c 76be
00000330: 7653 85be b31f c8be da7f 0dbc 2895 c8bd
00000340: 0f9d bcba 75b9 84ba f114 8b3e d1de a2be
00000350: 4352 92bd 6051 57ba dff1 0cbe 919e c1be
00000360: 2a50 29bb b1f2 f93c 4667 f03b 621e 96bc
00000370: 03df aabc 2f5b fd3d 4011 8e39 7851 e53d
00000380: c9f1 29be 5285 79be 93e3 06bd 2f52 2f3e
00000390: 2308 9e3c f849 42bc 0768 63bf 8d25 3e3e
000003a0: 242d 793d 5bd9 e33d baea 68bd 446a 8cbd
000003b0: be07 2d3d 2432 a33d a770 80bc 84fa ba3c
000003c0: d3c7 f9be a810 ab3d 7803 e13d c318 843e
000003d0: 6b0c c23d fb9d 073e 8673 ec3d 9faf 833d
000003e0: 9775 3fbc 03c9 e13b 3a26 bdbe 6f30 e93c
000003f0: 0d5f 8e3d cc4c d83d f20d 6b3d fe7e b83d

linear.bias f4 [10]
0.015025145 -0.15637124 0.086293325 0.062636614 -0.076733634 0.07970768 0.026511304 -0.03699643
0.109627016 -0.075011715
00000000: 072c 763c c81f 20be 8eba b03d a047 803d
00000010: 8626 9dbd c83d a33d 3c2e d93c 9289 17bd
00000020: 2184 e03d be9f 99bd

exp_avg f4 [10, 1690]
0.0 0.03352906 0.02500573 0.03352906 0.03352906 0.03352906 0.03232904 0.03352906
0.0 0.0 0.0 0.03352906 0.02500573 0.03352906 0.03352906 0.03352906
0.03232904 0.03352906 0.0 0.0 6e-45 0.03352906 0.02500573 0.03352906
0.03352906 0.03352906 0.03232904 0.03352906 -6e-45 0.0 6e-45 0.03352906
0.02500573 0.03352906 0.03352906 0.03352906 0.03232904 0.03352906 0.0 0.0
4.7894594e-10 0.03352906 0.02500573 0.03352906 0.03352906 0.03352906 0.03232904 0.03352906
6e-45 0.0 4.7894594e-10 0.03352906 0.02500573 0.03352906 0.03352906 0.03352906
0.03232904 0.03352906 -6e-45 0.0 1.1765263e-12 0.03352906 0.02500573 0.03352906
0.03352906 0.03352906 0.03232904 0.03352906 -1.306206e-28 0.0 1.0245704e-10 0.03352906
0.025005728 0.03352906 0.03352906 0.03352906 0.03232904 0.03352906 1.306206e-28 0.0
1.012805e-10 0.03352906 0.02500573 0.03352906 0.03352906 0.03352906 0.03232904 0.03352906
1.0883523e-33 0.0 7.154624e-14 0.03352906 0.02500573 0.03352906 0.03352906 0.03352906
0.03232904 0.03352906 -8e-45 0.0 7.154624e-14 0.03352906 0.02500573 0.03352906
0.03352906 0.03352906 0.03232904 0.03352906 -6e-45 0.0 6e-45 0.03352906
0.02500573 0.03352906 0.03352906 0.03352906 0.03232904 0.03352906 6e-45 0.0
0.0 0.03352906 0.02500573 0.03352906 0.03352906 0.03352906 0.03232904 0.03352906
0.0 0.0 0.0 0.03352906 0.02500573 0.03352906 0.03352906 0.03352906
0.03232904 0.03352906 0.0 0.0 2.0682968e-34 0.03352906 0.02500573 0.03352906
0.03352906 0.03352906 0.03232904 0.03352906 0.0 0.0 1.8250934e-16 0.03352906
0.02500573 0.03352906 0.03352906 0.03352906 0.03232904 0.03352906 -5.766964e-39 0.0
1.8250922e-16 0.03352608 0.02500573 0.03352608 0.03352906 0.03352608 0.03232904 0.03352608
1.2792188e-32 0.0 2.9754974e-06 0.027803922 0.025005728 0.03352608 0.027809868 0.033523105
0.026814546 0.027803922 -2.7574797e-29 0.0 5.948975e-06 0.022084733 0.025005728 0.027806731
0.03013039 0.027806731 0.021300051 0.027803753 -5.3145775e-26 0.0 -0.0023144034 0.030127415
0.025005728 0.024404917 0.035846602 0.02780656 0.021297017 0.03352277 -3.303464e-22 0.0
-0.0023172074 0.035849575 0.025006285 0.0324485 0.03584643 0.033525743 0.029048977 0.03584643
1.3013519e-32 0.0 3.3816983e-07 0.03352906 0.025006702 0.035850145 0.035849407 0.033529457
0.034826957 0.036118962 2.5487458e-26 0.0 1.688253e-07 0.03352889 0.025207056 0.033798102
0.03379827 0.033529464 0.03258929 0.03379827 3.775852e-28 0.0 5.6434232e-11 0.033528887
0.025407504 0.03406765 0.034067612 0.033528853 0.0323288 0.03379827 -1.876316e-28 0.0
1.6903289e-12 0.03352906 0.025206571 0.03379844 0.0337984 0.033528976 0.032328963 0.03379844
2.93e-43 0.0 2.6424023e-27 0.03352906 0.0250057 0.03352906 0.03352906 0.03352902
00000000: 0000 0000 c555 093d d1d8 cc3c c555 093d
00000010: c555 093d c555 093d 756b 043d c555 093d
00000020: 0000 0000 0000 0000 0000 0000 c555 093d
00000030: d1d8 cc3c c555 093d c555 093d c555 093d
00000040: 756b 043d c555 093d 0000 0000 0000 0000
00000050: 0400 0000 c555 093d d1d8 cc3c c555 093d
00000060: c555 093d c555 093d 756b 043d c555 093d
00000070: 0400 0080 0000 0000 0400 0000 c555 093d
00000080: d1d8 cc3c c555 093d c555 093d c555 093d
00000090: 756b 043d c555 093d 0000 0000 0000 0000
000000a0: d3a6 0330 c555 093d d1d8 cc3c c555 093d
000000b0: c555 093d c555 093d 756b 043d c555 093d
000000c0: 0400 0000 0000 0000 d3a6 0330 c555 093d
000000d0: d1d8 cc3c c555 093d c555 093d c555 093d
000000e0: 756b 043d c555 093d 0400 0080 0000 0000
000000f0: d494 a52b c555 093d d1d8 cc3c c555 093d
00000100: c555 093d c555 093d 756b 043d c555 093d
00000110: cf94 2591 0000 0000 304e e12e c555 093d
00000120: d0d8 cc3c c555 093d c555 093d c555 093d
00000130: 756b 043d c555 093d cf94 2511 0000 0000
00000140: dab7 de2e c555 093d d1d8 cc3c c555 093d
00000150: c555 093d c555 093d 756b 043d c555 093d
00000160: 63d5 b408 0000 0000 991b a129 c555 093d
00000170: d1d8 cc3c c555 093d c555 093d c555 093d
00000180: 756b 043d c555 093d 0600 0080 0000 0000
00000190: 991b a129 c555 093d d1d8 cc3c c555 093d
000001a0: c555 093d c555 093d 756b 043d c555 093d
000001b0: 0400 0080 0000 0000 0400 0000 c555 093d
000001c0: d1d8 cc3c c555 093d c555 093d c555 093d
000001d0: 756b 043d c555 093d 0400 0000 0000 0000
000001e0: 0000 0000 c555 093d d1d8 cc3c c555 093d
000001f0: c555 093d c555 093d 756b 043d c555 093d
00000200: 0000 0000 0000 0000 0000 0000 c555 093d
00000210: d1d8 cc3c c555 093d c555 093d c555 093d
00000220: 756b 043d c555 093d 0000 0000 0000 0000
00000230: 3f76 8907 c555 093d d1d8 cc3c c555 093d
00000240: c555 093d c555 093d 756b 043d c555 093d
00000250: 0000 0000 0000 0000 406b 5225 c555 093d
00000260: d1d8 cc3c c555 093d c555 093d c555 093d
00000270: 756b 043d c555 093d f3cb 3e80 0000 0000
00000280: 376b 5225 a552 093d d1d8 cc3c a552 093d
00000290: c555 093d a552 093d 756b 043d a552 093d
000002a0: 78d7 840a 0000 0000 a8ae 4736 0dc5 e33c
000002b0: d0d8 cc3c a552 093d 85d1 e33c 864f 093d
000002c0: 2eaa db3c 0dc5 e33c 22d2 0b90 0000 0000
000002d0: 4e9d c736 0beb b43c d0d8 cc3c f1ca e33c
000002e0: 02d4 f63c f1ca e33c 727d ae3c b2c4 e33c
000002f0: 2395 8395 0000 0000 3fad 17bb c5cd f63c
00000300: d0d8 cc3c d2ec c73c e3d3 123d 95ca e33c
00000310: 1577 ae3c 2c4f 093d a1ae c79b 0000 0000
00000320: 4adc 17bb 01d7 123d fbd9 cc3c b8e8 043d
00000330: b5d3 123d 4a52 093d 1ff8 ed3c b5d3 123d
00000340: de23 870a 0000 0000 b58d b534 c555 093d
00000350: dbda cc3c 9ad7 123d d4d6 123d 2f56 093d
00000360: b6a6 0e3d 7af1 133d 626a fc14 0000 0000
00000370: 5846 3534 9755 093d 077f ce3c e16f 0a3d
00000380: 0e70 0a3d 3156 093d 597c 053d 0e70 0a3d
00000390: b452 ef11 0000 0000 4c33 782e 9655 093d
000003a0: 6623 d03c 858a 0b3d 7b8a 0b3d 8d55 093d
000003b0: 346b 043d 0e70 0a3d efd9 6d91 0000 0000
000003c0: 84e4 ed2b c555 093d 037e ce3c 3c70 0a3d
000003d0: 3170 0a3d ae55 093d 606b 043d 3c70 0a3d
000003e0: d100 0000 0000 0000 495a 5113 c555 093d
000003f0: c1d8 cc3c c555 093d c555 093d ba55 093d

exp_avg_sq f4 [10, 1690]
0.0 0.013676698 0.0076070824 0.013676698 0.013676698 0.013676698 0.012715244 0.013676698
0.0 0.0 0.0 0.013676698 0.0076070824 0.013674083 0.0136740785 0.013674083
0.012715241 0.013676695 0.0 0.0 6.3308e-40 0.013676695 0.00760708 0.0136740785
0.013674076 0.013674083 0.012715241 0.013676695 0.0 0.0 2.0771093e-12 0.013676695
0.007607079 0.013627382 0.013676695 0.013676698 0.012715244 0.013627382 0.0 0.0
8.308447e-12 0.01357543 0.0075037307 0.013578074 0.01352252 0.013437849 0.0124822 0.013461099
0.0 0.0 1.1695037e-09 0.013113243 0.007338994 0.013537418 0.013252439 0.013189134
0.01239402 0.013337476 0.0 0.0 3.0042042e-06 0.013089911 0.0072572925 0.0132589685
0.013129867 0.013105274 0.012353191 0.0133835 5.1923467e-38 0.0 3.6716917e-06 0.012994485
0.007284978 0.013096726 0.013160113 0.013200041 0.012132017 0.013488016 5.1923483e-38 0.0
3.4151587e-06 0.012985846 0.0074083847 0.01301708 0.0131735485 0.013187789 0.012166961 0.013574437
1.2409413e-38 0.0 1.496826e-06 0.013163617 0.0075537837 0.013350361 0.0132588195 0.013424057
0.012239639 0.013387768 7e-43 0.0 2.7058314e-17 0.01348416 0.007581956 0.013609716
0.013497259 0.013608316 0.012478434 0.013440103 0.0 0.0 4.6400963e-21 0.01364061
0.007601926 0.013628579 0.0136285825 0.013620688 0.012715271 0.013676694 0.0 0.0
0.0 0.013676698 0.0076070824 0.01364061 0.01364061 0.01364061 0.012715244 0.013676698
0.0 0.0 0.0 0.013676698 0.0076070824 0.013676698 0.013676698 0.013676698
0.012715244 0.013676698 0.0 0.0 1.0115172e-11 0.013676695 0.007603665 0.013674083
0.013645254 0.013526063 0.012709436 0.013676593 0.0 0.0 4.9801773e-05 0.013640727
0.0075027123 0.013510762 0.013463458 0.013446903 0.012529339 0.013527545 4.9009546e-37 0.0
0.00021644507 0.013026654 0.0072008437 0.012870152 0.013126622 0.012880323 0.0121471025 0.01301484
2.479672e-38 0.0 0.0005668917 0.01207097 0.0065203896 0.012104924 0.011964633 0.0120560685
0.01093077 0.011866505 1.1822797e-36 0.0 0.0014690933 0.011137996 0.0057952562 0.010456729
0.010667928 0.010559197 0.009826762 0.011196314 2.2562385e-36 0.0 0.0026317888 0.009347032
0.005318742 0.0084853815 0.008699634 0.0088250525 0.008106049 0.009770297 2.7091653e-36 0.0
0.0029650836 0.008150858 0.0045568827 0.007085356 0.007584989 0.008336092 0.0069734654 0.008978201
3.279009e-36 0.0 0.0023788323 0.00829305 0.004750317 0.00772614 0.008111528 0.008560497
0.0070268847 0.009840321 1.6448218e-36 0.0 0.0014114663 0.009615573 0.0053969747 0.009366877
0.009590942 0.009824699 0.008275097 0.010688277 8.908872e-37 0.0 0.0006426503 0.011452207
0.0062378366 0.011243372 0.010964758 0.011134777 0.01050306 0.010939695 1.0932963e-36 0.0
0.00022821368 0.012937963 0.006947647 0.012412673 0.012603643 0.012564754 0.011797292 0.0124430815
3.998231e-37 0.0 3.2437503e-05 0.013660504 0.00753019 0.013402429 0.013521083 0.013481747
00000000: 0000 0000 3b14 603c d544 f93b 3b14 603c
00000010: 3b14 603c 3b14 603c 9953 503c 3b14 603c
00000020: 0000 0000 0000 0000 0000 0000 3b14 603c
00000030: d544 f93b 4309 603c 3e09 603c 4309 603c
00000040: 9653 503c 3714 603c 0000 0000 0000 0000
00000050: c5e4 0600 3714 603c d044 f93b 3e09 603c
00000060: 3b09 603c 4309 603c 9653 503c 3714 603c
00000070: 0000 0000 0000 0000 e029 122c 3714 603c
00000080: ce44 f93b 6245 5f3c 3714 603c 3b14 603c
00000090: 9953 503c 6245 5f3c 0000 0000 0000 0000
000000a0: eb29 122d 7b6b 5e3c dbe1 f53b 9276 5e3c
000000b0: 8f8d 5d3c 6c2a 5c3c 2482 4c3c f18b 5c3c
000000c0: 0000 0000 0000 0000 41bc a030 edd8 563c
000000d0: f27b f03b 0ccc 5d3c c220 593c 3d17 583c
000000e0: 4a10 4b3c 6e85 5a3c 0000 0000 0000 0000
000000f0: d69b 4936 1177 563c 95ce ed3b 253c 593c
00000100: a71e 573c 81b7 563c 0a65 4a3c 7846 5b3c
00000110: 6059 8d01 0000 0000 2f67 7636 d2e6 543c
00000120: d3b6 ee3b a693 563c 849d 573c fc44 583c
00000130: 5ec5 463c d7fc 5c3c 6359 8d01 0000 0000
00000140: fb2f 6536 96c2 543c 09c2 f23b 9745 553c
00000150: ded5 573c 9911 583c ef57 473c 5167 5e3c
00000160: 6520 8700 0000 0000 8de6 c835 36ac 573c
00000170: bb85 f73b 79bb 5a3c 853b 593c 93f0 5b3c
00000180: c488 483c 5e58 5b3c f401 0000 0000 0000
00000190: a391 f923 abec 5c3c 0f72 f83b 49fb 5e3c
000001a0: 9b23 5d3c 6af5 5e3c 5872 4c3c e133 5c3c
000001b0: 0000 0000 0000 0000 424c af1d dd7c 5f3c
000001c0: 9419 f93b 674a 5f3c 6b4a 5f3c 4e29 5f3c
000001d0: b653 503c 3614 603c 0000 0000 0000 0000
000001e0: 0000 0000 3b14 603c d544 f93b dd7c 5f3c
000001f0: dd7c 5f3c dd7c 5f3c 9953 503c 3b14 603c
00000200: 0000 0000 0000 0000 0000 0000 3b14 603c
00000210: d544 f93b 3b14 603c 3b14 603c 3b14 603c
00000220: 9953 503c 3b14 603c 0000 0000 0000 0000
00000230: aff2 312d 3714 603c 2a28 f93b 4309 603c
00000240: 5890 5f3c 6c9c 5d3c 3d3b 503c ca13 603c
00000250: 0000 0000 0000 0000 3fe2 5038 5b7d 5f3c
00000260: 50d9 f53b 3e5c 5d3c d695 5c3c 6650 5c3c
00000270: db47 4d3c a3a2 5d3c 56c5 2603 0000 0000
00000280: 88f5 6239 bf6d 553c 0ef5 eb3b 54dd 523c
00000290: 0b11 573c fe07 533c a404 473c 323c 553c
000002a0: 9501 0701 0000 0000 759b 143a 51c5 453c
000002b0: fea8 d53b bb53 463c 4f07 443c d186 453c
000002c0: f916 333c bb6b 423c 8b27 c903 0000 0000
000002d0: 978e c03a 247c 363c 22e6 bd3b b352 2b3c
000002e0: 88c8 2e3c 7b00 2d3c 6d00 213c bf70 373c
000002f0: 86f0 3f04 0000 0000 177a 2c3b 4b24 193c
00000300: d748 ae3b 4506 0b3c e988 0e3c f496 103c
00000310: 3ccf 043c 9913 203c 6578 6604 0000 0000
00000320: d951 423b 2d8b 053c e751 953b 462c e83b
00000330: 808b f83b 1b94 083c ab81 e43b 4e19 133c
00000340: 3f79 8b04 0000 0000 2fe6 1b3b 93df 073c
00000350: 8ca8 9b3b 8f2b fd3b 37e6 043c 5441 0c3c
00000360: c841 e63b 4c39 213c 0ced 0b04 0000 0000
00000370: f300 b93a a38a 1d3c 1bd9 b03b 8877 193c
00000380: 5423 1d3c c6f7 203c 4694 073c e21d 2f3c
00000390: 9c93 9703 0000 0000 8877 283a 0aa2 3b3c
000003a0: c466 cc3b 1f36 383c 87a5 333c a46e 363c
000003b0: 0715 2c3c 683c 333c c503 ba03 0000 0000
000003c0: a54c 6f39 c0f9 533c 16a9 e33b 865e 4b3c
000003d0: 837f 4e3c 66dc 4d3c 6e49 413c 11de 4b3c
000003e0: 810d 0803 0000 0000 810d 0838 4ed0 5f3c
000003f0: d0bf f63b dd95 5b3c 8887 5d3c 8ce2 5c3c

exp_avg f4 [10]
0.03352906 -0.00086872577 -0.0073640984 -0.008772928 -0.04264542 -0.058649175 0.01079721 0.046635903
-0.026015837 0.053354014
00000000: c555 093d 33bb 63ba 894e f1bb 54bc 0fbc
00000010: f7ac 2ebd 1e3a 70bd c8e6 303c 4a05 3f3d
00000020: 2a1f d5bc bd89 5a3d

exp_avg_sq f4 [10]
0.013676698 0.015826393 0.022672903 0.028525447 0.027282447 0.030024879 0.017210837 0.024345795
0.030938217 0.032709774
00000000: 3b14 603c 5aa6 813c 86bc b93c 33ae e93c
00000010: 707f df3c bcf6 f53c befd 8c3c d570 c73c
00000020: 2572 fd3c affa 053d
