evaluation/Results/Seed_0_Trainable_no_NEQR_2x2_imgsize_14/model_checkpoints/epochs_19.pt (torch, 206049 bytes, 7 tensors)

qlayer_1.torch_qlayer.weights f8 [1, 4]
0	0xbfb299e8725aad20	-0.07266094962931335
1	0xbfec23a0927b051a	-0.8793490277240921
2	0xbfd12ca668071a58	-0.26835022124251884
3	0xbfe501522296d97c	-0.6564112353869826

linear.weight f4 [10, 1690]
0	0x3b2ee243	0.0026685155
1	0xbca7eeba	-0.020499576
2	0xbcef6419	-0.029222535
3	0xbcc48e29	-0.023993568
4	0x3c672611	0.014108197
5	0xbcb84916	-0.022495788
6	0x3c13bb57	0.009016833
7	0xbcac7329	-0.021051006
8	0x3a9318b2	0.001122257
9	0x3c25835f	0.010102122
10	0xbcc6bdf0	-0.024260491
11	0x3c888cd1	0.016668709
12	0xbcb5595c	-0.022137336
13	0x3c057b9f	0.008147149
14	0xbc52e999	-0.012873077
15	0xbc18b1cf	-0.009319737
16	0x3c4baeb7	0.012431792
17	0x3c7a070e	0.015260471
18	0x3cb25908	0.021770969
19	0xbba3a334	-0.0049938206
20	0xbc5740d7	-0.013138018
21	0x3c224b7c	0.009905692
22	0xbcd7669b	-0.026294043
23	0xba534553	-0.00080593413
24	0xbbffda7b	-0.0078080273
25	0x3ca935bc	0.020655505
26	0xbbe31499	-0.0069299457
27	0xb9b49626	-0.00034444145
28	0x3b32bc4f	0.0027272885
29	0x3c1d24bb	0.009591277
30	0xbe80d6ca	-0.2516387
31	0xbc7ab8a0	-0.015302807
32	0xbc73b3f1	-0.014874444
33	0xbd36f9df	-0.04467189
34	0xbcedf21d	-0.029046113
35	0x3b99d058	0.004694026
36	0x3c88fb70	0.016721457
37	0xbd068ff5	-0.032852132
38	0x39a7db2b	0.00032016015
39	0xbc2df427	-0.0106172925
40	0xbe8b93c7	-0.27261183
41	0xbb17d051	-0.0023164938
42	0xbd427edd	-0.047484268
43	0xbba4f5cf	-0.0050341855
44	0xbc5753d6	-0.013142547
45	0x3b23a4c6	0.0024970039
46	0xbc4aa963	-0.0123694865
47	0xbd0ac0cf	-0.033875283
48	0x3ca67dbe	0.02032363
49	0x3af62279	0.0018778584
50	0xbe274af7	-0.1633719
51	0x3abc317e	0.0014358012
52	0xbc2f0e06	-0.010684496
53	0x3c6d173f	0.014470874
54	0xbcfe51bb	-0.031044831
55	0x3c1dabf7	0.009623519
56	0x3d177c6b	0.03698389
57	0xbc1d3cb6	-0.009596994
58	0xba2dd870	-0.0006631678
59	0x3c03ac94	0.008036751
60	0xbe933c32	-0.28756863
61	0x3bf28125	0.007400649
62	0xbc040b3d	-0.00805932
63	0xbc9be723	-0.019031113
64	0x3d917397	0.07102125
65	0x3d6c8f46	0.057753824
66	0x3d2bd2e0	0.041949153
67	0xbc47151e	-0.012151031
68	0x3c4fd8d0	0.0126859695
69	0x3ca111a6	0.019661736
70	0xbeac88b2	-0.3369804
71	0x3c762e56	0.015025696
72	0x3c3c8986	0.0115073975
73	0xbcc15c64	-0.023603626
74	0x3da40fd6	0.08010833
75	0x3dcca660	0.09992671
76	0x3d1e8b5d	0.038707126
77	0x3d90f35e	0.070776686
78	0x3c1ff3ba	0.009762699
79	0xbcc08574	-0.023501135
80	0xbf202821	-0.6256123
81	0x3d92bbb3	0.07164707
82	0x3d38d9a8	0.04512945
83	0x3d11f1df	0.035631057
84	0x3d9dc8de	0.07704328
85	0x3d986faf	0.07443177
86	0x3dc7a1b0	0.09747636
87	0x3df3ec10	0.1191026
88	0xbc0df129	-0.008663454
89	0xbb521651	-0.0032056759
90	0xbee3d6b9	-0.44499758
91	0x3dc44a24	0.09584454
92	0x3d4f0377	0.050540414
93	0x3d9231d4	0.0713841
94	0x3d4480d4	0.047974423
95	0x3d1e33dc	0.038623676
96	0x3dbfb191	0.0936004
97	0x3cc4cc64	0.024023242
98	0x3c9de5f4	0.01927469
99	0xbc0fc47f	-0.008774876
100	0xbdd54251	-0.104130395
101	0x3d54b6c4	0.05193211
102	0x3d87927b	0.06619736
103	0x3d213c3b	0.03936408
104	0x3d3429c5	0.043985147
105	0x3d9b542f	0.07584416
106	0x3d0e9daf	0.034818348
107	0xbc5b450c	-0.013383161
108	0x3c6062c6	0.013695424
109	0xbc4db6e5	-0.0125558125
110	0xbc9aed52	-0.018911991
111	0x3ce47306	0.027886879
112	0x3cd024ea	0.025408227
113	0x3d5868c0	0.052834272
114	0x3cc39736	0.023875814
115	0x3d5d8bb2	0.054088302
116	0xbc5909bb	-0.013246949
117	0x3c92f630	0.017939657
118	0xbc7cef48	-0.0154379085
119	0x39c8026e	0.00038148783
120	0x3c44d515	0.012013693
121	0x3b4a3060	0.0030851588
122	0x3ba2c653	0.0049674897
123	0x3c5c9204	0.013462547
124	0x3c22df2a	0.009940902
125	0x3cd6565c	0.026164226
126	0xbcb2ad8b	-0.021811267
127	0x3c853ef9	0.01626538
128	0xbc6a7d9d	-0.014312175
129	0xbcb9404b	-0.022613665
130	0xbbf15117	-0.007364403
131	0xbb26826d	-0.002540733
132	0xbca47e55	-0.020079771
133	0x3b2848e0	0.0025678203
134	0xbc2c024d	-0.010498595
135	0xbc9e0006	-0.01928712
136	0x3c84c76c	0.016208373
137	0x3c253d6b	0.010085444
138	0xbc9a81c5	-0.018860707
139	0xbcc60bde	-0.02417558
140	0xbe12a0ea	-0.14319196
141	0x394c4234	0.00019479619
142	0xbcaa4ad7	-0.02078764
143	0x3c17d627	0.0092673665
144	0xbaae3a71	-0.0013292563
145	0xbc2e313b	-0.010631855
146	0x3b044e78	0.0020188373
147	0xbb239925	-0.0024963107
148	0xbbfddd48	-0.007747326
149	0x3c74e5a6	0.014947331
150	0x3e1c37fe	0.15255734
151	0x3cf4a62f	0.029864399
152	0x3d06e397	0.03293189
153	0x3cf8e789	0.030383842
154	0x3c1e4631	0.00966029
155	0xbcbdd6d7	-0.023173733
156	0x3c9dde1c	0.019270949
157	0x3d3192a4	0.043352738
158	0xbc742c03	-0.014903071
159	0x3abab804	0.0014245515
160	0xbe25561f	-0.16146134
161	0x3dcd2ac2	0.10017921
162	0x3d30ba78	0.04314658
163	0x3d8fcadf	0.070211165
164	0x3dc623bd	0.09674785
165	0x3d1c149c	0.038105592
166	0xbbcf0ba4	-0.0063185263
167	0x3d370a34	0.044687465
168	0x3c7946c0	0.015214622
169	0xbbf374f1	-0.007429712
170	0xbeb2e202	-0.34938055
171	0x3e36f25f	0.17865895
172	0x3b25f984	0.0025325725
173	0x3cc27ee4	0.023742147
174	0x3dc22eb5	0.09481565
175	0x3ca01a8c	0.019543909
176	0x3b16f925	0.0023036685
177	0xbc02fc52	-0.007994728
178	0x3c8c14b4	0.017099716
179	0x3cb2f8c6	0.02184714
180	0xbe9eb340	-0.30996132
181	0x3e2cbcbc	0.16868871
182	0x3d35497f	0.044259544
183	0x3c6170c8	0.013759799
184	0xbcda9088	-0.026680246
185	0xbdac125b	-0.084019385
186	0x3dada8a9	0.08479435
187	0x3b358e38	0.0027703177
188	0x3ca7b0ca	0.020470042
189	0xbc20c3c4	-0.009812299
190	0xbdf31b8c	-0.118704885
191	0xbac1c6f2	-0.0014784022
192	0x3cc7c7da	0.024387289
193	0xbe138365	-0.14405592
194	0xbe04da15	-0.12973817
195	0xbe6db0ed	-0.23212023
196	0x3d498b01	0.04920483
197	0xbb818a28	-0.003953237
198	0xbcb0fb2b	-0.021604141
199	0xbc2acd40	-0.010424912
200	0x3e417702	0.18893054
201	0xbecacc17	-0.39608833
202	0xbdc7c262	-0.097538725
203	0xbe80a6b7	-0.25127193
204	0xbe8901cf	-0.26759192
205	0xbea48a72	-0.32136875
206	0xbe5f19a4	-0.21787125
207	0xbdbfb1d8	-0.09360093
208	0xbabc9d0f	-0.0014390069
209	0xba84b975	-0.0010126071
210	0x3eaaf4a3	0.33389768
211	0xbe7299e4	-0.23691517
212	0xbd475c8b	-0.04867224
213	0xbe34a7a4	-0.17642075
214	0xbe2c0125	-0.16797312
215	0xbe1ec9f3	-0.15506725
216	0xbbfa3f8d	-0.0076369704
217	0xbc972f1e	-0.018455084
218	0x3bf06746	0.00733653
219	0xbc961e62	-0.018325035
220	0xbd94a001	-0.07257081
221	0x3d883803	0.066513084
222	0x3e073e75	0.13207419
223	0x3da2a61b	0.07941838
224	0xbe040c9c	-0.12895435
225	0xbafcdb98	-0.0019291518
226	0x3dccfc09	0.100090094
227	0x3d7ca10f	0.061677035
228	0x3c9e0823	0.01929099
229	0xbc4249f8	-0.011858456
230	0xbf40324f	-0.75076765
231	0x3d960969	0.073260136
232	0x3e13f834	0.1445015
233	0x3e49cf28	0.1970793
234	0xbc26b966	-0.010176038
235	0x3d6b1b09	0.05739883
236	0xbce56965	-0.028004358
237	0x3da5ef58	0.08102292
238	0xbc8070a7	-0.015678717
239	0x3cbafa84	0.022824533
240	0xbe6f59ba	-0.23374072
241	0x3c72b77b	0.014814253
242	0x3d357d83	0.04430915
243	0x3e2c2357	0.16810356
244	0x3d6d2fad	0.057906795
245	0x3dc148a1	0.09437681
246	0x3b316734	0.002706957
247	0x3dba6dc5	0.09102968
248	0xbc3f7597	-0.01168575
249	0x3be1c903	0.0068904175
250	0xbda08573	-0.078379534
251	0x3b24180b	0.0025038745
252	0x3b905b19	0.004405391
253	0x3ca144f2	0.019686196
254	0x3c336e5c	0.010951605
255	0x3cc94914	0.02457098

linear.bias f4 [10]
0	0xbc323dc5	-0.010878985
1	0xbd9edf82	-0.077574745
2	0x3cd035b4	0.025416233
3	0x3cd370c7	0.025810612
4	0xbd6650dc	-0.056229457
5	0x3d507eb6	0.05090209
6	0x3c9f75c7	0.01946534
7	0xbc82e22f	-0.015976993
8	0x3d8abbd0	0.06774104
9	0xbc56196a	-0.013067583

exp_avg f4 [10, 1690]
0	0x00000000	0.0
1	0x3c209875	0.009801974
2	0x3bef8ac0	0.0073102415
3	0x3c209875	0.009801974
4	0x3c209875	0.009801974
5	0x3c209875	0.009801974
6	0x3c1ad907	0.009451157
7	0x3c209875	0.009801974
8	0x00000000	0.0
9	0x00000000	0.0
10	0x00000000	0.0
11	0x3c209875	0.009801974
12	0x3bef8ac0	0.0073102415
13	0x3c209875	0.009801974
14	0x3c209875	0.009801974
15	0x3c209875	0.009801974
16	0x3c1ad907	0.009451157
17	0x3c209875	0.009801974
18	0x00000000	0.0
19	0x00000000	0.0
20	0x00000004	6e-45
21	0x3c209875	0.009801974
22	0x3bef8ac0	0.0073102415
23	0x3c209875	0.009801974
24	0x3c209875	0.009801974
25	0x3c209875	0.009801974
26	0x3c1ad907	0.009451157
27	0x3c209875	0.009801974
28	0x80000054	-1.18e-43
29	0x00000000	0.0
30	0x12a6d6ec	1.0529055e-27
31	0x3c209875	0.009801974
32	0x3bef8ac0	0.0073102415
33	0x3c2ad935	0.010427763
34	0x3c209875	0.009801974
35	0x3c209875	0.009801974
36	0x3c1ad907	0.009451157
37	0x3c2ad935	0.010427763
38	0x00000000	0.0
39	0x00000000	0.0
40	0x12a6d7f6	1.0529311e-27
41	0x3c1f76d6	0.009732923
42	0x3bfed5c9	0.00777695
43	0x3c1f76d6	0.009732923
44	0x3c2ad935	0.010427763
45	0x3c209875	0.009801974
46	0x3c1ad907	0.009451157
47	0x3c29b796	0.010358712
48	0x00000004	6e-45
49	0x00000000	0.0
50	0x11090ed5	1.0811965e-28
51	0x3c29b796	0.010358712
52	0x3bfed5c9	0.00777695
53	0x3c1f76d6	0.009732923
54	0x3c3519f3	0.01105355
55	0x3c2ad935	0.010427763
56	0x3c24bbd4	0.010054547
57	0x3c29b796	0.010358712
58	0x80001924	-9.019e-42
59	0x00000000	0.0
60	0x250aebe6	1.2049517e-16
61	0x3c2ad935	0.010427763
62	0x3bef8ac0	0.0073102415
63	0x3c2ad935	0.010427763
64	0x3c2ad935	0.010427763
65	0x3c2ad935	0.010427763
66	0x3c24bbd4	0.010054547
67	0x3c2adf06	0.0104291495
68	0x80000004	-6e-45
69	0x00000000	0.0
70	0x2982a72d	5.80216e-14
71	0x3c209e47	0.009803361
72	0x3bef8ac0	0.0073102415
73	0x3c209e40	0.009803355
74	0x3c20986d	0.009801966
75	0x3c209e40	0.009803355
76	0x3c1ad906	0.0094511565
77	0x3c209e47	0.009803361
78	0x0f021c3d	6.414933e-30
79	0x00000000	0.0
80	0x298261b7	5.7901106e-14
81	0x3c209e3d	0.009803352
82	0x3bef9362	0.0073112706
83	0x3c20a40a	0.009804735
84	0x3c209e37	0.009803346
85	0x3c20a412	0.009804742
86	0x3c1ad8fd	0.009451148
87	0x3c20986d	0.009801966
88	0x04c1ab53	4.553142e-36
89	0x00000000	0.0
90	0x1d814081	3.421271e-21
91	0x3c20986d	0.009801966
92	0x3bef9356	0.007311265
93	0x3c209e3d	0.009803352
94	0x3c209e40	0.009803355
95	0x3c209e47	0.009803361
96	0x3c1ad8f9	0.009451144
97	0x3c20986d	0.009801966
98	0x00000f13	5.408e-42
99	0x00000000	0.0
100	0x122e42d5	5.4987096e-28
101	0x3c209875	0.009801974
102	0x3bef8ab3	0.0073102354
103	0x3c209875	0.009801974
104	0x3c209873	0.009801972
105	0x3c209875	0.009801974
106	0x3c1ad900	0.009451151
107	0x3c209875	0.009801974
108	0x80000004	-6e-45
109	0x00000000	0.0
110	0x00000004	6e-45
111	0x3c209875	0.009801974
112	0x3bef8ac0	0.0073102415
113	0x3c209875	0.009801974
114	0x3c209875	0.009801974
115	0x3c209875	0.009801974
116	0x3c1ad907	0.009451157
117	0x3c209875	0.009801974
118	0x00000004	6e-45
119	0x00000000	0.0
120	0x00000000	0.0
121	0x3c209875	0.009801974
122	0x3bef8ac0	0.0073102415
123	0x3c209875	0.009801974
124	0x3c209875	0.009801974
125	0x3c209875	0.009801974
126	0x3c1ad907	0.009451157
127	0x3c209875	0.009801974
128	0x00000000	0.0
129	0x00000000	0.0
130	0x00000000	0.0
131	0x3c209875	0.009801974
132	0x3bef8ac0	0.0073102415
133	0x3c209875	0.009801974
134	0x3c209875	0.009801974
135	0x3c209875	0.009801974
136	0x3c1ad907	0.009451157
137	0x3c209875	0.009801974
138	0x00000000	0.0
139	0x00000000	0.0
140	0x00000004	6e-45
141	0x3c209875	0.009801974
142	0x3bef8ac0	0.0073102415
143	0x3c209875	0.009801974
144	0x3c209875	0.009801974
145	0x3c209875	0.009801974
146	0x3c1ad907	0.009451157
147	0x3c209875	0.009801974
148	0x00000000	0.0
149	0x00000000	0.0
150	0x1d88af18	3.6179943e-21
151	0x3c209875	0.009801974
152	0x3bef8ac0	0.0073102415
153	0x3c209875	0.009801974
154	0x3c209875	0.009801974
155	0x3c209875	0.009801974
156	0x3c1ad907	0.009451157
157	0x3c209875	0.009801974
158	0x80000004	-6e-45
159	0x00000000	0.0
160	0xba240bf1	-0.0006257883
161	0x3c153618	0.009107135
162	0x3bde8fc0	0.0067920387
163	0x3c29b79b	0.010358716
164	0x3c153616	0.009107133
165	0x3c1f76da	0.009732926
166	0x3c19c1c5	0.009384577
167	0x3c2ad935	0.010427763
168	0x00000004	6e-45
169	0x00000000	0.0
170	0x3b7ef0d0	0.003890086
171	0x3c12f2d6	0.008969029
172	0x3bfd25ce	0.007725454
173	0x3c28886d	0.010286433
174	0x3bc1b872	0.00591188
175	0x3c141483	0.0090380935
176	0x3bbae3ba	0.0057034167
177	0x3c33eac6	0.010981267
178	0xa02d18b8	-1.4661849e-19
179	0x00000000	0.0
180	0x3c089795	0.008336921
181	0x3c288871	0.010286436
182	0x3ba174ca	0.0049272524
183	0x3baecb8b	0.005334323
184	0x3b368fd9	0.0027856736
185	0x3c1f6944	0.009729687
186	0x3bd0bd92	0.006370255
187	0x3c33dd46	0.010978049
188	0x1bd95d52	3.5959945e-22
189	0x00000000	0.0
190	0x3b7a894e	0.0038228813
191	0x3c2abe24	0.01042131
192	0x3b6959db	0.0035606537
193	0x3b9e21a7	0.004825789
194	0x3bc3e086	0.005977693
195	0x3c214d58	0.0098451
196	0x3c24aea3	0.010051402
197	0x3c214d54	0.009845097
198	0x0e6c064f	2.9092283e-30
199	0x00000000	0.0
200	0x3677f63b	3.6949193e-06
201	0x3c209699	0.00980153
202	0x3bd32fd4	0.0064449105
203	0x3c0d9bc4	0.008643094
204	0x3c209033	0.009800005
205	0x3c0da8e5	0.008646225
206	0x3c1ade20	0.009452373
207	0x3c171a0b	0.009222518
208	0x9b3a569a	-1.5413542e-22
209	0x00000000	0.0
210	0x35012cd3	4.812147e-07
211	0x3c20a986	0.009806043
212	0x3bd35571	0.0064493944
213	0x3c0da113	0.00864436
214	0x3c209bbb	0.009802754
215	0x3c0dbc32	0.008650826
216	0x3c1addc6	0.009452289
217	0x3c209e33	0.009803343
218	0x158d7154	5.7128247e-26
219	0x00000000	0.0
220	0xb5abfa7c	-1.2813393e-06
221	0x3c209dc7	0.009803242
222	0x3bd36106	0.006450775
223	0x3c0da2a4	0.008644734
224	0x3c209bd5	0.009802778
225	0x3c0dbcb2	0.0086509455
226	0x3c1ade2f	0.009452387
227	0x3c172735	0.009225656
228	0x99558723	-1.10391325e-23
229	0x00000000	0.0
230	0x33d58aac	9.94381e-08
231	0x3c209802	0.0098018665
232	0x3bd34f1b	0.006448639
233	0x3c172107	0.009224183
234	0x3c209d71	0.009803162
235	0x3c0db116	0.008648178
236	0x3c1ade9a	0.009452486
237	0x3c0daada	0.008646691
238	0x19558723	1.10391325e-23
239	0x00000000	0.0
240	0x2b34047d	6.3955075e-13
241	0x3c20980b	0.009801875
242	0x3be16ca3	0.0068794056
243	0x3c20980b	0.009801875
244	0x3c20980b	0.009801875
245	0x3c1721e1	0.009224386
246	0x3c1ad907	0.009451157
247	0x3c1721e1	0.009224386
248	0x80000004	-6e-45
249	0x00000000	0.0
250	0x219c3ddf	1.0587348e-18
251	0x3c209875	0.009801974
252	0x3bef8ac0	0.0073102415
253	0x3c209875	0.009801974
254	0x3c209875	0.009801974
255	0x3c209875	0.009801974

exp_avg_sq f4 [10, 1690]
0	0x00000000	0.0
1	0x3c60fd06	0.0137322005
2	0x3bfa47aa	0.0076379376
3	0x3c60fd06	0.0137322005
4	0x3c60fd06	0.0137322005
5	0x3c60fd06	0.0137322005
6	0x3c512bf2	0.012766825
7	0x3c60fd06	0.0137322005
8	0x00000000	0.0
9	0x00000000	0.0
10	0x00000000	0.0
11	0x3c60fd06	0.0137322005
12	0x3bfa47aa	0.0076379376
13	0x3c60d4c4	0.013722602
14	0x3c60d4b5	0.013722588
15	0x3c60d4c4	0.013722602
16	0x3c512be6	0.012766814
17	0x3c60fcf8	0.013732187
18	0x00000000	0.0
19	0x00000000	0.0
20	0x00194f89	2.324419e-39
21	0x3c60fcf8	0.013732187
22	0x3bfa4796	0.0076379282
23	0x3c60d4b5	0.013722588
24	0x3c60d4af	0.013722583
25	0x3c60d4c4	0.013722602
26	0x3c512be6	0.012766814
27	0x3c60fcf8	0.013732187
28	0x00000000	0.0
29	0x00000000	0.0
30	0x2d062a0e	7.626356e-12
31	0x3c60fcf8	0.013732187
32	0x3bfa478e	0.0076379245
33	0x3c5e0598	0.013551138
34	0x3c60fcf8	0.013732187
35	0x3c60fd06	0.0137322005
36	0x3c512bf2	0.012766825
37	0x3c5e0598	0.013551138
38	0x00000000	0.0
39	0x00000000	0.0
40	0x2e062a0e	3.0505425e-11
41	0x3c5ae5a4	0.013360415
42	0x3bf6fad9	0.0075372276
43	0x3c5b0e44	0.0133701
44	0x3c5e0555	0.013551076
45	0x3c60fcb5	0.013732125
46	0x3c5044c8	0.012711711
47	0x3c5a1109	0.013309726
48	0x00000000	0.0
49	0x00000000	0.0
50	0x319205cc	4.2498183e-09
51	0x3c56a8da	0.013101781
52	0x3bf43dc9	0.0074536544
53	0x3c5a837a	0.0133370105
54	0x3c5afa7d	0.013365385
55	0x3c5cdc91	0.0134803215
56	0x3c4af70c	0.012388002
57	0x3c58efec	0.013240796
58	0x00000000	0.0
59	0x00000000	0.0
60	0x37390dce	1.1030073e-05
61	0x3c58527d	0.0132032605
62	0x3bf61434	0.0075097326
63	0x3c5ae2b5	0.013359715
64	0x3c58fe26	0.013244187
65	0x3c5aad1c	0.013346937
66	0x3c495765	0.012288903
67	0x3c578fb1	0.013156817
68	0x0281bec1	1.9064334e-37
69	0x00000000	0.0
70	0x37622c4f	1.3480966e-05
71	0x3c56c4aa	0.013108412
72	0x3bf4cae0	0.0074704736
73	0x3c58d0cb	0.013233374
74	0x3c58a4b2	0.01322286
75	0x3c592dea	0.013255576
76	0x3c4aa176	0.012367597
77	0x3c578aa7	0.013155616
78	0x0281bec3	1.9064338e-37
79	0x00000000	0.0
80	0x37525f6f	1.2539195e-05
81	0x3c5715d4	0.013127763
82	0x3bf33368	0.0074218996
83	0x3c5829bd	0.013193545
84	0x3c55d74a	0.013051817
85	0x3c575846	0.013143605
86	0x3c49c62f	0.012315317
87	0x3c5add9d	0.013358501
88	0x0119f4f7	2.8277415e-38
89	0x00000000	0.0
90	0x36b8686e	5.4957845e-06
91	0x3c5ba829	0.013406792
92	0x3bf3fcb1	0.0074458946
93	0x3c5b40df	0.013382166
94	0x3c599090	0.013279095
95	0x3c599c4d	0.013281894
96	0x3c4c3e7f	0.012466072
97	0x3c5d6554	0.013512928
98	0x000001f4	7e-43
99	0x00000000	0.0
100	0x23564ccb	1.1617225e-17
101	0x3c5d1e4a	0.013495991
102	0x3bf74995	0.0075466135
103	0x3c5cf581	0.013486267
104	0x3c5de7e3	0.013544056
105	0x3c5ce012	0.013481157
106	0x3c4fbe4a	0.012679646
107	0x3c6083e3	0.013703319
108	0x00000000	0.0
109	0x00000000	0.0
110	0x1ea0e835	1.7036698e-20
111	0x3c5ed14a	0.013599703
112	0x3bf9a8ea	0.007619013
113	0x3c5e1803	0.0135555295
114	0x3c5e1814	0.013555545
115	0x3c5d9e5e	0.013526527
116	0x3c512c68	0.012766935
117	0x3c60fcf5	0.013732185
118	0x00000000	0.0
119	0x00000000	0.0
120	0x00000000	0.0
121	0x3c60fd06	0.0137322005
122	0x3bfa47aa	0.0076379376
123	0x3c5ed14a	0.013599703
124	0x3c5ed14a	0.013599703
125	0x3c5ed14a	0.013599703
126	0x3c512bf2	0.012766825
127	0x3c60fd06	0.0137322005
128	0x00000000	0.0
129	0x00000000	0.0
130	0x00000000	0.0
131	0x3c60fd06	0.0137322005
132	0x3bfa47aa	0.0076379376
133	0x3c60fd06	0.0137322005
134	0x3c60fd06	0.0137322005
135	0x3c60fd06	0.0137322005
136	0x3c512bf2	0.012766825
137	0x3c60fd06	0.0137322005
138	0x00000000	0.0
139	0x00000000	0.0
140	0x2e2356ee	3.7139118e-11
141	0x3c60fcf8	0.013732187
142	0x3bf9de95	0.007625411
143	0x3c60d4c4	0.013722602
144	0x3c5f1a48	0.013617106
145	0x3c5f1a4d	0.01361711
146	0x3c50d414	0.012745876
147	0x3c60fcf8	0.013732187
148	0x00000000	0.0
149	0x00000000	0.0
150	0x38137dd7	3.516473e-05
151	0x3c5ed34e	0.013600184
152	0x3bf9b90a	0.0076209353
153	0x3c5ab1f6	0.013348093
154	0x3c5b6d95	0.013392826
155	0x3c5df230	0.0135465115
156	0x3c4d6f36	0.012538722
157	0x3c5f3284	0.013622884
158	0x00000000	0.0
159	0x00000000	0.0
160	0x3955daf1	0.00020394825
161	0x3c5591d3	0.0130352555
162	0x3bea6dca	0.007154201
163	0x3c4c2ebe	0.012462316
164	0x3c4fe45c	0.012688722
165	0x3c50867b	0.012727375
166	0x3c3edd3c	0.011649426
167	0x3c57071f	0.013124256
168	0x01f7d887	9.104417e-38
169	0x00000000	0.0
170	0x3a64b19d	0.0008723976
171	0x3c459817	0.012060187
172	0x3bd304d6	0.0064397855
173	0x3c413594	0.011792559
174	0x3c3a75e3	0.011380645
175	0x3c476960	0.012171119
176	0x3c2e82a4	0.010651264
177	0x3c4699bd	0.012121615
178	0x0457509c	2.5310143e-36
179	0x00000000	0.0
180	0x3ad6bac5	0.0016382566
181	0x3c2f2eed	0.01069234
182	0x3bbb53c0	0.005716771
183	0x3c2a3ccc	0.010390472
184	0x3c34d1bd	0.011036334
185	0x3c31c90e	0.010851158
186	0x3c1a37d5	0.009412725
187	0x3c388f18	0.011264585
188	0x03ab6b23	1.0075074e-36
189	0x00000000	0.0
190	0x3b102fc4	0.0022001127
191	0x3c15dff2	0.009147631
192	0x3ba2ddc9	0.0049702865
193	0x3c0cce8e	0.008594168
194	0x3c125691	0.008931772
195	0x3c06ed36	0.008235266
196	0x3c0bf732	0.008542823
197	0x3c23b032	0.009990739
198	0x038b724d	8.195928e-37
199	0x00000000	0.0
200	0x3b43887d	0.0029835992
201	0x3befebc2	0.0073218057
202	0x3b94f449	0.0045457226
203	0x3bf1d096	0.0073796017
204	0x3bed13d5	0.00723503
205	0x3bf03847	0.0073309275
206	0x3beb824f	0.007187165
207	0x3c1c91d2	0.009556251
208	0x049501b2	3.503129e-36
209	0x00000000	0.0
210	0x3b3a2862	0.0028405418
211	0x3bfeb25d	0.0077727274
212	0x3b9c4ef0	0.0047701523
213	0x3bffca0e	0.007806069
214	0x3beb947d	0.007189332
215	0x3c00fef3	0.007873285
216	0x3be8a7cc	0.007100081
217	0x3c18b9d7	0.009321651
218	0x04322458	2.0940488e-36
219	0x00000000	0.0
220	0x3ac5b4e0	0.0015083812
221	0x3c2465ff	0.010034083
222	0x3bb0a097	0.0053902376
223	0x3c18609f	0.00930038
224	0x3c14d0ed	0.009083015
225	0x3c123041	0.008922637
226	0x3c0b67c7	0.008508629
227	0x3c1d2184	0.00959051
228	0x03b51942	1.0644023e-36
229	0x00000000	0.0
230	0x3a0d993b	0.0005401556
231	0x3c424e91	0.011859552
232	0x3bd326ac	0.006443819
233	0x3c3a98e0	0.011388987
234	0x3c39ff5d	0.011352387
235	0x3c35be14	0.011092681
236	0x3c30d7f8	0.010793678
237	0x3c3c3b17	0.0114886975
238	0x04105112	1.6964344e-36
239	0x00000000	0.0
240	0x38dcb59a	0.000105242434
241	0x3c5475fb	0.012967582
242	0x3be98be5	0.0071272724
243	0x3c5277a9	0.012845912
244	0x3c518bcb	0.012789677
245	0x3c50aff9	0.012737268
246	0x3c41b445	0.011822765
247	0x3c50ec96	0.012751719
248	0x02269289	1.2237807e-37
249	0x00000000	0.0
250	0x37269283	9.928483e-06
251	0x3c6003a0	0.013672739
252	0x3bfa235c	0.0076336097
253	0x3c5e0b0f	0.013552441
254	0x3c5cfe4c	0.0134883635
255	0x3c5d72d9	0.013516151

exp_avg f4 [10]
0	0x3c209875	0.009801974
1	0xbcb32c82	-0.021871809
2	0xbb6e39a8	-0.0036350284
3	0x3d225fe2	0.039642222
4	0xbc33ed41	-0.010981859
5	0x3c194b2f	0.009356304
6	0x3b0456c3	0.0020193316
7	0xbcfcafef	-0.03084561
8	0xbd2ea297	-0.042635527
9	0x3d495181	0.049149994

exp_avg_sq f4 [10]
0	0x3c60fd06	0.0137322005
1	0x3cb14ac7	0.021642102
2	0x3cbe192f	0.023205368
3	0x3cf173cf	0.029474167
4	0x3ce61fd4	0.028091349
5	0x3d0ae882	0.033913143
6	0x3c86fe8f	0.016478805
7	0x3cc2bf8b	0.023772975
8	0x3d0548fc	0.032540306
9	0x3d0d44b8	0.034489363
