evaluation/Results/Seed_0_Trainable_no_NEQR_2x2_imgsize_14/model_checkpoints/epochs_20.pt (torch, 206049 bytes, 7 tensors)

qlayer_1.torch_qlayer.weights f8 [1, 4]
-0.07266094962931335 -0.8793490277240921 -0.26835022124251884 -0.6564112353869826
00000000: 20ad 5a72 e899 b2bf 1a05 7b92 a023 ecbf
00000010: 581a 0768 a62c d1bf 7cd9 9622 5201 e5bf

linear.weight f4 [10, 1690]
0.0026685155 -0.005399598 -0.014122533 -0.008893593 0.02920817 -0.007395816 0.024116812 -0.00595103
0.001122257 0.010102122 -0.024260491 0.031768683 -0.007037342 0.02325252 0.0022323043 0.00578563
0.027531786 0.030360466 0.021770969 -0.0049938206 -0.013138018 0.02500568 -0.011194035 0.014299439
0.0072973473 0.03576088 0.008170032 0.014755544 0.0027272885 0.009591277 -0.2516387 -0.00020282401
0.00022557098 -0.029913709 -0.013946127 0.019794 0.03182144 -0.018093944 0.00032016015 -0.0106172925
-0.27261183 0.013045977 -0.048249472 0.01032261 0.0016156695 0.0021761442 -0.012689703 -0.018931387
0.02032363 0.0018778584 -0.1633719 0.020330515 0.007960803 0.014204165 -0.012825739 -0.0067934315
0.03621758 0.0053866236 -0.0006631678 0.008036751 -0.28756863 0.045921396 0.030507661 -0.00035876455
0.09374471 0.060727675 0.07635554 -0.012919053 0.0126859695 0.019661736 -0.3369804 0.050020237
0.05016926 0.030877467 0.09932343 0.11911844 0.07345734 0.07046159 0.009762699 -0.023501135
-0.6256123 0.08709715 0.07982759 0.070516504 0.09253921 0.08987132 0.11285651 0.13441682
-0.008663454 -0.0032056759 -0.44499758 0.11113054 0.06583703 0.08668351 0.06333433 0.05398193
0.10888527 0.039247833 0.01927469 -0.008774876 -0.104130395 0.067166455 0.08139038 0.054604005
0.059191875 0.09108701 0.049971215 0.0017330517 0.013695424 -0.0125558125 -0.018911991 0.043061778
0.040527362 0.068034425 0.03907594 0.069305114 0.0018529622 0.033039644 -0.0154379085 0.00038148783
0.012013693 0.01818513 0.020067494 0.028637458 0.02511582 0.04133913 -0.0067112898 0.031365354
-0.014312175 -0.022613665 -0.007364403 0.012559238 -0.004979775 0.017667787 0.0046013817 -0.0041871425
0.031308357 0.025185416 -0.018860707 -0.02417558 -0.14319196 0.01529478 -0.0056749783 0.024372742
0.013835743 0.004533139 0.017131487 0.012603667 -0.007747326 0.014947331 0.15255734 0.045039047
0.04804906 0.045704138 0.024954453 -0.007968413 0.034510545 0.058514465 -0.014903071 0.0014245515
-0.15780291 0.11618924 0.05926597 0.08566652 0.112979576 0.053853728 0.009555702 0.059689183
0.015214622 -0.007429712 -0.360377 0.19542103 -0.015054744 0.039695915 0.097556666 0.0033563143
-0.0119289765 0.007214456 0.017099716 0.02184714 -0.28240117 0.19379772 0.062405553 0.024362873
0.0022783265 -0.1269877 0.07319038 0.03542815 0.020470042 -0.009812299 -0.093420096 0.035724763
0.10499569 -0.075886674 -0.077080846 -0.2319553 0.08869832 0.016104346 -0.021604141 -0.010424912
0.1822181 -0.33554408 -0.0072014537 -0.08370474 -0.22858319 -0.25517586 -0.14602771 -0.09333092
-0.0014390069 -0.0010126071 0.32931805 -0.18644746 -0.0045054555 -0.042966455 -0.10749723 -0.10130035
0.023317054 0.02060454 0.00733653 -0.018325035 -0.07258401 0.08629286 0.13075727 0.12422117
-0.08722573 0.01790259 0.09780751 0.10274866 0.01929099 -0.011858456 -0.75076777 0.08953489
0.16185816 0.21414155 0.006465863 0.07514388 -0.011552572 0.09845401 -0.015678717 0.022824533
-0.23374072 0.030362615 0.060374048 0.18372695 0.0735653 0.110491 0.018411197 0.10713457
-0.01168575 0.0068904175 -0.078379534 0.017637338 0.019509755 0.034888096 0.026190333 0.039793685
00000000: 43e2 2e3b 1cef b0bb 3262 67bc 6fb6 11bc
00000010: f945 ef3c 9a58 f2bb 9f90 c53c dc00 c3bb
00000020: b218 933a 5f83 253c f0bd c6bc e11f 023d
00000030: 8199 e6bb 127c be3c da4b 123b 6295 bd3b
00000040: 578a e13c 83b6 f83c 0859 b23c 34a3 a3bb
00000050: d740 57bc b6d8 cc3c 3067 37bc 3248 6a3c
00000060: 961e ef3b 007a 123d 99db 053c 3dc1 713c
00000070: 4fbc 323b bb24 1d3c cad6 80be 28ad 54b9
00000080: 4087 6c39 980d f5bc 4c7e 64bc 0727 a23c
00000090: 3357 023d c039 94bc 2bdb a739 27f4 2dbc
000000a0: c793 8bbe cbbe 553c 3da1 45bd 2a20 293c
000000b0: dfc4 d33a a49d 0e3b 79e8 4fbc ff15 9bbc
000000c0: be7d a63c 7922 f63a f74a 27be 2e8c a63c
000000d0: 076e 023c 96b8 683c 0c23 52bc 6f9b debb
000000e0: e358 143d 4682 b03b 70d8 2dba 94ac 033c
000000f0: 323c 93be 1318 3c3d 34eb f93c 9018 bcb9
00000100: 3afd bf3d 95bd 783d 4b60 9c3d 70aa 53bc
00000110: d0d8 4f3c a611 a13c b288 acbe 05e2 4c3d
00000120: 487e 4d3d bef2 fc3c 156a cb3d 5ef4 f33d
00000130: cd70 963d 2b4e 903d baf3 1f3c 7485 c0bc
00000140: 2128 20bf fe5f b23d a67c a33d f56a 903d
00000150: 3385 bd3d 740e b83d 5021 e73d 90a4 093e
00000160: 29f1 0dbc 5116 52bb b9d6 e3be 6998 e33d
00000170: 91d5 863d 2087 b13d 6eb5 813d 281c 5d3d
00000180: 3eff de3d 56c2 203d f4e5 9d3c 7fc4 0fbc
00000190: 5142 d5bd 918e 893d 00b0 a63d 73a8 5f3d
000001a0: 2e73 723d d48b ba3d 9eae 4c3d 9127 e33a
000001b0: c662 603c e5b6 4dbc 52ed 9abc 8c61 303d
000001c0: 0500 263d a255 8b3d 180e 203d d7ef 8d3d
000001d0: 18df f23a 9454 073d 48ef 7cbc 6e02 c839
000001e0: 15d5 443c fbf8 943c 9664 a43c 1a99 ea3c
000001f0: b1bf cd3c 3853 293d 61ea dbbb f578 003d
00000200: 9d7d 6abc 4b40 b9bc 1751 f1bb 43c5 4d3c
00000210: 612d a3bb 09bc 903c 30c7 963b 4c34 89bb
00000220: 313d 003d a551 ce3c c581 9abc de0b c6bc
00000230: eaa0 12be f596 7a3c 2bf5 b9bb 58a9 c73c
00000240: 50af 623c ba8a 943b 5557 8c3c 9c7f 4e3c
00000250: 48dd fdbb a6e5 743c fe37 1c3e dd7a 383d
00000260: 17cf 443d 4334 3b3d 486d cc3c f28d 02bc
00000270: ee5a 0d3d ddac 6f3d 032c 74bc 04b8 ba3a
00000280: 1697 21be a0f4 ed3d e0c0 723d ee71 af3d
00000290: d661 e73d ba95 5c3d 858f 1c3c a57c 743d
000002a0: c046 793c f174 f3bb 5683 b8be 731c 483e
000002b0: 2ca8 76bc 2f98 223d cacb c73d 9cf5 5b3b
000002c0: c171 43bc 3e67 ec3b b414 8c3c c6f8 b23c
000002d0: e396 90be e972 463e f79c 7f3d a694 c73c
000002e0: fa4f 153b 1009 02be d7e4 953d 1c1d 113d
000002f0: cab0 a73c c4c3 20bc 0953 bfbd 2154 123d
00000300: fb07 d73d 796a 9bbd 90dc 9dbd b185 6dbe
00000310: 77a7 b53d 43ed 833c 2bfb b0bc 40cd 2abc
00000320: 6297 3a3e 6fcc abbe 2cfa ebbb 646d abbd
00000330: b611 6abe 69a6 82be 4a88 15be 4824 bfbd
00000340: 0f9d bcba 75b9 84ba 609c a83e 15ec 3ebe
00000350: 80a2 93bb 98fd 2fbd 8227 dcbd 8f76 cfbd
00000360: 6803 bf3c daca a83c 4667 f03b 621e 96bc
00000370: eda6 94bd 50ba b03d 3ce5 053e ab67 fe3d
00000380: 67a3 b2bd 74a8 923c 4e4f c83d e46d d23d
00000390: 2308 9e3c f849 42bc 5132 40bf 125e b73d
000003a0: 25be 253e ec47 5b3e 97df d33b 09e5 993d
000003b0: 0047 3dbc 42a2 c93d a770 80bc 84fa ba3c
000003c0: ba59 6fbe 05bb f83c c74a 773d eb22 3c3e
000003d0: 67a9 963d 1b49 e23d 14d3 963c 5f69 db3d
000003e0: 9775 3fbc 03c9 e13b 7385 a0bd 2e7c 903c
000003f0: ecd2 9f3c d2e6 0e3d 1c8d d63c b4fe 223d

linear.bias f4 [10]
0.004220994 -0.105464086 0.0279083 0.03946068 -0.026018722 0.07347307 0.028679991 -0.025268923
0.07703738 -0.07151332
00000000: 4450 8a3b 8efd d7bd f29f e43c 86a1 213d
00000010: 3725 d5bc 0d79 963d 4df2 ea3c c600 cfbc
00000020: c6c5 9d3d 9375 92bd

exp_avg f4 [10, 1690]
0.0 -0.018031754 -0.013447951 -0.018031754 -0.018031754 -0.018031754 -0.01738639 -0.018031754
0.0 0.0 0.0 -0.018031754 -0.013447951 -0.018031754 -0.018031754 -0.018031754
-0.01738639 -0.018031754 0.0 0.0 6e-45 -0.018031754 -0.013447951 -0.018031754
-0.018031754 -0.018031754 -0.01738639 -0.018031754 -6e-45 0.0 2.7966568e-32 -0.018031754
-0.013447951 -0.018031739 -0.018031754 -0.018031754 -0.01738639 -0.018031739 0.0 0.0
2.7967244e-32 -0.018031755 -0.013447505 -0.018031755 -0.018031739 -0.018031172 -0.017385827 -0.018031739
6e-45 0.0 1.2606867e-26 -0.018050436 -0.013461881 -0.018031174 -0.018050417 -0.018030576
-0.01738581 -0.018031739 -6e-45 0.0 1.0843902e-19 -0.018069709 -0.013476271 -0.018050432
-0.018069131 -0.018049855 -0.01740496 -0.018031158 -1.450473e-39 0.0 4.6696964e-15 -0.018051034
-0.013476271 -0.018070308 -0.01805045 -0.01805045 -0.017404974 -0.018031172 1.7038917e-34 0.0
4.6695846e-15 -0.018031754 -0.0134623265 -0.018051034 -0.018031754 -0.018031754 -0.01738639 -0.018031754
1.1681844e-35 0.0 9.1205676e-26 -0.018031754 -0.013447951 -0.018031754 -0.018031754 -0.018031754
-0.01738639 -0.018031754 6e-45 0.0 1.46053e-32 -0.018031754 -0.013447951 -0.018031754
-0.018031754 -0.018031754 -0.01738639 -0.018031754 -6e-45 0.0 6e-45 -0.018031754
-0.013447951 -0.018031754 -0.018031754 -0.018031754 -0.01738639 -0.018031754 6e-45 0.0
0.0 -0.018031754 -0.013447951 -0.018031754 -0.018031754 -0.018031754 -0.01738639 -0.018031754
0.0 0.0 0.0 -0.018031754 -0.013447951 -0.018031754 -0.018031754 -0.018031754
-0.01738639 -0.018031754 0.0 0.0 6e-45 -0.018031754 -0.013447951 -0.018031754
-0.018031754 -0.018031754 -0.01738639 -0.018031754 0.0 0.0 3.3639415e-18 -0.018031754
-0.013447951 -0.018031754 -0.018031754 -0.018031754 -0.01738639 -0.018031754 2.957e-42 0.0
-1.6619616e-08 -0.01803171 -0.013447916 -0.018031739 -0.01803171 -0.018031692 -0.017386392 -0.018031677
-3e-45 0.0 1.0333018e-07 -0.018031647 -0.013447051 -0.018031748 -0.018031215 -0.01803055
-0.017385308 -0.01803166 -3.894381e-24 0.0 -4.1567762e-07 -0.018069008 -0.0024664272 -0.008988173
-0.023780277 -0.008995554 -0.0174034 -0.023750905 9.7908616e-27 0.0 0.0057290634 -0.009036197
0.008501334 -6.965508e-05 -0.02951819 -0.0090312725 -0.0032899892 -0.029480003 1.6388853e-18 0.0
0.005827603 -0.00902629 -0.0068327133 -0.00012618495 -0.009024316 -0.009130468 0.0053443173 -0.029470947
-1.0942025e-23 0.0 9.712497e-05 -0.018157996 -0.0178607 -0.009072179 -0.0033920545 -0.009094947
-0.008846907 -0.023761112 9.034789e-22 0.0 -8.917606e-07 -0.018130558 -0.013507313 -0.018059237
-0.018136889 -0.018030806 -0.017463047 -0.018051017 -2.9321412e-28 0.0 -1.4251702e-08 -0.018031709
-0.013447963 -0.018031739 -0.018031739 -0.018031754 -0.017386314 -0.018031769 2.9321412e-28 0.0
1.6987317e-17 -0.018031739 -0.013447961 -0.018031739 -0.018031754 -0.018031754 -0.01738639 -0.018031754
-6e-45 0.0 2.812139e-23 -0.018031754 -0.013447951 -0.018031754 -0.018031754 -0.018031754
00000000: 0000 0000 54b7 93bc cb54 5cbc 54b7 93bc
00000010: 54b7 93bc 54b7 93bc e76d 8ebc 54b7 93bc
00000020: 0000 0000 0000 0000 0000 0000 54b7 93bc
00000030: cb54 5cbc 54b7 93bc 54b7 93bc 54b7 93bc
00000040: e76d 8ebc 54b7 93bc 0000 0000 0000 0000
00000050: 0400 0000 54b7 93bc cb54 5cbc 54b7 93bc
00000060: 54b7 93bc 54b7 93bc e76d 8ebc 54b7 93bc
00000070: 0400 0080 0000 0000 f235 110b 54b7 93bc
00000080: cb54 5cbc 4cb7 93bc 54b7 93bc 54b7 93bc
00000090: e76d 8ebc 4cb7 93bc 0000 0000 0000 0000
000000a0: d836 110b 55b7 93bc ed52 5cbc 55b7 93bc
000000b0: 4cb7 93bc 1cb6 93bc b96c 8ebc 4cb7 93bc
000000c0: 0400 0000 0000 0000 69b4 7914 82de 93bc
000000d0: 398f 5cbc 1db6 93bc 78de 93bc dcb4 93bc
000000e0: b06c 8ebc 4cb7 93bc 0400 0080 0000 0000
000000f0: af05 0020 ed06 94bc 94cb 5cbc 80de 93bc
00000100: b705 94bc 4add 93bc d994 8ebc 14b6 93bc
00000110: 54cb 0f80 0000 0000 593e a827 c3df 93bc
00000120: 94cb 5cbc 2f08 94bc 8ade 93bc 8ade 93bc
00000130: e094 8ebc 1cb6 93bc 6e7c 6207 0000 0000
00000140: 513d a827 54b7 93bc 1791 5cbc c3df 93bc
00000150: 54b7 93bc 54b7 93bc e76d 8ebc 54b7 93bc
00000160: 0272 7805 0000 0000 77d0 e115 54b7 93bc
00000170: cb54 5cbc 54b7 93bc 54b7 93bc 54b7 93bc
00000180: e76d 8ebc 54b7 93bc 0400 0000 0000 0000
00000190: 8cab 970a 54b7 93bc cb54 5cbc 54b7 93bc
000001a0: 54b7 93bc 54b7 93bc e76d 8ebc 54b7 93bc
000001b0: 0400 0080 0000 0000 0400 0000 54b7 93bc
000001c0: cb54 5cbc 54b7 93bc 54b7 93bc 54b7 93bc
000001d0: e76d 8ebc 54b7 93bc 0400 0000 0000 0000
000001e0: 0000 0000 54b7 93bc cb54 5cbc 54b7 93bc
000001f0: 54b7 93bc 54b7 93bc e76d 8ebc 54b7 93bc
00000200: 0000 0000 0000 0000 0000 0000 54b7 93bc
00000210: cb54 5cbc 54b7 93bc 54b7 93bc 54b7 93bc
00000220: e76d 8ebc 54b7 93bc 0000 0000 0000 0000
00000230: 0400 0000 54b7 93bc cb54 5cbc 54b7 93bc
00000240: 54b7 93bc 54b7 93bc e76d 8ebc 54b7 93bc
00000250: 0000 0000 0000 0000 0f37 7822 54b7 93bc
00000260: cb54 5cbc 54b7 93bc 54b7 93bc 54b7 93bc
00000270: e76d 8ebc 54b7 93bc 3e08 0000 0000 0000
00000280: ecc2 8eb2 3db7 93bc a654 5cbc 4cb7 93bc
00000290: 3db7 93bc 33b7 93bc e86d 8ebc 2bb7 93bc
000002a0: 0200 0080 0000 0000 5ee6 dd33 1bb7 93bc
000002b0: 0551 5cbc 51b7 93bc 33b6 93bc ceb4 93bc
000002c0: a26b 8ebc 22b7 93bc 15a8 9698 0000 0000
000002d0: 4c2a dfb4 7505 94bc c8a3 21bb 2143 13bc
000002e0: dbce c2bc 1762 13bc 9391 8ebc 4291 c2bc
000002f0: 91ed 4114 0000 0000 deba bb3b 8f0c 14bc
00000300: 2e49 0b3c c913 92b8 22d0 f1bc e7f7 13bc
00000310: dc9c 57bb 0c80 f1bc 56db f121 0000 0000
00000320: 7af5 be3b 01e3 13bc f4e4 dfbb 8450 04b9
00000330: bada 13bc f597 15bc 621f af3b 0e6d f1bc
00000340: 49a6 5399 0000 0000 92af cb38 14c0 94bc
00000350: 9a50 92bc 7aa3 14bc 3b4d 5ebb f902 15bc
00000360: 9ef2 10bc aaa6 c2bc a687 881c 0000 0000
00000370: 5261 6fb5 8986 94bc c74d 5dbc f7f0 93bc
00000380: d093 94bc 57b5 93bc aa0e 8fbc badf 93bc
00000390: b6d8 b991 0000 0000 a6d7 74b2 3cb7 93bc
000003a0: d854 5cbc 4cb7 93bc 4cb7 93bc 54b7 93bc
000003b0: be6d 8ebc 5cb7 93bc b6d8 b911 0000 0000
000003c0: 2bae 9c23 4cb7 93bc d654 5cbc 4cb7 93bc
000003d0: 54b7 93bc 54b7 93bc e76d 8ebc 54b7 93bc
000003e0: 0400 0080 0000 0000 98fc 071a 54b7 93bc
000003f0: cb54 5cbc 54b7 93bc 54b7 93bc 54b7 93bc

exp_avg_sq f4 [10, 1690]
0.0 0.014321397 0.007965657 0.014321397 0.014321397 0.014321397 0.013314603 0.014321397
0.0 0.0 0.0 0.014321397 0.007965657 0.014312712 0.014312699 0.014312712
0.013314593 0.014321386 0.0 0.0 2.103119e-39 0.014321386 0.007965649 0.014312699
0.014312695 0.014312712 0.013314593 0.014321386 0.0 0.0 6.900276e-12 0.014321386
0.007965645 0.014157578 0.014321386 0.014321397 0.013314603 0.014157578 0.0 0.0
2.7601104e-11 0.013985009 0.007816068 0.013993771 0.01415752 0.014216207 0.013167012 0.013939148
0.0 0.0 3.845208e-09 0.013471824 0.0076436396 0.013858713 0.013710336 0.013953343
0.012874116 0.013876774 0.0 0.0 9.979936e-06 0.013505626 0.007662109 0.013705203
0.013507619 0.013658602 0.012720367 0.013695676 1.7249283e-37 0.0 1.21974845e-05 0.013582945
0.0076265857 0.013637991 0.0135813765 0.013610978 0.012791572 0.01369459 1.7249288e-37 0.0
1.1345376e-05 0.013774508 0.0076733744 0.013659976 0.013705796 0.013788842 0.012906083 0.013983276
2.558522e-38 0.0 4.9725486e-06 0.014026973 0.0077918964 0.01400469 0.013911432 0.013913965
0.013042491 0.014123005 7e-43 0.0 1.0511189e-17 0.014107683 0.007883025 0.014098874
0.014151165 0.014094253 0.013235729 0.014295266 0.0 0.0 1.5414684e-20 0.014201515
0.007948536 0.014161546 0.014161558 0.014135307 0.013314701 0.014321383 0.0 0.0
0.0 0.014321397 0.007965657 0.014201515 0.014201515 0.014201515 0.013314603 0.014321397
0.0 0.0 0.0 0.014321397 0.007965657 0.014321397 0.014321397 0.014321397
0.013314603 0.014321397 0.0 0.0 3.3603228e-11 0.014321386 0.007954322 0.014312712
0.014217259 0.014217264 0.013295649 0.014321386 0.0 0.0 3.1816824e-05 0.01420195
0.007950273 0.013973863 0.014014335 0.014153388 0.013108223 0.0142224915 0.0 0.0
0.00018453103 0.013690807 0.007527975 0.013172412 0.013377266 0.013412241 0.012303592 0.013771337
8.2376143e-38 0.0 0.0007893395 0.012808573 0.006803618 0.012566426 0.01208861 0.012768786
0.011270155 0.012864153 2.2900453e-36 0.0 0.0015173237 0.011198725 0.005916589 0.010821247
0.011187154 0.011030284 0.010020291 0.011903828 9.115861e-37 0.0 0.00229643 0.0093497215
0.0052383365 0.008723103 0.009314387 0.00843106 0.008810549 0.010237495 1.9399906e-36 0.0
0.0032121749 0.0075589065 0.004709231 0.0076709585 0.007582146 0.007610894 0.0073868297 0.0097984
3.1696096e-36 0.0 0.0026740958 0.008338349 0.0050367014 0.008042728 0.007981569 0.00847478
0.007551987 0.009833898 2.4613441e-36 0.0 0.0013647734 0.01066339 0.005855236 0.009824556
0.009939856 0.009969738 0.009333594 0.010399975 9.630641e-37 0.0 0.0004887293 0.01262704
0.006885223 0.012201274 0.012168162 0.011933178 0.011529316 0.012291489 1.534923e-36 0.0
9.522266e-05 0.013629574 0.0075036082 0.013519494 0.013468606 0.013421189 0.012460424 0.013434266
1.1072686e-37 0.0 8.983225e-06 0.0142676 0.007961738 0.014158757 0.014100774 0.014125922
00000000: 0000 0000 4ba4 6a3c 6382 023c 4ba4 6a3c
00000010: 4ba4 6a3c 4ba4 6a3c 7e25 5a3c 4ba4 6a3c
00000020: 0000 0000 0000 0000 0000 0000 4ba4 6a3c
00000030: 6382 023c dd7f 6a3c d07f 6a3c dd7f 6a3c
00000040: 7325 5a3c 3fa4 6a3c 0000 0000 0000 0000
00000050: a4e6 1600 3fa4 6a3c 5a82 023c d07f 6a3c
00000060: cb7f 6a3c dd7f 6a3c 7325 5a3c 3fa4 6a3c
00000070: 0000 0000 0000 0000 29c8 f22c 3fa4 6a3c
00000080: 5682 023c 30f5 673c 3fa4 6a3c 4ba4 6a3c
00000090: 7e25 5a3c 30f5 673c 0000 0000 0000 0000
000000a0: 29c8 f22d 6121 653c f70e 003c 2146 653c
000000b0: f1f4 673c 18eb 683c 73ba 573c 0661 643c
000000c0: 0000 0000 0000 0000 cf1e 8431 edb8 5c3c
000000d0: 7f77 fa3b a80f 633c 51a1 603c 909c 643c
000000e0: f5ed 523c 695b 633c 0000 0000 0000 0000
000000f0: 806f 2737 b346 5d3c 6e12 fb3b ca8b 603c
00000100: 0f4f 5d3c 54c8 5f3c 1669 503c d463 603c
00000110: fbc8 6a02 0000 0000 cca3 4c37 008b 5e3c
00000120: 70e8 f93b e171 5f3c 6c84 5e3c 9400 5f3c
00000130: be93 513c 465f 603c ffc8 6a02 0000 0000
00000140: 0558 3e37 79ae 613c ee70 fb3b 18ce 5f3c
00000150: 468e 603c 98ea 613c 0974 533c 1c1a 653c
00000160: 984c 0b01 0000 0000 ded9 a636 64d1 653c
00000170: 2a53 ff3b ed73 653c c6ec 633c 66f7 633c
00000180: 2cb0 553c 2d64 673c f401 0000 0000 0000
00000190: b0e5 4123 e923 673c ce27 013c f7fe 663c
000001a0: 4ada 673c 95eb 663c acda 583c b136 6a3c
000001b0: 0000 0000 0000 0000 6b96 911e 79ad 683c
000001c0: 943a 023c d405 683c e105 683c c697 673c
000001d0: e725 5a3c 3ca4 6a3c 0000 0000 0000 0000
000001e0: 0000 0000 4ba4 6a3c 6382 023c 79ad 683c
000001f0: 79ad 683c 79ad 683c 7e25 5a3c 4ba4 6a3c
00000200: 0000 0000 0000 0000 0000 0000 4ba4 6a3c
00000210: 6382 023c 4ba4 6a3c 4ba4 6a3c 4ba4 6a3c
00000220: 7e25 5a3c 4ba4 6a3c 0000 0000 0000 0000
00000230: dfc9 132e 3fa4 6a3c d852 023c dd7f 6a3c
00000240: 82ef 683c 87ef 683c fed5 593c 3fa4 6a3c
00000250: 0000 0000 0000 0000 0e73 0538 4caf 683c
00000260: dd41 023c a1f2 643c 629c 653c 9de3 673c
00000270: dfc3 563c 7405 693c 0000 0000 0000 0000
00000280: ac7e 4139 684f 603c 3bad f63b 1ad1 573c
00000290: 522c 5b3c 04bf 5b3c 0195 493c 2da1 613c
000002a0: cb3f e001 0000 0000 adeb 4e3a 0ddb 513c
000002b0: e2f0 de3b 69e3 4d3c 4e0f 463c 2c34 513c
000002c0: 75a6 383c 2bc4 523c c5d0 4204 0000 0000
000002d0: efe0 c63a db7a 373c f2df c13b 994b 313c
000002e0: 534a 373c 5db8 343c 262c 243c 4608 433c
000002f0: 2d19 9b03 0000 0000 b47f 163b 932f 193c
00000300: 5aa6 ab3b 59eb 0e3c 5f9b 183c 6e22 0a3c
00000310: 1f5a 103c 2bbb 273c 4109 2504 0000 0000
00000320: 5a83 523b b4b0 f73b e54f 9a3b aa5c fb3b
00000330: a773 f83b ce64 f93b 380d f23b 7889 203c
00000340: fed1 8604 0000 0000 e23f 2f3b 929d 083c
00000350: ea0a a53b a5c5 033c 20c5 023c ced9 0a3c
00000360: a976 f73b 5c1e 213c 5463 5104 0000 0000
00000370: 32e2 b23a 80b5 2e3c 48dd bf3b 2df7 203c
00000380: c7da 223c 1d58 233c eeeb 183c a864 2a3c
00000390: 5cdb a303 0000 0000 111e 003a a5e1 4e3c
000003a0: 709d e13b dae7 473c f85c 473c 6083 433c
000003b0: 75e5 3c3c 3e62 493c aa93 0204 0000 0000
000003c0: 47b2 c738 944e 5f3c d4e0 f53b de80 5d3c
000003d0: 6eab 5c3c 8ce4 5b3c ce26 4c3c 651b 5c3c
000003e0: aeb6 1602 0000 0000 a8b6 1637 a7c2 693c
000003f0: f371 023c 22fa 673c ef06 673c 6970 673c

exp_avg f4 [10]
-0.018031754 0.031915173 0.00093623204 0.034002084 0.028606521 -0.044497307 0.00014711417 -0.0314406
0.026426477 -0.02806394
00000000: 54b7 93bc 7cb9 023d 786d 753a c545 0b3d
00000010: 3958 ea3c cf42 36bd a942 1a39 dcc7 00bd
00000020: 577c d83c 59e6 e5bc

exp_avg_sq f4 [10]
0.014321397 0.02093453 0.022806218 0.030215368 0.02640509 0.03478578 0.01618653 0.02246655
0.032436837 0.034166873
00000000: 4ba4 6a3c e47e ab3c 1bd4 ba3c 3886 f73c
00000010: 7d4f d83c 897b 0e3d 9d99 843c c50b b83c
00000020: 7ddc 043d 90f2 0b3d
