evaluation/Results/Seed_0_Trainable_yes_NEQR_2x2_imgsize_14/model_checkpoints/epochs_44.pt (torch, 206813 bytes, 9 tensors)

qlayer_1.torch_qlayer.weights f8 [1, 4]
000000 60 58 cc 23 b4 7c e1 bf 8f 02 b2 2b 80 47 00 c0
       -0.5464726161178639 -2.0349124349307384
000010 2f 70 61 d7 36 52 f8 bf f3 bb 20 9f 64 15 f2 bf
       -1.5200718320184128 -1.130222913354143

linear.weight f4 [10, 1690]
000000 43 e2 2e 3b 07 21 05 bb 97 6b df 3d 3c 0e b5 bb
       0.0026685155 -0.0020313875 0.10909193 -0.0055253785
000010 ae 6e 05 3d 30 f9 83 bb 20 13 09 bd c7 42 29 bb
       0.032576256 -0.004027508 -0.033465505 -0.0025827156
000020 b2 18 93 3a 5f 83 25 3c f0 bd c6 bc f5 91 62 3d
       0.001122257 0.010102122 -0.024260491 0.055314977
000030 4b ee ed 3d 63 b2 0f 3d 26 4c 63 3c 26 4e 90 3c
       0.116177164 0.035082232 0.013873136 0.01761539
000040 a3 b8 f7 bc 14 61 09 3d 08 59 b2 3c 34 a3 a3 bb
       -0.030239409 0.033539847 0.021770969 -0.0049938206
000050 8b 3e 57 bc 9a b7 8c 3d ba ad 0f 3e 02 ed 3c 3d
       -0.01313747 0.06870957 0.14031115 0.046124466
000060 b4 78 1f 3d 7c e2 8a 3d c4 71 25 bd 97 ed 92 3c
       0.03893347 0.0678148 -0.0403917 0.017935557
000070 fe db 8a 3c d3 16 c3 3c 1b 20 81 be fe 40 be 3c
       0.016950604 0.023814594 -0.25219807 0.02322435
000080 df ec 38 3e 4a ba ec bb 97 0b f4 3c e3 0a 83 3d
       0.18059109 -0.007224356 0.029790683 0.06398561
000090 a5 7e ed bb d0 60 82 bc 02 db a7 39 02 53 6c 3b
       -0.007247763 -0.015915304 0.00032015896 0.0036060219
0000a0 3e ca a7 be 57 ae ca bc 91 d6 ad 3d 6a 3a ab bc
       -0.32771486 -0.024741335 0.08488191 -0.020901877
0000b0 7e f6 88 3c 96 03 af bc 0e 42 a9 bd 76 eb 60 bb
       0.0167191 -0.021364015 -0.08264552 -0.0034320033
0000c0 0e f7 f6 3c c8 3d cc 3c e6 b7 22 bf 58 5d a0 bc
       0.030147102 0.024931803 -0.63561857 -0.01957576
0000d0 02 71 5d 3d 63 8f d8 bc 19 12 04 bc 72 b4 e8 bc
       0.05406285 -0.02643556 -0.008060955 -0.028406356
0000e0 64 5d 09 bd f2 f3 38 3d 8c 82 1e bd 4e 36 8c bc
       -0.03353633 0.04515452 -0.038698718 -0.017115738
0000f0 6d 4f 79 bf 56 b7 05 3e 21 2c e4 3d b2 18 34 3d
       -0.9738682 0.13058218 0.111412294 0.043968864
000100 8c d0 cb 3d e0 e2 57 3e 24 93 1c bd fd d9 91 3c
       0.099518865 0.2108264 -0.03822626 0.01780414
000110 93 76 8e bc 6d 45 8c 3c 01 aa 9f bf 34 a7 82 3e
       -0.017390525 0.017122949 -1.2473756 0.2551819
000120 97 1e 16 3e 49 04 3a 3e d0 47 39 3e 9b 14 ac 3e
       0.14660107 0.18165697 0.180938 0.3360947
000130 1e f6 b3 bd ed 36 04 3e 08 d9 d5 3a 3f 20 64 3b
       -0.087871775 0.12911578 0.0016315291 0.003480926
000140 bc 9c b7 bf fb b7 8e 3e e3 9a 60 3e 56 11 4a 3e
       -1.4344707 0.2787474 0.21934085 0.19733176
000150 ba 60 68 3e 60 01 2c 3e 30 df 3a bd 4f 9f 47 3e
       0.22693148 0.167974 -0.045623004 0.19494365
000160 9d 2f 37 bd a6 98 7d bb a1 d7 72 bf e9 d5 02 3e
       -0.044723142 -0.0038695722 -0.94860274 0.12776913
000170 9b 29 56 3e ec aa dd 3d 14 53 d5 3d a2 ab 11 3c
       0.20914309 0.108236164 0.104162365 0.008891018
000180 e3 cb 2c 3c 4f 56 9c 3d 9c 8d f4 3c 63 36 b3 bc
       0.010546657 0.076336496 0.02985268 -0.02187652
000190 2b 74 f9 be 3b f9 2c 39 78 c2 21 3e 7a 6a 04 3d
       -0.48721442 0.00016496044 0.1579684 0.032328106
0001a0 84 75 23 3d 71 0a 04 3d 4e a3 8c 3c 47 a6 01 3d
       0.039906994 0.03223652 0.017167713 0.031652715
0001b0 b1 b5 1e 3d c6 5c d0 bb aa 75 9b bc d2 ee fc 3c
       0.038747493 -0.0063587157 -0.018977005 0.030875597
0001c0 e8 94 1e 3e 9c e7 25 3d 08 9c 36 3c 1b a7 e9 3c
       0.1548649 0.040504083 0.011145599 0.028522065
0001d0 7d 9c 59 bd 63 e0 16 3d 52 ee 7c bc c7 97 d6 3b
       -0.053127754 0.036835086 -0.015437679 0.006548855
0001e0 15 d5 44 3c ef 90 b0 3c 81 b8 12 3e 88 97 86 3c
       0.012013693 0.021553485 0.14328195 0.016429678
0001f0 49 7c 53 3c b6 a4 ee 3c 5b ac 83 bd d4 44 0e 3d
       0.01290805 0.029131275 -0.064293586 0.03473361
000200 9d 7d 6a bc 4b 40 b9 bc a4 50 f1 bb 67 5f 82 3c
       -0.014312175 -0.022613665 -0.0073643494 0.015914632
000210 11 25 f2 3d 46 82 26 3d 44 fa e1 3c 36 fc 99 3c
       0.11823476 0.040651582 0.027585156 0.018797021
000220 ed 91 c3 bc 23 e9 e9 3c b3 1d 33 bd c0 e2 48 bd
       -0.023873294 0.028553551 -0.043729495 -0.04904437
000230 30 a0 00 be 5a 9b 71 3d d9 bb 21 3e c4 11 c9 3d
       -0.12561107 0.058986045 0.15794314 0.09817842
000240 82 72 06 3e 0b 5e 0a 3d 70 1a 21 bd ce 4c 13 3d
       0.13129619 0.033781093 -0.039331853 0.03596192
000250 1e b1 43 3d 9b 8d 22 bc ae 85 c8 bd f3 ee 2d 3e
       0.047776334 -0.009921457 -0.097911224 0.16985683
000260 4b d8 64 3e a9 7f ab 3d b5 ec 3f 3e 55 89 68 3d
       0.22348134 0.083739586 0.1874264 0.056771595
000270 6e 06 df bc cd 5d e7 3d 84 6b 98 3b 46 93 a7 bc
       -0.027224746 0.11297188 0.0046514887 -0.020455968
000280 10 69 43 3d 76 e4 3b 3e 86 68 1f 3e 04 55 99 3d
       0.047707617 0.1834887 0.15567216 0.074869186
000290 05 a5 68 3e e9 b5 05 3e a8 26 4d bd de a3 0c 3e
       0.227192 0.13057674 -0.050085694 0.13734385
0002a0 d7 0e e8 bb 62 bc 4c 3c 48 7b 4d bf b4 92 00 3e
       -0.007081847 0.012496086 -0.8026624 0.12555963
0002b0 c6 92 12 bd be 2f f6 3d 81 0c 17 3e 07 58 c3 bc
       -0.035784505 0.12020825 0.14750864 -0.023845686
0002c0 4e 0c cf bd 1d 39 88 bd 74 27 1f 3d 37 fc 25 3d
       -0.10109769 -0.066515185 0.038855985 0.040523734
0002d0 21 40 d0 be 04 50 30 3d ef 45 b1 3c 24 00 a8 3e
       -0.40673926 0.04304506 0.021639792 0.32812607
0002e0 5a a1 81 3e 53 27 bc bd cf 8f dd bd ce 7e de bd
       0.25318414 -0.09187188 -0.10818445 -0.1086403
0002f0 7a 2d 1d 3e ae 31 10 3d c0 b5 66 3e e7 96 76 3d
       0.15349379 0.03520363 0.2253027 0.060202505
000300 80 60 d8 3d 7c 43 d2 3d 74 06 ff 3d 7e 9e 85 bd
       0.10565281 0.10266778 0.12452403 -0.065243706
000310 b5 18 6b be 12 46 94 3d f9 2d 37 3d c4 ef 1a 3c
       -0.22958644 0.07239927 0.044721577 0.009456579
000320 5b e5 9b bd 7e 4a b9 bd ae fe 12 3e 43 75 a1 3d
       -0.076121055 -0.090474114 0.14354965 0.07883694
000330 ce 9c 7a be a9 dd 3c be 3d aa 93 be 66 f8 91 3e
       -0.24473879 -0.18443932 -0.2884082 0.28509825
000340 51 b8 fa 3c f9 11 a7 bd 4c cf d8 3d d1 83 31 3d
       0.030605467 -0.08157725 0.10586414 0.0433386
000350 80 0c 94 3e d5 f0 b5 3e 1e 8c 1c bd 63 05 65 be
       0.28915787 0.35535303 -0.038219564 -0.22365336
000360 9e f4 4d 3c b5 ae d0 3e 4e f0 39 be a9 51 93 bb
       0.012570528 0.4075829 -0.18158075 -0.0044958186
000370 af 4d 33 3f 68 a1 ca 3d 64 07 ed 3d f3 6d 53 3e
       0.7004041 0.09894067 0.11573675 0.20647411
000380 a6 25 b3 bc c0 81 80 be 6c c0 b4 3d 3b 3c bc 3e
       -0.021868538 -0.2509899 0.08825764 0.36764702
000390 63 30 b5 3c a6 14 ef 3b f5 d6 9b be 02 df 27 bd
       0.0221178 0.0072961627 -0.30437437 -0.04098416
0003a0 46 9c dd bc 01 f4 84 3a 57 fb 00 3d 8c 80 06 be
       -0.027052056 0.001014352 0.031489696 -0.13134974
0003b0 20 ce 6d 3d 0b 00 1a 3e 97 da 2f 3d 2b 6e 39 3d
       0.058057904 0.15039079 0.042933073 0.04527108
0003c0 81 e1 4c bf 95 7c c3 3c 14 c3 0e 3d de 80 98 3d
       -0.8003159 0.023863116 0.03485401 0.074464545
0003d0 22 85 d3 3c 0f a2 25 3d 4d 0a ae 3b 5b 62 c6 bc
       0.025820319 0.040437754 0.0053112865 -0.024216821
0003e0 a8 54 e6 bc 1b 31 bd 3c de be a0 bd 71 91 21 3d
       -0.02811654 0.023094704 -0.07848905 0.039445344
0003f0 c0 72 f2 3d ed 02 7a 3d bc 99 27 3c 2f ca 16 3d
       0.11838293 0.061037946 0.010229524 0.03681391

linear.bias f4 [10]
000000 b9 ae f8 3b d3 0f f1 bd cb e8 8a 3d b5 4f e4 3d
       0.007589188 -0.11770596 0.06782683 0.111480154
000010 f7 a5 45 bd 9d e1 8b 3d 70 65 68 bd 2e 15 6a bc
       -0.04825398 0.06830142 -0.056737363 -0.014287276
000020 25 c2 a5 3d 26 9b 6f bd
       0.08093671 -0.05849757

exp_avg f8 [1, 4]
000000 14 2d ba 7e c7 f0 f9 bf a7 40 1a cc a0 26 7d 3e
       -1.621284003284761 1.0859553170096104e-07
000010 f6 d5 fc a7 0b 92 ea 3f 36 a1 72 69 c7 f0 f9 bf
       0.8303278237351026 -1.6212839240125283

exp_avg_sq f8 [1, 4]
000000 51 08 22 b3 6d 69 26 40 93 ac 7c f7 23 e3 33 3d
       11.205915067581516 7.065376749079776e-14
000010 97 7f 01 e5 86 27 09 40 9a a3 1c b4 6d 69 26 40
       3.1443002596933627 11.205915096755962

exp_avg f4 [10, 1690]
000000 00 00 00 00 69 6b 7f 3a 86 32 c2 36 69 6b 7f 3a
       0.0 0.00097434834 5.7875322e-06 0.00097434834
000010 69 6b 7f 3a 69 6b 7f 3a 72 be 5d 36 69 6b 7f 3a
       0.00097434834 0.00097434834 3.304242e-06 0.00097434834
000020 00 00 00 00 00 00 00 00 04 00 00 00 69 6b 7f 3a
       0.0 0.0 6e-45 0.00097434834
000030 86 32 c2 36 69 6b 7f 3a 69 6b 7f 3a 69 6b 7f 3a
       5.7875322e-06 0.00097434834 0.00097434834 0.00097434834
000040 72 be 5d 36 69 6b 7f 3a 04 00 00 80 04 00 00 80
       3.304242e-06 0.00097434834 -6e-45 -6e-45
000050 04 00 00 00 69 6b 7f 3a 86 32 c2 36 69 6b 7f 3a
       6e-45 0.00097434834 5.7875322e-06 0.00097434834
000060 69 6b 7f 3a 69 6b 7f 3a 72 be 5d 36 69 6b 7f 3a
       0.00097434834 0.00097434834 3.304242e-06 0.00097434834
000070 04 00 00 80 04 00 00 80 3c d6 0e 08 69 6b 7f 3a
       -6e-45 -6e-45 4.29834e-34 0.00097434834
000080 86 32 c2 36 4c 6b 7f 3a 4c 6b 7f 3a 69 6b 7f 3a
       5.7875322e-06 0.00097434665 0.00097434665 0.00097434834
000090 72 be 5d 36 4c 6b 7f 3a 04 00 00 80 d6 8e 00 00
       3.304242e-06 0.00097434665 -6e-45 5.124e-41
0000a0 ce 4e 04 31 4c 6b 7f 3a 86 32 c2 36 4c 6b 7f 3a
       1.9253323e-09 0.00097434665 5.7875322e-06 0.00097434665
0000b0 4c 6b 7f 3a a3 73 7f 3a 4a fc 5d 36 4c 6b 7f 3a
       0.00097434665 0.0009744709 3.3078418e-06 0.00097434665
0000c0 54 96 05 a8 18 85 03 a8 ee 4e 04 31 84 73 7f 3a
       -7.41558e-15 -7.300821e-15 1.9253394e-09 0.0009744691
0000d0 c8 2a c2 36 69 6b 7f 3a 69 6b 7f 3a e2 7b 7f 3a
       5.786631e-06 0.00097434834 0.00097434834 0.0009745938
0000e0 4a fc 5d 36 69 6b 7f 3a dc 73 01 28 a8 d3 59 19
       3.3078418e-06 0.00097434834 7.1860615e-15 1.1261381e-23
0000f0 ea 1b 21 2d a3 73 7f 3a c8 2a c2 36 69 6b 7f 3a
       9.157989e-12 0.0009744709 5.786631e-06 0.00097434834
000100 69 6b 7f 3a a3 73 7f 3a 72 be 5d 36 69 6b 7f 3a
       0.00097434834 0.0009744709 3.304242e-06 0.00097434834
000110 b7 59 4e 19 b1 97 1e 99 9c dc e8 32 6b 66 7f 3a
       1.0668068e-23 -8.199042e-24 2.7108676e-08 0.00097427395
000120 76 34 c2 36 6b 66 7f 3a 3b 68 7f 3a 3b 68 7f 3a
       5.787758e-06 0.00097427395 0.00097430096 0.00097430096
000130 72 be 5d 36 6b 66 7f 3a f4 ea fc 8a 89 d2 0f 99
       3.304242e-06 0.00097427395 -2.4355097e-32 -7.435444e-24
000140 60 be 68 33 6b 66 7f 3a 76 34 c2 36 97 64 7f 3a
       5.4189854e-08 0.00097427395 5.787758e-06 0.0009742467
000150 0c 65 7f 3a 3b 68 7f 3a f5 af 5d 36 6b 66 7f 3a
       0.0009742535 0.00097430096 3.3033987e-06 0.00097427395
000160 85 7a f3 9f 01 7f f3 9f 52 b4 e8 32 69 6b 7f 3a
       -1.03117195e-19 -1.03124613e-19 2.7090355e-08 0.00097434834
000170 86 32 c2 36 9c 69 7f 3a 3f 68 7f 3a 69 6b 7f 3a
       5.7875322e-06 0.0009743215 0.0009743012 0.00097434834
000180 f5 af 5d 36 69 6b 7f 3a 01 7f f3 1f 01 7f f3 9f
       3.3033987e-06 0.00097434834 1.03124613e-19 -1.03124613e-19
000190 ec b7 4a 23 69 6b 7f 3a 86 32 c2 36 69 6b 7f 3a
       1.0989389e-17 0.00097434834 5.7875322e-06 0.00097434834
0001a0 69 6b 7f 3a 69 6b 7f 3a 72 be 5d 36 69 6b 7f 3a
       0.00097434834 0.00097434834 3.304242e-06 0.00097434834
0001b0 bc 0c 88 09 49 f2 8a 89 38 8f 73 1a 69 6b 7f 3a
       3.2752784e-33 -3.3450135e-33 5.0366913e-23 0.00097434834
0001c0 86 32 c2 36 69 6b 7f 3a 69 6b 7f 3a 69 6b 7f 3a
       5.7875322e-06 0.00097434834 0.00097434834 0.00097434834
0001d0 72 be 5d 36 69 6b 7f 3a 38 8f f3 8e 4a 8b af 80
       3.304242e-06 0.00097434834 -6.004204e-30 -1.612118e-38
0001e0 4a 8b af 80 69 6b 7f 3a 86 32 c2 36 69 6b 7f 3a
       -1.612118e-38 0.00097434834 5.7875322e-06 0.00097434834
0001f0 69 6b 7f 3a 69 6b 7f 3a 72 be 5d 36 69 6b 7f 3a
       0.00097434834 0.00097434834 3.304242e-06 0.00097434834
000200 4a 8b af 00 4a 8b af 80 04 00 00 80 69 6b 7f 3a
       1.612118e-38 -1.612118e-38 -6e-45 0.00097434834
000210 86 32 c2 36 69 6b 7f 3a 69 6b 7f 3a 69 6b 7f 3a
       5.7875322e-06 0.00097434834 0.00097434834 0.00097434834
000220 72 be 5d 36 69 6b 7f 3a 04 00 00 00 04 00 00 00
       3.304242e-06 0.00097434834 6e-45 6e-45
000230 72 48 80 14 69 6b 7f 3a 86 32 c2 36 69 6b 7f 3a
       1.2953272e-26 0.00097434834 5.7875322e-06 0.00097434834
000240 69 6b 7f 3a 69 6b 7f 3a 72 be 5d 36 69 6b 7f 3a
       0.00097434834 0.00097434834 3.304242e-06 0.00097434834
000250 59 27 c9 82 04 00 00 00 3d 88 28 23 69 6b 7f 3a
       -2.955688e-37 6e-45 9.136148e-18 0.00097434834
000260 86 32 c2 36 69 6b 7f 3a 69 6b 7f 3a 69 6b 7f 3a
       5.7875322e-06 0.00097434834 0.00097434834 0.00097434834
000270 72 be 5d 36 69 6b 7f 3a 1e 88 8a 0a e5 87 8a 0a
       3.304242e-06 0.00097434834 1.3340118e-32 1.3340034e-32
000280 18 6c 5f a8 4c 6b 7f 3a a4 21 aa b3 6b 65 7f 3a
       -1.2402426e-14 0.00097434665 -7.922361e-08 0.00097425905
000290 ff 25 61 3a e7 2b 61 3a 11 16 5c 35 2e 6b 7f 3a
       0.00085887307 0.0008589611 8.19885e-07 0.0009743449
0002a0 53 da 71 2d e1 7e 03 a8 76 b9 f1 38 d9 33 61 3a
       1.3747742e-11 -7.299473e-15 0.0001152632 0.0008590795
0002b0 34 0d b2 b3 5b 20 61 3a 15 ca a0 3a 68 2e 61 3a
       -8.2911725e-08 0.000858789 0.0012267256 0.0008589984
0002c0 ab 3c de b5 88 7b 7f 3a bc 86 ff 27 2b 29 05 a8
       -1.6557946e-06 0.00097458856 7.0922797e-15 -7.39191e-15
0002d0 2c ed 6f 39 ef 90 9f 3a 25 0c c5 36 d3 e3 42 3a
       0.0002288117 0.0012173931 5.8724713e-06 0.0007434461
0002e0 29 c6 a0 3a a5 0e 8e 3a 4c f2 a7 35 ed aa ae 3a
       0.0012266088 0.0010838105 1.2512987e-06 0.0013326086
0002f0 0a eb 65 aa e2 7e 03 a8 ba 0f fb 38 a5 af 9f 3a
       -2.0420831e-13 -7.299474e-15 0.00011971542 0.0012183083
000300 9d 20 64 37 ec c3 a0 3a 31 76 a0 3a 1c 55 9c 3a
       1.3597452e-05 0.001226542 0.0012242255 0.001192722
000310 39 35 8b 36 3f ac 9f 3a 17 66 61 ad 22 3d e1 ac
       4.1487187e-06 0.0012182071 -1.2812438e-11 -6.4016717e-12
000320 76 f0 4e 37 19 39 61 3a 98 b4 95 37 28 b0 a0 3a
       1.23345435e-05 0.0008591577 1.784628e-05 0.001225953
000330 42 d2 af 3a 4c 1f 8e 3a fd 3b 7a 37 84 32 43 3a
       0.0013414102 0.0010843067 1.4915128e-05 0.0007446187
000340 77 63 98 a8 71 13 5c aa 64 0b ce 36 eb 30 7f 3a
       -1.6918526e-14 -1.954667e-13 6.1406045e-06 0.00097347674
000350 34 ce 29 37 b4 f5 60 3a 05 be 7f 3a f9 20 8e 3a
       1.0121195e-05 0.00085815345 0.0009755793 0.0010843567
000360 a4 64 92 37 99 4b 7d 3a c7 e2 bf ad bb 2e 54 25
       1.745142e-05 0.0009662449 -2.1814895e-11 1.8403902e-16
000370 a1 76 1e b4 0d 6f 7f 3a b9 a6 c1 36 94 5d 7f 3a
       -1.4758054e-07 0.0009744026 5.7712573e-06 0.0009741422
000380 5e 4d 7f 3a ff fd 8d 3a e8 f8 d1 36 be c7 8d 3a
       0.00097390066 0.0010833143 6.257662e-06 0.0010816974
000390 4f ff b3 a2 cc d7 59 25 b2 6c 01 b4 69 6c 7f 3a
       -4.8788366e-18 1.8894865e-16 -1.2053604e-07 0.00097436324
0003a0 f5 72 c1 36 dd 6e 7f 3a dc 68 7f 3a c5 66 7f 3a
       5.765231e-06 0.0009743998 0.00097431033 0.0009742792
0003b0 ea b6 5d 36 22 5c 7f 3a d8 e1 c5 9b 85 15 5c 18
       3.3038036e-06 0.0009741207 -3.2736864e-22 2.8445198e-24
0003c0 3f 74 74 2c 8b 66 7f 3a 97 d5 c1 36 55 70 7f 3a
       3.4739015e-12 0.0009742758 5.7767134e-06 0.0009744217
0003d0 a0 6e 7f 3a 1d 64 7f 3a 9d 05 5e 36 7b 5e 7f 3a
       0.00097439624 0.0009742396 3.3083845e-06 0.0009741557
0003e0 fc d3 19 28 e9 0e d2 a7 98 af 84 29 69 6b 7f 3a
       8.539173e-15 -5.8302874e-15 5.892438e-14 0.00097434834
0003f0 18 21 c2 36 aa 6a 7f 3a 69 6b 7f 3a 8b 66 7f 3a
       5.785503e-06 0.0009743372 0.00097434834 0.0009742758

exp_avg_sq f4 [10, 1690]
000000 00 00 00 00 36 68 46 3c 73 8e bb 38 36 68 46 3c
       0.0 0.012109807 8.943388e-05 0.012109807
000010 36 68 46 3c 35 68 46 3c be f3 a3 38 35 68 46 3c
       0.012109807 0.012109806 7.817846e-05 0.012109806
000020 00 00 00 00 00 00 00 00 c6 01 00 00 88 34 45 3c
       0.0 0.0 6.36e-43 0.01203645
000030 73 8e bb 38 74 59 46 3c 74 59 46 3c 74 59 46 3c
       8.943388e-05 0.012106288 0.012106288 0.012106288
000040 be f3 a3 38 35 68 46 3c c6 01 00 00 c6 01 00 00
       7.817846e-05 0.012109806 6.36e-43 6.36e-43
000050 a0 3b c7 0e f8 cd 44 3c e2 34 b9 38 b8 25 45 3c
       4.9114704e-30 0.012011997 8.8313376e-05 0.012032919
000060 b8 25 45 3c b8 25 45 3c a4 8f a3 38 36 68 46 3c
       0.012032919 0.012032919 7.799201e-05 0.012109807
000070 14 1e cd 1f 14 1e cd 1f 2a 31 05 30 88 34 45 3c
       8.687064e-20 8.687064e-20 4.8454984e-10 0.01203645
000080 5f 6c b8 38 42 f6 44 3c f8 cd 44 3c f5 cd 44 3c
       8.7939894e-05 0.012021603 0.012011997 0.012011995
000090 4e 6e a3 38 f3 29 46 3c 77 38 8a 06 14 1e cd 1f
       7.7929915e-05 0.012094962 5.19928e-35 8.687064e-20
0000a0 86 32 05 31 e8 4f 45 3c 4d c2 b4 38 4e b2 45 3c
       1.9382767e-09 0.012042977 8.61926e-05 0.012066437
0000b0 48 20 43 3c c8 b9 40 3c 30 7d a2 38 2b 7d 45 3c
       0.011909552 0.011763044 7.74808e-05 0.012053768
0000c0 ce 41 d0 20 f0 f8 9c 20 03 a1 66 30 cb be 3c 3c
       3.5280116e-19 2.659216e-19 8.3902324e-10 0.011520098
0000d0 56 07 b5 38 c5 05 41 3c 54 7b 41 3c 4e 54 3c 3c
       8.632119e-05 0.011781161 0.011809189 0.011494709
0000e0 da df 99 38 8a e0 40 3c 86 df 88 20 97 55 f1 1d
       7.337304e-05 0.011772284 2.3187212e-19 6.3880667e-21
0000f0 7f ee 91 32 6b ce 3a 3c d6 22 b4 38 30 13 3f 3c
       1.6988677e-08 0.011401753 8.5895575e-05 0.0116622895
000100 d2 b1 3f 3c 9d 98 3a 3c 2e 38 99 38 6e 32 3e 3c
       0.0117001105 0.011388925 7.306073e-05 0.011608703
000110 e0 7d a7 1f a8 98 12 20 c7 a1 35 38 df c0 38 3c
       7.0935494e-20 1.2417191e-19 4.330443e-05 0.011276453
000120 76 8e b4 38 65 44 3c 3c c6 79 3c 3c 49 7f 39 3c
       8.609604e-05 0.011490916 0.011503642 0.011321851
000130 16 72 a0 38 26 21 3c 3c 00 cb d9 1f 9b bf 5d 20
       7.650645e-05 0.011482513 9.223891e-20 1.8782825e-19
000140 58 68 3f 39 2d 41 3b 3c 8e 5c b7 38 06 af 3c 3c
       0.0001825405 0.011429113 8.74336e-05 0.011516338
000150 51 83 3c 3c fa d9 3c 3c 3a 35 a0 38 f2 95 3f 3c
       0.011505918 0.011526579 7.639309e-05 0.011693465
000160 1b e1 f9 1f 54 03 00 1f da 5c 6e 38 ca 42 42 3c
       1.0582801e-19 2.7107807e-20 5.6830097e-05 0.011856744
000170 a0 a8 b8 38 68 d4 42 3c 5a 54 3f 3c f9 e5 43 3c
       8.8052126e-05 0.011891462 0.011677826 0.011956685
000180 5a e5 a0 38 40 66 44 3c 15 87 81 1f b7 e1 9d 1d
       7.6721146e-05 0.011987269 5.48571e-20 4.1790938e-21
000190 8d 04 04 2b 73 d3 45 3c 2b cb ba 38 a6 a2 45 3c
       4.6902136e-13 0.012074339 8.907014e-05 0.012062704
0001a0 67 09 45 3c f8 a0 44 3c 0e 01 a2 38 4d 99 44 3c
       0.0120261675 0.012001269 7.7249584e-05 0.01199944
0001b0 dc d9 86 1e 86 2d 39 1c 85 bd d9 1c 24 67 46 3c
       1.4277906e-20 6.1270203e-22 1.4408845e-21 0.012109552
0001c0 75 8e bb 38 bd 66 46 3c c4 66 46 3c bc 66 46 3c
       8.9433895e-05 0.012109456 0.012109462 0.012109455
0001d0 5d 2f a4 38 30 68 46 3c 1b f4 74 0e a5 2c 39 1c
       7.8289515e-05 0.012109801 3.0192855e-30 6.1269067e-22
0001e0 87 ae d9 04 36 68 46 3c 73 8e bb 38 24 67 46 3c
       5.1176733e-36 0.012109807 8.943388e-05 0.012109552
0001f0 24 67 46 3c 22 67 46 3c be f3 a3 38 35 68 46 3c
       0.012109552 0.01210955 7.817846e-05 0.012109806
000200 2d 86 04 05 2d 86 04 05 c6 ba f9 0b 36 68 46 3c
       6.2312544e-36 6.2312544e-36 9.6192337e-32 0.012109807
000210 73 8e bb 38 a6 e6 45 3c a6 e6 45 3c a5 e6 45 3c
       8.943388e-05 0.012078917 0.012078917 0.012078916
000220 45 ee a3 38 35 68 46 3c 2e c3 2c 20 2e c3 2c 20
       7.816827e-05 0.012109806 1.4633546e-19 1.4633546e-19
000230 b8 26 76 2e f8 cd 44 3c 6c 90 b5 38 ac 78 44 3c
       5.5968313e-11 0.012011997 8.657653e-05 0.011991661
000240 7c 8d 40 3c 19 eb 43 3c 37 41 a1 38 88 34 45 3c
       0.0117524825 0.011957907 7.6892255e-05 0.01203645
000250 02 2b 55 21 2e c3 2c 20 b5 5b 24 38 56 76 42 3c
       7.222413e-19 1.4633546e-19 3.9186056e-05 0.011869034
000260 c4 82 b3 38 8c bc 42 3c 32 7f 3e 3c 81 c3 3f 3c
       8.559742e-05 0.011885773 0.011627005 0.011704327
000270 2a 5c 9f 38 53 87 40 3c 6b 4b e8 1f e7 16 2f 1f
       7.598878e-05 0.011751014 9.838059e-20 3.7076636e-20
000280 b1 80 29 39 a0 af 3c 3c d8 20 af 38 96 41 3c 3c
       0.00016165037 0.011516482 8.350768e-05 0.011490246
000290 4a 3b 38 3c ec 67 3a 3c e1 ca 97 38 5a fb 3c 3c
       0.011244604 0.011377316 7.23803e-05 0.011534536
0002a0 17 22 99 21 3b 68 65 20 3f 74 01 3a 33 a3 33 3c
       1.0376707e-18 1.9431541e-19 0.00049382815 0.010964203
0002b0 e7 d5 a1 38 ea 38 28 3c 39 bc 21 3c 49 d6 22 3c
       7.716921e-05 0.010267476 0.009871536 0.009938785
0002c0 1a 45 88 38 75 1e 2d 3c 07 6f e7 20 30 82 79 21
       6.4978565e-05 0.010566344 3.9206394e-19 8.4536783e-19
0002d0 d1 57 d4 3a c8 0c 11 3c df 6b 8b 38 3d 92 0f 3c
       0.0016200488 0.008853145 6.648129e-05 0.008762893
0002e0 c1 58 10 3c fe 24 14 3c 34 10 67 38 79 16 17 3c
       0.008810223 0.009042023 5.5089782e-05 0.0092216665
0002f0 20 7c 34 22 3e 84 d4 21 23 30 27 3b 35 b5 f2 3b
       2.446026e-18 1.4400683e-18 0.002551087 0.0074068555
000300 20 db 7c 38 c5 26 fe 3b 6c 76 fe 3b 88 20 f8 3b
       6.0285558e-05 0.0077560865 0.007765582 0.0075722374
000310 ad 1a 3c 38 9d 3f 03 3c 7d d3 1c 22 49 c5 8b 22
       4.4847537e-05 0.008010772 2.1253903e-18 3.788491e-18
000320 a2 92 44 3b e4 7e ef 3b be bd 6f 38 8f 6e f5 3b
       0.0029994627 0.0073088277 5.715875e-05 0.0074899863
000330 de d3 e1 3b bd 0e ee 3b f5 5c 25 38 3c f3 06 3c
       0.0068917116 0.0072649405 3.942564e-05 0.0082367025
000340 5a a0 52 22 34 ca 24 22 d4 30 cb 3a 4d 5f 0a 3c
       2.8545196e-18 2.233319e-18 0.0015502223 0.008445573
000350 27 b3 8b 38 d6 8d 08 3c 28 8a 03 3c 7f 09 07 3c
       6.661406e-05 0.008334598 0.0080285445 0.00824201
000360 46 23 20 38 c2 c2 19 3c 46 29 1b 22 d4 d8 ef 21
       3.8179824e-05 0.009384813 2.1028267e-18 1.6252664e-18
000370 8c 2d 4a 3a 77 bd 24 3c b6 53 a2 38 f1 42 1e 3c
       0.00077124755 0.010054938 7.740354e-05 0.009659515
000380 16 56 19 3c c0 f0 21 3c 8f 76 57 38 f9 87 23 3c
       0.009358903 0.009884059 5.137041e-05 0.009981149
000390 3f f3 95 21 cd c6 bb 21 69 2a 73 39 e5 26 37 3c
       1.0161019e-18 1.2724235e-18 0.00023190085 0.011178707
0003a0 93 69 ae 38 5e 92 30 3c b9 76 30 3c 81 6a 32 3c
       8.316631e-05 0.010777084 0.010770493 0.01088965
0003b0 45 e1 85 38 32 ba 30 3c d5 4e a4 21 9a ee ae 20
       6.383894e-05 0.01078658 1.1133939e-18 2.963464e-19
0003c0 c2 f1 14 38 f5 c4 41 3c 64 b2 b6 38 cb 9d 3e 3c
       3.5511104e-05 0.011826743 8.711664e-05 0.0116343
0003d0 d7 f4 3f 3c 9c 02 40 3c 6c 75 98 38 81 7f 3d 3c
       0.011716089 0.011719372 7.269796e-05 0.011566044
0003e0 3e 70 95 1f 24 96 e5 1f 79 5a 5a 35 4e f9 45 3c
       6.3289644e-20 9.723366e-20 8.1342984e-07 0.012083365
0003f0 65 18 bb 38 8e ed 45 3c 6f 3e 46 3c 61 91 45 3c
       8.921399e-05 0.012080563 0.012099846 0.012058587

exp_avg f4 [10]
000000 69 6b 7f 3a 5a 77 1d 3d 7e 88 79 bb 01 09 77 3c
       0.00097434834 0.0384439 -0.003807574 0.01507783
000010 8d 9d 34 ba 73 87 ba 3b 9a 8f d5 bc 60 5d 8c bd
       -0.0006889932 0.0056924163 -0.026069451 -0.06853747
000020 cc 17 32 bc 49 eb 4b 3d
       -0.010869931 0.049784932

exp_avg_sq f4 [10]
000000 33 68 46 3c 04 8f 49 3c a0 e8 b7 3c be f3 e2 3c
       0.012109804 0.012302164 0.022449791 0.027704116
000010 e5 cd 9d 3c 72 11 f1 3c 28 23 78 3c 93 dd b1 3c
       0.019263217 0.029427264 0.015145101 0.0217121
000020 9a 2d f0 3c 92 11 06 3d
       0.02931862 0.0327316
