evaluation/Results/Seed_0_Trainable_yes_NEQR_2x2_imgsize_14/model_checkpoints/epochs_9.pt (torch, 206799 bytes, 9 tensors)

qlayer_1.torch_qlayer.weights f8 [1, 4]
0	0xbfdd41f1eeda92bd	-0.4571499664837509
1	0xbfedc70b0905b33a	-0.9305472542015203
2	0xbff8527c16aa4561	-1.5201378712993903
3	0xbff0a786f95a76ab	-1.0409002056471006

linear.weight f4 [10, 1690]
0	0x3b2ee243	0.0026685155
1	0xbc621692	-0.0137993265
2	0xbc29f01b	-0.010372187
3	0xbc8daacd	-0.017293358
4	0x3caa7675	0.020808438
5	0xbc81659f	-0.015795527
6	0x3cab662a	0.020922739
7	0xbc6b1f5b	-0.014350737
8	0x3a9318b2	0.001122257
9	0x3c25835f	0.010102122
10	0xbcc6bdf0	-0.024260491
11	0x3cbf704b	0.023368975
12	0xbb5769cd	-0.0032869459
13	0x3cbe7c88	0.02325274
14	0x3b05eedc	0.002043656
15	0x3bbd9728	0.0057858415
16	0x3cc5d3e6	0.024148893
17	0x3cb25b01	0.02177191
18	0x3cb25908	0.021770969
19	0xbba3a334	-0.0049938206
20	0xbc573e8b	-0.01313747
21	0x3c867d52	0.01641718
22	0xbbfa1993	-0.007632443
23	0x3c6730d8	0.014110766
24	0x3be2bfb1	0.006919824
25	0x3d127ac3	0.035761606
26	0x3b9cdf1b	0.0047873384
27	0x3bca1972	0.006167584
28	0x3b32bc4f	0.0027272885
29	0x3c1d24bb	0.009591277
30	0x3c985665	0.018595884
31	0xbc0ee60d	-0.008721841
32	0x3b6b3f6a	0.0035895952
33	0xbc98e32d	-0.018663013
34	0xbcb8ab19	-0.022542523
35	0x3c3ac4b4	0.011399437
36	0x3ceaa7f6	0.028644543
37	0xbbe1f469	-0.006895591
38	0x39a7db02	0.00032015896
39	0xbc2df427	-0.0106172925
40	0xbd5ef05b	-0.05442844
41	0x3b727922	0.003699847
42	0xbc19b2e3	-0.009381029
43	0x3b01bfde	0.00197982
44	0x3c937396	0.017999452
45	0x3c122985	0.008921032
46	0xbc8c202d	-0.017105186
47	0x3ba95c85	0.0051685
48	0x3cad4e11	0.021155389
49	0x3af62279	0.0018778584
50	0xbe1b9aa7	-0.15195714
51	0x3cc217ad	0.02369293
52	0xbc038230	-0.008026645
53	0x3c33a175	0.010963787
54	0x3cd668ea	0.026173074
55	0x3d13fd04	0.036129966
56	0x3d0e7c26	0.034786366
57	0x3cc11ab2	0.0235723
58	0xbc46171d	-0.012090472
59	0xbc8c31ff	-0.017113684
60	0xbe98ce18	-0.29844737
61	0x3d013aeb	0.03155033
62	0xbc9eb125	-0.019371578
63	0x3cfcc10e	0.030853774
64	0x3df34ffd	0.11880491
65	0x3dc2b6b1	0.09507502
66	0x3cc5b2f0	0.024133176
67	0x3d171898	0.03688869
68	0x3c9cc782	0.019138101
69	0xbbb400d2	-0.005493262
70	0xbe6b56c3	-0.22982316
71	0x3d55d10d	0.05220132
72	0xba7e4332	-0.0009699344
73	0x3d595c2a	0.05306641
74	0x3d9ef3a8	0.077613175
75	0x3df68538	0.12037128
76	0xbbaf6c38	-0.005353477
77	0x3d7d38f6	0.0618219
78	0xbb0b3b1d	-0.002124495
79	0xbcc0464c	-0.02347102
80	0xbf09e731	-0.53868395
81	0x3db9a4d8	0.090646446
82	0x3c924ba7	0.01785834
83	0x3db0a1c3	0.086246036
84	0x3d7cc1d5	0.06170829
85	0x3db81dd9	0.08990068
86	0x3c2b36a1	0.010450036
87	0x3d85d978	0.065356195
88	0xbd433adf	-0.047663566
89	0xb9d6e4b9	-0.00040987672
90	0xbebebf71	-0.37255433
91	0x3d529fcf	0.051421937
92	0x3b668afe	0.003517806
93	0x3d63dd66	0.055631064
94	0x3d3c98f1	0.046044294
95	0x3c74c9be	0.014940677
96	0x3ca1a739	0.019733058
97	0x3cc4036c	0.023927413
98	0x3c9e5eb8	0.019332275
99	0xbcb4c83d	-0.022068137
100	0xbe241800	-0.1602478
101	0x3bc6f17a	0.0060712667
102	0x3ca50491	0.020143779
103	0xbb6497a2	-0.003488042
104	0x3cb04ddb	0.0215215
105	0x3c817695	0.015803615
106	0x3d1d3f5f	0.038390514
107	0x3b3ddce7	0.002897078
108	0x3d1eb625	0.038747925
109	0xbbd0608b	-0.006359165
110	0xbc9c3871	-0.019069882
111	0x3c82cddc	0.015967302
112	0x3d10f894	0.035393313
113	0x3cb7c9d3	0.022435104
114	0xbbe2fb6a	-0.0069269435
115	0x3c2c4381	0.010514141
116	0x3aa0c323	0.0012265187
117	0x3ccd27fc	0.02504348
118	0xbc7cef48	-0.0154379085
119	0x3bd697c7	0.006548855
120	0x3c44d515	0.012013693
121	0x3c2052e0	0.009785384
122	0x3cc31da7	0.02381785
123	0x3aca2c3c	0.001542456
124	0xbb01b5b4	-0.0019792141
125	0x3c695ff5	0.014244069
126	0xbc224a11	-0.009905354
127	0x3cbc226d	0.022965634
128	0xbc6a7d9d	-0.014312175
129	0xbcb9404b	-0.022613665
130	0xbbf15117	-0.007364403
131	0x3b87e1b3	0.0041467785
132	0xbaa122fb	-0.001229375
133	0x3c17d8f8	0.009268038
134	0xbb78ee34	-0.0037983777
135	0xbc4e394d	-0.012586904
136	0x3ce64fde	0.028114256
137	0x3c898229	0.016785698
138	0xbc9a81c5	-0.018860707
139	0xbcc60bde	-0.02417558
140	0xbe006e56	-0.1254209
141	0x3bdb5516	0.0066934926
142	0xbb6818c2	-0.0035415147
143	0x3cdb16f7	0.026744349
144	0x3d0bbe77	0.03411719
145	0x3cba3ea0	0.02273494
146	0x3c56eefc	0.013118502
147	0x3b8391fb	0.004015205
148	0x3c24e96a	0.010065416
149	0x3c74e5a6	0.014947331
150	0xbecc0497	-0.39847252
151	0x3d0669e5	0.032815833
152	0x3d3c38c2	0.045952566
153	0x3cf23373	0.029565549
154	0x3cca9d0f	0.024733094
155	0x3d26aec0	0.040694
156	0x3ca22d0f	0.019796876
157	0x3d19c3ea	0.037540354
158	0xbcc0a396	-0.023515504
159	0xbcd41555	-0.025889078
160	0xbe447854	-0.19186527
161	0x3d94eb38	0.07271427
162	0x3cd53112	0.026024375
163	0x3db8aa87	0.090169005
164	0x3c633c34	0.013869334
165	0x3de26037	0.11053508
166	0xbbe681d5	-0.00703452
167	0x3d5e380c	0.05425267
168	0x3d28b1db	0.04118524
169	0xbcce7f60	-0.025207222
170	0xbe5b04e2	-0.21388581
171	0x3e0df5bb	0.1386327
172	0x3c70c15e	0.01469454
173	0x3e2f768f	0.1713507
174	0x3df6ed52	0.12056984
175	0x3d67e400	0.056613922
176	0x3ca21c2b	0.019788822
177	0x3dee592c	0.11638102
178	0x3ca61ac4	0.020276435
179	0x3bdfa279	0.006824788
180	0xbe563676	-0.20919213
181	0x3e85075f	0.25982186
182	0xbc896273	-0.016770577
183	0x3e71cf63	0.23614268
184	0x3dbaa0e2	0.09112717
185	0xbd19aff3	-0.037521314
186	0x3c9c7259	0.019097494
187	0x3e2c5635	0.1682976
188	0x3da3ee25	0.08004407
189	0xbda5d77f	-0.08097743
190	0xbe331220	-0.17487383
191	0x3e2857f2	0.16439798
192	0xbdbc4905	-0.09193615
193	0x3d9091e8	0.070590794
194	0xbdb391c9	-0.08768041
195	0xbde41e16	-0.11138551
196	0xbd223c7f	-0.039608475
197	0x3dec6f25	0.11544637
198	0x3cbd59be	0.023114081
199	0xbd1384b4	-0.036015227
200	0xbc273b1e	-0.010206966
201	0xbe1c0d0f	-0.15239356
202	0xbe19bbf6	-0.15013108
203	0x3d3e083b	0.046394568
204	0xbe1ba177	-0.15198313
205	0xbe566754	-0.20937854
206	0xbdc4252a	-0.09577401
207	0x3d5c4da6	0.05378499
208	0x3cf16f4b	0.029472014
209	0xbcd44ef0	-0.025916547
210	0x3e43455c	0.19069427
211	0xbd00a1f5	-0.031404454
212	0xbdea5094	-0.1144115
213	0x3b13d4be	0.0022557224
214	0xbd41e245	-0.047334928
215	0x3cdc098c	0.026860021
216	0xbd07e310	-0.033175528
217	0x3d1e9f9a	0.038726427
218	0xbd538733	-0.051642608
219	0x3a9d8a79	0.0012019417
220	0x3d83b18d	0.064303495
221	0x3db8754e	0.09006749
222	0xbcb032c9	-0.021508591
223	0xbcb58adb	-0.022160938
224	0x3d3daa82	0.046305187
225	0x3e1d8a3d	0.15384765
226	0xbc753893	-0.014967102
227	0x3d2c1023	0.042007577
228	0xbcc804f3	-0.024416422
229	0xbbbbe32d	-0.0057338686
230	0xbe6ac484	-0.22926527
231	0x3d22cad0	0.0397442
232	0x3b971c04	0.004611494
233	0x3d35244c	0.04422407
234	0x3de169b2	0.11006488
235	0x3d8eac9c	0.069665164
236	0x3c78caef	0.015185102
237	0x3d6102e8	0.054934412
238	0x3c548b3b	0.012972648
239	0x3d02f8f1	0.03197569
240	0xbc8d5858	-0.01725404
241	0xbbf6823d	-0.00752285
242	0x3d04afd6	0.032394253
243	0x3db7be91	0.089718945
244	0x3c93f306	0.018060219
245	0x3d123f7a	0.035705067
246	0x3cf04b93	0.029332912
247	0x3cf1b47a	0.029505003
248	0xbce395e0	-0.027781427
249	0xbbbfc6b3	-0.005852544
250	0xbda08342	-0.078375354
251	0x3bfd9d48	0.0077396967
252	0x3c968408	0.018373504
253	0x3c0fd1bd	0.008778033
254	0xbc93bd7b	-0.018034687
255	0xbc9af277	-0.018914444

linear.bias f4 [10]
0	0xbb88ed8e	-0.0041787094
1	0xbd2c5371	-0.042071763
2	0x3d269586	0.04066994
3	0x3af1d2c6	0.0018449656
4	0xbd24dba6	-0.040248536
5	0x3d3a91a0	0.045549035
6	0xbac599ca	-0.001507574
7	0xbc8eac6d	-0.017416203
8	0x3d50cff7	0.05097958
9	0xbcc82570	-0.024431914

exp_avg f8 [1, 4]
0	0xbfe7d716cf65eefd	-0.7450059939141905
1	0xbe70bead80ff6ce1	-6.237937122349882e-08
2	0xbfc46ad51972a22e	-0.15951026670997365
3	0xbfe7d716c4a4da82	-0.7450059738828971

exp_avg_sq f8 [1, 4]
0	0x3ff5638ca56d0e20	1.3368040525391578
1	0x3d0fa594af9d9183	1.4054002414401285e-14
2	0x3fd158a9b1d84615	0.2710365521207632
3	0x3ff5638ca9492945	1.336804066917993

exp_avg f4 [10, 1690]
0	0x00000000	0.0
1	0x3920fabb	0.00015352193
2	0x37f7427c	2.9475654e-05
3	0x3920fabb	0.00015352193
4	0x3920fabb	0.00015352193
5	0x3920fabb	0.00015352193
6	0xb65a1e28	-3.2502085e-06
7	0x3920fabb	0.00015352193
8	0x00000000	0.0
9	0x00000000	0.0
10	0x80000004	-6e-45
11	0x3920fabb	0.00015352193
12	0x37f7427c	2.9475654e-05
13	0x3920fabb	0.00015352193
14	0x3920fabb	0.00015352193
15	0x3920fabb	0.00015352193
16	0xb65a1e28	-3.2502085e-06
17	0x3920fabb	0.00015352193
18	0x00000000	0.0
19	0x00000000	0.0
20	0x0bca23a6	7.786121e-32
21	0x3920fabb	0.00015352193
22	0x37f7427c	2.9475654e-05
23	0x3920fabb	0.00015352193
24	0x3920fabb	0.00015352193
25	0x3920fabb	0.00015352193
26	0xb65a1e28	-3.2502085e-06
27	0x3920fabb	0.00015352193
28	0x81938b5b	-5.4199237e-38
29	0x81938b5b	-5.4199237e-38
30	0x0e71c216	2.9798992e-30
31	0x3920fabb	0.00015352193
32	0x37f7427c	2.9475654e-05
33	0x3920fabb	0.00015352193
34	0x3920fabb	0.00015352193
35	0x3920fabb	0.00015352193
36	0xb65a1e28	-3.2502085e-06
37	0x3920fabb	0.00015352193
38	0x819689dd	-5.529912e-38
39	0x002503a5	3.399221e-39
40	0x123790fe	5.7923335e-28
41	0x3920f98b	0.00015351751
42	0x37f7427c	2.9475654e-05
43	0x3920fabb	0.00015352193
44	0x3920f98b	0.00015351751
45	0x3920fabb	0.00015352193
46	0xb65a1b34	-3.2500366e-06
47	0x3920f98b	0.00015351751
48	0x89adeb03	-4.186924e-33
49	0x80000004	-6e-45
50	0x1c78e667	8.2354105e-22
51	0x3920f459	0.00015349816
52	0x37f74387	2.947614e-05
53	0x3920fabb	0.00015352193
54	0x3920f459	0.00015349816
55	0x3920f6b9	0.000153507
56	0xb65a1718	-3.2497974e-06
57	0x3920f592	0.00015350271
58	0x1ac6f7a6	8.229098e-23
59	0x1ac6f7a6	8.229098e-23
60	0x2415f39d	3.2515573e-17
61	0x3920f06b	0.00015348352
62	0x37f7440e	2.9476385e-05
63	0x3920f98b	0.00015351751
64	0x3920ea72	0.00015346127
65	0x3920f592	0.00015350271
66	0xb65a2b43	-3.2509713e-06
67	0x3920efc0	0.00015348103
68	0x2595ba78	2.5973736e-16
69	0x1ac70bc6	8.232349e-23
70	0x241bfc74	3.3824103e-17
71	0x3920ee95	0.00015347668
72	0x37f74334	2.9475988e-05
73	0x3920f98b	0.00015351751
74	0x3920ea72	0.00015346127
75	0x3920a3ee	0.00015319858
76	0xb65a40c7	-3.2522237e-06
77	0x3920f3c2	0.00015349596
78	0xa7621069	-3.1372696e-15
79	0x27622e8f	3.138904e-15
80	0xa73ea7bd	-2.6458728e-15
81	0x3920a652	0.00015320748
82	0x37f742ab	2.947574e-05
83	0x3920ad58	0.00015323365
84	0x3920a828	0.00015321432
85	0x3920a52d	0.00015320322
86	0xb65a2a96	-3.250932e-06
87	0x3920facb	0.00015352217
88	0x196482f6	1.1813771e-23
89	0x19646e73	1.1809629e-23
90	0x262a4f8f	5.908842e-16
91	0x39206006	0.0001529456
92	0x37f7b37c	2.9528273e-05
93	0x39206000	0.00015294552
94	0x3920ad77	0.0001532341
95	0x3920ad69	0.0001532339
96	0xb65a191f	-3.2499154e-06
97	0x3920facb	0.00015352217
98	0x1a0db588	2.9304756e-23
99	0xa01039d1	-1.2216404e-19
100	0x24e4a73b	9.916254e-17
101	0x3920ad61	0.00015323378
102	0x37f7b37c	2.9528273e-05
103	0x3920ad61	0.00015323378
104	0x3920facb	0.00015352217
105	0x3920ad61	0.00015323378
106	0xb65a1e28	-3.2502085e-06
107	0x3920fabb	0.00015352193
108	0x201039d1	1.2216404e-19
109	0xa0106fcc	-1.2234265e-19
110	0x00000004	6e-45
111	0x3920fabb	0.00015352193
112	0x37f7427c	2.9475654e-05
113	0x3920fabb	0.00015352193
114	0x3920fabb	0.00015352193
115	0x3920fabb	0.00015352193
116	0xb65a1e28	-3.2502085e-06
117	0x3920fabb	0.00015352193
118	0x1b3b727e	1.5505272e-22
119	0x19645f4d	1.18065696e-23
120	0x80000004	-6e-45
121	0x3920fabb	0.00015352193
122	0x37f7427c	2.9475654e-05
123	0x3920fabb	0.00015352193
124	0x3920fabb	0.00015352193
125	0x3920fabb	0.00015352193
126	0xb65a1e28	-3.2502085e-06
127	0x3920fabb	0.00015352193
128	0x80000004	-6e-45
129	0x80000004	-6e-45
130	0x00000000	0.0
131	0x3920fabb	0.00015352193
132	0x37f7427c	2.9475654e-05
133	0x3920fabb	0.00015352193
134	0x3920fabb	0.00015352193
135	0x3920fabb	0.00015352193
136	0xb65a1e28	-3.2502085e-06
137	0x3920fabb	0.00015352193
138	0x00000000	0.0
139	0x00000000	0.0
140	0x08a1d9a5	9.741003e-34
141	0x3920fabb	0.00015352193
142	0x37f7427c	2.9475654e-05
143	0x3920fabb	0.00015352193
144	0x3920fabb	0.00015352193
145	0x3920fabb	0.00015352193
146	0xb65a1e28	-3.2502085e-06
147	0x3920fabb	0.00015352193
148	0x0a3dfd97	9.147714e-33
149	0x0a3dfd97	9.147714e-33
150	0x2800c494	7.1480534e-15
151	0x3920f723	0.00015350855
152	0x37f74312	2.9475927e-05
153	0x3920fabb	0.00015352193
154	0x3920fabb	0.00015352193
155	0x3920f729	0.00015350863
156	0xb65a1b1e	-3.2500316e-06
157	0x3920fabb	0.00015352193
158	0x1ac7179f	8.234263e-23
159	0x1ac717a6	8.234268e-23
160	0x2c691551	3.3123124e-12
161	0x3920ed0b	0.00015347094
162	0x37f742f7	2.9475877e-05
163	0x3920f51f	0.00015350104
164	0x3920f64d	0.00015350543
165	0x3920f25b	0.00015349074
166	0xb65a55fc	-3.253458e-06
167	0x3920f98b	0.00015351751
168	0xa6cea478	-1.4338701e-15
169	0xa6cea478	-1.4338701e-15
170	0x330fdd82	3.3496242e-08
171	0xb8b53835	-8.641222e-05
172	0x378c22f0	1.670557e-05
173	0xb8b90949	-8.823217e-05
174	0x39059829	0.00012740552
175	0x39059d07	0.00012742366
176	0xb6e7aa6c	-6.904176e-06
177	0xb8b94d64	-8.8359026e-05
178	0x2720ea32	2.2331418e-15
179	0xa6ce6f8b	-1.4324355e-15
180	0x397b986f	0.00023994011
181	0xb8b91527	-8.825427e-05
182	0x3745d5c4	1.1791886e-05
183	0xb8f4028c	-0.00011635301
184	0x38d02756	9.92554e-05
185	0xb9118ae3	-0.00013880017
186	0xb6e7ae65	-6.9046387e-06
187	0xb9b9c988	-0.00035436102
188	0x285b5a8a	1.2176575e-14
189	0x287bf852	1.3987145e-14
190	0x397ba1cb	0.00023997498
191	0xb8ee1a03	-0.000113535694
192	0x37d19dce	2.4988225e-05
193	0xb8f8a208	-0.00011855742
194	0x390230cc	0.00012415944
195	0xb9c7ee90	-0.0003813398
196	0x3728f00c	1.0069471e-05
197	0xb8ed37c6	-0.00011311429
198	0x27ccc295	5.683234e-15
199	0xa7a3a99d	-4.5425483e-15
200	0xb97b93d1	-0.00023992291
201	0xb90fd0bb	-0.00013715301
202	0x37db26a2	2.6124824e-05
203	0xb8bc9a2f	-8.9932575e-05
204	0x39cf8d67	0.0003958747
205	0xb915c8b5	-0.00014284517
206	0x3749b84a	1.2023442e-05
207	0xb8bbab3f	-8.948752e-05
208	0x258cff89	2.4459286e-16
209	0xa7d9484e	-6.030799e-15
210	0xb9fc3372	-0.00048103515
211	0x38ccc147	9.763479e-05
212	0x37db8769	2.616989e-05
213	0x39d00bae	0.00039681554
214	0x39cfb95d	0.00039620223
215	0x38cb42ee	9.692261e-05
216	0x3749f74f	1.2038115e-05
217	0xb8be7de3	-9.083354e-05
218	0x272b7e45	2.3799468e-15
219	0xa6447433	-6.815864e-16
220	0xb97a5497	-0.0002387337
221	0x38ffebc7	0.000122032645
222	0x37ffb9b8	3.048485e-05
223	0x39c1a958	0.00036938
224	0x39cd9d4a	0.00039217836
225	0x39b2537b	0.00034013003
226	0x3727e82d	1.0008033e-05
227	0x3903bc83	0.0001256336
228	0xa221b0ff	-2.191327e-18
229	0x270b0dcc	1.9297604e-15
230	0x361abf17	2.3059017e-06
231	0x391f4f5c	0.00015192985
232	0x37fbc5b8	3.0013602e-05
233	0x3903a3a0	0.00012554089
234	0x39cda2ce	0.00039221946
235	0x39c144b1	0.00036863008
236	0xb6611929	-3.3542258e-06
237	0x39051b98	0.00012694148
238	0xa71c14b7	-2.1660579e-15
239	0x271b979f	2.1592765e-15
240	0xb1901b6e	-4.19407e-09
241	0x39207779	0.00015303296
242	0x37f71644	2.9455063e-05
243	0x391fe69a	0.00015249327
244	0x39201dd1	0.00015269897
245	0x39209c3b	0.0001531699
246	0xb65bbca9	-3.2743358e-06
247	0x391fc2fe	0.00015236062
248	0x20106a3a	1.2232422e-19
249	0xa01043c1	-1.2219692e-19
250	0x17ce8f42	1.3348601e-24
251	0x3920fbe8	0.00015352631
252	0x37f7160a	2.9454957e-05
253	0x3920fabb	0.00015352193
254	0x3920fbd9	0.0001535261
255	0x3920fabb	0.00015352193

exp_avg_sq f4 [10, 1690]
0	0x00000000	0.0
1	0x3c523158	0.012829147
2	0x39e6f4bd	0.00044051363
3	0x3c523158	0.012829147
4	0x3c523158	0.012829147
5	0x3c523158	0.012829147
6	0x3ad61595	0.0016333336
7	0x3c523158	0.012829147
8	0x00000000	0.0
9	0x00000000	0.0
10	0x00000000	0.0
11	0x3c523158	0.012829147
12	0x39e6f4bd	0.00044051363
13	0x3c5046ea	0.01271222
14	0x3c5046ea	0.01271222
15	0x3c5046ea	0.01271222
16	0x3ad61595	0.0016333336
17	0x3c523158	0.012829147
18	0x00000000	0.0
19	0x00000000	0.0
20	0x114e87a3	1.6292331e-28
21	0x3c523158	0.012829147
22	0x39e6f4bd	0.00044051363
23	0x3c5046ea	0.01271222
24	0x3c5046ea	0.01271222
25	0x3c5046ee	0.012712223
26	0x3ad61597	0.0016333339
27	0x3c52315d	0.012829152
28	0x00000000	0.0
29	0x00000000	0.0
30	0x187e3238	3.2854085e-24
31	0x3c523150	0.01282914
32	0x39e6f4bd	0.00044051363
33	0x3c523150	0.01282914
34	0x3c523158	0.012829147
35	0x3c52315d	0.012829152
36	0x3ad61593	0.0016333334
37	0x3c52315d	0.012829152
38	0x090f4865	1.7247039e-33
39	0x09017a99	1.5585455e-33
40	0x220f7818	1.944369e-18
41	0x3c50bf41	0.012740911
42	0x39e6f4bd	0.00044051363
43	0x3c52313b	0.01282912
44	0x3c50bf37	0.012740902
45	0x3c52313b	0.01282912
46	0x3ad610f2	0.0016331954
47	0x3c4ef0e2	0.012630673
48	0x1bb7a80a	3.0383403e-22
49	0x0257a9ba	1.5844414e-37
50	0x313c41df	2.7395044e-09
51	0x3c466cba	0.012110883
52	0x39e21ace	0.0004312605
53	0x3c521b22	0.012823852
54	0x3c4a3b37	0.0123432195
55	0x3c4ea5fe	0.012612818
56	0x3ac46dc0	0.0014986321
57	0x3c4c427f	0.012467026
58	0x1f94015a	6.2682674e-20
59	0x207a2c5b	2.11905e-19
60	0x32fcc635	2.9426795e-08
61	0x3c3f962e	0.0116935205
62	0x39e1de82	0.00043081125
63	0x3c4a8667	0.012361146
64	0x3c41a719	0.011819624
65	0x3c475eb9	0.01216858
66	0x3ac3b5f2	0.0014931543
67	0x3c46ad02	0.012126209
68	0x21001671	4.339779e-19
69	0x207a2c61	2.1190507e-19
70	0x33e7ffb5	1.08032886e-07
71	0x3c410dda	0.011783088
72	0x39e46f40	0.00043570437
73	0x3c45beb8	0.012069397
74	0x3c4155ad	0.011800212
75	0x3c489aec	0.0122439675
76	0x3ad2e372	0.0016089513
77	0x3c471b64	0.0121525265
78	0x1f8801c1	5.760114e-20
79	0x1776e3fb	7.977464e-25
80	0x3823baf6	3.903635e-05
81	0x3c4ba23b	0.0124288155
82	0x39e4f68d	0.00043671243
83	0x3c4bf0bc	0.012447532
84	0x3c4727b0	0.012155458
85	0x3c4bb52c	0.012433331
86	0x3ad324ec	0.0016109026
87	0x3c4cb211	0.012493626
88	0x21a836aa	1.1398592e-18
89	0x216d81a1	8.0470286e-19
90	0x38239dac	3.900907e-05
91	0x3c4f37d9	0.012647592
92	0x39e66186	0.0004394168
93	0x3c4eb9b4	0.012617517
94	0x3c4dfd50	0.012572601
95	0x3c4f3666	0.012647247
96	0x3ad5e53a	0.0016318925
97	0x3c4dbc5c	0.012557115
98	0x17ff529a	1.649984e-24
99	0x20237a33	1.384707e-19
100	0x294efc4d	4.5960025e-14
101	0x3c52c63d	0.0128646465
102	0x39e68719	0.00043969674
103	0x3c5044f5	0.012711753
104	0x3c5044c5	0.012711708
105	0x3c522fa3	0.01282874
106	0x3ad6b19e	0.0016379838
107	0x3c523039	0.01282888
108	0x210bca42	4.736272e-19
109	0x1ebff5c5	2.032456e-20
110	0x1f61a7a2	4.7784266e-20
111	0x3c52315d	0.012829152
112	0x39e6f4bd	0.00044051363
113	0x3c523033	0.012828874
114	0x3c523153	0.012829143
115	0x3c523039	0.01282888
116	0x3ad69102	0.001637012
117	0x3c523039	0.01282888
118	0x06447c2e	3.6954736e-35
119	0x1ebff4c4	2.0324144e-20
120	0x0761a7a4	1.6976384e-34
121	0x3c523158	0.012829147
122	0x39e6f4bd	0.00044051363
123	0x3c523158	0.012829147
124	0x3c523158	0.012829147
125	0x3c523158	0.012829147
126	0x3ad61595	0.0016333336
127	0x3c523158	0.012829147
128	0x078960bb	2.0670322e-34
129	0x078960bb	2.0670322e-34
130	0x00000000	0.0
131	0x3c523158	0.012829147
132	0x39e6f4bd	0.00044051363
133	0x3c523158	0.012829147
134	0x3c523158	0.012829147
135	0x3c523158	0.012829147
136	0x3ad61595	0.0016333336
137	0x3c523158	0.012829147
138	0x00000000	0.0
139	0x00000000	0.0
140	0x30ff2a87	1.8565779e-09
141	0x3c523158	0.012829147
142	0x39e0d498	0.00042883004
143	0x3c503c1f	0.0127096465
144	0x3c503c1f	0.0127096465
145	0x3c5046e3	0.012712213
146	0x3ad0892c	0.0015910021
147	0x3c523158	0.012829147
148	0x2093d9fb	2.5047016e-19
149	0x00000001	1e-45
150	0x3568bf88	8.670545e-07
151	0x3c4cbf29	0.012496748
152	0x39deaa4a	0.00042470015
153	0x3c4e5211	0.012592808
154	0x3c4cf8b0	0.012510464
155	0x3c4bb440	0.012433112
156	0x3ace8cba	0.0015758493
157	0x3c512fb1	0.012767718
158	0x1f6cc2a3	5.0135944e-20
159	0x2193d9ff	1.0018811e-18
160	0x38c1bfb2	9.238663e-05
161	0x3c478a83	0.01217902
162	0x39dbb000	0.00041902065
163	0x3c41aa64	0.011820409
164	0x3c43b496	0.0119449105
165	0x3c44f04c	0.012020182
166	0x3ac1bba5	0.0014780654
167	0x3c4f1399	0.01263895
168	0x20b172cd	3.0060935e-19
169	0x2093da1d	2.5047104e-19
170	0x3a11c1be	0.0005560181
171	0x3c3f9ae4	0.011694644
172	0x39d53157	0.00040663287
173	0x3c3414cf	0.010991289
174	0x3c3566d3	0.0110718785
175	0x3c3ce438	0.011529021
176	0x3ab1dfb9	0.0013570703
177	0x3c363c24	0.011122737
178	0x21180200	5.150225e-19
179	0x207f9c89	2.1651133e-19
180	0x3aa67e5f	0.0012702456
181	0x3c1cba2e	0.009565873
182	0x39c1b1f9	0.0003694443
183	0x3c1ee208	0.009697445
184	0x3c19e232	0.009392308
185	0x3c24cc80	0.010058522
186	0x3a933dbd	0.0011233609
187	0x3c2458e7	0.010030962
188	0x220eb650	1.9341104e-18
189	0x21babe9c	1.2654304e-18
190	0x3b183dbf	0.0023230163
191	0x3bfa279b	0.007634116
192	0x398260a1	0.00024867526
193	0x3c0076db	0.007840837
194	0x3bdf6198	0.006817054
195	0x3be43566	0.0069643734
196	0x3a753836	0.00093543844
197	0x3c088a48	0.00833375
198	0x222e5756	2.3627633e-18
199	0x22ad3801	4.695104e-18
200	0x3b432282	0.0029775207
201	0x3bca9e20	0.0061834008
202	0x392bfc5f	0.00016401846
203	0x3bc273fa	0.0059342356
204	0x3bcd1958	0.0062591247
205	0x3bc21410	0.005922802
206	0x3a566cfe	0.0008179693
207	0x3bf2f340	0.0074142516
208	0x21c52ffd	1.3361942e-18
209	0x22dafd05	5.9356913e-18
210	0x3b389481	0.0028164687
211	0x3be93423	0.007116811
212	0x3931d51b	0.00016959423
213	0x3be40ec0	0.006959766
214	0x3bef5841	0.007304222
215	0x3be8eb22	0.007108108
216	0x3a3f59e7	0.0007299468
217	0x3c05b0ce	0.008159829
218	0x221abb08	2.0969905e-18
219	0x227ba43d	3.410379e-18
220	0x3a7cd130	0.00096442085
221	0x3c14f334	0.009091187
222	0x398808cf	0.00025946504
223	0x3c0e69ff	0.008692264
224	0x3c11d7ee	0.008901579
225	0x3c15583d	0.009115276
226	0x3a8b6d74	0.0010637478
227	0x3c14e2d2	0.009087281
228	0x21f56744	1.662918e-18
229	0x223abf77	2.5309061e-18
230	0x3999c0ed	0.00029326175
231	0x3c3ac74e	0.011400057
232	0x39d1ca43	0.00040014283
233	0x3c2afcda	0.010436261
234	0x3c1e8879	0.009676092
235	0x3c28f1b3	0.010311532
236	0x3aacd61b	0.0013186367
237	0x3c2ea7df	0.010660141
238	0x21890b79	9.286518e-19
239	0x2153b5bb	7.17301e-19
240	0x392a1a1e	0.00016222193
241	0x3c4d85f5	0.012544145
242	0x39e25d5b	0.00043175634
243	0x3c3e1e09	0.011603841
244	0x3c3d09f0	0.011538014
245	0x3c446b64	0.011988495
246	0x3ac19511	0.0014769157
247	0x3c45878d	0.012056244
248	0x2113cc3d	5.0075844e-19
249	0x1fe48f4a	9.679881e-20
250	0x37e259e3	2.6983156e-05
251	0x3c4f8b24	0.012667451
252	0x39e6f4c0	0.00044051372
253	0x3c4fa368	0.012673236
254	0x3c4f3b56	0.012648424
255	0x3c522af0	0.01282762

exp_avg f4 [10]
0	0x3920fabb	0.00015352193
1	0x3b9e5619	0.004832041
2	0x3d34867d	0.04407357
3	0xbb1b0d91	-0.002365921
4	0x3d0149fa	0.03156469
5	0xbc8bb1a9	-0.017052488
6	0xbc2684b7	-0.010163478
7	0x3b8f90eb	0.0043812892
8	0xbd573694	-0.052542284
9	0xbb3cce2e	-0.0028809416

exp_avg_sq f4 [10]
0	0x3c523157	0.012829146
1	0x3c85919b	0.016304782
2	0x3c9c174b	0.019054076
3	0x3cd2d3e5	0.025735805
4	0x3ca8db70	0.020612448
5	0x3cda1353	0.026620543
6	0x3c79b93b	0.015241916
7	0x3cabd70f	0.020976571
8	0x3cea5604	0.028605469
9	0x3cdcb6b5	0.02694259
