evaluation/Results/Seed_0_Trainable_no_EFRQI_for_2x2_2x2_imgsize_14/model_checkpoints/epochs_11.pt (torch, 63969 bytes, 7 tensors)

qlayer_1.torch_qlayer.weights f8 [1, 4]
-0.07266094962931335 -0.8793490277240921 -0.26835022124251884 -0.6564112353869826
00000000: 20ad 5a72 e899 b2bf 1a05 7b92 a023 ecbf
00000010: 581a 0768 a62c d1bf 7cd9 9622 5201 e5bf

linear.weight f4 [10, 507]
0.046677697 -0.0679707 -0.00028539659 0.009306053 -0.0046869153 0.011996109 0.07104013 -0.06586546
0.043854635 0.063159 -0.07798272 0.08452735 0.1356483 0.15489358 0.016622918 0.04276015
0.03176582 0.108816795 0.110281475 0.030516574 0.030674342 0.1780055 0.29833555 0.06410073
0.20456088 -0.062270798 0.04177185 0.32049102 -0.25025183 0.059328128 0.21829347 -0.33915225
0.025216695 0.06569806 -0.21923679 0.06162852 0.08420628 -0.057384063 0.04239019 0.012750654
-0.059961785 0.037531573 0.01497901 0.03231877 0.06347059 0.11240407 0.050380092 0.027024627
0.17241053 0.014448965 0.007710752 0.14396748 0.03573339 0.07414675 -0.06957278 -0.20822039
0.05612884 -0.23047045 -0.43193546 0.05270872 -0.5225138 0.011629677 0.04620979 -0.48001745
0.50609183 0.12509874 -0.30550745 0.03779186 0.19328442 0.049183216 -0.10674368 0.1269768
-0.069485664 0.08824686 0.03678668 0.09925108 -0.11498006 0.068022154 0.06049598 -0.10601007
0.00798396 0.07594798 0.052503888 0.075664066 0.13413545 0.15781528 0.07806295 0.017223168
-0.15654422 0.03674306 -0.2832915 -0.014421222 0.2613453 0.16471945 -0.13125744 -0.064763956
-0.009590066 -0.6272777 -0.0010296059 0.44369394 -0.44828156 -0.11143177 -0.095805176 0.3881509
-0.13439754 -0.27850142 0.31047836 -0.034766458 0.022676164 0.057285756 -0.007988255 0.13197422
-0.0112023335 0.1017149 -0.035939366 0.047852833 -0.0068174377 0.12112838 -0.06392738 0.04270668
0.044153027 0.0060806023 0.06576496 -0.061831843 -0.16595419 0.13117102 0.042508155 0.022370648
0.017576946 0.009335098 -0.079948425 -0.14691927 0.39797384 -0.3314231 0.1454083 -0.074509874
-0.56991774 -0.20701693 -0.06820726 -0.67170125 -0.15625767 0.10337067 0.22899331 -0.33874744
0.0788186 0.14261276 -0.26705176 0.04114738 0.118956886 -0.037270732 0.010785067 -0.022704422
-0.05369219 -0.0784352 0.29112235 -0.0035908571 0.087381914 0.007852319 0.009981539 -0.28972733
-0.27697572 0.04217667 0.25575837 -0.0010041583 -0.23731826 0.13516031 0.018356042 -0.2154729
-0.07742577 -0.09426479 -0.10033314 0.08324385 -0.0480241 -0.08628481 -0.120654315 0.008690499
-0.15049386 0.1640828 -0.22863437 -0.06963628 -0.29126137 -0.29338178 0.16956149 0.30613518
-0.25074902 -0.05488319 0.005382014 0.06908226 -0.42343536 -0.100669995 0.10055676 -0.27872133
0.028776009 0.14917299 -0.06326343 0.049237456 -0.020660603 0.052675225 -0.27407086 -0.4728394
-0.2456674 0.093615785 0.11149661 -0.31870055 -0.23047356 0.26136023 -0.4011196 0.10522682
0.13730712 -0.15177783 -0.15288901 0.42342782 -0.13195878 -0.40556487 0.60606325 -0.37105405
-0.4109817 0.17931056 -0.06665007 -0.043261223 -0.82384205 0.17296015 0.07958498 -0.6587231
-0.5593247 0.3025297 -0.11543461 -0.19139838 0.48343197 -0.0882116 -0.4644275 0.078786775
-0.1585017 -0.09854572 0.13357303 0.13267036 0.026907597 0.062118694 -0.32288972 -0.420619
0.25476852 0.05103959 -0.10658205 0.30202082 0.22661208 -0.423585 0.34604737 0.38909516
-0.15342017 -0.39663684 1.0427439 -0.10158711 0.19530825 0.92529476 0.083447546 0.10813545
00000000: 1d31 3f3d 3934 8bbd 48a1 95b9 6a78 183c
00000010: b294 99bb 548b 443c 7d7d 913d 78e4 86bd
00000020: eba0 333d 8159 813d 68b5 9fbd ad1c ad3d
00000030: 63e7 0a3e 6c9c 1e3e c92c 883c 4425 2f3d
00000040: e01c 023d 57db de3d 41db e13d e5fd f93c
00000050: c248 fb3c 1347 363e 70bf 983e 3e47 833d
00000060: 6878 513e aa0f 7fbd f618 2b3d 6617 a43e
00000070: 0221 80be 0d02 733d 5388 5f3e 5da5 adbe
00000080: 3e93 ce3c b48c 863d 9c7f 60be 306e 7c3d
00000090: 5874 ac3d 8d0b 6bbd 56a1 2d3d 1ee8 503c
000000a0: 7d9a 75bd b5ba 193d 866a 753c b060 043d
000000b0: defc 813d 1b34 e63d 5b5b 4e3d c062 dd3c
000000c0: 638c 303e 5abb 6c3c 7aaa fc3b 366c 133e
000000d0: 2d5d 123d 40da 973d 2c7c 8ebd ba37 55be
000000e0: 5be7 653d 7200 6cbe a526 ddbe 19e5 573d
000000f0: 77c3 05bf 678a 3e3c 7a46 3d3d d9c4 f5be
00000100: 3c8f 013f e219 003e 796b 9cbe a3cb 1a3d
00000110: 5aec 453e 5774 493d 6e9c dabd 3506 023e
00000120: 804e 8ebd c5ba b43d a1ad 163d 2644 cb3d
00000130: aa7a ebbd 334f 8b3d a2ca 773d cf1b d9bd
00000140: 28cf 023c 9d8a 9b3d 510e 573d c3f5 9a3d
00000150: ce5a 093e 549a 213e 78df 9f3d 9a17 8d3c
00000160: 214d 20be e47f 163d 950b 91be fd46 6cbc
00000170: 0dcf 853e 37ac 283e 5a68 06be f7a2 84bd
00000180: a71f 1dbc 4595 20bf d7f3 86ba da2b e33e
00000190: 2985 e5be 5736 e4bd 8135 c4bd b7bb c63e
000001a0: 829f 09be bd97 8ebe 05f7 9e3e 4667 0ebd
000001b0: 5dc3 b93c 78a4 6a3d 2be1 02bc 4024 073e
000001c0: fe89 37bc e74f d03d 2835 13bd 5501 443d
000001d0: d064 dfbb 2812 f83d 5cec 82bd 33ed 2e3d
000001e0: ced9 343d ca3f c73b c8af 863d 6343 7dbd
000001f0: e5ef 29be b251 063e 081d 2e3d a642 b73c
00000200: 87fd 8f3c 3df2 183c 00bc a3bd 0172 16be
00000210: 3ac3 cb3e 4ab0 a9be eae5 143e a298 98bd
00000220: 21e6 11bf 3ffc 53be 3fb0 8bbd 9df4 2bbf
00000230: 0302 20be 00b4 d33d 397d 6a3e 4e70 adbe
00000240: a56b a13d 1409 123e 02bb 88be 288a 283d
00000250: ab9f f33d 32a9 18bd dab3 303c a0fe b9bc
00000260: 58ec 5bbd a2a2 a0bd fd0d 953e 9654 6bbb
00000270: 4af5 b23d 03a7 003c 9c89 233c 2457 94be
00000280: c3cf 8dbe 72c1 2c3d c3f2 823e f69d 83ba
00000290: 8f03 73be 7767 0a3e 695f 963c eea4 5cbe
000002a0: 6791 9ebd e60d c1bd 767b cdbd c07b aa3d
000002b0: ebb4 44bd 17b6 b0bd 9c19 f7bd 9862 0e3c
000002c0: 101b 1abe 5205 283e 211f 6abe 779d 8ebd
000002d0: 3620 95be 2336 96be 87a1 2d3e c0bd 9c3e
000002e0: 2d62 80be 32cd 60bd 9b5b b03b 007b 8d3d
000002f0: 85cc d8be 122c cebd b4f0 cd3d 90b4 8ebe
00000300: aabb eb3c cec0 183e 4290 81bd 37ad 493d
00000310: 6d40 a9bc fac1 573d 0453 8cbe 0118 f2be
00000320: 3c90 7bbe a2b9 bf3d 5658 e43d b82c a3be
00000330: 4301 6cbe 02d1 853e 8c5f cdbe 2981 d73d
00000340: 3d9a 0c3e a66b 1bbe f08e 1cbe 88cb d83e
00000350: 3420 07be 33a6 cfbe f626 1b3f ccfa bdbe
00000360: 326c d2be 309d 373e d57f 88bd ae32 31bd
00000370: 50e7 52bf 771c 313e 73fd a23d 14a2 28bf
00000380: e72f 0fbf 2ce5 9a3e fb68 ecbd f0fd 43be
00000390: 6584 f73e 49a8 b4bd 71c9 edbe f65a a13d
000003a0: 454e 22be 57d2 c9bd 5ec7 083e bdda 073e
000003b0: 526d dc3c 2c70 7e3d cd51 a5be 605b d7be
000003c0: 0571 823e e40e 513d b147 dabd 79a2 9a3e
000003d0: ff0c 683e 22e0 d8be 1f2d b13e 7b37 c73e
000003e0: 2d1a 1dbe fc13 cbbe a278 853f e70c d0bd
000003f0: e3fe 473e 1ee0 6c3f 8ce6 aa3d 1e76 dd3d

linear.bias f4 [10]
0.08521676 -0.10169039 0.048041966 -0.005368083 -0.01643672 0.015667638 -0.018184949 0.008498728
0.0005063198 -0.0056491466
00000000: 2086 ae3d 0d43 d0bd a7c7 443d bee6 afbb
00000010: 4da6 86bc 6b59 803c 9af8 94bc 403e 0b3c
00000020: 8cba 043a 7a1c b9bb

exp_avg f4 [10, 507]
0.015406438 -0.0039099692 0.02312662 0.015406438 -0.0039099692 0.02312662 0.015406438 -0.0039099692
0.02312662 0.015403037 -0.003911883 0.023126619 0.015403037 -0.0039107916 0.02312662 0.015403024
-0.003908712 0.02312662 0.014972063 -0.0041515087 0.023126619 0.014394312 -0.0041050296 0.023126617
0.014394343 -0.0033283152 0.02312662 0.01482857 -0.0034462006 0.02312662 0.015406505 -0.003910022
0.02312662 0.015406438 -0.0039099692 0.02312662 0.015406438 -0.0039099692 0.02312662 0.015406438
-0.0039099692 0.02312662 0.015406438 -0.003909969 0.02312662 0.015405702 -0.0039103823 0.02312662
0.015402658 -0.0039135744 0.023123119 0.030918658 0.004822812 0.023124894 -0.017040169 -0.02774736
0.023124672 -0.017917933 -0.027095482 0.022727417 -0.016209496 -0.005348799 0.022614 -0.016506603
-0.0034450493 0.022286987 -0.027723316 0.0056381603 0.022487674 -0.026148569 0.018103778 0.023126608
-0.026987791 0.030110631 0.023126619 0.015404007 -0.003908017 0.02312662 0.015406413 -0.003909984
0.02312662 0.015406301 -0.0039100335 0.02312662 0.014531279 -0.0044028633 0.023125963 0.030036137
0.0046083126 0.023123289 0.016316053 -0.0022585818 0.0366047 0.004600369 -0.03091155 -0.015357477
0.020822147 -0.019941682 -0.009215488 0.018311916 -0.0033643807 0.024011252 0.01795766 -0.006524244
0.030609984 0.024493502 -0.015219031 0.014753074 0.014989179 0.005052406 0.015553143 0.007518726
0.029302657 -0.019236244 0.0154050235 -0.0039077927 0.023124687 0.0154064195 -0.0039099837 0.023126593
0.015406326 -0.0039100824 0.0231265 0.031610783 0.0047800876 0.022145819 0.010148116 -0.0012221967
0.040984895 0.014245252 -0.006093573 0.026456855 0.03229813 -0.03332532 0.03991671 -0.022048995
-0.019620603 -0.028823597 0.013800085 0.00055768393 0.009520644 0.008954981 -0.00536536 0.017569209
0.021166721 -0.009672895 0.035748012 0.015108951 -0.005925242 0.0049741566 -0.03403511 0.02928127
-0.024058823 0.015406214 -0.00390775 0.02312617 0.015406333 -0.003910044 0.02312662 0.016231634
-0.0034455266 0.023126472 0.016877804 0.004311382 0.040025692 0.012291395 -0.004946793 0.024909036
-0.011841559 -0.036389034 0.04102463 -0.03361553 -0.02938456 0.017379818 -0.0045132893 0.0049460353
-0.014463446 0.01907761 0.002858332 -0.0005117316 0.015858011 0.0014292424 0.017751401 -0.017868906
0.0062006703 -0.011460252 -7.7983e-05 0.009376452 0.017737648 0.018923638 0.029280365 0.024785468
0.015405813 -0.0039089425 0.023126401 0.0154064065 -0.0039100423 0.023126498 0.0155683635 -0.0034454134
0.02400747 0.014733885 0.0015992435 0.037150845 0.026894564 -0.013208499 0.028747585 0.02238399
-0.040723633 -0.0068553514 0.0076663448 -0.016342515 0.005494696 0.015427444 0.0016511453 0.012467681
0.02017222 0.00062477344 0.022031821 0.014345198 0.006687748 0.01641034 -0.020059245 0.032477535
-0.03310997 0.02413471 0.019304458 0.036537282 0.015642244 -0.0046919864 0.024826452 0.015399988
-0.003904381 0.023126177 0.015406339 -0.003910067 0.023126522 0.031389806 0.0053043542 0.023865974
0.016402878 -6.0415412e-05 0.0308871 0.024127955 -0.018402293 0.04048892 0.016446944 -0.03930114
0.020554101 0.01714913 -0.010911795 0.01626936 0.028212087 0.023915729 0.022616554 -0.01976555
00000000: 496b 7c3c 331f 80bb 0a74 bd3c 496b 7c3c
00000010: 331f 80bb 0a74 bd3c 496b 7c3c 331f 80bb
00000020: 0a74 bd3c 055d 7c3c 412f 80bb 0974 bd3c
00000030: 055d 7c3c 1926 80bb 0a74 bd3c f75c 7c3c
00000040: a714 80bb 0a74 bd3c 624d 753c 6109 88bb
00000050: 0974 bd3c 1fd6 6b3c 7c83 86bb 0874 bd3c
00000060: 40d6 6b3c dd1f 5abb 0a74 bd3c 88f3 723c
00000070: a7d9 61bb 0a74 bd3c 916b 7c3c a41f 80bb
00000080: 0a74 bd3c 496b 7c3c 331f 80bb 0a74 bd3c
00000090: 496b 7c3c 331f 80bb 0a74 bd3c 496b 7c3c
000000a0: 331f 80bb 0a74 bd3c 496b 7c3c 321f 80bb
000000b0: 0a74 bd3c 3368 7c3c aa22 80bb 0a74 bd3c
000000c0: 6e5b 7c3c 713d 80bb b26c bd3c 2049 fd3c
000000d0: ae08 9e3b 6b70 bd3c d397 8bbc 6e4e e3bc
000000e0: f46f bd3c a1c8 92bc 58f7 ddbc d92e ba3c
000000f0: c7c9 84bc fa44 afbb ff40 b93c db38 87bc
00000100: 56c6 61bb 3393 b63c 021c e3bc 51c0 b83b
00000110: 1238 b83c 8635 d6bc 604e 943c 0374 bd3c
00000120: 8015 ddbc 92aa f63c 0974 bd3c 1761 7c3c
00000130: d30e 80bb 0a74 bd3c 2e6b 7c3c 531f 80bb
00000140: 0a74 bd3c b66a 7c3c bd1f 80bb 0a74 bd3c
00000150: 9a14 6e3c e545 90bb a972 bd3c 580e f63c
00000160: 5401 973b 0d6d bd3c 3ea9 853c b704 14bb
00000170: cfee 153d b1be 963b 383a fdbc ed9d 7bbc
00000180: 3593 aa3c bd5c a3bc 8ffc 16bc df02 963c
00000190: f17c 5cbb 3fb3 c43c f11b 933c 53c9 d5bb
000001a0: cac1 fa3c 99a6 c83c 3e59 79bc e1b6 713c
000001b0: 2c95 753c a78e a53b 9cd2 7e3c a55f f63b
000001c0: 200c f03c 5495 9dbc 5a65 7c3c f10c 80bb
000001d0: fc6f bd3c 356b 7c3c 521f 80bb fb73 bd3c
000001e0: d16a 7c3c 2620 80bb c973 bd3c 4f7a 013d
000001f0: 48a2 9c3b 266b b53c 4944 263c 1e32 a0ba
00000200: c7df 273d eb64 693c 98ac c7bb 0cbc d83c
00000210: 0b4b 043d 2180 08bd b47f 233d 18a0 b4bc
00000220: 63bb a0bc 771f ecbc c019 623c 8931 123a
00000230: 7afc 1b3c eab7 123c e7cf afbb 4ded 8f3c
00000240: d565 ad3c 107b 1ebc 826c 123d 898b 773c
00000250: 8828 c2bb 40fe a23b 6668 0bbd 46df ef3c
00000260: 0217 c5bc 586a 7c3c 950c 80bb 1873 bd3c
00000270: d86a 7c3c d41f 80bb 0a74 bd3c 34f8 843c
00000280: 58ce 61bb ba73 bd3c 5243 8a3c 7e46 8d3b
00000290: fbf1 233d d961 493c b518 a2bb 090e cc3c
000002a0: 1903 42bc ab0c 15bd 7109 283d 70b0 09bd
000002b0: e4b7 f0bc 1f60 8e3c 37e4 93bb 5a12 a23b
000002c0: 17f8 6cbc a648 9c3c da52 3b3b ba25 06ba
000002d0: a9e8 813c 6b55 bb3a 636b 913c d061 92bc
000002e0: fe2e cb3b c8c3 3bbc ce8a a3b8 b19f 193c
000002f0: 8b4e 913c bf05 9b3c 60dd ef3c e50a cb3c
00000300: aa68 7c3c 9616 80bb 9473 bd3c 276b 7c3c
00000310: d01f 80bb c873 bd3c 7312 7f3c 72cc 61bb
00000320: 50ab c43c 6566 713c b59d d13a 7c2b 183d
00000330: fd51 dc3c 7668 58bc 0e80 eb3c a15e b73c
00000340: d3cd 26bd dba2 e0bb f635 fb3b bde0 85bc
00000350: da0c b43b 64c3 7c3c 3e6b d83a 3f45 4c3c
00000360: 3640 a53c d6c7 233a 147c b43c 1f08 6b3c
00000370: e524 db3b fa6e 863c 4953 a4bc 2a07 053d
00000380: 529e 07bd 28b6 c53c 6224 9e3c 1ea8 153d
00000390: 2a24 803c 3cbf 99bb d860 cb3c 3b50 7c3c
000003a0: a5e0 7fbb 1c73 bd3c df6a 7c3c 0520 80bb
000003b0: d573 bd3c 9992 003d 26d0 ad3b 9382 c33c
000003c0: 545f 863c 8e66 7db8 f206 fd3c fda7 c53c
000003d0: 68c0 96bc b6d7 253d bebb 863c 3bfa 20bd
000003e0: 1361 a83c 557c 8c3c 63c7 32bc 5247 853c
000003f0: 091d e73c ebea c33c 5a46 b93c 5deb a1bc

exp_avg_sq f4 [10, 507]
0.0040636947 0.00026173564 0.009156733 0.0040636975 0.0002617353 0.009156733 0.004063706 0.00026177772
0.009156733 0.0040636836 0.0002618344 0.009156709 0.004082014 0.00042657342 0.009156647 0.0041083936
0.0007287016 0.009130801 0.00415328 0.00070856855 0.009127282 0.00415965 0.0009204686 0.009127682
0.004282849 0.00097367115 0.009156637 0.004212299 0.00047560196 0.009156729 0.004195568 0.00040452468
0.009156731 0.0041837967 0.0003256843 0.009156732 0.004063694 0.0002617358 0.009156733 0.004063924
0.0002635775 0.009156733 0.0040613115 0.00026712212 0.009156733 0.004075917 0.0004123879 0.009156694
0.0041434118 0.0012334567 0.009156552 0.0043046665 0.002194208 0.009065902 0.0045911833 0.0031319943
0.00884344 0.0043971385 0.0023961624 0.008445 0.0046381 0.0018570499 0.0083081145 0.0044628037
0.0028709143 0.0084742075 0.004704668 0.0039857347 0.009115866 0.004294939 0.0023095373 0.009249553
0.0042657135 0.001231008 0.009165662 0.0040876176 0.0004785404 0.009156732 0.0040640295 0.0002635633
0.009156733 0.0040740813 0.00036481876 0.009148747 0.004058208 0.0012167735 0.009027317 0.0039293445
0.001993462 0.008126394 0.0038819234 0.0031500573 0.0067531588 0.0040435316 0.0029186131 0.0052860873
0.0035855945 0.0021826029 0.004577528 0.0034560468 0.0010061788 0.00481848 0.0029154527 0.0017500097
0.0045389747 0.0029107914 0.0034648154 0.0050572106 0.0035067832 0.003751452 0.0072176033 0.0039077457
0.0023890166 0.008355858 0.0039979406 0.00060995336 0.008989302 0.004063028 0.0002621949 0.009156909
0.0040575573 0.00082289986 0.009063444 0.0038565835 0.0022425966 0.008160437 0.00407393 0.0028256266
0.0069602197 0.0038999342 0.0037693707 0.0047889575 0.004073826 0.0020405955 0.004691561 0.0037122527
0.0017464202 0.0043515135 0.0032520553 0.0011230765 0.0047621564 0.0029062 0.0012536152 0.0048220297
0.0031141448 0.0034110686 0.0044541177 0.0026662613 0.00421532 0.005330749 0.003923756 0.0035448642
0.007606711 0.0040385686 0.00065996795 0.009007363 0.0040632132 0.00026253777 0.009155267 0.003965037
0.0017692995 0.008634927 0.0040424005 0.0023010531 0.0072011035 0.0037767375 0.003623727 0.005588966
0.0037868286 0.0038283032 0.004196623 0.003821796 0.0019570224 0.004766468 0.0036040572 0.0022434907
0.0044572833 0.003266071 0.0026835657 0.0044194493 0.002748634 0.0022015066 0.0042253933 0.0025255308
0.0032568956 0.0037612738 0.0027116234 0.0041710944 0.004894186 0.003385388 0.004366553 0.0065569365
0.0040463004 0.00078973675 0.009025417 0.0040641157 0.00026521558 0.009156568 0.003516152 0.0021559836
0.0076458575 0.004329367 0.0025759866 0.006788025 0.0036871287 0.005094201 0.0052125202 0.0039632325
0.003297809 0.004038934 0.0034042357 0.0019747305 0.004853949 0.0037136802 0.002949234 0.0055651627
0.0034834337 0.0028072766 0.0053877654 0.003210245 0.0030323854 0.004547475 0.0027902103 0.0032764212
0.0038996378 0.002837751 0.0041564913 0.0046451106 0.0035394772 0.004273511 0.006229257 0.0039327866
0.0010342825 0.008750501 0.0040755924 0.00035535067 0.009155478 0.0037001816 0.0028515528 0.0072838836
0.0034891604 0.0031932367 0.0066026957 0.0030779776 0.0048059025 0.0037723845 0.003707541 0.0031533267
0.0049990155 0.003976011 0.0021293408 0.0053912373 0.0033305364 0.0026536812 0.006149392 0.00343162
00000000: be28 853b 9039 8939 1f06 163c c428 853b
00000010: 8439 8939 1f06 163c d628 853b 363f 8939
00000020: 1f06 163c a628 853b d146 8939 0506 163c
00000030: 6ac2 853b b7a5 df39 c305 163c b49f 863b
00000040: 5606 3f3a 5b99 153c 3d18 883b 3bbf 393a
00000050: 988a 153c ac4d 883b 9a4b 713a 468c 153c
00000060: 2457 8c3b f73d 7f3a b805 163c 5307 8a3b
00000070: 375a f939 1b06 163c fa7a 893b 6216 d439
00000080: 1d06 163c 3b18 893b 9bc0 aa39 1e06 163c
00000090: bc28 853b 9639 8939 1f06 163c aa2a 853b
000000a0: c630 8a39 1f06 163c c014 853b 860c 8c39
000000b0: 1f06 163c 458f 853b c435 d839 f505 163c
000000c0: 75c5 873b f0ab a13a 5d05 163c 290e 8d3b
000000d0: b4cc 0f3b 2689 143c a371 963b 2542 4d3b
000000e0: 13e4 103c df15 903b ef08 1d3b e65c 0a3c
000000f0: 34fb 973b 4168 f33a c21e 083c b63c 923b
00000100: f325 3c3b 67d7 0a3c 9e29 9a3b c49a 823b
00000110: b75a 153c 8fbc 8c3b 9b5b 173b 708b 173c
00000120: 66c7 8b3b c659 a13a 932b 163c 6cf1 853b
00000130: 9be4 fa39 1e06 163c 8d2b 853b de2e 8a39
00000140: 1f06 163c df7f 853b 2545 bf39 a0e4 153c
00000150: b7fa 843b 257c 9f3a 50e7 133c bbc1 803b
00000160: bea4 023b 9124 053c de67 7e3b 3171 4e3b
00000170: 9a49 dd3b 9a7f 843b 3446 3f3b ea36 ad3b
00000180: 4bfc 6a3b 000a 0f3b 17ff 953b d87e 623b
00000190: c2e1 833a 57e4 9d3b 2e11 3f3b 9560 e53a
000001a0: aebb 943b fac2 3e3b f511 633b f5b6 a53b
000001b0: 0fd2 653b ecda 753b a581 ec3b 8c0c 803b
000001c0: 0c91 1c3b 02e7 083c 2801 833b 47e5 1f3a
000001d0: de47 133c 2623 853b 3477 8939 dc06 163c
000001e0: 42f5 843b e0b7 573a d77e 143c bcbe 7c3b
000001f0: 87f8 123b 5bb3 053c 9a7e 853b 262e 393b
00000200: 8e12 e43b 0a96 7f3b 8c07 773b b0ec 9c3b
00000210: bb7d 853b 83bb 053b abbb 993b 4449 733b
00000220: 23e8 e43a 2497 8e3b 6f20 553b 3234 933a
00000230: dd0b 9c3b f275 3e3b 5950 a43a 1e02 9e3b
00000240: ae16 4c3b 3c8c 5f3b d9f3 913b 71bc 2e3b
00000250: ab20 8a3b 90ad ae3b da92 803b f450 683b
00000260: b741 f93b f855 843b b301 2d3a 9e93 133c
00000270: b424 853b 39a5 8939 f9ff 153c 24ed 813b
00000280: d7e7 e73a 8279 0d3c 1d76 843b 44cd 163b
00000290: 3cf7 eb3b 2483 773b 0d7c 6d3b a523 b73b
000002a0: 712c 783b 45e4 7a3b d383 893b 1977 7a3b
000002b0: 6341 003b 0830 9c3b 0c32 6c3b 8707 133b
000002c0: 670e 923b 940b 563b c3de 2f3b 07d1 903b
000002d0: 6d22 343b 2747 103b 2b75 8a3b 6083 253b
000002e0: a471 553b b47f 763b 7eb5 313b adad 883b
000002f0: 685f a03b 63dd 5d3b 4d15 8f3b 92db d63b
00000300: d496 843b 5606 4f3a 58df 133c 462c 853b
00000310: a20c 8b39 6e05 163c 3e6f 663b 674b 0d3b
00000320: 1a8a fa3b 5ddd 8d3b e2d1 283b 156e de3b
00000330: c1a3 713b 41ed a63b cacd aa3b 01de 813b
00000340: 0e20 583b 0959 843b 9919 5f3b 7b6a 013b
00000350: e00d 9f3b 3761 733b f047 413b f85b b63b
00000360: 524a 643b 49fa 373b da8b b03b f962 523b
00000370: fcba 463b fc02 953b f6db 363b 3ab9 563b
00000380: 1191 7f3b 90f9 393b 2d33 883b 0336 983b
00000390: 93f6 673b cf08 8c3b cc1e cc3b 9bde 803b
000003a0: c390 873a 435e 0f3c 8c8c 853b 5c4e ba39
000003b0: dc00 163c bf7e 723b 1ee1 3a3b a5ad ee3b
000003c0: 66aa 643b 9f45 513b 6d5b d83b e5b7 493b
000003d0: d57a 9d3b 1c3a 773b 37fa 723b 0ba8 4e3b
000003e0: c8ce a33b 3349 823b 698c 0b3b faa8 b03b
000003f0: 2145 5a3b 62e9 2d3b d780 c93b 08e5 603b

exp_avg f4 [10]
0.02312662 0.008887271 -0.092210196 0.00350312 0.04387765 0.00036672823 0.004975024 0.03067265
0.07037469 -0.09357356
00000000: 0a74 bd3c eb9b 113c b3d8 bcbd 9a94 653b
00000010: 0db9 333d 6e45 c039 8705 a33b 3645 fb3c
00000020: 9b20 903d 7fa3 bfbd

exp_avg_sq f4 [10]
0.009156733 0.009368932 0.016555162 0.018930655 0.015286005 0.015674539 0.009966011 0.014070048
0.022377545 0.022996977
00000000: 1f06 163c 2680 193c b19e 873c 7614 9b3c
00000010: 2772 7a3c e467 803c 7b48 233c 0f86 663c
00000020: 1d51 b73c 2864 bc3c
