evaluation/Results/Seed_0_Trainable_yes_Threshold_Encoder_2x2_imgsize_14/model_checkpoints/epochs_44.pt (torch, 85085 bytes, 9 tensors)

qlayer_1.torch_qlayer.weights f8 [1, 4]
-0.46937408276772163 -1.1625468021414493 -1.6037947246169193 -1.0531244270947913
00000000: 7ef3 c497 390a debf 4145 f4ac ca99 f2bf
00000010: c5a1 3ba8 24a9 f9bf 95da cfff 98d9 f0bf

linear.weight f4 [10, 676]
0.007832727 -0.18731187 0.0076171597 -0.024570694 0.035673574 -0.19046812 0.068079256 -0.01991801
0.005387901 -0.14867932 0.0057099303 0.03972214 -0.021629047 -0.15336852 0.021818364 -0.0127137685
0.11437274 -0.13106868 0.07849234 0.077365674 0.028475368 -0.13953528 0.019298151 0.04607734
0.24489048 -0.13359113 0.056287557 0.26834178 0.29754984 -0.149487 0.15760043 0.2784962
0.21398202 -0.1951119 -0.006174579 0.24551868 0.039939687 -0.17639692 -0.043821156 -0.013026415
0.005800852 -0.16835372 0.009146079 0.005487462 0.022375792 -0.15190719 0.008273704 -0.010082754
0.035748005 -0.16168305 0.01272845 -0.009641345 -0.009814943 -0.15392165 0.014178273 0.016674321
0.028726537 -0.17657636 0.04302079 0.019997299 0.17489785 -0.17723797 0.02210657 0.15830633
0.15317625 -0.14414133 0.09042154 0.121589996 0.3101935 -0.017788054 0.1503383 0.27495933
-0.16905987 -0.19245924 0.11201827 -0.19856326 -0.48135284 -0.110166155 0.31129986 -0.53389347
0.043918353 -0.21157959 0.25072747 -0.018343052 0.16564737 -0.21847351 -0.03932964 -0.124043465
0.5096343 -0.16973157 -0.0725184 0.3225061 0.047076236 -0.14614016 -0.010727068 0.043753892
0.11352759 -0.19236563 0.091020495 0.09690929 0.023116633 -0.16570319 0.03385758 -0.029473498
0.010206767 -0.14316976 0.079256974 0.0063436613 0.12447005 -0.18405361 0.03677551 0.12722039
0.19062594 -0.30851045 0.03381139 0.16579118 0.07919478 -0.18137208 0.059004933 0.039407115
0.2652113 -0.3398696 0.109695315 -0.10531328 -0.29067567 -0.13552627 0.040973883 -0.42645687
-0.12310733 -0.22556113 0.19434942 -0.16448547 -0.14400244 -0.5925496 -0.054265138 -1.2384962
0.6619626 -0.45426628 -0.43861693 -0.10883251 0.19662818 -0.31529912 -0.14356713 -0.13347071
0.3666153 -0.17629133 0.016566137 0.05174202 0.18106289 -0.056015357 0.009757274 0.11301663
0.14381391 -0.18130027 0.018267414 -0.0027829974 0.022034254 -0.13404761 0.020505344 0.031381395
0.1015313 -0.28799406 0.094771035 0.11495676 -0.123748794 -0.11398188 0.09427984 -0.17193031
0.07385989 -0.24097483 0.089103736 -0.11428833 0.1318136 -0.29968092 0.2892649 0.023135765
0.34548324 -0.37366813 0.5528705 0.37846792 -0.341878 -0.374293 -0.21245566 -0.35987556
-0.35837534 -0.5962704 -0.21264529 -0.91495866 0.20641062 -0.1851122 -0.21401995 -1.0391804
-0.07227813 -0.07831461 -0.44680056 -0.35785323 0.5056456 -0.07752115 -0.03867236 -0.004917571
0.41146323 -0.10122768 0.07338041 0.19612677 0.09433056 -0.18380447 0.11255381 0.03941701
0.0026004347 -0.16376245 0.026030976 0.0015089434 0.20222902 -0.122840025 0.05187356 0.17912687
-0.07661318 0.20493612 0.05296144 -0.058776397 0.027307704 0.06642747 -0.09146984 -0.27485266
0.28456998 0.21064252 0.1848225 0.25566623 -0.89183927 -0.7842807 -0.3212141 0.04555247
-0.06215483 -0.16014394 -0.44201574 0.013058596 0.18587476 0.09053154 0.1559933 0.04792161
0.22040893 -0.3030655 -0.049225315 -0.9869874 -0.20672433 0.7682273 -0.18440022 -0.4811934
0.28224862 0.41785038 -0.23225747 -0.2907313 -0.0030031824 -0.016022084 -0.10314387 -0.11574069
00000000: d754 003c afce 3fbe 5e99 f93b 7b48 c9bc
00000010: 741e 123d 130a 43be 236d 8b3d 182b a3bc
00000020: fd8c b03b 643f 18be 5e1a bb3b afb3 223d
00000030: 662f b1bc a30c 1dbe 6dbc b23c 694d 50bc
00000040: 413c ea3d de36 06be 98c0 a03d e571 9e3d
00000050: 2d45 e93c 56e2 0ebe 2817 9e3c 98bb 3c3d
00000060: 92c4 7a3e 1dcc 08be c88d 663d 1864 893e
00000070: 7458 983e 1f13 19be 0262 213e 0e97 8e3e
00000080: 1a1e 5b3e 6acb 47be 1f54 cabb 4069 7b3e
00000090: cc97 233d 65a1 34be d07d 33bd bf6c 55bc
000000a0: 1315 be3b eb64 2cbe 70d9 153c 2bd0 b33b
000000b0: 704d b73c 8f8d 1bbe 6e8e 073c 2332 25bc
000000c0: 806c 123d 3e90 25be fd8a 503c bbf6 1dbc
000000d0: dbce 20bc a39d 1dbe fd4b 683c 9698 883c
000000e0: ea53 eb3c 6fd0 34be 9136 303d 60d1 a33c
000000f0: 6c18 333e df7d 35be d618 b53c 0e1b 223e
00000100: 3cda 1c3e c999 13be ee2e b93d 2d04 f93d
00000110: afd1 9e3e 41b8 91bc 49f2 193e 78c7 8c3e
00000120: 081e 2dbe 0914 45be d669 e53d 2b54 4bbe
00000130: e173 f6be cb9e e1bd b262 9f3e 3ead 08bf
00000140: bbe3 333d 52a8 58be 5a5f 803e 2b44 96bc
00000150: 779f 293e 85b7 5fbe 1e18 21bd 800a febd
00000160: 6577 023f 1dce 2dbe 8784 94bd 851f a53e
00000170: 03d3 403d c4a5 15be 96c0 2fbc 4837 333d
00000180: 2781 e83d 7ffb 44be f468 ba3d 6178 c63d
00000190: 185f bd3c 19ae 29be 3fae 0a3d 6872 f1bc
000001a0: 493a 273c 189b 12be 7b51 a23d 7dde cf3b
000001b0: 27ea fe3d 8d78 3cbe eba1 163d 1046 023e
000001c0: 7233 433e 15f5 9dbe d07d 0a3d 2ac5 293e
000001d0: df30 a23d 9ab9 39be 28af 713d 5b69 213d
000001e0: c7c9 873e 6303 aebe f0a7 e03d 7dae d7bd
000001f0: 71d3 94be 66c7 0abe 3bd4 273d 8e58 dabe
00000200: b21f fcbd 7ff9 66be 8903 473e e16e 28be
00000210: 6075 13be 55b1 17bf 1f45 5ebd 0b87 9ebf
00000220: 6276 293f 9795 e8be 6692 e0be 94e3 debd
00000230: e658 493e e36e a1be 4303 13be 8cac 08be
00000240: 00b5 bb3e b785 34be b5b5 873c 71ef 533d
00000250: 8d68 393e 5c70 65bd f9dc 1f3c 4375 e73d
00000260: f443 133e c7a6 39be 8ba5 953c f362 36bb
00000270: 2e81 b43c c743 09be d3fa a73c c789 003d
00000280: a4ef cf3d f573 93be 5117 c23d 736e eb3d
00000290: 0270 fdbd 556f e9bd ca15 c13d 800e 30be
000002a0: db43 973d 1bc2 76be 057c b63d 0010 eabd
000002b0: 25fa 063e c76f 99be 871a 943e 3787 bd3c
000002c0: 2ee3 b03e 6e51 bfbe ec88 0d3f 8cc6 c13e
000002d0: a20a afbe 55a3 bfbe fa8d 59be 9c41 b8be
000002e0: f97c b7be 2da5 18bf b0bf 59be bb3a 6abf
000002f0: 4e5d 533e 0d8e 3dbe 0c28 5bbe dd03 85bf
00000300: 8e06 94bd 6963 a0bd 0bc3 e4be 8a38 b7be
00000310: fd71 013f 69c3 9ebd e966 1ebd 9323 a1bb
00000320: 4fab d23e 7550 cfbd 7848 963d 75d5 483e
00000330: 6130 c13d 3d37 3cbe 9d82 e63d bb73 213d
00000340: 0e6c 2a3b 58b1 27be ea3e d53c bdc7 c53a
00000350: 2015 4f3e 8d93 fbbd 5f79 543d 096d 373e
00000360: 5fe7 9cbd c6da 513e 18ee 583d 85bf 70bd
00000370: 68b4 df3c 200b 883d 8a54 bbbd 7db9 8cbe
00000380: 28b3 913e acb2 573e 1c42 3d3e afe6 823e
00000390: 944f 64bf 9fc6 48bf 2d76 a4be 3a95 3a3d
000003a0: 1096 7ebd c6fc 23be e34f e2be b9f3 553c
000003b0: f455 3e3e 9a68 b93d b5bc 1f3e 7349 443d
000003c0: e1b2 613e 672b 9bbe 7ca0 49bd 35ab 7cbf
000003d0: 8baf 53be 8baa 443f 69d3 3cbe fb5e f6be
000003e0: e482 903e 7cf0 d53e e7d4 6dbe bcda 94be
000003f0: 0ad1 44bb bf40 83bc 183d d3bd 7409 edbd

linear.bias f4 [10]
0.005787453 -0.1470534 0.038374636 0.09406251 -0.1201205 0.10209302 -0.03521478 -0.029458301
0.05669355 0.007702405
00000000: ada4 bd3b 2b95 16be b92e 1d3d d8a3 c03d
00000010: bd01 f6bd 2516 d13d 603d 10bd 8952 f1bc
00000020: 7f37 683d 7564 fc3b

exp_avg f8 [1, 4]
-0.4467764011105141 -1.1303668596905112e-08 -0.36067561785502583 -0.446776366407946
00000000: 2a3b d90b fc97 dcbf 6d91 72ed 4146 48be
00000010: 37b9 c92f 4f15 d7bf 0743 96e6 fb97 dcbf

exp_avg_sq f8 [1, 4]
13.805035908715505 4.635954247252318e-15 3.80192614160427 13.80503593540004
00000000: d513 a8aa 2d9c 2b40 0ae3 402f e4e0 f43c
00000010: 81fb bf40 586a 0e40 bf4b 8dab 2d9c 2b40

exp_avg f4 [10, 676]
0.0016154585 -0.00022477731 -9.2521426e-05 0.0016154585 0.0016154585 -0.00022477731 -9.2521426e-05 0.0016154585
0.0016154585 -0.00022477731 -9.2521426e-05 0.0016154585 0.0016154585 -0.00022477731 -9.2521426e-05 0.0016154585
0.0016154585 -0.00022477731 -9.2521426e-05 0.0016154585 0.0016154585 -0.00022477731 -9.2521426e-05 0.0016154585
0.0016154585 -0.00022477731 -9.2521426e-05 0.0016154585 0.0016153329 -0.00022477731 -9.2521426e-05 0.0016153329
0.0016153329 -0.00022477731 -9.251528e-05 0.0016153329 0.0016154579 -0.00022477731 -9.251528e-05 0.0016154579
0.0016154579 -0.00022477731 -9.2521426e-05 0.0016154579 0.0016154585 -0.00022477731 -9.2521426e-05 0.0016154585
0.0016154585 -0.00022477731 -9.2521426e-05 0.0016154585 0.0016154585 -0.00022477731 -9.2521426e-05 0.0016154585
0.0016154585 -0.00022477731 -9.2521426e-05 0.0016154585 0.0016154585 -0.00022477731 -9.2521426e-05 0.0016154585
0.0016154585 -0.00022477731 -9.2521426e-05 0.0016154585 0.0019297478 -0.00022477731 -9.2521426e-05 0.0019297478
0.0019279701 -0.00022477731 -0.000109291104 0.0019279701 0.0016363476 -0.00022477731 -0.000109199165 0.0016363476
0.0018446383 -0.00022477227 -8.8208595e-05 0.0018446383 0.0010140418 -0.00022477227 -9.795024e-05 0.0010141669
0.0016170781 -0.00022477731 -6.365141e-05 0.0016172028 0.0016154579 -0.00022477731 -9.2607035e-05 0.0016154585
0.0016154579 -0.00022477731 -9.2521426e-05 0.0016154585 0.0016154585 -0.00022477731 -9.2521426e-05 0.0016154585
0.0016154585 -0.00022477731 -9.2521426e-05 0.0016154585 0.0016154585 -0.00022477731 -9.2521426e-05 0.0016154585
0.0016154585 -0.00022477731 -9.2521426e-05 0.0016154585 0.002325914 -0.00022477731 -9.2521426e-05 0.002325914
-0.0023346064 -0.00026276155 -9.79055e-05 -0.0023346064 -0.00062234374 -0.00026259793 6.210236e-05 -0.0017419677
0.0023089712 -0.00021415476 6.980933e-05 0.0011911358 0.002222156 -0.00023955453 -0.00010289949 0.0009863554
-0.0023283113 -0.0001558458 -9.332713e-05 -0.0025506765 0.0009938937 -0.00022495117 0.000103017665 0.0015951879
0.0015809445 -0.00022477731 -9.173202e-05 0.0015827158 0.0016154585 -0.00022477731 -9.092843e-05 0.0016154585
0.0016154585 -0.00022477731 -9.2521426e-05 0.0016154585 0.0016154585 -0.00022477731 -9.2521426e-05 0.0016154585
0.0016154553 -0.00022477731 -9.2521426e-05 0.0016154553 0.001617211 -0.00022477731 -9.252158e-05 0.001617211
-0.0012104184 -0.00026217898 -9.260692e-05 -0.0012104184 0.0017023138 0.00020410691 6.773682e-05 0.000991858
-0.0019547762 0.00019272699 -6.266055e-05 0.0011899584 -0.0012946686 -0.00022054212 -0.000102747166 0.001189444
-0.0021211416 -0.00019506109 -0.00010272198 -0.0017647952 -0.0020970285 0.00027669943 6.5689484e-05 -0.0019382436
-0.0025368487 -0.00022075235 0.00010990418 0.0015862457 0.0016072547 -0.0002215563 -9.1367525e-05 0.0015880044
0.0015827158 -0.00022477731 -9.1453105e-05 0.0016154585 0.0016154585 -0.00022477731 -9.2521426e-05 0.0016154585
0.0016154585 -0.00022477731 -9.2521426e-05 0.0016154585 0.001615453 -0.00022477734 -9.2521426e-05 0.001615453
0.0014124216 -0.00022495104 -9.252142e-05 0.001412419 0.0016286676 0.00016551906 -8.303471e-05 0.0016269091
0.0017298042 -0.00015134897 -9.317521e-05 -0.0021203894 -0.002745609 -0.00022021391 8.8298926e-05 -0.0021301752
-0.0017384551 -0.00022017924 5.2635187e-05 -0.0021336728 0.001387104 0.00018245025 5.2804626e-05 0.0010077817
-0.001227073 0.0002620358 -9.4174364e-05 0.0021535605 -0.0019408577 -0.00021963615 -5.357498e-05 0.0016050753
0.0015832244 -0.00021981006 -9.224383e-05 0.0016219958 0.0015880044 -0.00022477731 -9.310633e-05 0.0016154585
00000000: cbbd d33a 33b2 6bb9 1008 c2b8 cbbd d33a
00000010: cbbd d33a 33b2 6bb9 1008 c2b8 cbbd d33a
00000020: cbbd d33a 33b2 6bb9 1008 c2b8 cbbd d33a
00000030: cbbd d33a 33b2 6bb9 1008 c2b8 cbbd d33a
00000040: cbbd d33a 33b2 6bb9 1008 c2b8 cbbd d33a
00000050: cbbd d33a 33b2 6bb9 1008 c2b8 cbbd d33a
00000060: cbbd d33a 33b2 6bb9 1008 c2b8 cbbd d33a
00000070: 94b9 d33a 33b2 6bb9 1008 c2b8 94b9 d33a
00000080: 94b9 d33a 33b2 6bb9 c304 c2b8 94b9 d33a
00000090: c6bd d33a 33b2 6bb9 c304 c2b8 c6bd d33a
000000a0: c6bd d33a 33b2 6bb9 1008 c2b8 c6bd d33a
000000b0: cbbd d33a 33b2 6bb9 1008 c2b8 cbbd d33a
000000c0: cbbd d33a 33b2 6bb9 1008 c2b8 cbbd d33a
000000d0: cbbd d33a 33b2 6bb9 1008 c2b8 cbbd d33a
000000e0: cbbd d33a 33b2 6bb9 1008 c2b8 cbbd d33a
000000f0: cbbd d33a 33b2 6bb9 1008 c2b8 cbbd d33a
00000100: cbbd d33a 33b2 6bb9 1008 c2b8 cbbd d33a
00000110: 97ef fc3a 33b2 6bb9 1008 c2b8 97ef fc3a
00000120: f1b3 fc3a 33b2 6bb9 3733 e5b8 f1b3 fc3a
00000130: b77a d63a 33b2 6bb9 db01 e5b8 b77a d63a
00000140: cac7 f13a d9b0 6bb9 a1fc b8b8 cac7 f13a
00000150: 99e9 843a d9b0 6bb9 a26a cdb8 cbed 843a
00000160: 23f4 d33a 33b2 6bb9 977c 85b8 52f8 d33a
00000170: c6bd d33a 33b2 6bb9 0636 c2b8 cbbd d33a
00000180: c6bd d33a 33b2 6bb9 1008 c2b8 cbbd d33a
00000190: cbbd d33a 33b2 6bb9 1008 c2b8 cbbd d33a
000001a0: cbbd d33a 33b2 6bb9 1008 c2b8 cbbd d33a
000001b0: cbbd d33a 33b2 6bb9 1008 c2b8 cbbd d33a
000001c0: cbbd d33a 33b2 6bb9 1008 c2b8 cbbd d33a
000001d0: 5d6e 183b 33b2 6bb9 1008 c2b8 5d6e 183b
000001e0: 3200 19bb 42c3 89b9 9d52 cdb8 3200 19bb
000001f0: c824 23ba 4cad 89b9 f33c 8238 bd52 e4ba
00000200: 1c52 173b bb8e 60b9 9966 9238 e31f 9c3a
00000210: 97a1 113b ee30 7bb9 becb d7b8 9848 813a
00000220: 9596 18bb 8a6a 23b9 9fb8 c3b8 4029 27bb
00000230: 8a45 823a dfe0 6bb9 300b d838 a015 d13a
00000240: b237 cf3a 33b2 6bb9 4160 c0b8 2173 cf3a
00000250: cbbd d33a 33b2 6bb9 d4b0 beb8 cbbd d33a
00000260: cbbd d33a 33b2 6bb9 1008 c2b8 cbbd d33a
00000270: cbbd d33a 33b2 6bb9 1008 c2b8 cbbd d33a
00000280: afbd d33a 33b2 6bb9 1008 c2b8 afbd d33a
00000290: 99f8 d33a 33b2 6bb9 2508 c2b8 99f8 d33a
000002a0: e7a6 9eba 1175 89b9 f635 c2b8 e7a6 9eba
000002b0: 2c20 df3a 8805 5639 ee0d 8e38 3b01 823a
000002c0: b41b 00bb c216 4a39 a068 83b8 61f8 9b3a
000002d0: dfb1 a9ba 5341 67b9 f779 d7b8 1ee7 9b3a
000002e0: da02 0bbb 5089 4cb9 716c d7b8 b350 e7ba
000002f0: 4d6e 09bb f811 9139 c6c2 8938 aa0c feba
00000300: 4241 26bb c279 67b9 5b7c e638 93e9 cf3a
00000310: 85aa d23a 9151 68b9 919c bfb8 9624 d03a
00000320: 2173 cf3a 33b2 6bb9 83ca bfb8 cbbd d33a
00000330: cbbd d33a 33b2 6bb9 1008 c2b8 cbbd d33a
00000340: cbbd d33a 33b2 6bb9 1008 c2b8 cbbd d33a
00000350: 9cbd d33a 35b2 6bb9 1008 c2b8 9cbd d33a
00000360: 0121 b93a d6e0 6bb9 0f08 c2b8 eb20 b93a
00000370: 0479 d53a 2f8f 2d39 ec22 aeb8 033e d53a
00000380: 99ba e23a 6eb3 1eb9 0f67 c3b8 3bf6 0abb
00000390: adef 33bb 39e9 66b9 202d b938 699a 0bbb
000003a0: e0dc e3ba eadf 66b9 9ac4 5c38 17d5 0bbb
000003b0: 7dcf b53a 1e50 3f39 897a 5d38 8b17 843a
000003c0: bdd5 a0ba da61 8939 7a7f c5b8 c022 0d3b
000003d0: 6164 feba 214e 66b9 b2b5 60b8 6461 d23a
000003e0: 3284 cf3a d07c 66b9 0773 c1b8 2699 d43a
000003f0: 9624 d03a 33b2 6bb9 1542 c3b8 cbbd d33a

exp_avg_sq f4 [10, 676]
0.008805162 4.9122886e-05 6.426816e-05 0.008805162 0.008805162 4.9122886e-05 6.426816e-05 0.008805162
0.008805162 4.9122886e-05 6.426816e-05 0.008805162 0.008805162 4.9122886e-05 6.426816e-05 0.008805162
0.008803328 4.9122886e-05 6.426816e-05 0.008803328 0.0087942 4.9122886e-05 6.426816e-05 0.0087942
0.008803817 4.9122886e-05 6.424651e-05 0.008803817 0.008803889 4.9122886e-05 6.425966e-05 0.008803889
0.008805158 4.9122886e-05 6.4263026e-05 0.008805158 0.008805161 4.9122886e-05 6.4268075e-05 0.008805161
0.008805161 4.9122886e-05 6.426816e-05 0.008805161 0.008805162 4.9122886e-05 6.426816e-05 0.008805162
0.008805162 4.9122886e-05 6.426816e-05 0.008805162 0.008805162 4.9122886e-05 6.426816e-05 0.008805162
0.008805162 4.9122886e-05 6.426816e-05 0.008805162 0.008805236 4.9122886e-05 6.4268155e-05 0.008805236
0.008804493 4.9122886e-05 6.426869e-05 0.008804493 0.00877799 4.9072765e-05 6.368653e-05 0.00877799
0.008782486 4.9029928e-05 6.3444044e-05 0.008784297 0.008769498 4.9118127e-05 6.168822e-05 0.008758865
0.008769676 4.911945e-05 6.1353225e-05 0.0087683415 0.008816974 4.912289e-05 6.324315e-05 0.008818251
0.0088177575 4.9122886e-05 6.652913e-05 0.008817763 0.008805144 4.9122886e-05 6.653938e-05 0.008805145
0.00880516 4.9122886e-05 6.4265565e-05 0.008805161 0.008805162 4.9122886e-05 6.4268155e-05 0.008805162
0.008805162 4.9122886e-05 6.426816e-05 0.008805162 0.008805162 4.9122886e-05 6.426816e-05 0.008805162
0.008800916 4.912314e-05 6.426816e-05 0.008800916 0.008780382 4.8992188e-05 6.365993e-05 0.008780451
0.008747888 4.854631e-05 6.389617e-05 0.008748693 0.008700711 4.842452e-05 5.9811835e-05 0.008718651
0.008745086 4.7982197e-05 5.98346e-05 0.008739496 0.008725482 4.8524198e-05 6.0023005e-05 0.00875433
0.0087232 4.9054346e-05 6.2837295e-05 0.008740804 0.0087429285 4.9035167e-05 6.487887e-05 0.008756529
0.008813391 4.9122365e-05 6.687756e-05 0.008800698 0.008804736 4.9122886e-05 6.425942e-05 0.008804751
0.008805161 4.9122886e-05 6.424784e-05 0.008805162 0.0088051455 4.9122886e-05 6.426816e-05 0.0088051455
0.008805016 4.9122886e-05 6.4268e-05 0.008805016 0.008774456 4.8981165e-05 6.417836e-05 0.008774456
0.008728459 4.8688325e-05 6.177508e-05 0.008725772 0.008777845 4.748167e-05 6.163469e-05 0.008753051
0.008734348 4.7752717e-05 6.4592605e-05 0.008733471 0.008788887 4.7931848e-05 6.439761e-05 0.00876059
0.008762104 4.7961512e-05 6.282369e-05 0.008734547 0.00877829 4.8360456e-05 6.4131396e-05 0.008758037
0.008779722 4.900033e-05 6.6813605e-05 0.00874463 0.008767555 4.908021e-05 6.6876346e-05 0.008783588
0.008800612 4.9116617e-05 6.225205e-05 0.008805089 0.008804751 4.9122886e-05 6.426738e-05 0.008805162
0.008805162 4.912288e-05 6.426816e-05 0.008805162 0.008805089 4.907067e-05 6.426816e-05 0.008805099
0.0087610725 4.806015e-05 6.4265536e-05 0.008761027 0.008703968 4.80393e-05 6.373537e-05 0.008733992
0.008782828 4.795281e-05 6.178431e-05 0.008720014 0.008707114 4.7981677e-05 6.4559135e-05 0.008759843
0.008757503 4.802031e-05 6.4286e-05 0.00874096 0.008726387 4.833791e-05 6.287182e-05 0.008782332
0.0087452885 4.9045713e-05 6.292685e-05 0.008790706 0.008773818 4.906682e-05 6.3086816e-05 0.008769506
0.008747597 4.847437e-05 6.482086e-05 0.008756013 0.008772649 4.912209e-05 6.420987e-05 0.008794237
00000000: 8743 103c 4c09 4e38 b5c7 8638 8743 103c
00000010: 8743 103c 4c09 4e38 b5c7 8638 8743 103c
00000020: 8743 103c 4c09 4e38 b5c7 8638 8743 103c
00000030: 8743 103c 4c09 4e38 b5c7 8638 8743 103c
00000040: d53b 103c 4c09 4e38 b5c7 8638 d53b 103c
00000050: 8c15 103c 4c09 4e38 b5c7 8638 8c15 103c
00000060: e33d 103c 4c09 4e38 15bc 8638 e33d 103c
00000070: 303e 103c 4c09 4e38 24c3 8638 303e 103c
00000080: 8243 103c 4c09 4e38 f3c4 8638 8243 103c
00000090: 8643 103c 4c09 4e38 a9c7 8638 8643 103c
000000a0: 8643 103c 4c09 4e38 b5c7 8638 8643 103c
000000b0: 8743 103c 4c09 4e38 b5c7 8638 8743 103c
000000c0: 8743 103c 4c09 4e38 b5c7 8638 8743 103c
000000d0: 8743 103c 4c09 4e38 b5c7 8638 8743 103c
000000e0: 8743 103c 4c09 4e38 b5c7 8638 8743 103c
000000f0: d643 103c 4c09 4e38 b4c7 8638 d643 103c
00000100: b840 103c 4c09 4e38 fdc7 8638 b840 103c
00000110: 8fd1 0f3c 7bd3 4d38 728f 8538 8fd1 0f3c
00000120: 6be4 0f3c 7ca5 4d38 430d 8538 03ec 0f3c
00000130: f1ad 0f3c 3004 4e38 9c5e 8138 5881 0f3c
00000140: b0ae 0f3c 9c05 4e38 c3aa 8038 17a9 0f3c
00000150: 1275 103c 4d09 4e38 68a1 8438 6d7a 103c
00000160: 5b78 103c 4c09 4e38 8e85 8b38 6178 103c
00000170: 7343 103c 4c09 4e38 0f8b 8b38 7443 103c
00000180: 8543 103c 4c09 4e38 50c6 8638 8643 103c
00000190: 8743 103c 4c09 4e38 b4c7 8638 8743 103c
000001a0: 8743 103c 4c09 4e38 b5c7 8638 8743 103c
000001b0: 8743 103c 4c09 4e38 b5c7 8638 8743 103c
000001c0: b831 103c 9209 4e38 b5c7 8638 b831 103c
000001d0: 97db 0f3c f67c 4d38 2a81 8538 e1db 0f3c
000001e0: 4d53 0f3c 349e 4b38 ffff 8538 ae56 0f3c
000001f0: 6d8d 0e3c 6f1b 4b38 78de 7a38 acd8 0e3c
00000200: 8d47 0f3c 7e40 4938 eaf6 7a38 1a30 0f3c
00000210: 53f5 0e3c 7686 4b38 36c1 7b38 526e 0f3c
00000220: c1eb 0e3c b4bf 4d38 84c7 8338 9735 0f3c
00000230: 803e 0f3c 1cab 4d38 940f 8838 8b77 0f3c
00000240: 0b66 103c bd08 4e38 9e40 8c38 ce30 103c
00000250: bd41 103c 4c09 4e38 03c3 8638 cd41 103c
00000260: 8643 103c 4c09 4e38 ccbc 8638 8743 103c
00000270: 7543 103c 4c09 4e38 b5c7 8638 7543 103c
00000280: ea42 103c 4c09 4e38 9fc7 8638 ea42 103c
00000290: bcc2 0f3c 2071 4d38 7f97 8638 bcc2 0f3c
000002a0: cf01 0f3c b136 4c38 3e8d 8138 8af6 0e3c
000002b0: f3d0 0f3c 0e27 4738 df41 8138 f568 0f3c
000002c0: 831a 0f3c 174a 4838 e475 8738 d516 0f3c
000002d0: 44ff 0f3c 6e0a 4938 340d 8738 9488 0f3c
000002e0: ee8e 0f3c 482a 4938 36c0 8338 581b 0f3c
000002f0: d1d2 0f3c a5d6 4a38 487e 8638 df7d 0f3c
00000300: d3d8 0f3c b485 4d38 481e 8c38 a345 0f3c
00000310: caa5 0f3c 79db 4d38 f73f 8c38 0ae9 0f3c
00000320: 7130 103c 9102 4e38 518d 8238 3843 103c
00000330: cd41 103c 4c09 4e38 49c7 8638 8743 103c
00000340: 8743 103c 4a09 4e38 b5c7 8638 8743 103c
00000350: 3843 103c 3bd1 4d38 b5c7 8638 4343 103c
00000360: 9a8a 0f3c 3194 4938 4cc6 8638 698a 0f3c
00000370: 169b 0e3c ce7d 4938 aba9 8538 0519 0f3c
00000380: dae5 0f3c f020 4938 3392 8138 64de 0e3c
00000390: 48a8 0e3c ef3f 4938 ec63 8738 7285 0f3c
000003a0: a17b 0f3c 6a69 4938 49d1 8638 3e36 0f3c
000003b0: 1ff9 0e3c 70be 4a38 0dda 8338 c5e3 0f3c
000003c0: 6648 0f3c 6fb6 4d38 98f7 8338 e506 103c
000003d0: 0fc0 0f3c 19cd 4d38 7a4d 8438 f9ad 0f3c
000003e0: 1552 0f3c f550 4b38 6ff0 8738 6175 0f3c
000003f0: 28bb 0f3c 7108 4e38 69a8 8638 b415 103c

exp_avg f4 [10]
0.0016154579 -0.0004944854 -0.0012347326 0.010192432 -0.046636913 0.0013023905 0.0133955935 -0.0013967697
-0.010724705 0.03398174
00000000: c6bd d33a 5aa0 01ba c0d6 a1ba 29fe 263c
00000010: 5906 3fbd f9b4 aa3a 3179 5b3c d013 b7ba
00000020: acb6 2fbc 7030 0b3d

exp_avg_sq f4 [10]
0.008805162 0.01256151 0.020976242 0.021600647 0.019861607 0.019593928 0.012855831 0.020176725
0.02535055 0.028719781
00000000: 8743 103c cbce 4d3c 5ed6 ab3c d7f3 b03c
00000010: cfb4 a23c 7283 a03c 43a1 523c a949 a53c
00000020: f5ab cf3c bf45 eb3c
