evaluation/Results/Seed_0_Trainable_yes_Threshold_Encoder_2x2_imgsize_14/model_checkpoints/epochs_24.pt (torch, 85085 bytes, 9 tensors)

qlayer_1.torch_qlayer.weights f8 [1, 4]
0	0xbfe07ad890a0d204	-0.5149958443421956
1	0xbff7f766b1781bea	-1.4979006702794728
2	0xbff8c05c4f951d77	-1.5469630345049532
3	0xbff19476da96d235	-1.0987461603773572

linear.weight f4 [10, 676]
0	0x3c5cc1c9	0.013473936
1	0x3d873799	0.06602401
2	0xbd62f387	-0.055408027
3	0xbc9b120b	-0.018929502
4	0x3d2939af	0.041314777
5	0x3d80c0d3	0.06286778
6	0x3ba59a5f	0.005053803
7	0xbc69e948	-0.01427681
8	0x3c34b35d	0.011029092
9	0x3dd65617	0.10465639
10	0xbd6ac36d	-0.05731528
11	0x3d39cef4	0.04536338
12	0xbc82f912	-0.015987907
13	0x3dccbba0	0.09996724
14	0xbd28c89b	-0.041206937
15	0xbbe7c140	-0.0070725977
16	0x3df5c34e	0.12000142
17	0x3dfa6721	0.122267015
18	0x3c7d68ed	0.015466911
19	0x3da9f903	0.08299448
20	0x3cfe2b05	0.031026373
21	0x3de91032	0.11380042
22	0xbd331b3b	-0.04372714
23	0x3d472e83	0.04862834
24	0x3e7d5b3e	0.24741837
25	0x3df53ca6	0.119744584
26	0xbbc68280	-0.0060580373
27	0x3e8aaf6d	0.27086964
28	0x3e05fbb9	0.13084306
29	0x3dd4aea1	0.1038487
30	0x3dc0ada0	0.09408116
31	0x3de4f1d5	0.11178938
32	0x3d9daa31	0.07698477
33	0x3d6e7c31	0.058223907
34	0xbc1122ce	-0.008858396
35	0x3dde406a	0.1085213
36	0x3d3a613e	0.045502894
37	0x3d9d9225	0.076938905
38	0x3ba8555d	0.005137129
39	0xbbf48dc8	-0.0074631907
40	0x3c3a5740	0.011373341
41	0x3dae0b14	0.08498207
42	0xbd5c9120	-0.05384934
43	0x3c3534de	0.011059968
44	0x3ce583e4	0.028016992
45	0x3dcfb9c2	0.10142852
46	0xbd6020d1	-0.054718796
47	0xbb918a79	-0.004441556
48	0x3d2987b7	0.041389193
49	0x3dbbb46a	0.091652706
50	0xbd4e03f6	-0.050296746
51	0xbb831389	-0.0040001315
52	0xbb88c3c9	-0.00417373
53	0x3dcb999d	0.09941409
54	0xbd4813c6	-0.048846982
55	0x3cb6cf05	0.022315511
56	0x3d0cc52d	0.03436773
57	0x3d9d3411	0.076759465
58	0xbca3e0bc	-0.020004623
59	0x3cd207e4	0.025638528
60	0x3d29ded7	0.041472282
61	0x3d9bd932	0.07609786
62	0xbd279a6e	-0.04091876
63	0x3ccbd2bf	0.024880765
64	0xbda285fc	-0.07935712
65	0x3ddfa152	0.10919441
66	0xbc990118	-0.01867728
67	0xbde33648	-0.11094338
68	0x3e8cbace	0.2748627
69	0x3e716979	0.23575391
70	0x3d65586c	0.05599253
71	0x3e75612b	0.23962848
72	0xbd399bb0	-0.04531449
73	0x3d6c9c30	0.05776614
74	0x3caf3af5	0.021390418
75	0xbd99667d	-0.07490251
76	0xbc74c94e	-0.014940573
77	0x3e1419ea	0.1446301
78	0x3daaf911	0.08348287
79	0xbd8bcb41	-0.06825877
80	0x3b67bdea	0.0035361
81	0x3de2ce89	0.1107455
82	0x3de96907	0.113969855
83	0xbd63c0b0	-0.055603683
84	0xbe40f617	-0.18843876
85	0x3dc268fd	0.09492681
86	0xbd8a14ce	-0.067422494
87	0xbe9c9ed5	-0.3058993
88	0x3e704e8f	0.23467468
89	0x3dab4411	0.08362592
90	0xbe0de269	-0.138559
91	0x3e42a144	0.1900683
92	0x3cb46af8	0.022023663
93	0x3ddb9712	0.10722174
94	0xbcd496cf	-0.025950817
95	0x3c99d701	0.01877928
96	0x3c90527d	0.017617458
97	0x3d79bbfa	0.060970284
98	0x3cfde962	0.030995075
99	0x3a8bf62f	0.0010678227
100	0x3ceb958d	0.028757835
101	0x3db378b2	0.08763255
102	0xbc42bee2	-0.01188633
103	0xbcc33c06	-0.023832332
104	0x3c81d389	0.015847938
105	0x3de19eb1	0.11016596
106	0x3c84f805	0.016231546
107	0x3c445c04	0.011984829
108	0x3d006e64	0.031355277
109	0x3d8de3d6	0.06928222
110	0xbcd709f3	-0.026249861
111	0x3d0bb259	0.034105632
112	0x3cce8e4a	0.025214333
113	0x3dfde984	0.12398055
114	0xbcfbe619	-0.030749368
115	0x39c70fef	0.0003796811
116	0x3eabbc77	0.33542225
117	0x3cacd586	0.02109791
118	0xbcbb789e	-0.022884663
119	0x3eb3a8fe	0.35089868
120	0x3ec25b4e	0.37960285
121	0x3de5704c	0.112030596
122	0x3e2e433c	0.17017835
123	0x3e27c2db	0.16382925
124	0x3f04afc7	0.51830715
125	0x3be3ef00	0.0069559813
126	0x3da4e9db	0.08052417
127	0x3e314ae7	0.17313729
128	0x3ccb5dec	0.024825059
129	0xbe111710	-0.14168954
130	0x3df1d0dc	0.11807415
131	0xbe4c46d6	-0.19948897
132	0xbe8ce6be	-0.27519792
133	0xbebdc2b8	-0.3706262
134	0xbdc6678a	-0.09687717
135	0xbf46c574	-0.7764504
136	0x3e524d41	0.20537283
137	0xbe88f22f	-0.2674727
138	0xbea9bae0	-0.33150387
139	0xbd01eeea	-0.031721987
140	0xbe72051c	-0.23634762
141	0x3d048a10	0.03235823
142	0xbe2b6bfc	-0.16740412
143	0xbeaef327	-0.34169886
144	0x3d9a6e5d	0.075405814
145	0x3dac1458	0.08402318
146	0xbe6a029d	-0.2285256
147	0xbe22ce7c	-0.1589908
148	0x3d71a0af	0.05899113
149	0x3dea6a40	0.11446047
150	0xbcbbf7c5	-0.022945294
151	0x3c9f40f5	0.019440154
152	0x3d447e8d	0.04797225
153	0x3d938765	0.07203559
154	0xbc6a5a32	-0.014303731
155	0x3b3b51b5	0.0028582637
156	0x3b0d8e76	0.0021599806
157	0x3df44d52	0.1192881
158	0xbd2e2968	-0.042519957
159	0x3c3c8830	0.011507079
160	0x3da6ffff	0.08154296
161	0x3df463bf	0.119330876
162	0x3bb81e03	0.005618812
163	0x3dc27ee6	0.0949686
164	0x3e23bffd	0.15991206
165	0x3da6e89c	0.081498355
166	0x3ba49415	0.0050225356
167	0x3e57c603	0.21071629
168	0xbbb5f3fe	-0.005552768
169	0x3e0683df	0.13136242
170	0x3d9e84b2	0.07740153
171	0x3dbd3132	0.09237899
172	0x3e2022f7	0.15638338
173	0x3d0ad353	0.03389294
174	0x3e26b23b	0.16278927
175	0x3b0be541	0.0021346363
176	0x3eac2db9	0.33628634
177	0xbedb22e0	-0.42800045
178	0x3e1b3140	0.15155506
179	0x3e055d48	0.13023865
180	0xbe58bc5f	-0.21165608
181	0xbeaf1ce2	-0.34201723
182	0xbd0704bd	-0.032963503
183	0xbe33e07e	-0.17566106
184	0xbee4e1d8	-0.44703555
185	0xbed2a9ae	-0.4114508
186	0xbdb95c9b	-0.09050866
187	0xbe83a6e8	-0.25713277
188	0xbdfb9a92	-0.12285341
189	0xbe1b744d	-0.15181084
190	0xbd3bdf94	-0.045867518
191	0xbf0bd737	-0.54625267
192	0x3e1cf7f8	0.15328968
193	0xbc5d90d2	-0.013523297
194	0xbe7ed2b7	-0.24885069
195	0xbed2f0fd	-0.41199484
196	0x3eecfd2e	0.4628691
197	0x3e216260	0.15760183
198	0xbe7008f6	-0.23440918
199	0xbe8a6eeb	-0.2703775
200	0x3d81cacc	0.063375086
201	0x3dbfe1b1	0.09369219
202	0xbda4aca9	-0.08040745
203	0x3d842ea6	0.0645421
204	0x3a45af84	0.00075411075
205	0x3d8e667a	0.069531396
206	0xbcb5fb2e	-0.022214498
207	0x3d388f03	0.04505826
208	0x3c0707f4	0.008241642
209	0x3db2584c	0.087082475
210	0xbd178762	-0.036994345
211	0x3bea4bd7	0.007150154
212	0x3e3415c2	0.17586425
213	0x3e034fed	0.12823458
214	0xbc36b63c	-0.0111518465
215	0x3e368e72	0.17827776
216	0xbe41af2b	-0.18914478
217	0x3e981815	0.29705873
218	0xbbd9dd41	-0.00664869
219	0xbe153f44	-0.14574915
220	0x3dcc655a	0.09980269
221	0x3eca0305	0.3945543
222	0xbd6ae8f0	-0.057351053
223	0xbec66e0d	-0.38755837
224	0x3f07b21a	0.53006136
225	0xbe677715	-0.2260402
226	0xbe003f27	-0.1252409
227	0x3dc97cdb	0.098382674
228	0xbf4cf08b	-0.8005454
229	0xbe51f6e1	-0.20504333
230	0xbe39c2dc	-0.18140739
231	0xbe942b7e	-0.28939432
232	0x3c8ee2f1	0.017442198
233	0x3cbe4607	0.023226751
234	0xbdd885bd	-0.105723836
235	0xbdbca03d	-0.092102505
236	0x3ecd48b8	0.40094543
237	0x3cda5216	0.02665047
238	0x3de14e8f	0.11001312
239	0xbe0f463f	-0.1399164
240	0x3f279e27	0.65475696
241	0xbeb92c68	-0.36166692
242	0x3d9a0470	0.07520378
243	0xbee6415a	-0.44971734
244	0xbe12a682	-0.1432133
245	0x3df5a121	0.119936235
246	0xbdf2460d	-0.118297674
247	0xbf2508e6	-0.644667
248	0xbda8578a	-0.08219822
249	0x3ebc0bcc	0.3672775
250	0xbeb72194	-0.35767806
251	0xbf330693	-0.69931906
252	0xbe89f9d0	-0.26948404
253	0x3c172627	0.009225405
254	0xbea0b467	-0.31387636
255	0xbde24d7a	-0.11049934

linear.bias f4 [10]
0	0x3c3b3f55	0.011428674
1	0xbdc351ea	-0.09537108
2	0xbd1f8ac8	-0.03895071
3	0x3d058604	0.03259851
4	0xbde04634	-0.1095089
5	0x3d971c97	0.073785
6	0x3ca67619	0.020319985
7	0xbb251ee0	-0.0025195405
8	0x3d79e7a0	0.06101191
9	0x3ca20891	0.019779475

exp_avg f8 [1, 4]
0	0xbfd5d9afcee3cdc6	-0.34141154483878855
1	0x3e5211997578b5f8	1.6827832764550278e-08
2	0xbfd15404ee0cc8bb	-0.27075312850059746
3	0xbfd5d9afd372c5dd	-0.3414115490841974

exp_avg_sq f8 [1, 4]
0	0x4013519f1b376a08	4.829708504922117
1	0x3ce475376c3aeaf4	2.271280600753871e-15
2	0x3fe418d10b8ba67f	0.6280293679712513
3	0x4013519f1aab47a4	4.829708496765225

exp_avg f4 [10, 676]
0	0xb993e00c	-0.00028204953
1	0xb60c04e3	-2.086447e-06
2	0x374def05	1.2274603e-05
3	0xb993e00c	-0.00028204953
4	0xb993e00c	-0.00028204953
5	0xb60c04e3	-2.086447e-06
6	0x374def05	1.2274603e-05
7	0xb993e00c	-0.00028204953
8	0xb993e00c	-0.00028204953
9	0xb60c04e3	-2.086447e-06
10	0x374def05	1.2274603e-05
11	0xb993e00c	-0.00028204953
12	0xb993e00c	-0.00028204953
13	0xb60c04e3	-2.086447e-06
14	0x374def05	1.2274603e-05
15	0xb993e00c	-0.00028204953
16	0xb993e00c	-0.00028204953
17	0xb60c04e3	-2.086447e-06
18	0x374def05	1.2274603e-05
19	0xb993e00c	-0.00028204953
20	0xb993e00c	-0.00028204953
21	0xb60c04e3	-2.086447e-06
22	0x374def05	1.2274603e-05
23	0xb993e00c	-0.00028204953
24	0xb993e00c	-0.00028204953
25	0xb60c04e3	-2.086447e-06
26	0x374def05	1.2274603e-05
27	0xb993e00c	-0.00028204953
28	0xb993e166	-0.0002820596
29	0xb60c04e3	-2.086447e-06
30	0x374def05	1.2274603e-05
31	0xb993e166	-0.0002820596
32	0xb993e00c	-0.00028204953
33	0xb60c04e3	-2.086447e-06
34	0x374df005	1.2274836e-05
35	0xb993e00c	-0.00028204953
36	0xb993e00c	-0.00028204953
37	0xb60c04e3	-2.086447e-06
38	0x374def05	1.2274603e-05
39	0xb993e00c	-0.00028204953
40	0xb993e00c	-0.00028204953
41	0xb60c04e3	-2.086447e-06
42	0x374def05	1.2274603e-05
43	0xb993e00c	-0.00028204953
44	0xb993e00c	-0.00028204953
45	0xb60c04e3	-2.086447e-06
46	0x374def05	1.2274603e-05
47	0xb993e00c	-0.00028204953
48	0xb993e00c	-0.00028204953
49	0xb60c04e3	-2.086447e-06
50	0x374def05	1.2274603e-05
51	0xb993e00c	-0.00028204953
52	0xb993e00c	-0.00028204953
53	0xb60c04e3	-2.086447e-06
54	0x374def05	1.2274603e-05
55	0xb993e00c	-0.00028204953
56	0xb993e00c	-0.00028204953
57	0xb60c04e3	-2.086447e-06
58	0x374def05	1.2274603e-05
59	0xb993e00c	-0.00028204953
60	0xb993e00c	-0.00028204953
61	0xb60c04e3	-2.086447e-06
62	0x374def05	1.2274603e-05
63	0xb993e00c	-0.00028204953
64	0xb994081f	-0.0002823481
65	0xb60c04e3	-2.086447e-06
66	0x374def05	1.2274603e-05
67	0xb994081f	-0.0002823481
68	0xb994bbe1	-0.0002836874
69	0xb60c04e7	-2.086448e-06
70	0x374e3cac	1.2292683e-05
71	0xb994bbe1	-0.0002836874
72	0xb9940ecc	-0.00028239784
73	0xb60c04e3	-2.086447e-06
74	0x374de161	1.2271427e-05
75	0xb9940ecc	-0.00028239784
76	0xb9947df0	-0.0002832259
77	0xb60c04e3	-2.086447e-06
78	0x374e4754	1.2295164e-05
79	0xb9947df0	-0.0002832259
80	0xb993e936	-0.0002821178
81	0xb60c04fd	-2.086453e-06
82	0x374e46fe	1.2295086e-05
83	0xb993e936	-0.0002821178
84	0xb993f04d	-0.00028217063
85	0xb60c04e6	-2.0864477e-06
86	0x374de268	1.22716665e-05
87	0xb993eef4	-0.0002821606
88	0xb993ec75	-0.000282142
89	0xb60c04f1	-2.0864502e-06
90	0x374deefb	1.2274594e-05
91	0xb993ec75	-0.000282142
92	0xb993e00c	-0.00028204953
93	0xb60c04e3	-2.086447e-06
94	0x374df25b	1.227538e-05
95	0xb993e00c	-0.00028204953
96	0xb993e00c	-0.00028204953
97	0xb60c04e3	-2.086447e-06
98	0x374def05	1.2274603e-05
99	0xb993e00c	-0.00028204953
100	0xb993e00c	-0.00028204953
101	0xb60c04e3	-2.086447e-06
102	0x374def05	1.2274603e-05
103	0xb993e00c	-0.00028204953
104	0xb993e00c	-0.00028204953
105	0xb60c04e3	-2.086447e-06
106	0x374def05	1.2274603e-05
107	0xb993e00c	-0.00028204953
108	0xb993e00c	-0.00028204953
109	0xb60c04e3	-2.086447e-06
110	0x374def05	1.2274603e-05
111	0xb993e00c	-0.00028204953
112	0xb993e00c	-0.00028204953
113	0xb60c04e3	-2.086447e-06
114	0x374def05	1.2274603e-05
115	0xb993e00c	-0.00028204953
116	0xb9948c35	-0.00028333222
117	0xb60c13f8	-2.087325e-06
118	0x374def05	1.2274603e-05
119	0xb9948c35	-0.00028333222
120	0xb98e7639	-0.00027172433
121	0xb6145b48	-2.2106851e-06
122	0x374d88fe	1.2250848e-05
123	0xb98e9e47	-0.00027202276
124	0xb98fc650	-0.0002742284
125	0xb60c28d0	-2.0885382e-06
126	0x374ba6ad	1.213855e-05
127	0xb98eea7d	-0.00027259058
128	0xb906e635	-0.00012864995
129	0xb60c4131	-2.0899572e-06
130	0x374b5052	1.2118444e-05
131	0xb9072874	-0.00012889673
132	0x39952199	0.00028444527
133	0xb60bd087	-2.0833993e-06
134	0x3680bb5d	3.836509e-06
135	0x39956b7f	0.00028499585
136	0x39902ab2	0.0002749763
137	0xb60bf829	-2.0857062e-06
138	0xb74dc920	-1.226578e-05
139	0x39902fed	0.00027501528
140	0x39802be2	0.00024446758
141	0xb60bcad2	-2.083067e-06
142	0xb74b7a6c	-1.2128246e-05
143	0x3980223d	0.00024439572
144	0xb8cc4736	-9.740742e-05
145	0xb60c04e3	-2.086447e-06
146	0xb73b9702	-1.1181228e-05
147	0xb8cc158d	-9.731492e-05
148	0xb993f018	-0.0002821691
149	0xb60c04e3	-2.086447e-06
150	0x3640e67d	2.8744391e-06
151	0xb993f018	-0.0002821691
152	0xb993e00c	-0.00028204953
153	0xb60c04e3	-2.086447e-06
154	0x374deaac	1.2273591e-05
155	0xb993e00c	-0.00028204953
156	0xb993e00c	-0.00028204953
157	0xb60c04e3	-2.086447e-06
158	0x374def05	1.2274603e-05
159	0xb993e00c	-0.00028204953
160	0xb993e00c	-0.00028204953
161	0xb60c04e3	-2.086447e-06
162	0x374def05	1.2274603e-05
163	0xb993e00c	-0.00028204953
164	0xb9948cdf	-0.00028333717
165	0xb60c04e3	-2.086447e-06
166	0x374def05	1.2274603e-05
167	0xb9948cdf	-0.00028333717
168	0xb98f2485	-0.00027302295
169	0xb6143a82	-2.2087775e-06
170	0x374d8907	1.2250856e-05
171	0xb98f2485	-0.00027302295
172	0xb98f9975	-0.0002738942
173	0xb6164f4a	-2.2397894e-06
174	0x374af163	1.20963405e-05
175	0xb98eebb3	-0.0002725996
176	0x39950961	0.00028426482
177	0xb6160866	-2.235663e-06
178	0x374b4eb5	1.2118068e-05
179	0x398fcba3	0.00027426807
180	0x399495cc	0.00028340367
181	0x354496f9	7.3235384e-07
182	0xb74b9a0c	-1.213561e-05
183	0x398fa187	0.00027395433
184	0xb8cf10c7	-9.873654e-05
185	0x36162a4e	2.2376366e-06
186	0xb74af47b	-1.2097061e-05
187	0xb9731b99	-0.00023184567
188	0x3973034a	0.00023175511
189	0x3620177c	2.3855528e-06
190	0x37396e5a	1.10525525e-05
191	0xb9744aaa	-0.00023297468
192	0xb8d05ef7	-9.9359015e-05
193	0x3610eba0	2.1594824e-06
194	0x3738b327	1.1008967e-05
195	0x38b8abab	8.805779e-05
196	0xb9748ab6	-0.00023321327
197	0x35802aef	9.549238e-07
198	0xb637b532	-2.7374595e-06
199	0x398ef7f7	0.000272691
200	0xb8cc15c7	-9.7315344e-05
201	0xb60c7209	-2.0928003e-06
202	0xb74b85d8	-1.2130906e-05
203	0xb993e01a	-0.00028204994
204	0xb993f018	-0.0002821691
205	0xb60c04e3	-2.086447e-06
206	0x374def0a	1.2274608e-05
207	0xb993e00c	-0.00028204953
208	0xb993e00c	-0.00028204953
209	0xb60c04e3	-2.086447e-06
210	0x374def05	1.2274603e-05
211	0xb993e00c	-0.00028204953
212	0xb994562e	-0.0002829297
213	0xb60c04e3	-2.086447e-06
214	0x374def05	1.2274603e-05
215	0xb994562e	-0.0002829297
216	0xb995038c	-0.00028422137
217	0xb61438f0	-2.208686e-06
218	0x374e3eb1	1.2293153e-05
219	0xb995038c	-0.00028422137
220	0xb9753859	-0.00023386012
221	0xb61e8699	-2.362218e-06
222	0x374dd70d	1.2269023e-05
223	0xb973de28	-0.00023257046
224	0x39941dfd	0.00028251103
225	0xb6161bd4	-2.236794e-06
226	0x373934a7	1.1039118e-05
227	0x398f6525	0.00027350444
228	0xb8ba0b4a	-8.871274e-05
229	0x361ff857	2.38374e-06
230	0xb74b4757	-1.2116353e-05
231	0xb8ce02ea	-9.823388e-05
232	0x38b844f7	8.7866494e-05
233	0x361e621b	2.360094e-06
234	0x36421479	2.892017e-06
235	0xb8cf3fa0	-9.88238e-05
236	0x3906c656	0.00012853122
237	0xb6124fbd	-2.180211e-06
238	0x3640800b	2.868476e-06
239	0xb9120d26	-0.00013928543
240	0xb97f8767	-0.00024369136
241	0xb61ae300	-2.307992e-06
242	0x36844f00	3.9431034e-06
243	0xb98f0f42	-0.00027286453
244	0xb9801a70	-0.0002443376
245	0xb559ac83	-8.1089837e-07
246	0x374ad5fd	1.2089961e-05
247	0xb98eca7c	-0.00027235213
248	0xb8cd8ffe	-9.8019824e-05
249	0x36161b8f	2.2367783e-06
250	0x374b5002	1.2118371e-05
251	0x398eb218	0.0002721704
252	0x398ef7f9	0.00027269105
253	0xb60c050f	-2.086457e-06
254	0xb74ba434	-1.2137974e-05
255	0xb993e00c	-0.00028204953

exp_avg_sq f4 [10, 676]
0	0x3c254ed7	0.010089598
1	0x38e09b38	0.00010710064
2	0x39a257c2	0.00030964433
3	0x3c254ed7	0.010089598
4	0x3c254ed7	0.010089598
5	0x38e09b38	0.00010710064
6	0x39a257c2	0.00030964433
7	0x3c254ed7	0.010089598
8	0x3c254ed7	0.010089598
9	0x38e09b38	0.00010710064
10	0x39a257c2	0.00030964433
11	0x3c254ed7	0.010089598
12	0x3c254ed7	0.010089598
13	0x38e09b38	0.00010710064
14	0x39a257c2	0.00030964433
15	0x3c254ed7	0.010089598
16	0x3c251633	0.0100760935
17	0x38e09b38	0.00010710064
18	0x39a257c2	0.00030964433
19	0x3c251633	0.0100760935
20	0x3c2549b0	0.010088369
21	0x38e09b38	0.00010710064
22	0x39a257c7	0.00030964447
23	0x3c2549b0	0.010088369
24	0x3c252501	0.010079623
25	0x38e09b38	0.00010710064
26	0x39a251c8	0.0003095998
27	0x3c252501	0.010079623
28	0x3c2526e8	0.010080077
29	0x38e09b38	0.00010710064
30	0x39a24f68	0.0003095821
31	0x3c2526e8	0.010080077
32	0x3c254eba	0.010089571
33	0x38e09b38	0.00010710064
34	0x39a252bf	0.00030960698
35	0x3c254eba	0.010089571
36	0x3c254ed8	0.010089599
37	0x38e09b38	0.00010710064
38	0x39a257a8	0.00030964357
39	0x3c254ed8	0.010089599
40	0x3c254ed7	0.010089598
41	0x38e09b38	0.00010710064
42	0x39a257c2	0.00030964433
43	0x3c254ed7	0.010089598
44	0x3c254ed7	0.010089598
45	0x38e09b38	0.00010710064
46	0x39a257c2	0.00030964433
47	0x3c254ed7	0.010089598
48	0x3c254ed7	0.010089598
49	0x38e09b38	0.00010710064
50	0x39a257c2	0.00030964433
51	0x3c254ed7	0.010089598
52	0x3c254ed7	0.010089598
53	0x38e09b38	0.00010710064
54	0x39a257c2	0.00030964433
55	0x3c254ed7	0.010089598
56	0x3c254ed7	0.010089598
57	0x38e09b38	0.00010710064
58	0x39a257c2	0.00030964433
59	0x3c254ed7	0.010089598
60	0x3c254edb	0.010089601
61	0x38e09b38	0.00010710064
62	0x39a257c0	0.00030964427
63	0x3c254edb	0.010089601
64	0x3c2537dd	0.01008412
65	0x38e09b38	0.00010710064
66	0x39a25838	0.00030964776
67	0x3c2537dd	0.01008412
68	0x3c2201f6	0.009888163
69	0x38dfd3cf	0.00010672921
70	0x39a0166e	0.0003053429
71	0x3c2201f6	0.009888163
72	0x3c23dc12	0.010001199
73	0x38e0963c	0.00010709136
74	0x399f25a1	0.0003035488
75	0x3c2414aa	0.010014692
76	0x3c20fd2c	0.009825986
77	0x38e08857	0.000107065476
78	0x39986617	0.00029067762
79	0x3c210263	0.009827229
80	0x3c210308	0.009827383
81	0x38e08d70	0.00010707497
82	0x399719c5	0.00028820164
83	0x3c20d959	0.009817445
84	0x3c26bd33	0.010176945
85	0x38e09b38	0.00010710064
86	0x399e5e6e	0.00030206464
87	0x3c26e525	0.010186468
88	0x3c26d5a3	0.010182771
89	0x38e09b38	0.00010710064
90	0x39ab1c64	0.00032636814
91	0x3c26d5c0	0.010182798
92	0x3c254e80	0.010089517
93	0x38e09b38	0.00010710064
94	0x39ab2698	0.00032644416
95	0x3c254e7f	0.010089516
96	0x3c254ecd	0.010089588
97	0x38e09b38	0.00010710064
98	0x39a25552	0.00030962616
99	0x3c254ecd	0.010089588
100	0x3c254ed7	0.010089598
101	0x38e09b38	0.00010710064
102	0x39a257bf	0.00030964424
103	0x3c254ed7	0.010089598
104	0x3c254ed7	0.010089598
105	0x38e09b38	0.00010710064
106	0x39a257c2	0.00030964433
107	0x3c254ed7	0.010089598
108	0x3c254ed8	0.010089599
109	0x38e09b38	0.00010710064
110	0x39a257c2	0.00030964433
111	0x3c254ed8	0.010089599
112	0x3c24c8a8	0.010057606
113	0x38e09ba5	0.000107101434
114	0x39a257c4	0.00030964438
115	0x3c24c8aa	0.010057608
116	0x3c224e31	0.009906338
117	0x38de9370	0.00010613247
118	0x399ffc25	0.00030514706
119	0x3c224e36	0.009906342
120	0x3c204765	0.009782647
121	0x38d7a8d6	0.00010283447
122	0x39a0e676	0.00030689285
123	0x3c205e36	0.009788087
124	0x3c2093f6	0.009800902
125	0x38d731b5	0.000102612576
126	0x39911bc6	0.00027677248
127	0x3c22be95	0.009933134
128	0x3c22bd55	0.009932836
129	0x38d05988	9.9348894e-05
130	0x399208f0	0.0002785395
131	0x3c235c8c	0.009970795
132	0x3c222739	0.009897047
133	0x38d7550e	0.000102678416
134	0x3992b83d	0.00027984558
135	0x3c24580a	0.010030756
136	0x3c227a01	0.009916783
137	0x38df8b07	0.000106593645
138	0x399d92c0	0.0003005471
139	0x3c249b46	0.010046786
140	0x3c245e39	0.01003223
141	0x38df3ecc	0.000106451655
142	0x39a588fa	0.00031573308
143	0x3c2603df	0.010132759
144	0x3c264e38	0.010150485
145	0x38e098e6	0.00010709632
146	0x39ad490d	0.00033051558
147	0x3c24c45a	0.0100565795
148	0x3c2541c8	0.010086484
149	0x38e09b38	0.00010710064
150	0x39a24f30	0.00030958047
151	0x3c254228	0.010086574
152	0x3c254ecd	0.010089588
153	0x38e09b38	0.00010710064
154	0x39a243ad	0.0003094947
155	0x3c254ed7	0.010089598
156	0x3c254ed7	0.010089598
157	0x38e09b38	0.00010710064
158	0x39a257c2	0.00030964433
159	0x3c254ed7	0.010089598
160	0x3c254aad	0.010088605
161	0x38e09b38	0.00010710064
162	0x39a257c2	0.00030964433
163	0x3c254aad	0.010088605
164	0x3c2194b1	0.009862111
165	0x38de67af	0.000106050975
166	0x39a1fee0	0.0003089821
167	0x3c2194b2	0.009862112
168	0x3c20b9e6	0.009809947
169	0x38d9dc88	0.000103884435
170	0x3998ad07	0.00029120615
171	0x3c206414	0.0097894855
172	0x3c2466d3	0.010034281
173	0x38c8bcd1	9.571913e-05
174	0x3998e8c8	0.00029165135
175	0x3c2167d3	0.009851414
176	0x3c23d32c	0.009999078
177	0x38ce68f6	9.842396e-05
178	0x39a3a653	0.00031213704
179	0x3c21d46f	0.009877308
180	0x3c253f80	0.01008594
181	0x38cf9790	9.89876e-05
182	0x39a39fca	0.00031208835
183	0x3c25ea84	0.010126714
184	0x3c234e45	0.009967391
185	0x38cf9d1c	9.899793e-05
186	0x399d949d	0.000300561
187	0x3c235c49	0.009970733
188	0x3c228ac1	0.009920777
189	0x38d75f60	0.00010269764
190	0x39a2a2f5	0.0003102046
191	0x3c244d34	0.010028172
192	0x3c22bb20	0.009932309
193	0x38e05166	0.00010696314
194	0x39acfdbc	0.00032995443
195	0x3c24953f	0.010045349
196	0x3c257325	0.010098253
197	0x38dff1a2	0.00010678476
198	0x39ad47ef	0.00033050726
199	0x3c249a05	0.010046487
200	0x3c24c2df	0.0100562265
201	0x38e08242	0.00010705415
202	0x399a9278	0.00029482297
203	0x3c254d55	0.010089238
204	0x3c254228	0.010086574
205	0x38e09b38	0.00010710064
206	0x39a2572c	0.00030963996
207	0x3c254ed7	0.010089598
208	0x3c254ed7	0.010089598
209	0x38e09b38	0.00010710064
210	0x39a257c2	0.00030964433
211	0x3c254ed7	0.010089598
212	0x3c254d03	0.010089162
213	0x38dfcbce	0.0001067143
214	0x39a257c2	0.00030964433
215	0x3c254d03	0.010089162
216	0x3c214655	0.009843429
217	0x38d01e08	9.923807e-05
218	0x39a25545	0.0003096258
219	0x3c2144ad	0.009843034
220	0x3c1f8f55	0.009738763
221	0x38cfd618	9.910407e-05
222	0x39a0566e	0.00030581973
223	0x3c233180	0.009960532
224	0x3c24685d	0.010034648
225	0x38d10a71	9.9678415e-05
226	0x39998cf4	0.00029287452
227	0x3c2180dc	0.009857383
228	0x3c20886c	0.0097981505
229	0x38cfecec	9.914659e-05
230	0x39a44fbc	0.00031339924
231	0x3c248858	0.0100422725
232	0x3c20d81d	0.00981715
233	0x38d0f847	9.964458e-05
234	0x39a33118	0.0003112636
235	0x3c240836	0.010011723
236	0x3c242ecd	0.010020924
237	0x38d60ee7	0.00010207091
238	0x399dc483	0.00030091786
239	0x3c24f24f	0.0100675365
240	0x3c22c255	0.009934028
241	0x38df710c	0.00010654525
242	0x399d3085	0.00029981523
243	0x3c257693	0.010099071
244	0x3c2203cc	0.009888601
245	0x38e15ef2	0.00010746521
246	0x399dcede	0.00030099502
247	0x3c2631f2	0.010143744
248	0x3c24d7f6	0.010061255
249	0x38d824a9	0.00010306511
250	0x39a543e6	0.0003152184
251	0x3c231021	0.009952576
252	0x3c2346be	0.009965597
253	0x38e09b20	0.000107100466
254	0x39a23958	0.00030941772
255	0x3c23fb86	0.010008698

exp_avg f4 [10]
0	0xb993e00c	-0.00028204953
1	0xbcf336b4	-0.02968917
2	0x3b4716b3	0.003037852
3	0xba40de05	-0.0007357302
4	0x3c8bd307	0.0170684
5	0x3c95372c	0.018214785
6	0x3cf9d56a	0.030497272
7	0x3cbd4b39	0.023107158
8	0xbcbf046c	-0.023317538
9	0xbd1b3e0d	-0.037900973

exp_avg_sq f4 [10]
0	0x3c254ed6	0.010089597
1	0x3c43116f	0.011906012
2	0x3c93208e	0.01795986
3	0x3c9f6cc6	0.019461047
4	0x3cac5b5f	0.021039663
5	0x3cb19492	0.02167729
6	0x3c4490fc	0.011997458
7	0x3c9b668c	0.018969797
8	0x3cc03b2d	0.023465717
9	0x3cf5492c	0.029942118
