evaluation/Results/Seed_0_Trainable_yes_Threshold_Encoder_2x2_imgsize_14/model_checkpoints/epochs_7.pt (torch, 85071 bytes, 9 tensors)

qlayer_1.torch_qlayer.weights f8 [1, 4]
0	0xbfded848288aab27	-0.4819507976450716
1	0xbff2d2b818c5accf	-1.1764450996077362
2	0xbff82acf33a60efb	-1.5104515092397708
3	0xbff10d1c94fcb731	-1.0657010860263194

linear.weight f4 [10, 676]
0	0xbb300965	-0.0026861068
1	0xbd4c18a3	-0.049828183
2	0xbcb1c919	-0.021702336
3	0xbd0fba0d	-0.03508954
4	0x3cce1124	0.025154658
5	0xbd590631	-0.05298442
6	0x3d1ec231	0.038759414
7	0xbcf956c7	-0.030436886
8	0xbba82194	-0.005130956
9	0xbc376e39	-0.011195713
10	0xbcc168e6	-0.02360959
11	0x3cef3bad	0.02920326
12	0xbd03b47a	-0.032154538
13	0xbc822104	-0.015884884
14	0xbbf5cd07	-0.007501248
15	0xbcbe6028	-0.02323921
16	0x3cec3de3	0.028838104
17	0x3bd2342f	0.006414912
18	0x3d496922	0.049172528
19	0xbc05d652	-0.008168774
20	0x3b34cdcc	0.0027588485
21	0xbb067656	-0.002051731
22	0xbc57f1fa	-0.01318025
23	0x3ca6cbd3	0.020360863
24	0x3e157007	0.14593516
25	0x3b7f18ba	0.003892465
26	0x3cc5f8ae	0.024166431
27	0x3e2d738f	0.16938613
28	0x3d097217	0.03355607
29	0xbc44aa12	-0.012003439
30	0x3dcdf531	0.10056532
31	0x3c6d9b9f	0.014502435
32	0xbca526a4	-0.020160027
33	0xbd6c0bb5	-0.057628352
34	0x3ab8abb0	0.0014089253
35	0x3c3a6480	0.0113765
36	0x3cefd755	0.029277483
37	0xbd1f6390	-0.03891331
38	0x3c7fea42	0.015619816
39	0xbcc20e7a	-0.023688544
40	0xbb9cd9e2	-0.004786716
41	0xbcfce325	-0.03087003
42	0xbca51d9d	-0.020155722
43	0xbba71e74	-0.005100066
44	0x3c424336	0.011856845
45	0xbc6c50f8	-0.014423601
46	0xbcac23ad	-0.021013105
47	0xbca8c4b5	-0.02060161
48	0x3ccead38	0.025229082
49	0xbcc63de1	-0.024199428
50	0xbc87e9f8	-0.016591057
51	0xbca526f4	-0.020160176
52	0xbca69308	-0.020333782
53	0xbc86a907	-0.01643802
54	0xbc781330	-0.015141293
55	0x3bc9b358	0.0061554126
56	0x3c952827	0.018207623
57	0xbd201fb6	-0.039092742
58	0x3c607a3e	0.01370102
59	0x3c1b4b52	0.009478407
60	0x3ccd900c	0.025093101
61	0xbd22d572	-0.03975434
62	0xbbec5baa	-0.0072130756
63	0x3c0b4a70	0.008501634
64	0x3bbf99ea	0.0058472054
65	0xbbda1443	-0.0066552474
66	0x3c76b98b	0.015058885
67	0xbcd2dab9	-0.02573906
68	0xbd86e763	-0.06587102
69	0x3bb904ea	0.0056463378
70	0x3d3b23d7	0.045688476
71	0xbdcf13b5	-0.10111181
72	0x3d26f9bd	0.040765513
73	0xbd7b30c3	-0.0613258
74	0xbd404340	-0.046939135
75	0x3db103dd	0.08643315
76	0xbdab99fe	-0.08378981
77	0x3d00e83d	0.03147148
78	0x3d8f16f7	0.06986802
79	0xbdff1eef	-0.12457072
80	0xbd70c175	-0.058778245
81	0x3be3cfcb	0.006952261
82	0x3c0231a4	0.007946406
83	0xbce7e48d	-0.028307224
84	0x3d381682	0.04494334
85	0xbc10a15c	-0.008827534
86	0xbd4a11f0	-0.049333513
87	0x3be14886	0.0068751005
88	0x3d2ebbc0	0.04265952
89	0xbd040ae9	-0.032236967
90	0xbcbf07e3	-0.02331919
91	0x3d9eb51c	0.077493876
92	0x3b45bbe8	0.0030171815
93	0xbc0d667f	-0.008630394
94	0x3d27d17c	0.040971264
95	0xb929c20a	-0.00016189381
96	0x3a8f6281	0.0010939391
97	0xbd60cbf3	-0.054882
98	0x3d96289b	0.07331964
99	0xbc7d39df	-0.015455692
100	0x3c4e66b6	0.01259773
101	0xbce72cbb	-0.028219571
102	0x3cb25d27	0.021772934
103	0xbd23cf10	-0.039992392
104	0xb9a3a654	-0.00031213707
105	0xbbba5328	-0.0056861825
106	0x3d4c8aeb	0.04993717
107	0xbb88d052	-0.0041752243
108	0x3c71ae62	0.014751049
109	0xbd3ec027	-0.04656997
110	0x3bf44f7d	0.007455765
111	0x3c8f5ef4	0.017501332
112	0x3d7d9aa3	0.06191505
113	0x3c0a592c	0.008444112
114	0x3b419a8a	0.0029541575
115	0x3d17e1ae	0.03708046
116	0x3db37ff0	0.087646365
117	0x3cdeae47	0.027182711
118	0x3cbe8267	0.02325554
119	0x3dd4accd	0.10384522
120	0x3dfac22a	0.12244065
121	0xbcc7fcae	-0.02441248
122	0x3d617f54	0.05505307
123	0x3c7195a0	0.014745146
124	0x3cb11945	0.021618495
125	0x3c0e376e	0.008680208
126	0xbd5475be	-0.0518701
127	0xbda93d70	-0.082636714
128	0xbebe9887	-0.37225744
129	0xbdb5746c	-0.08860096
130	0xbd8d0756	-0.06886165
131	0xbe7994af	-0.24373125
132	0x3d2c7f94	0.042113855
133	0xbdaee8e3	-0.08540513
134	0xbdec59de	-0.11540578
135	0xbe152f39	-0.14568795
136	0xbcdaceeb	-0.026709994
137	0xbd50329c	-0.050829515
138	0xbe0f16d1	-0.13973548
139	0x3de16f30	0.110075355
140	0x3d2c34af	0.04204243
141	0xbca5ee1b	-0.02025514
142	0xbda36dec	-0.0797995
143	0x3bf9214b	0.007602846
144	0x3e691fdc	0.2276606
145	0xbc5687c7	-0.013093895
146	0xbdbf2324	-0.093328744
147	0xbdc54c5b	-0.09633704
148	0x3d1e2ca0	0.038616776
149	0xbaba8b97	-0.0014232275
150	0xbbdb9c1d	-0.0067019598
151	0x3a966787	0.0011474945
152	0x3d00cda0	0.0314461
153	0xbd33790b	-0.043816607
154	0x3c9bb733	0.019008255
155	0xbc59fa82	-0.013304355
156	0xbc656074	-0.014000047
157	0x3b612e40	0.0034359843
158	0xbc1069bd	-0.0088142725
159	0xbb987812	-0.0046529854
160	0x3d8426f7	0.064527445
161	0x3b70b8ba	0.00367312
162	0x3d2112a4	0.039324418
163	0x3d9fa5d9	0.07795305
164	0x3d9e8796	0.07740705
165	0x3d0e6f15	0.034773905
166	0x3d1e96a7	0.038717892
167	0x3e03c0f3	0.12866573
168	0xbb204e50	-0.002446074
169	0xbbe648f0	-0.007027738
170	0x3e0c8ec2	0.13726333
171	0xbd02ff13	-0.03198154
172	0xbe13461f	-0.14382218
173	0xbd691aae	-0.05691021
174	0x3cec57e5	0.028850505
175	0xbdfb4e4f	-0.122707956
176	0x3e589c1e	0.21153304
177	0xbe309476	-0.17244133
178	0x3d690d0f	0.05689722
179	0xbbc9f73f	-0.0061635072
180	0xbdd5f064	-0.104462415
181	0xbe081be6	-0.13291892
182	0xbd0b816a	-0.034058966
183	0xbe0258b1	-0.12729146
184	0xbe5721d7	-0.21009003
185	0xbe34d7f4	-0.17660505
186	0xbd253128	-0.040330082
187	0xbe1f5ae0	-0.1556201
188	0xbe51920a	-0.20465866
189	0xbd7005f3	-0.058599424
190	0xbd9cf569	-0.07663996
191	0xbe00421c	-0.12525219
192	0x3d10ce3b	0.035352927
193	0xbddf4223	-0.109012865
194	0xbe29cccd	-0.16582032
195	0xbd2cd086	-0.04219105
196	0xbe07acbd	-0.13249488
197	0x3b039fae	0.002008419
198	0xbe141cfe	-0.14464185
199	0xbd5a8c75	-0.053356607
200	0xbda1f6d0	-0.07908404
201	0xbcb9d2b6	-0.022683483
202	0xbd3438d9	-0.043999527
203	0x3cb22d58	0.021750137
204	0xbc8faced	-0.017538512
205	0xbd3dbec3	-0.046324503
206	0xbc6c6f02	-0.014430763
207	0x3cecbbdd	0.028898174
208	0xbc11d934	-0.008901883
209	0xbcebae52	-0.028769646
210	0xbb5786ca	-0.0032886737
211	0xbc23bb5c	-0.0099934
212	0xbcf0d25e	-0.029397186
213	0x3c4b93a1	0.012425334
214	0x3cb92b70	0.02260372
215	0xbcdd0cee	-0.026983704
216	0xbe17cbd6	-0.14823851
217	0x3d9d6499	0.07685203
218	0x3cdcf6cc	0.02697315
219	0xbdd5021b	-0.10400792
220	0xbea7c015	-0.32763734
221	0xbc1df1ec	-0.009640198
222	0xbcf7bb62	-0.030240718
223	0xbec2f42d	-0.38076916
224	0xbc61c6dd	-0.013780323
225	0xbdba60a7	-0.09100466
226	0xbe4f44f2	-0.20241144
227	0xbe21224f	-0.15735744
228	0xbe8b4c9f	-0.27206895
229	0x3cdc8bad	0.026922071
230	0xbe57f27d	-0.21088596
231	0x3d2afb90	0.041743815
232	0xbc99110f	-0.018684892
233	0x3c620173	0.013794291
234	0x3cb15f39	0.021651851
235	0xbd2a2be6	-0.04154577
236	0x3e59bbe5	0.21263082
237	0xbd0d4250	-0.03448707
238	0x3d40d9ee	0.047082834
239	0xbdffba06	-0.12486653
240	0x3f0e7a66	0.55655515
241	0xbe31c0b1	-0.17358662
242	0x3d6b9859	0.057518337
243	0xbe0e0003	-0.13867192
244	0x3dc475c1	0.09592772
245	0xbcf4c301	-0.029878141
246	0xbd0d4059	-0.034485195
247	0xbee6273c	-0.44951808
248	0x3c9f6193	0.019455707
249	0x3c736a7b	0.01485693
250	0xbe86bc7f	-0.26315686
251	0xbe670b6d	-0.22562952
252	0xbc293e35	-0.010329773
253	0xbd1e9110	-0.03871256
254	0xbe54a898	-0.20767438
255	0xbcbcb07c	-0.023033373

linear.bias f4 [10]
0	0xbb9b0a15	-0.0047314265
1	0xbd42e734	-0.047583774
2	0xbca3ab07	-0.019979013
3	0x3c8627b7	0.01637636
4	0xbd69d9f6	-0.05709263
5	0x3d5ab153	0.053391766
6	0xbbb6a1ad	-0.0055734725
7	0xbd15ca0c	-0.03656964
8	0x3d1283bf	0.035770174
9	0x3c858657	0.01629941

exp_avg f8 [1, 4]
0	0xbfd500ee5ac0fbc6	-0.32818182814292773
1	0x3e04c0912d7c0cf5	6.039689538158087e-10
2	0xbfc7ad63829f138b	-0.18497890356061605
3	0xbfd500ee63cc0c6b	-0.3281818365650852

exp_avg_sq f8 [1, 4]
0	0x3fec0b5cc121835e	0.8763870021904088
1	0x3cc1558328667087	4.811160514263126e-16
2	0x3fc8c89f023895de	0.19362247093628943
3	0x3fec0b5cbaf7bb42	0.8763869907105362

exp_avg f4 [10, 676]
0	0xba7544ae	-0.00093562424
1	0x3806e752	3.2163523e-05
2	0xb74fcb58	-1.2385506e-05
3	0xba7544ae	-0.00093562424
4	0xba7544ae	-0.00093562424
5	0x3806e752	3.2163523e-05
6	0xb74fcb58	-1.2385506e-05
7	0xba7544ae	-0.00093562424
8	0xba7544ae	-0.00093562424
9	0x3806e752	3.2163523e-05
10	0xb74fcb58	-1.2385506e-05
11	0xba7544ae	-0.00093562424
12	0xba7544ae	-0.00093562424
13	0x3806e752	3.2163523e-05
14	0xb74fcb58	-1.2385506e-05
15	0xba7544ae	-0.00093562424
16	0xba7544ae	-0.00093562424
17	0x3806e752	3.2163523e-05
18	0xb74fcb58	-1.2385506e-05
19	0xba7544ae	-0.00093562424
20	0xba7544b9	-0.0009356249
21	0x3806e752	3.2163523e-05
22	0xb74fcb58	-1.2385506e-05
23	0xba7544b9	-0.0009356249
24	0xba7544c2	-0.0009356254
25	0x3806e752	3.2163523e-05
26	0xb74fcb86	-1.2385548e-05
27	0xba7544c2	-0.0009356254
28	0xba7544b2	-0.00093562447
29	0x3806e752	3.2163523e-05
30	0xb74fcba6	-1.2385577e-05
31	0xba7544b2	-0.00093562447
32	0xba7544b0	-0.00093562435
33	0x3806e752	3.2163523e-05
34	0xb74fcb58	-1.2385506e-05
35	0xba7544b0	-0.00093562435
36	0xba7544ae	-0.00093562424
37	0x3806e752	3.2163523e-05
38	0xb74fcb58	-1.2385506e-05
39	0xba7544ae	-0.00093562424
40	0xba7544ae	-0.00093562424
41	0x3806e752	3.2163523e-05
42	0xb74fcb58	-1.2385506e-05
43	0xba7544ae	-0.00093562424
44	0xba7544ae	-0.00093562424
45	0x3806e752	3.2163523e-05
46	0xb74fcb58	-1.2385506e-05
47	0xba7544ae	-0.00093562424
48	0xba7544ae	-0.00093562424
49	0x3806e752	3.2163523e-05
50	0xb74fcb58	-1.2385506e-05
51	0xba7544ae	-0.00093562424
52	0xba7544ae	-0.00093562424
53	0x3806e752	3.2163523e-05
54	0xb74fcb58	-1.2385506e-05
55	0xba7544ae	-0.00093562424
56	0xba7544ae	-0.00093562424
57	0x3806e752	3.2163523e-05
58	0xb74fcb58	-1.2385506e-05
59	0xba7544ae	-0.00093562424
60	0xba775fb8	-0.00094365655
61	0x3806e752	3.2163523e-05
62	0xb74fcb58	-1.2385506e-05
63	0xba775fb8	-0.00094365655
64	0xba775fbb	-0.0009436567
65	0x3806e752	3.2163523e-05
66	0xb762057d	-1.3471928e-05
67	0xba775fbb	-0.0009436567
68	0xba75fc92	-0.0009383644
69	0x3806e752	3.2163523e-05
70	0xb762058b	-1.347194e-05
71	0xba75fc92	-0.0009383644
72	0xba75f819	-0.0009382978
73	0x3806e74b	3.2163498e-05
74	0xb754ebc5	-1.2691079e-05
75	0xba75f819	-0.0009382978
76	0xba4ba193	-0.0007767912
77	0x3806e742	3.2163465e-05
78	0xb754d4d2	-1.2685736e-05
79	0xba4ba18b	-0.0007767907
80	0xbab7512c	-0.0013985983
81	0x3806e74f	3.2163513e-05
82	0x373a0ea3	1.1089872e-05
83	0xbab7512d	-0.0013985984
84	0xbab6d01d	-0.0013947521
85	0x3806e752	3.2163523e-05
86	0xb88cf325	-6.7210094e-05
87	0xbab6d01d	-0.0013947521
88	0xba68d7f6	-0.00088822783
89	0x3806e752	3.2163523e-05
90	0xb88c375b	-6.686031e-05
91	0xba68d7f4	-0.0008882277
92	0xba7544ae	-0.00093562424
93	0x3806e752	3.2163523e-05
94	0xb6c7ae3a	-5.950945e-06
95	0xba7544ae	-0.00093562424
96	0xba7544ae	-0.00093562424
97	0x3806e752	3.2163523e-05
98	0xb74fcb58	-1.2385506e-05
99	0xba7544ae	-0.00093562424
100	0xba7544ae	-0.00093562424
101	0x3806e752	3.2163523e-05
102	0xb74fcb58	-1.2385506e-05
103	0xba7544ae	-0.00093562424
104	0xba7544ae	-0.00093562424
105	0x3806e752	3.2163523e-05
106	0xb74fcb58	-1.2385506e-05
107	0xba7544ae	-0.00093562424
108	0xba7544ae	-0.00093562424
109	0x3806e752	3.2163523e-05
110	0xb74fcb58	-1.2385506e-05
111	0xba7544ae	-0.00093562424
112	0xba779158	-0.000944396
113	0x38062f76	3.199229e-05
114	0xb74fcb58	-1.2385506e-05
115	0xba779158	-0.000944396
116	0x3a03d8b2	0.00050295435
117	0x38062f75	3.1992287e-05
118	0xb763837e	-1.356087e-05
119	0x3a01bdab	0.0004949222
120	0x3ae796b6	0.0017668817
121	0x38066e5a	3.2050863e-05
122	0x3848bada	4.7857735e-05
123	0x3ae68931	0.0017588494
124	0x3b09d05c	0.0021028733
125	0x38067713	3.2058986e-05
126	0x38d7a740	0.00010283152
127	0x3b09fe59	0.0021056144
128	0x3ae994f7	0.0017820884
129	0x380e38e4	3.390842e-05
130	0x38fc437a	0.00012028865
131	0x3ae9c1df	0.0017834267
132	0x3acd4276	0.0015660066
133	0x372406fe	9.77679e-06
134	0x38b721ba	8.732402e-05
135	0x3ae2af3a	0.0017294653
136	0x3ab40b0f	0.0013736206
137	0x3725b159	9.876058e-06
138	0x38a84740	8.0241356e-05
139	0x3a577b26	0.00082199497
140	0xba89d011	-0.0010514279
141	0x38012fa0	3.080035e-05
142	0xb729f21a	-1.0129554e-05
143	0xba1a74bd	-0.0005892029
144	0xba77356d	-0.00094302633
145	0x3806e752	3.2163523e-05
146	0x36aa62eb	5.0779104e-06
147	0xba6a7f33	-0.0008945346
148	0xba7561ed	-0.00093606004
149	0x3806e752	3.2163523e-05
150	0xb6e4be69	-6.817096e-06
151	0xba7561ed	-0.00093606004
152	0xba7544ae	-0.00093562424
153	0x3806e752	3.2163523e-05
154	0xb7506135	-1.2420399e-05
155	0xba7544ae	-0.00093562424
156	0xba7544ae	-0.00093562424
157	0x3806e752	3.2163523e-05
158	0xb74fcb58	-1.2385506e-05
159	0xba7544ae	-0.00093562424
160	0xba754bd3	-0.0009357307
161	0x3806e752	3.2163523e-05
162	0xb74fcb58	-1.2385506e-05
163	0xba754bd3	-0.0009357307
164	0x3a03de95	0.0005030421
165	0x38060f81	3.196253e-05
166	0xb750058b	-1.2399057e-05
167	0x3a03de95	0.0005030421
168	0x3b063698	0.0020479318
169	0x38150366	3.5527533e-05
170	0x384d552f	4.8955142e-05
171	0x3b06b4a6	0.0020554452
172	0x3b096f42	0.0020970856
173	0x380bec83	3.336045e-05
174	0x38f4865d	0.00011659854
175	0x3a2e8e4d	0.0006658778
176	0xba23abea	-0.0006243574
177	0x37d9d66d	2.5968266e-05
178	0x388153d5	6.166814e-05
179	0xba534c18	-0.000806035
180	0x3a71839d	0.00092130323
181	0x36a61a12	4.9502205e-06
182	0xb885523e	-6.357253e-05
183	0xbb0a7fd5	-0.0021133323
184	0xba21daef	-0.0006174286
185	0x36d6002c	6.377717e-06
186	0xb902d7e2	-0.00012478189
187	0xb91e00c5	-0.00015068341
188	0xbaa0479e	-0.0012228375
189	0xb7f46132	-2.9132327e-05
190	0xb50fc576	-5.3558995e-07
191	0x39e0a851	0.00042850015
192	0xba97600e	-0.0011549012
193	0x37cf0ca6	2.4682213e-05
194	0xb803000b	-3.1232874e-05
195	0x3a798ca8	0.00095195556
196	0xba6bc080	-0.00089932233
197	0x38008e55	3.0650135e-05
198	0x38035be0	3.13184e-05
199	0xba10cb34	-0.00055234437
200	0xba6a8d79	-0.00089474727
201	0x3806d10b	3.2142776e-05
202	0x3728b6c2	1.0056132e-05
203	0xba7552f6	-0.00093583704
204	0xba7561ed	-0.00093606004
205	0x3806e752	3.2163523e-05
206	0xb7500e88	-1.2401149e-05
207	0xba7544ae	-0.00093562424
208	0xba7544ae	-0.00093562424
209	0x3806e752	3.2163523e-05
210	0xb74fcb58	-1.2385506e-05
211	0xba7544ae	-0.00093562424
212	0xba7545b7	-0.00093563966
213	0x3806e366	3.215987e-05
214	0xb74fcb58	-1.2385506e-05
215	0xba7545b7	-0.00093563966
216	0x3a611477	0.00085861183
217	0x3815be6f	3.5701723e-05
218	0xb74fd4d9	-1.2387719e-05
219	0x3a611b9c	0.0008587183
220	0x3a30092b	0.00067152333
221	0x37c34ef1	2.3282571e-05
222	0x388d2d89	6.7318855e-05
223	0x3b0a7012	0.0021123928
224	0xb9f7cc76	-0.00047263846
225	0x379a0726	1.836156e-05
226	0x39027c39	0.00012444043
227	0xba7502ec	-0.00093464437
228	0xba024380	-0.0004969165
229	0xb7e8b473	-2.7740583e-05
230	0xb8aedaa8	-8.3376945e-05
231	0xbb0927aa	-0.0020928183
232	0xba82a955	-0.0009968678
233	0xb7cbf1df	-2.4312116e-05
234	0xb8ffbf81	-0.00012195018
235	0xba55894d	-0.00081457646
236	0xbb178932	-0.0023122546
237	0x3571df59	9.010451e-07
238	0x3710b28f	8.624643e-06
239	0xba53a20d	-0.00080731587
240	0xbb17afeb	-0.0023145627
241	0xb7bd38ba	-2.2556971e-05
242	0x371e2a70	9.427415e-06
243	0x38ff49bd	0.00012173082
244	0xb95bb1b9	-0.00020951674
245	0xb597b5b2	-1.1303257e-06
246	0x372234da	9.668258e-06
247	0xb9969f37	-0.00028728854
248	0x3a4fe1d9	0.0007930077
249	0x37c0f0cb	2.3000312e-05
250	0xb7b1d2a5	-2.1198133e-05
251	0xb8b4b283	-8.616319e-05
252	0xba10c7f2	-0.0005522958
253	0x3806de2c	3.2155003e-05
254	0xb70d7cd6	-8.4333205e-06
255	0xba7547f2	-0.0009356729

exp_avg_sq f4 [10, 676]
0	0x3be8ec3b	0.007108239
1	0x399f44fb	0.00030378238
2	0x3ac63d9a	0.001512456
3	0x3be8ec3b	0.007108239
4	0x3be8ec3b	0.007108239
5	0x399f44fb	0.00030378238
6	0x3ac63d9a	0.001512456
7	0x3be8ec3b	0.007108239
8	0x3be8ec3b	0.007108239
9	0x399f44fb	0.00030378238
10	0x3ac63d9a	0.001512456
11	0x3be8ec3b	0.007108239
12	0x3be8ec3b	0.007108239
13	0x399f44fb	0.00030378238
14	0x3ac63d9a	0.001512456
15	0x3be8ec3b	0.007108239
16	0x3be8ec9a	0.007108283
17	0x399f44fb	0.00030378238
18	0x3ac63d9a	0.001512456
19	0x3be8ec9a	0.007108283
20	0x3be8eb79	0.0071081487
21	0x399f44fb	0.00030378238
22	0x3ac63dc3	0.0015124608
23	0x3be8eb79	0.0071081487
24	0x3be7224c	0.007053649
25	0x399f44fb	0.00030378238
26	0x3ac63b0c	0.0015123799
27	0x3be7224c	0.007053649
28	0x3be73723	0.0070561334
29	0x399f44fb	0.00030378238
30	0x3ac63220	0.001512114
31	0x3be73723	0.0070561334
32	0x3be8ebbf	0.0071081812
33	0x399f44fb	0.00030378238
34	0x3ac6367b	0.0015122438
35	0x3be8ebbf	0.0071081812
36	0x3be8ec3b	0.007108239
37	0x399f44fb	0.00030378238
38	0x3ac63d7b	0.0015124524
39	0x3be8ec3b	0.007108239
40	0x3be8ec3b	0.007108239
41	0x399f44fb	0.00030378238
42	0x3ac63d9a	0.001512456
43	0x3be8ec3b	0.007108239
44	0x3be8ec3b	0.007108239
45	0x399f44fb	0.00030378238
46	0x3ac63d9a	0.001512456
47	0x3be8ec3b	0.007108239
48	0x3be8ec3b	0.007108239
49	0x399f44fb	0.00030378238
50	0x3ac63d9a	0.001512456
51	0x3be8ec3b	0.007108239
52	0x3be8ec3b	0.007108239
53	0x399f44fb	0.00030378238
54	0x3ac63d9a	0.001512456
55	0x3be8ec3b	0.007108239
56	0x3be8ec38	0.0071082376
57	0x399f44fb	0.00030378238
58	0x3ac63d9a	0.001512456
59	0x3be8ec38	0.0071082376
60	0x3be8ec68	0.00710826
61	0x399f44fb	0.00030378238
62	0x3ac63d98	0.0015124558
63	0x3be8ec68	0.00710826
64	0x3be7f20a	0.007078414
65	0x399f44fb	0.00030378238
66	0x3ac63e1d	0.0015124712
67	0x3be7f20a	0.007078414
68	0x3be7f1d0	0.007078387
69	0x399f44fd	0.00030378244
70	0x3ac326bf	0.0014888867
71	0x3be7f1d0	0.007078387
72	0x3bdf439a	0.0068134787
73	0x399f417f	0.00030375642
74	0x3ac324b7	0.0014888261
75	0x3bdf4338	0.006813433
76	0x3bdf08d5	0.006806473
77	0x399f2b0c	0.00030358916
78	0x3ab8a4dc	0.0014087218
79	0x3bdf099e	0.0068065664
80	0x3be38544	0.0069433767
81	0x399f31fb	0.00030364082
82	0x3ab82076	0.001404776
83	0x3be1bced	0.006888977
84	0x3bf7ef04	0.0075663347
85	0x399f44fb	0.00030378238
86	0x3ac21b53	0.0014809169
87	0x3bf9a41c	0.0076184403
88	0x3bf9b814	0.007620821
89	0x399f44fb	0.00030378238
90	0x3ad2444c	0.0016042083
91	0x3bf9b883	0.0076208725
92	0x3be8e893	0.007107803
93	0x399f44fb	0.00030378238
94	0x3ad24f69	0.0016045395
95	0x3be8e893	0.007107803
96	0x3be8ebc8	0.0071081854
97	0x399f44fb	0.00030378238
98	0x3ac63a1b	0.0015123518
99	0x3be8ebc8	0.0071081854
100	0x3be8ec3b	0.007108239
101	0x399f44fb	0.00030378238
102	0x3ac63d95	0.0015124554
103	0x3be8ec3b	0.007108239
104	0x3be8ec3b	0.007108239
105	0x399f44fb	0.00030378238
106	0x3ac63d9a	0.001512456
107	0x3be8ec3b	0.007108239
108	0x3be8ec3f	0.007108241
109	0x399f44fb	0.00030378238
110	0x3ac63d9a	0.001512456
111	0x3be8ec3f	0.007108241
112	0x3be7e30a	0.0070766257
113	0x399f4595	0.00030378686
114	0x3ac63d9c	0.0015124562
115	0x3be7e30e	0.0070766276
116	0x3be890f1	0.0070973565
117	0x399c7d0b	0.00029847803
118	0x3ac30d3c	0.0014881263
119	0x3be89115	0.0070973733
120	0x3bdb9e1b	0.0067021972
121	0x399c7dd3	0.00029848385
122	0x3ac5857d	0.001506969
123	0x3bdc984a	0.0067320215
124	0x3bdb47fb	0.0066919303
125	0x39921a89	0.0002786706
126	0x3aaff5e6	0.0013424724
127	0x3bdc3e33	0.006721282
128	0x3bdec6ae	0.006798587
129	0x39918a01	0.00027759376
130	0x3ab0006a	0.0013427858
131	0x3be1c873	0.0068903505
132	0x3bf4b12d	0.00746741
133	0x399b1dd4	0.00029586127
134	0x3ab0f19d	0.0013499741
135	0x3bf0c2f3	0.0073474585
136	0x3bf437e7	0.007452953
137	0x399d697b	0.00030023963
138	0x3abfcc7b	0.0014633083
139	0x3bf425e5	0.0074508064
140	0x3be7bf9c	0.007072402
141	0x399d68ca	0.00030023447
142	0x3acab7bc	0.0015466134
143	0x3bfa778f	0.007643647
144	0x3bf9cc9b	0.007623268
145	0x399f41c1	0.00030375834
146	0x3ad547ae	0.0016271973
147	0x3be9012a	0.0071107345
148	0x3be8e281	0.0071070795
149	0x399f44f8	0.0003037823
150	0x3ac6335b	0.0015121506
151	0x3be8e622	0.007107512
152	0x3be8ebc4	0.0071081836
153	0x399f44fb	0.00030378238
154	0x3ac62706	0.0015117831
155	0x3be8ec38	0.0071082376
156	0x3be8ec3b	0.007108239
157	0x399f44fb	0.00030378238
158	0x3ac63d9a	0.001512456
159	0x3be8ec3b	0.007108239
160	0x3be8beb2	0.007102811
161	0x399f44fb	0.00030378238
162	0x3ac63d9a	0.001512456
163	0x3be8beb2	0.007102811
164	0x3be51cad	0.006991944
165	0x399c5b57	0.00029822692
166	0x3ac5c3c3	0.0015088249
167	0x3be51cb0	0.006991945
168	0x3be09f70	0.006854944
169	0x399e6d57	0.00030217573
170	0x3aba4428	0.0014210986
171	0x3be1a8ab	0.006886562
172	0x3bf7538a	0.0075478004
173	0x39872234	0.0002577469
174	0x3abaa824	0.0014240784
175	0x3bf7077c	0.007538734
176	0x3bf380e7	0.007431138
177	0x3987418e	0.0002579805
178	0x3ac969ba	0.0015366592
179	0x3bf514c4	0.007479282
180	0x3bf4b19e	0.0074674627
181	0x39893c45	0.0002617558
182	0x3ac958e6	0.0015361577
183	0x3bf44008	0.007453922
184	0x3bf266a6	0.0073974906
185	0x39894c97	0.0002618774
186	0x3abfccff	0.0014633237
187	0x3bf2ef6c	0.007413795
188	0x3bde60e1	0.006786451
189	0x3993eed5	0.0002821597
190	0x3ac6d22e	0.001516884
191	0x3bfae010	0.007656105
192	0x3be17f41	0.006881625
193	0x39a00846	0.00030523742
194	0x3ad4f5c6	0.0016247563
195	0x3bfa855b	0.0076452917
196	0x3bf76a3a	0.007550505
197	0x399f2481	0.0003035404
198	0x3ad556b8	0.0016276455
199	0x3be57b8e	0.0070032543
200	0x3be9012a	0.0071107345
201	0x399f24cb	0.00030354256
202	0x3abba200	0.0014315248
203	0x3be8ec3b	0.007108239
204	0x3be8e622	0.007107512
205	0x399f44fb	0.00030378238
206	0x3ac63d9a	0.001512456
207	0x3be8ec3b	0.007108239
208	0x3be8ec3a	0.0071082385
209	0x399f44fb	0.00030378238
210	0x3ac63d9a	0.001512456
211	0x3be8ec3a	0.0071082385
212	0x3be8d8e0	0.0071059316
213	0x399e28d6	0.00030166534
214	0x3ac63d9a	0.001512456
215	0x3be8d8e0	0.0071059316
216	0x3be4f8be	0.00698766
217	0x3991361c	0.0002769687
218	0x3ac63a0b	0.0015123499
219	0x3be4e68d	0.0069854916
220	0x3be080e0	0.0068513006
221	0x3992005f	0.00027847567
222	0x3ac4c6ad	0.0015012823
223	0x3be34b40	0.0069364607
224	0x3bf59065	0.00749402
225	0x3993b37d	0.00028171754
226	0x3aba4b96	0.00142132
227	0x3bf5bc9c	0.0074992906
228	0x3be3d3a1	0.0069527184
229	0x3991fffa	0.00027847273
230	0x3aca4823	0.0015432875
231	0x3bf32519	0.007420194
232	0x3be32d72	0.0069329077
233	0x39899b61	0.00026246443
234	0x3ac77fda	0.0015220598
235	0x3bf47bba	0.0074610384
236	0x3be8b5dd	0.007101758
237	0x39914257	0.00027705982
238	0x3ac01617	0.0014655021
239	0x3bf40d1f	0.007447853
240	0x3be44b97	0.006967019
241	0x399f06f2	0.00030332018
242	0x3abf430b	0.0014592124
243	0x3bf0e1b9	0.007351127
244	0x3be5158e	0.006991095
245	0x39a02c4b	0.0003055058
246	0x3ac015f5	0.0014654981
247	0x3bf7427f	0.0075457687
248	0x3bf6fc50	0.007537402
249	0x39936866	0.00028115808
250	0x3aca50e7	0.0015435488
251	0x3be542f6	0.0069965078
252	0x3be57322	0.0070022503
253	0x399f44fb	0.00030378238
254	0x3ac627ec	0.0015118099
255	0x3be8e3da	0.00710724

exp_avg f4 [10]
0	0xba7544b2	-0.00093562447
1	0xbc4ebff4	-0.012619007
2	0x3d05149a	0.03249035
3	0x3c9e7404	0.01934243
4	0xbbb17a3b	-0.0054161823
5	0xba53a210	-0.00080731604
6	0x3d5833a4	0.052783623
7	0xbdaeb7a4	-0.085311204
8	0xb96b852b	-0.00022460955
9	0x3a36da72	0.00069753

exp_avg_sq f4 [10]
0	0x3be8ec3b	0.007108239
1	0x3c27627e	0.010216353
2	0x3c5c1aef	0.013434156
3	0x3c886dc3	0.016653901
4	0x3c52930c	0.0128524415
5	0x3c850090	0.01623562
6	0x3c39781f	0.011320143
7	0x3c6214de	0.01379892
8	0x3ca880f3	0.0205693
9	0x3ca4a72a	0.020099241
